ckpts/dkvmn/algbg/model.ckpt (torch, 341185 bytes, 11 tensors)

Mk f4 [20, 50]
0	0xbda3b40b	-0.07993325
1	0xbef7aec5	-0.48375526
2	0xbde8bc73	-0.11364069
3	0xbf27b651	-0.6551257
4	0xbbcd5bbf	-0.0062670405
5	0x3e43609e	0.19079825
6	0x3ce5f3f2	0.028070424
7	0xbe142536	-0.1446732
8	0xbd4288fc	-0.04749392
9	0xbed5b64e	-0.4174065
10	0xbe675155	-0.2258962
11	0x3e442aca	0.19156948
12	0xbeeb4c67	-0.45956728
13	0x3e15c190	0.1462462
14	0x3e9ca8d7	0.30597565
15	0xbedd0db5	-0.4317452
16	0x3c967001	0.018363954
17	0x3e9d6e4b	0.3074821
18	0xbdaf4013	-0.08557143
19	0x3e519599	0.20467223
20	0xbda5f11e	-0.0810263
21	0x3ec0938c	0.3761257
22	0x3e5634c8	0.20918572
23	0xbe49451e	-0.19655272
24	0x3e80f0f8	0.25183845
25	0xbee81935	-0.4533173
26	0xbc5466f6	-0.012964001
27	0xbbfc5910	-0.0077010468
28	0xbcb125fc	-0.021624558
29	0x3d21441d	0.0393716
30	0x3d9ed370	0.07755172
31	0xbeea8aa6	-0.45808905
32	0xbf12981d	-0.57263356
33	0x3d8714fe	0.06595801
34	0x3eedfbe6	0.46481246
35	0x3de7564e	0.11295758
36	0xbe02bbc8	-0.12766945
37	0xbebe35de	-0.37150472
38	0xbf09878f	-0.5372247
39	0x3e472a19	0.19449653
40	0xbe13c103	-0.14429097
41	0x3e22807e	0.15869328
42	0x3dc53f85	0.09631256
43	0xbdcd5564	-0.100260526
44	0xbf321e81	-0.69577795
45	0xbdfab1d6	-0.12240951
46	0x3e3c98d8	0.1841768
47	0x3e43918f	0.19098495
48	0x3d253826	0.04033675
49	0xbe5a05cd	-0.21291275
50	0xbea5d107	-0.32386038
51	0xbde2c242	-0.11072208
52	0xbee26f54	-0.44225562
53	0xbd8d4d5a	-0.06899519
54	0x3d7355ee	0.05940812
55	0xbe6d602f	-0.23181222
56	0xbf176443	-0.5913736
57	0xbeba661a	-0.36406022
58	0xbd84bb94	-0.0648109
59	0x3efbe284	0.49196255
60	0x3e6c1136	0.2305344
61	0x3f05bd68	0.52242136
62	0xbee2dab7	-0.4430749
63	0xbd09fae6	-0.03368654
64	0x3f261e20	0.6488972
65	0x3d10d73e	0.03536152
66	0x3d8d4124	0.0689719
67	0x3ddad1bc	0.10684535
68	0x3ecdc12a	0.40186435
69	0x3d0f4e1f	0.03498661
70	0xbcfeae2b	-0.03108891
71	0xbd87554b	-0.06608065
72	0x3e1f84a9	0.1557795
73	0x3ebbd33b	0.36684594
74	0x3ed8e2be	0.4236049
75	0xbef0d1c2	-0.47035033
76	0x3ed00d58	0.4063518
77	0x3eadfedd	0.33983508
78	0xbea27e1d	-0.31736842
79	0x3d4ed528	0.05049625
80	0x3cfe1ed6	0.031020563
81	0x3e4201c5	0.18945988
82	0x3e9f2fc8	0.31091142
83	0x3e661787	0.22469912
84	0xbdde1627	-0.10844069
85	0xbe5386b1	-0.2065685
86	0xbe6c557c	-0.23079485
87	0x3e9cdad4	0.30635703
88	0xbeabcef3	-0.33556327
89	0x3dfb6d5c	0.12276718
90	0x3ee2708f	0.442265
91	0x3eda9d2a	0.42698032
92	0xbe9ea232	-0.3098312
93	0xbe860765	-0.26177517
94	0x3ef07e45	0.46971336
95	0x3e25bec9	0.1618606
96	0x3e91af72	0.28454167
97	0xbecdec82	-0.40219504
98	0xbeac7d28	-0.33689237
99	0x3dd1b2ba	0.102391675
100	0x3ee69505	0.45035568
101	0xbece4c4a	-0.4029258
102	0xba7ecb44	-0.000971962
103	0x3e94b959	0.2904766
104	0xbddaa57a	-0.106760934
105	0x3d8de027	0.06927519
106	0x3cb32b28	0.021871164
107	0x3e65eeaa	0.22454324
108	0x3f1c17f9	0.6097408
109	0xbdf3088f	-0.11866867
110	0x3c0d2737	0.008615307
111	0xbe2c9134	-0.16852266
112	0x3e353346	0.1769534
113	0x3e19577c	0.14974779
114	0x3df3dcd9	0.11907358
115	0xbec37dd1	-0.38181928
116	0x3e6e60d0	0.23279119
117	0x3e3f7c37	0.18699728
118	0xbe450f30	-0.19244075
119	0x3ce87d93	0.028380191
120	0x3ec8b220	0.391984
121	0x3e88485e	0.26617712
122	0x3cd4fc6f	0.025999276
123	0xbe0a5bde	-0.13511607
124	0xbd042c66	-0.032268904
125	0xbefb466f	-0.49077174
126	0x3df3fdef	0.11913668
127	0x3e854c0b	0.2603458
128	0x3c0f4a10	0.008745685
129	0xbf19afae	-0.6003369
130	0x3cafe886	0.02147318
131	0x3ccf9f97	0.025344653
132	0x3cf354eb	0.029703578
133	0xbe355637	-0.1770867
134	0x3ea63348	0.32461
135	0x3e80f3ea	0.25186092
136	0xbe371398	-0.17878568
137	0x3e97d664	0.29655755
138	0xbe9540a6	-0.29150885
139	0xbf2ae039	-0.66748387
140	0x3eafd61b	0.34343037
141	0xbe77b006	-0.24188241
142	0x3e89ea44	0.26936543
143	0xbd4c850c	-0.04993157
144	0x3ecdc754	0.40191138
145	0xbd9343d1	-0.07190669
146	0x3e81d134	0.25354922
147	0xbe8043b2	-0.25051647
148	0xbebfbda1	-0.37449363
149	0x3cb587aa	0.022159416
150	0xbe83e304	-0.25759137
151	0x3eccced1	0.40001538
152	0xbdb6d13b	-0.08926626
153	0xbea8c002	-0.3295899
154	0xbe7890df	-0.24274014
155	0x3d784f2c	0.06062238
156	0x3dc4a9f7	0.09602731
157	0xbeb59e05	-0.35472122
158	0x3e91304a	0.28357154
159	0xbc6c463c	-0.014421042
160	0x3ea50738	0.3223207
161	0xbe02762a	-0.12740389
162	0xbea15f92	-0.31518227
163	0x3e2b6687	0.1673833
164	0x3d6220cc	0.05520706
165	0xb98c917d	-0.00026811278
166	0xbd95188c	-0.072800726
167	0xbee68d25	-0.4502956
168	0xbeb4660f	-0.35234115
169	0xbddcf9de	-0.10789846
170	0xbe2b415f	-0.16724156
171	0xbee1b1a5	-0.44080845
172	0xbe9d5db2	-0.30735546
173	0xbdfa1713	-0.12211432
174	0x3ec80871	0.3906894
175	0xbe6890fe	-0.2271156
176	0x3e901bf0	0.28146315
177	0xbe1dddef	-0.15416692
178	0x3e1b53dc	0.15168709
179	0xbe5b2315	-0.21400101
180	0x3ea76ba3	0.32699308
181	0xbbfa3800	-0.0076360703
182	0xbe97fdaa	-0.29685718
183	0x3d4e9183	0.05043174
184	0x3e5e25d1	0.21694113
185	0x3e859ebe	0.26097673
186	0xbe2d6e33	-0.16936569
187	0xbe8d2ef0	-0.27574873
188	0x3e5b1169	0.2139336
189	0xbe5bbeff	-0.21459578
190	0x3eb6c981	0.3570061
191	0x3ef83dee	0.4848475
192	0xbeb4e82c	-0.35333383
193	0xbd0eeaa7	-0.03489175
194	0xbe067da3	-0.13133864
195	0xbe3755a9	-0.1790377
196	0x3eb7454a	0.3579505
197	0xbec0a25c	-0.3762387
198	0x3be972ad	0.007124266
199	0x3e10f308	0.14155209
200	0xbe5a85d3	-0.21340112
201	0x3f137385	0.57598144
202	0x3e0b315c	0.13593048
203	0x3e0e8f40	0.13921833
204	0xbf15f0e9	-0.58570725
205	0x3f0cc3d2	0.549863
206	0x3ef26a84	0.4734689
207	0xbd099eba	-0.03359864
208	0xbde73779	-0.112898774
209	0xbe852180	-0.2600212
210	0xbe533783	-0.20626645
211	0x3ed497b7	0.41522
212	0xbd760ec7	-0.060072687
213	0xbf0458bc	-0.516979
214	0xbe237fc9	-0.15966715
215	0x3dcc0717	0.0996229
216	0xbe84f342	-0.2596684
217	0x3e5cf45b	0.21577589
218	0x3eb43529	0.35196808
219	0xbecc1c82	-0.398655
220	0x3ede5946	0.43427485
221	0xbe37ef7e	-0.17962453
222	0x3e9d8df4	0.30772364
223	0x3df91962	0.121630445
224	0x3c58131a	0.013188148
225	0x3d6292d2	0.0553158
226	0xbceb76eb	-0.028743228
227	0xbe4fed7b	-0.20305435
228	0x3e9ef8a9	0.31049088
229	0x3ec68a47	0.38777372
230	0x3e0fa65c	0.14028305
231	0xbc4780c9	-0.012176701
232	0x3dd75095	0.10513417
233	0xbecfa8fb	-0.4055861
234	0x3cc100ba	0.023559917
235	0x3e38a5ac	0.18031949
236	0xbea8f106	-0.32996386
237	0x3dabd71d	0.08390639
238	0x3dd80d6b	0.10549434
239	0x3e70e038	0.23523033
240	0x3dcc43f9	0.09973902
241	0xbeda42a2	-0.42628962
242	0x3da45197	0.080233745
243	0x3ec9f928	0.39447904
244	0xbebaa348	-0.364527
245	0x3d5b3b45	0.05352332
246	0x3e698a72	0.22806719
247	0x3e4f49d7	0.20243011
248	0xbe38082a	-0.17971864
249	0xbecafc11	-0.39645436
250	0x3e0908df	0.1338229
251	0x3dc7bdd8	0.09753007
252	0x3d55a9e8	0.05216399
253	0xbdeb8a79	-0.11501021
254	0x3e112ad2	0.14176491
255	0x3d9d7311	0.07687963

Mv0 f4 [20, 50]
0	0x3d48e1f7	0.049043622
1	0xbe02541d	-0.12727399
2	0x3e917de3	0.28416356
3	0x3e05109c	0.12994617
4	0x3e83e179	0.2575796
5	0xbef637ab	-0.48089346
6	0xbf00456f	-0.5010595
7	0x3db4084d	0.08790646
8	0xbf16e3d2	-0.58941376
9	0xbe88f84a	-0.2675193
10	0xbf5593da	-0.8342873
11	0x3e8286dd	0.25493518
12	0xbe16aa12	-0.14713314
13	0x3e156d58	0.14592493
14	0x3ead60fa	0.3386305
15	0xbbf8df52	-0.007594981
16	0xba0d2ffd	-0.0005385874
17	0xbe3de28d	-0.18543454
18	0x3ea1064f	0.31450126
19	0x3df84ada	0.12123652
20	0x3e364431	0.1779945
21	0x3e07ce47	0.13262282
22	0x3dac1f32	0.084043875
23	0xbd14acb4	-0.036297515
24	0xbe18ff6d	-0.14941187
25	0x3ecaa581	0.39579394
26	0xbe050ecb	-0.12993924
27	0xbefda7d9	-0.4954212
28	0xbe07fedc	-0.13280815
29	0xbdd52d17	-0.10408991
30	0xbdbf9477	-0.09354489
31	0xbb446562	-0.0029967655
32	0x3caf284a	0.021381516
33	0x3cb89b87	0.022535099
34	0x3e0c498a	0.13699928
35	0xbecfd969	-0.40595558
36	0xbed54302	-0.41652685
37	0x3ef6b1ca	0.48182517
38	0x3e2b5dc7	0.16734992
39	0x3ea4e3cb	0.32205042
40	0xbe7b0628	-0.24514067
41	0x3d5be291	0.053682867
42	0x3e03597d	0.12827106
43	0xbe85ea7a	-0.26155454
44	0xbedcabcb	-0.43099818
45	0xbeac2311	-0.33620504
46	0xbe568b14	-0.20951492
47	0xbeee2318	-0.4651115
48	0x3dde2991	0.10847772
49	0x3eac0343	0.33596238
50	0xbd99ba3a	-0.07506223
51	0x3e5f9f02	0.21838
52	0x3d54cc80	0.05195284
53	0xbd222c75	-0.03959318
54	0x3e674b26	0.2258726
55	0x3ca1cc89	0.01975085
56	0xbee8356c	-0.45353258
57	0xbe85f4af	-0.2616324
58	0x3dacfd58	0.08446759
59	0xbd6cd010	-0.05781561
60	0xbdf74ba2	-0.12074973
61	0xbe63dccf	-0.222522
62	0xbd1f475e	-0.03888642
63	0x3d3cc5fe	0.046087258
64	0x3ed99d9c	0.4250306
65	0xbe8973f1	-0.2684627
66	0x3d51f1fa	0.051256157
67	0xbe08cae3	-0.13358645
68	0x3eb377c6	0.35052317
69	0xbea1c6da	-0.31597024
70	0x3e4b3b02	0.19846728
71	0x3cdfed73	0.027334904
72	0x3eb84195	0.35987535
73	0x3e5aa06f	0.21350263
74	0x3eb19be3	0.34689245
75	0xbe8b3304	-0.2718736
76	0x3e4c9353	0.19978075
77	0xbece0638	-0.4023912
78	0xbc94b1ab	-0.018151125
79	0x3f4567c2	0.77111447
80	0x3ef5a654	0.4797846
81	0x3d6e2133	0.05813713
82	0x3de96a4b	0.11397227
83	0xbe09795a	-0.13425198
84	0x3e6b259e	0.22963569
85	0xbdb9a731	-0.09065092
86	0xbdce2731	-0.10066069
87	0xbd9248cc	-0.07142791
88	0x3dba8376	0.091071054
89	0xbeb19587	-0.34684393
90	0x3e21558b	0.15755288
91	0xbdfc46e0	-0.12318206
92	0xbdc8bf0b	-0.098020636
93	0xbebe1934	-0.37128603
94	0xbe4fcca1	-0.20292903
95	0xbeeff169	-0.4686387
96	0xbe8db41a	-0.2767647
97	0xbe0f6bde	-0.14005992
98	0x3c27b6a6	0.010236418
99	0x3c384c5b	0.011248673
100	0xbe14eb3e	-0.14542863
101	0xbed387d2	-0.4131456
102	0x3e83ee57	0.25767776
103	0xbe92a489	-0.28641155
104	0xbe49f5e4	-0.19722706
105	0xbe804853	-0.2505518
106	0xbda94c93	-0.082665585
107	0xbdbace19	-0.09121341
108	0x3de05375	0.10953418
109	0xbe51e6e6	-0.20498237
110	0x3e9bce51	0.30430844
111	0xbdf7db70	-0.12102401
112	0x3e623c17	0.22093235
113	0xbd692d93	-0.05692823
114	0xbde6e423	-0.112739824
115	0xbe72f440	-0.23725986
116	0x3cb8be82	0.022551779
117	0xbeafde0a	-0.3434909
118	0x3e24eef5	0.1610678
119	0xbe49d83a	-0.1971139
120	0xbe837d6d	-0.2568163
121	0xbe1b9a90	-0.1519568
122	0x3e2cda14	0.16880065
123	0x3dc66e82	0.096890464
124	0x3e165a85	0.14682968
125	0x3ea4e3bc	0.32204998
126	0x3e62eaa8	0.22159827
127	0xbd70c6b2	-0.05878324
128	0xbcd3ee7b	-0.025870552
129	0xbe38d741	-0.18050863
130	0xbd6e668d	-0.05820327
131	0x3e0847d5	0.13308652
132	0x3dfe48f1	0.12416256
133	0x3e841e83	0.2580453
134	0xbe388b0c	-0.18021792
135	0x3df3a9fe	0.11897658
136	0xbe891144	-0.26770985
137	0x3e839752	0.25701386
138	0xbe555eb8	-0.20836914
139	0xbc6f212c	-0.014595311
140	0xbe82001b	-0.25390705
141	0x3e192ebb	0.14959233
142	0xbf017df8	-0.5058284
143	0x3e36f25d	0.17865892
144	0xbe82db87	-0.2555811
145	0x3de0c28f	0.10974609
146	0xbe482200	-0.1954422
147	0xbe699838	-0.22811973
148	0xbd80c88e	-0.06288253
149	0xbe41d8df	-0.18930386
150	0x3b48951b	0.0030606452
151	0x3e6c76c0	0.23092175
152	0x3e8d4b62	0.27596575
153	0x3e29dab7	0.1658734
154	0xbdd7dbc6	-0.10539965
155	0x3d933f36	0.07189791
156	0x3e04bcbb	0.1296262
157	0xbe7ebfa8	-0.24877799
158	0xbed1fd03	-0.41013345
159	0x3d9a8fa0	0.075469255
160	0x3dcb1bf3	0.0991744
161	0xbd4679a3	-0.048455846
162	0xbe603fd9	-0.21899356
163	0x3edc383a	0.43011647
164	0xbdb94f62	-0.09048344
165	0xbe1e2fbb	-0.15447895
166	0x3e2c0449	0.1679851
167	0x3cc00618	0.023440406
168	0x3dee4851	0.11634887
169	0xbe12f3b0	-0.14350772
170	0xbec9673b	-0.3933657
171	0x3e9f6d27	0.31137964
172	0xbd511e49	-0.051054273
173	0xbeef96fe	-0.46794885
174	0xbd94c126	-0.07263403
175	0xbd894e1a	-0.0670435
176	0x3e065a20	0.13120317
177	0x3e04c87b	0.12967102
178	0xbe469a7b	-0.19394867
179	0x3e8a034b	0.26955637
180	0x3cea9597	0.028635783
181	0x3db4e0d3	0.08831944
182	0x3d9a7356	0.0754153
183	0xbe39604d	-0.18103142
184	0xbeb1f87a	-0.34759885
185	0xbd88ff1a	-0.06689282
186	0xbcc082c6	-0.023499858
187	0xbe00ec14	-0.12590057
188	0x3edc72f6	0.43056458
189	0x3eac6c57	0.33676407
190	0xbec9c309	-0.39406613
191	0xbe13f653	-0.14449434
192	0xbe448cc1	-0.19194318
193	0xbeb1fd33	-0.34763488
194	0x3e2a690b	0.16641633
195	0xbdcd4f87	-0.10024934
196	0xbccee17c	-0.025254004
197	0xbd8f01c4	-0.06982759
198	0xbe209eae	-0.15685531
199	0x3d635d1d	0.05550872
200	0xbcaeda0e	-0.021344211
201	0xbdd74aa0	-0.105122805
202	0x3e8a5ac0	0.27022362
203	0x3ecd24c9	0.40067127
204	0x3ee6b467	0.4505951
205	0xbdd0f6cf	-0.10203325
206	0xbd63d1c8	-0.055619985
207	0xbe851b30	-0.25997305
208	0xbe468081	-0.19384958
209	0xbe891f6c	-0.26781785
210	0x3e03ee2f	0.12883829
211	0x3df6dc65	0.12053756
212	0xbe5f4825	-0.21804865
213	0xbe4d41c5	-0.2004462
214	0xbe1f1c05	-0.15538032
215	0x3df97e35	0.12182275
216	0x3e4282b2	0.18995169
217	0x3d38a762	0.045081504
218	0xbdfef81f	-0.12449669
219	0x3e98fd42	0.2988072
220	0x3e420898	0.18948591
221	0xbe5aba6a	-0.21360174
222	0x3d5950a0	0.053055406
223	0x3dd2e76a	0.10298045
224	0xbe1de8c2	-0.15420821
225	0x3e7ebe64	0.24877316
226	0xbda3b21f	-0.07992958
227	0xbd1d445b	-0.038395267
228	0xbe72142f	-0.23640512
229	0x3e2558e4	0.1614719
230	0xbe819a96	-0.25313252
231	0xbd08dcea	-0.033413805
232	0xbdbf1a07	-0.09331136
233	0x3e9bda72	0.30440098
234	0xbe53d0ab	-0.2068507
235	0x3e9bdf2f	0.30443713
236	0x3e36ba12	0.17844418
237	0xbe9688f4	-0.29401362
238	0x3d8333b1	0.06406344
239	0x3e8a49dd	0.27009478
240	0x3dc19756	0.09452693
241	0xbe5e74ef	-0.21724294
242	0x3b9770a0	0.0046215802
243	0xbe0eb9f7	-0.13938127
244	0x3d46c31a	0.048525907
245	0x3e27c56f	0.16383909
246	0xbddb2121	-0.10699678
247	0x3e6fdeda	0.23424855
248	0xbe2ad5b5	-0.16683085
249	0x3e6bbc78	0.23021114
250	0xbe42ccbf	-0.19023417
251	0x3d5905e7	0.052984145
252	0x3de78443	0.11304524
253	0xbed7dbbf	-0.4215984
254	0x3da93b20	0.0826323
255	0xbe06b06b	-0.13153236

k_emb_layer.weight f4 [481, 50]
0	0x3f595eb7	0.8491015
1	0x3de8a8ff	0.113603584
2	0xbf92f09d	-1.1479679
3	0x3f3590bf	0.7092399
4	0x3f3b0d57	0.7306723
5	0x3fadbe68	1.3573732
6	0xbfa49e14	-1.2860742
7	0x3fa936f4	1.3219895
8	0xbfee5f09	-1.8622752
9	0xbfa8f946	-1.3201072
10	0x3ffe30ac	1.9858603
11	0x3f2f01cd	0.6836212
12	0x3f7b584a	0.98181593
13	0xbf0e8405	-0.55670196
14	0xbff2e15f	-1.8975028
15	0x3da616f6	0.08109848
16	0x3f7e46dc	0.9932687
17	0xbce07189	-0.027397888
18	0xbfb270e8	-1.3940706
19	0x3eb15e01	0.34642032
20	0xbf1fbb32	-0.6239501
21	0x3f2a6bd6	0.66570795
22	0xbde73804	-0.11289981
23	0xc00a7c59	-2.1638396
24	0x3f53bab8	0.82706785
25	0xbe952a99	-0.29134062
26	0xbfa2417c	-1.2676234
27	0x3f1be9fc	0.60903907
28	0xbeb6b279	-0.3568304
29	0xbf70d31a	-0.94072115
30	0x3fa68d94	1.3011956
31	0xbeea91bb	-0.4581431
32	0x3e481c95	0.19542153
33	0x3e0f510e	0.13995764
34	0xbf1ba807	-0.60803264
35	0xbfc29df1	-1.520445
36	0xbf1a92cb	-0.6038024
37	0xc03b1543	-2.9231727
38	0x3fbd7711	1.4801961
39	0xbf97632a	-1.1827137
40	0xbe560939	-0.20901956
41	0x3e8e3069	0.2777131
42	0xbda6cf79	-0.08145041
43	0x3f15d1f9	0.5852352
44	0x3fb0e037	1.3818425
45	0xbf31ba60	-0.6942501
46	0x3f6bf23d	0.921665
47	0xbf23e67b	-0.6402356
48	0xbf7cfc36	-0.98822343
49	0x3ed815ef	0.42204234
50	0xbed6b782	-0.4193688
51	0xbfb219a2	-1.3914073
52	0x3f9d4765	1.2287413
53	0xbf58934b	-0.8459975
54	0xbfbf290e	-1.4934404
55	0xbe169b0b	-0.14707582
56	0xbe43ef78	-0.19134319
57	0xbe199556	-0.14998373
58	0xbef4e1c8	-0.47828507
59	0xbe5833f6	-0.21113572
60	0xbed7fe42	-0.4218617
61	0xbf890bc1	-1.0706712
62	0x3d9a2b79	0.07527823
63	0x3fe1860b	1.7619032
64	0xbfa3e6f5	-1.2804857
65	0xbe9788b8	-0.29596496
66	0x3e9ae724	0.3025447
67	0x3fbf7f9e	1.4960821
68	0xbd3edb28	-0.046595722
69	0xc0125479	-2.2864058
70	0xbe4d690c	-0.20059603
71	0x3f0218f9	0.50819355
72	0xbf1529de	-0.5826701
73	0x3ef19d82	0.4719048
74	0xbee0ca5e	-0.43904394
75	0xbf755503	-0.9583284
76	0x3fdbd64a	1.7174771
77	0xbe6c1e5c	-0.23058456
78	0x3f2732c5	0.65311843
79	0xbd8c3615	-0.06846253
80	0xbfacee1b	-1.3510164
81	0x3eb3723f	0.350481
82	0x3f475ab5	0.7787278
83	0x3dbe9b9d	0.09307025
84	0xbf4b55aa	-0.7942759
85	0x3f3b9ede	0.7328929
86	0x3db35297	0.08755987
87	0xbf113c49	-0.5673261
88	0xbec4bf56	-0.38427228
89	0xc011502f	-2.270519
90	0x3e42ccc4	0.19023424
91	0x3f2371c1	0.6384545
92	0x3f4aa253	0.7915394
93	0xbf88f41e	-1.0699499
94	0x3ebc120a	0.36732513
95	0xc0007486	-2.007112
96	0xbe99c151	-0.300303
97	0xbf9acb84	-1.2093358
98	0x3f1a9b2a	0.6039301
99	0xbe8b75bf	-0.2723827
100	0x3f39ccf4	0.7257836
101	0xbfe63599	-1.7985107
102	0x3eeccad6	0.46248502
103	0x3fa61e53	1.2978004
104	0x3fa4d3c7	1.2877129
105	0x3e1fc041	0.15600683
106	0xbcb92d95	-0.022604743
107	0x3f28e458	0.65973425
108	0xbf61cf2a	-0.8820673
109	0x3e0fbf53	0.14037828
110	0xbe8f85cb	-0.28031763
111	0x3f90af18	1.1303434
112	0xbfe2ab2c	-1.7708488
113	0x3fc07d0c	1.5038161
114	0x3f2dde76	0.67917573
115	0x3f24caa8	0.6437173
116	0xbe55504d	-0.20831414
117	0x3f58137b	0.84404725
118	0x3fec6217	1.8467435
119	0xbf327d9f	-0.6972293
120	0xbf836070	-1.0263805
121	0xbf096422	-0.53668416
122	0xbe5423cf	-0.20716785
123	0x3efb007f	0.49023816
124	0xbf13356b	-0.57503384
125	0xbc6575d3	-0.014005142
126	0x3e45084f	0.1924145
127	0x3f601e3e	0.87546146
128	0x3d1bf96d	0.038079668
129	0xbf86520b	-1.0493788
130	0x3f811ba2	1.0086558
131	0x3f21163e	0.62924564
132	0xbf97028a	-1.179765
133	0x3f2c0ba6	0.67205274
134	0xbfaaf7e5	-1.3356901
135	0x3e677d21	0.22606327
136	0x3ff09d93	1.8798088
137	0x3f3881ed	0.7207325
138	0x3f6f6e83	0.93528
139	0x3f424482	0.75885785
140	0x3d6a5898	0.057213396
141	0xbe85a603	-0.2610322
142	0x3f067be7	0.5253281
143	0xbede4e23	-0.4341899
144	0x3eeeac2e	0.46615738
145	0x3ed4eb0f	0.41585585
146	0xbfd556c3	-1.6667103
147	0xbeefb881	-0.46820453
148	0xbf114958	-0.5675254
149	0xbfe7a80a	-1.8098156
150	0xbe72607c	-0.23669618
151	0x3def231c	0.116766185
152	0x3fc7f3f7	1.5621327
153	0x3eae6c9b	0.34067234
154	0x3e10be16	0.14135012
155	0xbeb95934	-0.3620087
156	0x3e6b50f7	0.22980104
157	0xbf8c4a78	-1.0960226
158	0xc00e5919	-2.224188
159	0x3f235d87	0.63814586
160	0xbdbd400d	-0.09240732
161	0x3d972825	0.07380704
162	0x3cdd9348	0.027047768
163	0xbf1b0545	-0.60554916
164	0x3f306e2b	0.689181
165	0xbf72b103	-0.9480135
166	0x3fc80eaa	1.5629475
167	0xc02c7127	-2.6944063
168	0xbe5e4217	-0.21704899
169	0xc021ecef	-2.5300863
170	0xbd4f5f10	-0.050627768
171	0xbd6dbac6	-0.05803945
172	0xbfd62a20	-1.6731606
173	0xbe9ca7e0	-0.30596828
174	0xbf596720	-0.8492298
175	0x3f2ac7c2	0.66711056
176	0xbf16997a	-0.58827937
177	0x3f964250	1.1738987
178	0xbe4eac3a	-0.20182887
179	0xbc4406fc	-0.011964556
180	0x3f676e72	0.904029
181	0xbf130cf6	-0.5744165
182	0xbedf936e	-0.43667167
183	0x3f33d124	0.70241
184	0xbf92b467	-1.1461304
185	0xbe05ea8d	-0.13077755
186	0x3f1a9f31	0.60399157
187	0xbfcd9d8c	-1.6063704
188	0xbfcac9bb	-1.5842813
189	0x3f574746	0.8409313
190	0xbfae6493	-1.3624443
191	0x3ff09a1e	1.8797033
192	0x3e6a842b	0.2290198
193	0x3f97e9f5	1.1868273
194	0x401a816e	2.4141498
195	0xbf3372aa	-0.7009684
196	0x40261d36	2.595533
197	0xbf63a102	-0.88917553
198	0xbe0a51ef	-0.13507818
199	0x3fe26088	1.7685709
200	0x3f83d4ca	1.0299313
201	0xbee04b1b	-0.438073
202	0x3f2cebfd	0.6754759
203	0xbe8f7deb	-0.28025755
204	0xc006b171	-2.1045802
205	0xbe157523	-0.14595465
206	0xbdc8c311	-0.09802831
207	0xc0105be2	-2.255608
208	0xbecb28be	-0.3967952
209	0x3eed051a	0.46292955
210	0x3dd32215	0.10309235
211	0xbd58439f	-0.052798864
212	0xbf7c3839	-0.9852329
213	0xbfd25a23	-1.6433758
214	0xbf8fe1ae	-1.1240747
215	0xbf7cd908	-0.98768663
216	0x3f24da66	0.6439575
217	0xbf9f2a06	-1.24347
218	0xbfc567bf	-1.5422286
219	0x3f22dbdd	0.63616735
220	0xbf25c68b	-0.6475608
221	0x3cc7a342	0.02436984
222	0xbf548e58	-0.830297
223	0x3f167f36	0.5878786
224	0x3f7286a9	0.94736725
225	0x3e18abe7	0.14909326
226	0xbee56018	-0.44799876
227	0xbe2b3c54	-0.16722232
228	0xbf218d40	-0.63106155
229	0x3f97df5c	1.1865039
230	0x3d196f7e	0.037459843
231	0x3efb0bf6	0.49032563
232	0xc005181a	-2.079596
233	0x3fc7a3cb	1.5596861
234	0x3e907a9f	0.28218552
235	0xbf9270b4	-1.1440644
236	0xbe51f2e9	-0.20502819
237	0xbe912919	-0.28351668
238	0xbf761ed6	-0.961408
239	0xbe4b8479	-0.19874753
240	0x400d41d7	2.2071435
241	0x3f3df27e	0.7419814
242	0x3fad7373	1.3550857
243	0x3f09f63b	0.5389134
244	0xbede5901	-0.4342728
245	0x3f7a5511	0.9778605
246	0x3e8b3a30	0.2719283
247	0x3e2d06a1	0.1689706
248	0xbf6b9966	-0.9203094
249	0xbd812c19	-0.06307239
250	0xbdf856a0	-0.121258974
251	0xc0640b40	-3.5631866
252	0x3ec208e2	0.37897402
253	0x3f54c430	0.8311186
254	0xc02caee3	-2.6981742
255	0x3f62a8c7	0.88538784

v_emb_layer.weight f4 [962, 50]
0	0x3fc16245	1.5108114
1	0x3eccd274	0.40004313
2	0x3c8edf74	0.017440535
3	0x3f175695	0.5911649
4	0x3e2f3031	0.17108227
5	0x3f4955f4	0.7864678
6	0x3fcc9ff3	1.5986313
7	0xbc9cb1d5	-0.019127766
8	0x3fd750c6	1.6821525
9	0xbcebb639	-0.028773414
10	0x3e46813b	0.19385235
11	0x3d51742c	0.05113618
12	0xbf167b2f	-0.58781713
13	0x3f28c8c7	0.6593136
14	0xbf0fe4ac	-0.562083
15	0xbe570e4a	-0.21001545
16	0xbf986982	-1.1907198
17	0x3f3c5bab	0.73577374
18	0x3ec440ac	0.3833059
19	0xbe14436f	-0.14478849
20	0x3e9dd7c5	0.30828682
21	0x3fcc7a5c	1.5974841
22	0x3fe57cb0	1.7928677
23	0x3f5a43c7	0.8525967
24	0xbe92039c	-0.2851838
25	0x3f2e6a7d	0.6813124
26	0xbecc3c26	-0.3988964
27	0x40098dfd	2.1492913
28	0x3f09950e	0.53743064
29	0x3ddfc6ab	0.10926565
30	0xbfbf37fc	-1.493896
31	0x3ea3633d	0.3191165
32	0x3ff3f7c1	1.9059983
33	0x400c6c97	2.1941278
34	0xbeae89c0	-0.3408947
35	0xbf2baa6f	-0.67056936
36	0xbe68d612	-0.22737911
37	0x3f28f640	0.6600075
38	0x3e539728	0.2066313
39	0x3f81925e	1.0122793
40	0xbfbbb672	-1.4665053
41	0xbf84cc11	-1.0374776
42	0xbe3a2a3e	-0.18180177
43	0xbf71f750	-0.94517994
44	0x3fc53963	1.5408138
45	0xbeda8eed	-0.4268717
46	0xbe638893	-0.22220068
47	0xbf62c976	-0.88588655
48	0xbf830b28	-1.023778
49	0x3f7b864f	0.98251814
50	0x3e02e837	0.12783895
51	0xbfb622d3	-1.4229378
52	0xbf7705e0	-0.9649334
53	0x3fb340c5	1.4004141
54	0xbeb06ad8	-0.34456515
55	0x3fa3d5cd	1.2799622
56	0x400b833e	2.1798854
57	0x3f1aa6cf	0.6041078
58	0xbf148271	-0.5801154
59	0x3e7c71b7	0.24652754
60	0xbe3ef711	-0.18648936
61	0xbdcf885e	-0.10133432
62	0xbf7552e7	-0.95829624
63	0x3dcb1b39	0.09917302
64	0x3f4698e9	0.7757707
65	0x3f075c84	0.5287554
66	0x3f8a40e3	1.0801052
67	0xbf66fb81	-0.90227515
68	0xbf4c6d5e	-0.7985438
69	0x3fa6b7a7	1.3024796
70	0x3e99add4	0.30015433
71	0xbe9c993b	-0.30585656
72	0xbe5d2235	-0.2159508
73	0xbfad2fd6	-1.3530223
74	0x3ebc9819	0.3683479
75	0xbe46d025	-0.19415338
76	0xbf0da616	-0.5533155
77	0xbe969129	-0.29407623
78	0xbfa86f61	-1.315899
79	0x3ed4760c	0.41496313
80	0xbf3faeb2	-0.7487594
81	0xbf133864	-0.5750792
82	0xbde403ac	-0.11133513
83	0xbdb85915	-0.09001366
84	0x3e98576b	0.29754195
85	0x3de92962	0.11384846
86	0xbf96bd95	-1.1776606
87	0x3f820d23	1.0160259
88	0xc04a9b43	-3.1657264
89	0xbfbb7a19	-1.4646636
90	0xbd8e77fd	-0.0695648
91	0xbfc33681	-1.5251008
92	0xbf2553e3	-0.64581126
93	0x3f2fa18c	0.68605876
94	0x3ee35745	0.4440252
95	0x3fbabf60	1.4589653
96	0xbf02b110	-0.51051426
97	0xbfbe6112	-1.4873374
98	0x3f4fff52	0.8124896
99	0x3f4e6104	0.80616784
100	0x3fe3f046	1.7807701
101	0x3fc9dfe7	1.5771455
102	0xbf436426	-0.7632469
103	0x3d1c3839	0.038139556
104	0xbf16c7a7	-0.58898395
105	0xbf1ed6df	-0.6204662
106	0x3f3e4821	0.7432881
107	0xbdc06c0b	-0.093956076
108	0x3f736101	0.9506989
109	0xbf8e6fad	-1.1127831
110	0x3e64d63e	0.22347352
111	0x3f541718	0.8284774
112	0x3f61bfb3	0.88183135
113	0x3f769260	0.963171
114	0x3e00fe94	0.12597114
115	0x3f4a6755	0.7906392
116	0x3f1671d8	0.5876746
117	0xbf30c45f	-0.6904964
118	0x3f9b76d3	1.2145637
119	0xbf5e310c	-0.8679359
120	0x3f1dd508	0.61653185
121	0xbf2bd360	-0.6711941
122	0x3f027202	0.5095521
123	0xbd6215c1	-0.055196527
124	0xbf6aa0b7	-0.9165148
125	0xbdab250c	-0.083566755
126	0x3f5efdf3	0.87106246
127	0xbf4ffa44	-0.8124125
128	0xbe99ee5d	-0.3006467
129	0x3f3fd9c5	0.74941665
130	0x3f09b81c	0.53796554
131	0x3ffb9a3e	1.9656446
132	0x3eb52837	0.35382244
133	0x3f7d496a	0.98940146
134	0x3d629a0e	0.0553227
135	0xbec0918d	-0.37611046
136	0x4001869c	2.023841
137	0xbf9e7a0b	-1.2380995
138	0xbdc7430c	-0.09729585
139	0x3eb95ebe	0.36205095
140	0xbf987a97	-1.1912411
141	0x3f282261	0.6567746
142	0xbfd349ef	-1.6506938
143	0x3fbb7d16	1.4647548
144	0xbfc53629	-1.5407153
145	0x3d5773be	0.052600615
146	0x3e56b500	0.20967484
147	0xbfbf575b	-1.4948534
148	0x3de7ffec	0.1132811
149	0xc02a564c	-2.6615171
150	0xbec9adca	-0.39390403
151	0xbeaf3900	-0.34223175
152	0x3fa120ea	1.258817
153	0xbf6232e0	-0.8835888
154	0xbf94675f	-1.1594046
155	0xbff6038e	-1.9219835
156	0x3eb1298b	0.34602007
157	0x3f3c40d3	0.73536414
158	0x3f8daa3a	1.1067574
159	0x3fa742e0	1.3067284
160	0xbf8affd6	-1.0859325
161	0xbf471260	-0.77762413
162	0xbf110305	-0.5664523
163	0xbd23933a	-0.039935328
164	0xbef4ed39	-0.47837237
165	0xbec27d01	-0.37985995
166	0x3f135969	0.57558304
167	0x3fb5970c	1.4186721
168	0xbfbd584b	-1.479257
169	0x3e373fa0	0.17895365
170	0x3e493318	0.19648397
171	0x3f41a326	0.7563957
172	0x3e680927	0.22659741
173	0x3ee161c8	0.44019914
174	0x3d4ff2c0	0.050768614
175	0x40060c9e	2.09452
176	0xbfccf4e7	-1.6012238
177	0x3e0f0b89	0.13969244
178	0xbddf7d84	-0.10912612
179	0x3e40ae89	0.1881658
180	0x3e99b7d7	0.3002307
181	0xbe4fda5d	-0.20298143
182	0xbf39e991	-0.7262202
183	0xbf08f03f	-0.53491586
184	0xbde1ab72	-0.11019029
185	0x3fb165ba	1.385917
186	0xbf11fbc4	-0.5702479
187	0xbf165b72	-0.58733284
188	0x3fdc2aca	1.7200558
189	0xbfcd8d1c	-1.6058688
190	0x3e5860f6	0.21130738
191	0xc00a466d	-2.1605484
192	0x3fe37fcd	1.7773377
193	0x3e149e14	0.14513427
194	0xbf19d133	-0.6008484
195	0xbfc10d61	-1.5082208
196	0xbf41f1d7	-0.75759643
197	0xbeb8fab4	-0.3612877
198	0x3fbf1549	1.4928371
199	0xbdd9c922	-0.10634066
200	0x3f0e79f9	0.55654866
201	0xbe41c985	-0.1892453
202	0xbd833c74	-0.06408015
203	0x3f5a750c	0.8533485
204	0x3c9d7cd6	0.019224565
205	0x3f8a71f4	1.0816026
206	0xbe1b3525	-0.15156992
207	0x3f7ecd7b	0.9953229
208	0xbf60920f	-0.8772287
209	0xbe81a50c	-0.25321233
210	0xbf58061c	-0.8438432
211	0x3ecf949b	0.40543064
212	0x3c889a10	0.016675025
213	0xbf8dca30	-1.1077328
214	0x3e348a96	0.17630991
215	0x3fcd54b2	1.6041472
216	0x4005c618	2.0902157
217	0xbf8b412d	-1.0879265
218	0xbf838ac0	-1.0276718
219	0x3f2333e1	0.63751036
220	0x3fa02b6d	1.2513252
221	0xbee4cdab	-0.44688162
222	0x3e062c03	0.13102727
223	0xbf301962	-0.6878873
224	0x3c88391e	0.016628798
225	0x3f50ebff	0.816101
226	0x3f3a50ef	0.72779745
227	0xbfe75ddd	-1.807552
228	0x3f4387eb	0.7637927
229	0x3f4ce739	0.8004032
230	0xbec07040	-0.3758564
231	0x3f2c594d	0.6732376
232	0x3e0cc6e5	0.13747747
233	0xbf3324a0	-0.6997776
234	0x3d73dc77	0.059536424
235	0xbfad86dc	-1.3556781
236	0xbfa59cbe	-1.2938459
237	0xbe18e973	-0.14932804
238	0xbe45f7c4	-0.19332796
239	0x3fbc79b2	1.4724638
240	0xbe698e99	-0.22808303
241	0x3f119598	0.56868887
242	0x3fcfe877	1.6242818
243	0xbe84e390	-0.25954866
244	0x4004b100	2.0733032
245	0x3fc8f9df	1.5701255
246	0xbeba722a	-0.36415225
247	0x3e970ff7	0.29504368
248	0xbe643026	-0.22283992
249	0x3f18fa9c	0.597574
250	0xbf8564ca	-1.0421383
251	0x3f524a65	0.8214477
252	0x3f1fcd1d	0.62422353
253	0x3e44a034	0.19201738
254	0xbfab3dab	-1.3378195
255	0xbf671195	-0.90261203

f_layer.weight f4 [50, 100]
0	0x3e0476ee	0.12935993
1	0x3dd63500	0.10459328
2	0xbdd2dc0c	-0.10295877
3	0xbda470d4	-0.08029333
4	0xbd0600dd	-0.032715667
5	0x3b31cd01	0.0027130248
6	0x3ba99ac7	0.0051759216
7	0xbd305ec9	-0.043059144
8	0xbdf40c83	-0.11916449
9	0x3e4c0640	0.19924259
10	0xbe7a6830	-0.24453807
11	0x3e3d657b	0.18495743
12	0xbe1a32e9	-0.15058483
13	0x3e251845	0.1612254
14	0xbda4bf82	-0.0804434
15	0xbd05bd2b	-0.032651108
16	0xbe13def0	-0.14440513
17	0x3db2e59b	0.087352
18	0xbdff0171	-0.12451447
19	0x3db59eae	0.088681564
20	0x3d85900f	0.065216176
21	0x3e13ed21	0.14445926
22	0xbe24d058	-0.16095102
23	0x3cc47969	0.023983674
24	0x3cbc5b61	0.022992792
25	0x3dd347e7	0.10316449
26	0xbd5bf8e4	-0.053704157
27	0x3e551da9	0.20812096
28	0x3e0e02d1	0.13868262
29	0xbcdf9d12	-0.027296577
30	0xbd927c6a	-0.07152636
31	0x3d83fce5	0.0644472
32	0xbd882774	-0.0664815
33	0x3df75c77	0.12078183
34	0x3d9f5590	0.077799916
35	0xbcffe989	-0.031239288
36	0x3e9e949a	0.3097275
37	0xbdc2b1b7	-0.09506553
38	0x3dc7b3f9	0.09751124
39	0x3d06ab8c	0.032878444
40	0xbc9e6c5c	-0.01933878
41	0xbdb829de	-0.089923605
42	0xbdd7b827	-0.10533171
43	0x3e61c97f	0.22049521
44	0x3e652c89	0.2238027
45	0xbde6c522	-0.11268069
46	0x3ce4c345	0.027925143
47	0xbd9d629d	-0.076848246
48	0x3d786178	0.06063983
49	0xbdce2c34	-0.10067025
50	0x3dfa5c89	0.12224681
51	0x3d718332	0.05896301
52	0x3c3973e2	0.0113191325
53	0xbdd48d93	-0.10378566
54	0x3c24eef7	0.010066739
55	0xbbecc264	-0.0072253216
56	0x3bbc8789	0.0057534617
57	0x3c247162	0.010036798
58	0x3dc0647c	0.09394166
59	0x3d1288db	0.035775047
60	0x3be7a210	0.00706888
61	0xbe1b597a	-0.15170851
62	0x3e23b7cc	0.15988082
63	0x3c682207	0.014168269
64	0xbd8ccc31	-0.06874884
65	0x3db6245e	0.08893655
66	0xbcc0a95f	-0.023518262
67	0x3dbf9168	0.09353906
68	0xbda6d38c	-0.08145818
69	0xbc04fbc0	-0.0081166625
70	0xbd0b08a7	-0.0339438
71	0x3da92f6b	0.082609974
72	0x3d326b7d	0.04355954
73	0x3ddfeab1	0.10933436
74	0xbd3b4e83	-0.04572917
75	0xbdf1f03c	-0.11813399
76	0xbe0f5a71	-0.13999344
77	0xbe089317	-0.1333736
78	0xbdc286ed	-0.09498391
79	0x3d61861b	0.055059534
80	0x3db8286d	0.089920856
81	0xbcc1418d	-0.023590827
82	0xbd06fde6	-0.03295698
83	0xbc66f052	-0.014095383
84	0x3e085eff	0.13317488
85	0x3e2efffa	0.17089835
86	0xbc5f4fd0	-0.013629869
87	0x3ddf4b89	0.10903079
88	0x3d988489	0.07447154
89	0xbc888d77	-0.016669018
90	0xbd448bdd	-0.047984947
91	0x3daabe8b	0.083371244
92	0xbd5107b1	-0.051032726
93	0xbe2a3819	-0.16622962
94	0xbc2f22a8	-0.010689415
95	0x3de4f3e0	0.11179328
96	0xbd836b8c	-0.06416997
97	0xbce73292	-0.028222356
98	0x3d8e72e7	0.0695551
99	0x3ceee915	0.029163877
100	0x3dde6564	0.108591825
101	0x3e081304	0.13288504
102	0xbd29f551	-0.041493718
103	0xbd93adcd	-0.07210884
104	0xbcab0446	-0.020876061
105	0x3e392230	0.18079448
106	0x3dd6cd74	0.10488406
107	0xbdea74d2	-0.11448063
108	0x3d93f7f8	0.07225031
109	0xba3d73cd	-0.00072270335
110	0xbe686a7d	-0.22696872
111	0xbe3a0fd2	-0.18170097
112	0xbe6930bf	-0.22772501
113	0xbc966e3e	-0.018363114
114	0xbde4b7ed	-0.111678936
115	0x3c0d29ea	0.00861595
116	0xbd6958f4	-0.056969598
117	0x3e048054	0.12939578
118	0xbd1dd2a9	-0.03853098
119	0x3d27d7ae	0.040977173
120	0xbc7b4b07	-0.015337712
121	0xba2979ea	-0.0006465005
122	0xbe9851b7	-0.29749843
123	0x3dfc3be9	0.123161145
124	0x3d50586c	0.050865576
125	0xbce5b7c0	-0.02804172
126	0xbdb10481	-0.08643437
127	0x3e377685	0.17916305
128	0x3e146fac	0.14495724
129	0xbe8452c9	-0.2584441
130	0xbd68b3bf	-0.056812044
131	0x3bd6eb2d	0.006558797
132	0x3da1bcfa	0.078973725
133	0x3d842ca7	0.06453829
134	0xbdcfffb1	-0.10156191
135	0xbe3f57cc	-0.18685836
136	0x3e01a8e0	0.12662077
137	0x3d04d77a	0.032432057
138	0xbe07059f	-0.13185738
139	0x3daf4b30	0.08559263
140	0x3d84477c	0.06458947
141	0xbe143391	-0.14472796
142	0x3e0a9672	0.13533953
143	0xbdb0e3c1	-0.086371906
144	0xbcbeebb1	-0.023305746
145	0xbe10c725	-0.14138468
146	0xbe2e123d	-0.16999145
147	0x3ce640c0	0.028107047
148	0x3e414040	0.18872166
149	0xbe2dd091	-0.16974093
150	0x3cad37c7	0.02114476
151	0x3b1e1789	0.0024122915
152	0x3ceb7785	0.028743515
153	0x3d8568bc	0.06514117
154	0xbdd028a4	-0.101640016
155	0xbcf8f6d7	-0.03039114
156	0xbca28caa	-0.019842464
157	0xbdea0283	-0.1142626
158	0xbe00f04f	-0.1259167
159	0xbdc7d1f6	-0.09756844
160	0x3bfba53c	0.0076796096
161	0x3d20ab3c	0.0392258
162	0x3c3fc1b2	0.011703895
163	0xbd7207e3	-0.059089553
164	0x3d99ce26	0.07510023
165	0x3d804273	0.06262674
166	0x3e1f2cbf	0.15544413
167	0xbe16c4f8	-0.14723575
168	0x3dd7e467	0.10541611
169	0x3d0ecaaf	0.034861263
170	0x3dfc3ae1	0.12315918
171	0xbd855a14	-0.06511322
172	0x3e7946bd	0.24343391
173	0x3d33584b	0.043785375
174	0x3e21d0d1	0.15802313
175	0xbdb61bc9	-0.08892018
176	0xbe5ac2e1	-0.21363403
177	0x3c7282ed	0.014801723
178	0x3c9e2ecd	0.019309426
179	0xbe2fac87	-0.17155658
180	0x3ca3ce27	0.019995762
181	0x3ddccbdf	0.10781073
182	0x3d18467c	0.037176594
183	0xbd910e3a	-0.070827916
184	0xbe6c3a0d	-0.2306902
185	0xbce0eb37	-0.02745591
186	0x3da2086b	0.07911762
187	0x3daba1b5	0.083804525
188	0x3c815dd5	0.015791813
189	0xbdcdeee7	-0.10055333
190	0x3e23a327	0.15980206
191	0xbd707fd7	-0.058715668
192	0x3d45469e	0.04816305
193	0xbdf59f29	-0.11993248
194	0xbd6b8e17	-0.057508554
195	0x3e14d7ad	0.14535399
196	0x3e4fab0b	0.20280091
197	0xbd8f5284	-0.069981605
198	0xbd6149e4	-0.05500211
199	0x3dc0676c	0.09394726
200	0xbd60dc9a	-0.054897882
201	0xba3e16ee	-0.00072513416
202	0x3be39dc9	0.0069462997
203	0xbe0bddcf	-0.13658832
204	0xbd522779	-0.051307175
205	0xbda8a83a	-0.08235212
206	0x3df99527	0.12186652
207	0x3db6f91c	0.089342326
208	0xbe0e8e07	-0.13921367
209	0x3e227904	0.15866476
210	0x3e169eb8	0.14708984
211	0xbd0482ae	-0.03235119
212	0x3d588069	0.052856836
213	0x3df01355	0.11722437
214	0x3ceef1f2	0.029168103
215	0x3ac356c0	0.0014903173
216	0x3c17923d	0.0092511745
217	0xbe56d849	-0.20980944
218	0x3ca5a55b	0.02022045
219	0x3c5be42c	0.0134211
220	0xbd242cbc	-0.040081725
221	0x3aa2bec4	0.0012416472
222	0x3e21b1c0	0.15790462
223	0xbc9702e0	-0.018433988
224	0xbc6f2125	-0.014595305
225	0x3db86d6c	0.090052456
226	0x3e2304bb	0.15919773
227	0xbd4fa31e	-0.05069267
228	0xbd1ff79f	-0.03905451
229	0x3bce197e	0.00628966
230	0x3da99825	0.082809724
231	0x3ddac2f7	0.10681718
232	0xbd234383	-0.039859306
233	0x3d782272	0.060579725
234	0xbdff8ad2	-0.1247765
235	0x3d647bfb	0.0557823
236	0xbd100466	-0.035160445
237	0x3df0c80f	0.11756908
238	0x3dd64dc9	0.10464055
239	0xbd8592ba	-0.065221265
240	0xbe37040f	-0.17872642
241	0xbdb4ff6d	-0.08837781
242	0xbdba1543	-0.090860866
243	0xbd61e959	-0.05515418
244	0xbe3d696d	-0.18497248
245	0xbd7ee686	-0.062231563
246	0x3e061946	0.13095579
247	0xbde14fac	-0.11001524
248	0xbe42ff70	-0.19042754
249	0x3e511c5e	0.20420977
250	0xbb125e52	-0.0022334051
251	0x3cb621b5	0.02223287
252	0x3df493ac	0.11942229
253	0xbe199b51	-0.15000655
254	0xbcb85034	-0.022499181
255	0x3d5a3b79	0.053279374

f_layer.bias f4 [50]
0	0xbd5ccb5d	-0.05390488
1	0x3d3b58b3	0.045738887
2	0x3dfb379f	0.12266468
3	0x3de5f1e4	0.112277776
4	0xbcb00762	-0.021487895
5	0x3d573eb0	0.052550018
6	0x3cdd9422	0.027048174
7	0x3d5d4b4f	0.054026898
8	0xbd360625	-0.044439454
9	0x3dc87781	0.097884186
10	0x3cdff1ae	0.027336922
11	0x3d8aa185	0.06769089
12	0xbce21f49	-0.027602809
13	0x3c9b1a3d	0.01893341
14	0x3e04f370	0.12983489
15	0xbd23b7ad	-0.03997009
16	0xbd86ef34	-0.06588593
17	0xbd5922f6	-0.053011857
18	0x3dfe4955	0.12416331
19	0xbe018a32	-0.12650374
20	0x3d5301d0	0.0515154
21	0xbdc307a9	-0.095229454
22	0x3d01ea9c	0.03171788
23	0xbcd76830	-0.026294798
24	0x3d815599	0.063151546
25	0x3d320151	0.043458287
26	0xbd721df8	-0.05911061
27	0xbd85feaa	-0.06542714
28	0x3cb7109a	0.022346783
29	0x3d5e06a9	0.05420557
30	0xbd72bd03	-0.059262287
31	0xbd9e6112	-0.077333584
32	0x3db5082b	0.088394485
33	0xbdfaeb8c	-0.12251958
34	0xbdc1cf06	-0.09463315
35	0x3dad1ea1	0.084531076
36	0xbd925189	-0.07144458
37	0xbd985f97	-0.07440107
38	0x3c83eaf9	0.016103255
39	0x3d0fd5db	0.035116058
40	0x3cd14711	0.025546582
41	0xbd92257f	-0.07136058
42	0x3d4193c9	0.04726008
43	0xbd21cf01	-0.039504055
44	0x3dfc2dde	0.12313436
45	0x3d99f3df	0.07517218
46	0x3d1ea34d	0.038729955
47	0x3dae8e1a	0.085231975
48	0xbd794afb	-0.060862523
49	0xbd575e81	-0.05258036

p_layer.weight f4 [1, 50]
0	0xbe88de15	-0.26731935
1	0xbe47f8dc	-0.19528526
2	0x3e592535	0.212056
3	0x3e56aaec	0.20963639
4	0x3e8cce92	0.2750135
5	0x3e948d46	0.29014033
6	0xbe2c94f4	-0.16853696
7	0xbe5a5b67	-0.2132393
8	0x3e886c05	0.26644912
9	0x3e0b60a2	0.13611081
10	0x3e0f597d	0.13998981
11	0x3e5a970c	0.21346682
12	0x39993889	0.00029224556
13	0x3e110455	0.14161809
14	0x3e6c7513	0.23091535
15	0x3e3cda22	0.18442586
16	0x3e838053	0.2568384
17	0xbe3bb86c	-0.1833207
18	0x3e1c8f70	0.15289092
19	0xbdc82764	-0.09773138
20	0x3deedd45	0.116632976
21	0xbe25a120	-0.16174746
22	0xbe6f11ab	-0.23346584
23	0x3e3ae504	0.18251425
24	0xbe7d9a2a	-0.2476584
25	0x3e1cc7a5	0.15310533
26	0x3de4c9a2	0.11171271
27	0xbdd9e5fc	-0.10639569
28	0x3d3782c9	0.04480246
29	0xbe2db6d2	-0.16964272
30	0xbe530970	-0.20609069
31	0xbe200504	-0.15626913
32	0x3dd6e198	0.10492247
33	0xbe5736d0	-0.21017003
34	0xbeab8366	-0.33498687
35	0x3dd93d78	0.10607427
36	0xbe1b7aff	-0.15183638
37	0xbe3405bd	-0.17580314
38	0xbe6645b4	-0.22487527
39	0x3e6e1af5	0.23252471
40	0xbe5835b3	-0.21114235
41	0x3d90e4fd	0.07074926
42	0x3e5338c6	0.20627126
43	0x3df94273	0.12170877
44	0x3e0ccbea	0.13749662
45	0x3e4ebd33	0.20189361
46	0x3e688dec	0.22710389
47	0x3ddbc2ed	0.107305385
48	0xbe6c4b97	-0.2307571
49	0xbdf15a78	-0.11784834

e_layer.weight f4 [50, 50]
0	0xbdf76c0f	-0.120811574
1	0xbe8d7c4f	-0.27633902
2	0xbe1ea912	-0.15494183
3	0x3de0e0e9	0.10980398
4	0x3dcb3b70	0.09923446
5	0xbc9809dc	-0.018559389
6	0xbd142d34	-0.03617592
7	0xbe0e0ba3	-0.13871627
8	0x3d3445c9	0.044011865
9	0x3e4c3c5a	0.19944897
10	0xbdca89ea	-0.09889586
11	0x3e23788f	0.15963958
12	0x3c22558d	0.009908092
13	0x3d9c784a	0.07640131
14	0x3df13b27	0.117788605
15	0xbda05bd8	-0.07830018
16	0x3ea87a93	0.32906017
17	0xbe636d4e	-0.22209665
18	0x3dd31e25	0.10308484
19	0xbe0428c1	-0.12906171
20	0xbdd9c3fa	-0.10633083
21	0xbb65cbc0	-0.0035064071
22	0x3e709347	0.23493682
23	0x3c042774	0.008066047
24	0xbd266c90	-0.040630877
25	0xbe3a8e90	-0.18218446
26	0x3ce27566	0.02764387
27	0x3c92485b	0.017856767
28	0xbdff835d	-0.124762274
29	0x3e025f9a	0.12731782
30	0x3e574f5f	0.21026371
31	0xbe39580c	-0.18099993
32	0xbe9a982f	-0.30194232
33	0xbd16d4fc	-0.03682421
34	0x3d0a2629	0.0337278
35	0xbd843878	-0.06456083
36	0xbe0433b1	-0.12910344
37	0x3c88dcdb	0.016706875
38	0xbddbc2dc	-0.10730526
39	0xbe55a5e1	-0.20864059
40	0x3e078c4f	0.13237117
41	0xbd31bfcf	-0.043395814
42	0xbdb611d1	-0.08890117
43	0xbe0e0824	-0.13870293
44	0xbc833a1a	-0.016018916
45	0x3e9c5100	0.30530548
46	0xbd451314	-0.048113897
47	0x3d242f71	0.040084306
48	0x3dbda76a	0.09260447
49	0x3e9189fb	0.28425583
50	0x3dbbef07	0.0917645
51	0x3c661680	0.01404345
52	0xbd5fdede	-0.054655902
53	0x3d255a80	0.04036951
54	0x3d9698e5	0.07353381
55	0xbcdc0b6f	-0.02686092
56	0xbd2b3d73	-0.04180665
57	0x3c686858	0.014185034
58	0x3da89e69	0.08233339
59	0xbd85a480	-0.065255165
60	0xbe456eb6	-0.19280514
61	0x3e6d0a37	0.23148428
62	0x3d9627f6	0.07331841
63	0xbca68d45	-0.020331034
64	0x3daef6d4	0.085431725
65	0xbcb8c447	-0.02255453
66	0xbe02768a	-0.12740532
67	0xbe220e98	-0.1582588
68	0xbd728627	-0.05920997
69	0x3d3c38fd	0.045952786
70	0x3bd5d48a	0.006525581
71	0xbd74a4f6	-0.05972763
72	0xbc67314d	-0.014110875
73	0x3eac4c70	0.33652067
74	0x3d70fcc3	0.058834802
75	0xbe6493a7	-0.2232195
76	0x3d6cf379	0.05784938
77	0xbe85264e	-0.26005787
78	0x3e8d7875	0.27630964
79	0x3acfe77d	0.0015861836
80	0xbed8c4de	-0.42337698
81	0x3e7c5036	0.24639973
82	0x3d8f8fe0	0.07009864
83	0x3e3b23cc	0.18275374
84	0x3e2c9065	0.16851957
85	0xbdf9cce9	-0.12197287
86	0xbe10f66c	-0.14156502
87	0xbdb11e87	-0.08648401
88	0x3e352b70	0.17692351
89	0xbdb579fe	-0.08861159
90	0xbe2e1a21	-0.17002155
91	0x3e2d9699	0.1695198
92	0xbe45bcac	-0.19310254
93	0x3e61df7e	0.22057912
94	0xbd957f6f	-0.07299697
95	0xbd84cd15	-0.06484429
96	0xbd8792e9	-0.06619818
97	0xbed6bf32	-0.41942745
98	0xbe2cf3a6	-0.1688982
99	0xbe525b13	-0.20542555
100	0x3dcf8d89	0.101344176
101	0x3de4847b	0.11158081
102	0xbe4ff87c	-0.20309633
103	0xbdcd2dc3	-0.10018494
104	0x3deb90bd	0.11502216
105	0x3e08e152	0.13367203
106	0xbc34c219	-0.011032605
107	0x3e954227	0.29152033
108	0x3e53aadd	0.20670648
109	0xbb4f739a	-0.0031654597
110	0xbe6b00eb	-0.22949569
111	0x3d6be00c	0.057586715
112	0x3de512f7	0.11185258
113	0x3e300913	0.17190962
114	0xbd8c0c3d	-0.06838272
115	0x3e3a1526	0.1817213
116	0x3e22c469	0.15895237
117	0x3e3423ef	0.17591833
118	0xbbb8564b	-0.0056255213
119	0xbd32498c	-0.04352717
120	0xbe8dafba	-0.2767313
121	0x3e9e5ff2	0.30932575
122	0x3ee9c42c	0.4565748
123	0x3e07526b	0.13215034
124	0x3e0c4d5d	0.13701387
125	0x3ebb085b	0.36529812
126	0xbe8c947c	-0.27457035
127	0x3d9de10f	0.07708942
128	0xbe75fbd7	-0.2402185
129	0x3e78fff6	0.24316391
130	0x3db649d7	0.089008026
131	0xbe408b21	-0.18803073
132	0xbcfa0884	-0.030521639
133	0x3e117ab1	0.1420696
134	0xbd8d61fc	-0.06903455
135	0xbec25b92	-0.37960488
136	0x3d0ceb40	0.03440404
137	0x3eb31030	0.34973288
138	0x3d4705da	0.048589565
139	0xbe0e0ce2	-0.13872102
140	0x3e3c240f	0.1837313
141	0xbd885c44	-0.06658223
142	0xbe9622f5	-0.29323545
143	0x3e8c0653	0.27348575
144	0x3bd5d005	0.006525042
145	0x3d9f90f6	0.07791321
146	0x3d1fe832	0.039039798
147	0x3efbd7cc	0.49188077
148	0xbe784cad	-0.24248
149	0x3e8e8356	0.27834576
150	0xbbcef559	-0.006315869
151	0x3d0486ba	0.032355048
152	0x3e8db756	0.27678937
153	0xbec59cff	-0.3859634
154	0xbca7fac0	-0.02050531
155	0xbe4ecba6	-0.20194873
156	0xbe4adb0e	-0.19810125
157	0xbdc58b09	-0.096456595
158	0xbdd50472	-0.104012385
159	0xbdee468d	-0.1163455
160	0x3eb65eb2	0.35619122
161	0xbebecf9e	-0.37267774
162	0x3d81a38e	0.06330024
163	0x3cadc4c3	0.021211987
164	0x3ec4f249	0.384661
165	0xbcfe7a66	-0.031064223
166	0xbd9bc5ec	-0.0760611
167	0xbe65fad1	-0.2245896
168	0x3dda362b	0.10654863
169	0xbe7e6a34	-0.24845201
170	0x3e2aecb6	0.1669186
171	0xbe15a144	-0.14612299
172	0xbd90b2bd	-0.070653416
173	0x3c4f0019	0.012634301
174	0x3e7cf2ce	0.24701998
175	0x3d53129c	0.05153142
176	0x3deaf261	0.11472011
177	0xbe891092	-0.26770455
178	0x3e219ad8	0.15781724
179	0x3e382a39	0.17984857
180	0xbe138ca4	-0.14409119
181	0x3e1cc0a3	0.1530786
182	0xbd89cf55	-0.067289986
183	0x3e7b096b	0.24515311
184	0x3eb0766b	0.34465346
185	0x3eb56156	0.35425824
186	0x3d2e5eef	0.042571004
187	0xbe2bb604	-0.16768652
188	0x3e921c7c	0.28537357
189	0x3e9d853f	0.3076572
190	0x3d2f05d8	0.042730182
191	0x3e966851	0.29376462
192	0x3c622188	0.01380194
193	0xbe0613b1	-0.13093449
194	0x3e0656f0	0.13119102
195	0xbe37f4ff	-0.17964552
196	0x3ed64f10	0.41857195
197	0xbe3f7aa0	-0.18699121
198	0xbeafae2c	-0.3431257
199	0xbdb8d447	-0.09024864
200	0x3db49787	0.08817964
201	0x3da46021	0.08026148
202	0x3c0afb19	0.008482718
203	0xbdee7ea5	-0.11645249
204	0xbd229ac1	-0.039698366
205	0xbe438dbe	-0.19097039
206	0xbdf0cdd7	-0.11758011
207	0xbd121725	-0.035666604
208	0x3e18d586	0.14925203
209	0x3dba801c	0.09106466
210	0x3da6a802	0.08137514
211	0x3cc91a9c	0.024548821
212	0x3d167e07	0.036741283
213	0xbdc2456d	-0.09485898
214	0x3da94891	0.08265794
215	0xbe45876f	-0.19289945
216	0xbdb3635e	-0.08759187
217	0x3ce2d251	0.027688177
218	0x3e0f8ad5	0.14017804
219	0xbdec68eb	-0.11543449
220	0xbd68f329	-0.05687252
221	0xbd9d4ba5	-0.07680444
222	0x3e5e9ffe	0.2174072
223	0x3d16ffb5	0.036864955
224	0xbe74abf8	-0.23893726
225	0xbe2d1d7a	-0.16905776
226	0xbdb6613d	-0.089052655
227	0xbdc45997	-0.095874004
228	0xbc68b58f	-0.014203443
229	0xbd2cd061	-0.042190913
230	0xbb756b6d	-0.0037448064
231	0x3cd7016f	0.0262458
232	0x3cb35c61	0.021894636
233	0x3c302d57	0.010752997
234	0x3cffce5e	0.031226333
235	0xbd5a6284	-0.053316608
236	0xbdcfa4e2	-0.10138871
237	0xbe36a90a	-0.17837921
238	0x3e053f6c	0.13012475
239	0x3e2fb2bc	0.17158026
240	0x3e1878b2	0.14889792
241	0x3cee27d9	0.029071735
242	0xbe3b72c2	-0.18305495
243	0x3d8256d5	0.06364218
244	0x3e4208ef	0.1894872
245	0xbc0970fd	-0.008388755
246	0xbe84e7df	-0.25958154
247	0x3da8cafc	0.08241841
248	0x3c2ff025	0.010738407
249	0x3c3f83af	0.011689111
250	0x3e58a531	0.21156766
251	0x3dd93c6d	0.106072284
252	0xbda2e4d4	-0.07953802
253	0xbd852267	-0.06500702
254	0xbe0496cf	-0.12948154
255	0xbe307dc2	-0.17235473

e_layer.bias f4 [50]
0	0x3de61c7a	0.112359
1	0x3d4893bc	0.048969015
2	0x3ec3dc34	0.3825394
3	0xbdec833f	-0.11548471
4	0xbc951bc4	-0.018201716
5	0x3c723692	0.014783518
6	0xbd56c6cc	-0.05243568
7	0xbd7ab115	-0.061204035
8	0xbd6bfbf9	-0.057613347
9	0x3d4e20ce	0.050324254
10	0xbe6146a7	-0.21999608
11	0x3e59e8d0	0.21280217
12	0xbe2c77c3	-0.1684256
13	0xbe90d86e	-0.28290123
14	0x3cf5c2bf	0.030000089
15	0x3df33492	0.11875261
16	0xbe242962	-0.16031411
17	0x3df4b561	0.11948658
18	0x3d76b523	0.06023134
19	0xbaf1c2fd	-0.0018444952
20	0xbce66332	-0.028123472
21	0x3d833262	0.06406094
22	0xbe83c659	-0.25737265
23	0xbd834d84	-0.06411269
24	0xbe35fae3	-0.17771487
25	0x3d995c0a	0.07488258
26	0x3e419eb1	0.18908192
27	0x3e1619a0	0.14658213
28	0x3d99e100	0.075136185
29	0xbd8cd117	-0.06875818
30	0xbe118e25	-0.1421438
31	0xbe67eca9	-0.22648872
32	0xbe30989e	-0.17245719
33	0x3c17c8bd	0.009264168
34	0x3e636916	0.22208056
35	0x3dced344	0.100988895
36	0xbeb6b3b0	-0.35683966
37	0xbea37ab6	-0.3192956
38	0xbd3f221c	-0.04666339
39	0xbe60d881	-0.2195759
40	0xbe6e544c	-0.23274344
41	0x3e22fdf8	0.15917194
42	0xbcf696e1	-0.030101242
43	0x3d909ebf	0.070615284
44	0xbe3d2a9c	-0.18473285
45	0x3d98be3b	0.074581586
46	0xbe93bda7	-0.2885563
47	0x3e0253dc	0.12727302
48	0xbe16735b	-0.14692442
49	0xbd018499	-0.031620596
