ckpts/dkt/algbg/model.ckpt (torch, 904287 bytes, 7 tensors)

interaction_emb.weight f4 [962, 100]
000000 c5 3e a0 be 53 ab 89 3c 46 6f 1a be 66 bf 01 be
       -0.3129789 0.016805327 -0.1508151 -0.12670669
000010 9f b8 28 3f 73 01 9b bd 5e cc 12 3e 6d 39 1d 3f
       0.6590671 -0.07568636 0.14335772 0.6141575
000020 17 fc be 3f 61 6e 20 3f 15 07 b7 3e 49 f1 ae 3f
       1.4920682 0.62668425 0.3574759 1.3667384
000030 ab 77 50 bf 66 ca a3 bf 00 cb db be bd 13 44 bf
       -0.814326 -1.2796142 -0.42928314 -0.7659262
000040 3e 70 9d bf 85 ae b8 3f f2 68 0e 3f 56 8c 8a bc
       -1.2299879 1.4428259 0.55628884 -0.01691262
000050 f0 cd e1 3d 2b 41 86 bf 58 a6 c0 bf 6c c1 e7 be
       0.110256076 -1.0488638 -1.5050764 -0.45264757
000060 ba f7 b1 3e 5d 23 69 bd 19 e6 b5 bf d3 97 63 3e
       0.34759313 -0.05691849 -1.4210845 0.22225885
000070 ed 88 71 bb 85 77 36 3e 37 a7 f2 3f 39 e2 31 bf
       -0.0036855296 0.1781903 1.895728 -0.69485813
000080 2e ec c3 be 62 7f b8 bf 1c f0 0b bf b4 37 9e 3d
       -0.38266128 -1.4413874 -0.5466325 0.07725468
000090 2d 33 8b bf ec 57 a1 bf 96 37 bc 3f cb aa 2b 3f
       -1.0874993 -1.2604957 1.4704463 0.67057484
0000a0 7a 3a 4e bd 4e 52 60 be dc 34 73 3f 0c a9 d8 3e
       -0.050348736 -0.21906397 0.9500253 0.42316473
0000b0 7c ed 1b 3e 63 f0 b5 bf cc 2a ca 3e fd d4 d5 bf
       0.15227312 -1.4213985 0.39485776 -1.6705624
0000c0 bb b0 3e 3d 94 19 f9 be d5 df 36 3f 8a f3 90 bf
       0.046555262 -0.48652327 0.7143529 -1.1324322
0000d0 98 36 6b bf 76 a4 c8 3f c8 0b e4 bf 23 7d 04 bf
       -0.9188018 1.567519 -1.7816095 -0.51753443
0000e0 15 bf 62 3f f1 d9 f2 bf 30 4f 13 3f fb e3 d5 bf
       0.8857282 -1.897276 0.57542706 -1.6710199
0000f0 a6 dd a2 bf 8a b8 4e bf 77 26 65 bf 2c 48 10 40
       -1.2723892 -0.80750334 -0.8951182 2.254405
000100 54 23 42 3f 74 1b ba bf 52 d2 ab 3e 07 c1 08 40
       0.75835156 -1.4539628 0.335589 2.1367815
000110 53 d2 06 40 9f b6 61 3f c0 24 d1 3f 8c 7f 96 bf
       2.1065872 0.8816928 1.633934 -1.1757674
000120 07 05 e6 3e 3f c7 e9 3e ac 95 b6 bf a3 cb ab 3e
       0.4492571 0.45659825 -1.4264426 0.335538
000130 3e c4 1b 3f 53 ee 4f 3e f6 2b d5 3f 73 20 5a 3e
       0.60846317 0.20305757 1.6654041 0.21301441
000140 d2 a4 a7 3f 41 36 02 c0 db 52 7f bf 8c 10 08 bf
       1.3097174 -2.0345614 -0.997358 -0.5315025
000150 48 b9 83 3f da 79 ba 3f 9c 9a bf 3f b9 46 2c bf
       1.0290918 1.4568436 1.4969058 -0.67295414
000160 3f c0 b7 bf 10 69 2e bf f8 32 61 be 84 55 0d be
       -1.4355544 -0.6812906 -0.219921 -0.13802153
000170 bd dc d9 be 32 df ef 3f fc 1e 55 3f cf 7b 72 3e
       -0.42551222 1.8739989 0.83250403 0.23680042
000180 9b b9 6d bf 2c 8e 06 3f 3b 66 1c bf fe 76 76 bf
       -0.92861336 0.5256069 -0.6109349 -0.9627532
000190 40 23 51 3d 76 2b f8 3e 90 5f 94 3e 56 bf 82 3f
       0.051059008 0.48470658 0.28979158 1.0214641
0001a0 40 41 15 bf cb b4 24 40 fb b5 43 3e 82 a0 84 3f
       -0.5830269 2.5735347 0.19112389 1.0361483
0001b0 0c f4 fa bf 2b 06 a4 3e 39 6e d9 bf aa 2d 3f bd
       -1.9605727 0.32035956 -1.6986762 -0.046674408
0001c0 0e 8c b5 bf 98 96 04 be 27 79 1c bf 93 60 ea 3f
       -1.4183366 -0.12948072 -0.61122364 1.8310722
0001d0 2e ed 0b c0 b3 76 8b bf d4 6b 0d 3f e1 38 1b bf
       -2.1863513 -1.0895599 0.5524266 -0.60633665
0001e0 40 17 a3 bf e3 cf be be 6f 54 50 3f 4a 9b 82 be
       -1.274147 -0.3726798 0.81378835 -0.255091
0001f0 84 a3 c0 3e 5b 49 f7 3e 78 1b 9b 3e 21 06 2d bf
       0.37624753 0.48298153 0.30294394 -0.67587477
000200 4b ec 86 3e 71 cf 37 3f e2 ab ab bf fa bf 82 bf
       0.26352152 0.71800905 -1.341183 -1.0214837
000210 0e 83 8f be 75 d7 84 3f c0 9e ba 3f c4 57 0b 3d
       -0.28029674 1.0378252 1.4579697 0.034019247
000220 bf 0b b6 3f 95 83 27 3f 3e aa 0e 40 96 ab 01 3f
       1.4222335 0.65435153 2.2291408 0.50652444
000230 0b 93 7d bf 2d 5c 9d bf 08 fe 1a 3f ac 69 e4 bf
       -0.99052495 -1.2293755 0.6054387 -1.7844748
000240 b8 69 80 3f 56 60 12 c0 ea b4 2c 3f 9a 18 69 3e
       1.0032263 -2.2871299 0.6746355 0.22763291
000250 39 57 95 bf 53 07 42 3e f3 95 f8 bf f3 61 19 bf
       -1.1667243 0.18948106 -1.9420761 -0.59915084
000260 80 b6 2f bf 55 9c 78 bf 1a 86 8d 3f fe c0 9a bf
       -0.6863785 -0.97113544 1.105655 -1.2090147
000270 54 04 72 be 30 45 8f bf 67 a5 12 bf ad 5d ca bf
       -0.23634464 -1.1192989 -0.57283634 -1.5809838
000280 20 07 d1 3f a0 93 4f bf 57 98 77 be 44 ba b7 3e
       1.6330299 -0.8108463 -0.24179207 0.35884297
000290 85 1f 70 bf c5 cb af 3f f2 1b 13 40 04 36 09 40
       -0.93798095 1.373406 2.2985806 2.1439219
0002a0 09 81 06 3f a3 9a 6e 3f a9 67 1f c0 17 ed bc 3f
       0.5254064 0.93204707 -2.490702 1.4759854
0002b0 4a eb 59 be 21 fb 85 3f eb d2 09 c0 d7 bf 06 40
       -0.21281162 1.0467263 -2.1534984 2.105459
0002c0 7f 64 c7 3f ee 86 e7 3f df a0 92 be d4 39 08 c0
       1.5577544 1.8088052 -0.2863836 -2.1285295
0002d0 cb 89 f1 3f 52 41 1a bf 2e 15 a9 3f 47 93 82 bf
       1.8870176 -0.6025592 1.3209589 -1.0201195
0002e0 bc 9f f0 3e 93 b3 28 bf 67 8c ef 3f 70 60 93 3e
       0.46996868 -0.6589901 1.8714722 0.28784513
0002f0 cb dd c4 3e e7 e0 92 3f 5d 78 35 be 48 92 54 be
       0.38450465 1.1474885 -0.17721696 -0.20758927
000300 c8 ae aa 3f ee cd 86 3d f3 f4 16 3f ba 94 0c 3f
       1.3334589 0.06582247 0.5896751 0.5491444
000310 42 0d 95 3d 72 e7 ac bf f1 96 51 3a e8 18 72 bf
       0.07277919 -1.3508132 0.00079952093 -0.94569254
000320 9f 11 cb 3e 18 96 e3 bf 58 83 1a bf c8 18 44 c0
       0.3966188 -1.778018 -0.60356665 -3.0640125
000330 a2 42 bd bf 36 4c 25 3f 17 b0 16 3f 44 be f8 be
       -1.478596 0.64569414 0.5886244 -0.4858266
000340 ac 4e aa 3e 21 8e ad 3f 90 4c 70 bd eb 02 09 3f
       0.33263147 1.3558999 -0.058666766 0.5352008
000350 26 e1 6c 3e bc 1f 3c 3f 1e 89 97 3c 5a 1d b9 be
       0.23132762 0.7348592 0.018498 -0.36155206
000360 5e be 49 3f 30 16 b0 3f c6 30 bb 3e f1 31 34 3f
       0.788061 1.3756771 0.3656065 0.70388705
000370 ae 7a db be ad a4 27 c0 aa 00 00 c0 da f4 98 3e
       -0.42867035 -2.619426 -2.0000405 0.29874307
000380 8e 6b d8 3e 76 12 08 bf f2 f7 5c bf 08 61 a8 3f
       0.42269558 -0.5315317 -0.86315835 1.3154612
000390 b8 09 d1 be 99 47 82 bf 57 68 e9 bf 17 c5 c3 be
       -0.40827727 -1.01781 -1.8234967 -0.38236305
0003a0 a1 4d f1 be 42 d1 ff 3f 4d e3 91 bf 1b 1e 35 be
       -0.4712954 1.9985735 -1.1397492 -0.17687266
0003b0 0d 55 4d 3f 99 46 b5 be fd 4a 05 3f 6d c8 1a be
       0.802079 -0.35405424 0.5206755 -0.15115519
0003c0 7f 48 5f 3e 85 ca 00 bf 29 5c 27 bf c6 1c f9 be
       0.21804999 -0.5030902 -0.65375 -0.48654765
0003d0 e0 3d 63 bf 75 b9 6a 3e 86 68 56 bf 74 1b cb bf
       -0.8876629 0.22922309 -0.8375324 -1.5867753
0003e0 ed 57 f6 bf 8f e6 66 bf 13 fe 97 be eb a2 a6 3c
       -1.9245583 -0.90195554 -0.2968603 0.020341357
0003f0 6e a2 8c 3f 21 6a a2 3f af 99 89 3e 71 b4 ae 3f
       1.098707 1.2688638 0.26875064 1.3648816

lstm_layer.weight_ih_l0 f4 [400, 100]
000000 63 12 12 3d d2 e3 48 bd 25 2a 3b bd 3a 2d 19 bc
       0.035662066 -0.04904539 -0.04569449 -0.009349162
000010 79 fe 80 3d dd 06 e9 bc 7d 11 e2 bb 7c 9c 43 3c
       0.06298537 -0.028445655 -0.0068990574 0.011939164
000020 1a 22 c6 3d 05 7f 48 bd 46 c6 ef bd ae 4a 7b 3c
       0.09674473 -0.04894926 -0.117077395 0.015337629
000030 5b 99 69 3d 2b 97 c5 3d 31 c9 5c 3d 0f 9b 82 bc
       0.057031017 0.096479736 0.05390281 -0.015943078
000040 0a a4 72 bc b5 0c 7d 3d f8 87 03 3e 1d 53 a0 bd
       -0.014809618 0.061779696 0.12844837 -0.078283526
000050 db 90 ca bd bb 7c f7 3c 57 a3 ad bd 99 da 50 bd
       -0.0989091 0.030210843 -0.0847842 -0.05098972
000060 cf b2 f9 bd e9 f4 3d bd 46 09 09 3e b1 44 8f bd
       -0.12192308 -0.046376143 0.13382444 -0.06995524
000070 5b d5 cc bd b3 72 8f bc aa c3 a7 bd b4 cb 00 3d
       -0.10001632 -0.017510748 -0.08191617 0.031444266
000080 67 40 c0 3c 7e 26 99 3b ae bd 3d 3c d1 71 b5 bd
       0.02346821 0.004673778 0.011580868 -0.088595994
000090 6f 51 c5 bc 84 5c 8d bd 4a ba a7 bd d9 b3 5a 3d
       -0.024086682 -0.069024116 -0.08189829 0.053394172
0000a0 69 ee 2f bd 08 7c 7e 3d 69 63 81 3c 6f 8d ec bc
       -0.042951975 0.062130004 0.015794473 -0.028876035
0000b0 e6 87 ff 3d 49 22 01 be 9b 31 5e bc c7 de c7 3d
       0.124770924 -0.12610735 -0.013561632 0.09759288
0000c0 95 b0 db 3d 1d 9d a6 3d e9 a8 62 bc ef c4 f4 3d
       0.1072704 0.08135436 -0.013834217 0.119516246
0000d0 41 69 04 be a3 42 60 3e 36 c9 5c bc 81 8d 06 3d
       -0.12930776 0.2190042 -0.013475707 0.032849792
0000e0 71 ac e3 bc b7 f8 cc 3d 1e 79 56 3d 0a 21 eb bc
       -0.027792187 0.10008376 0.0523616 -0.028702278
0000f0 2d f4 3e bc a0 ac b1 3d 61 8d 2e bd 56 a0 dc 3d
       -0.011654896 0.08675504 -0.0426153 0.10772769
000100 fc bb e6 3d 8e f2 59 bb a1 2e ea 3d b6 f0 a9 bc
       0.11266324 -0.0033256146 0.11434675 -0.020744663
000110 1f c5 64 bd 47 a0 7a 3d 2c 39 81 bd 8f fb db bd
       -0.05585205 0.06118801 -0.06309733 -0.1074134
000120 e3 62 94 3b aa 88 48 bd 4f ce 58 bd c1 e0 93 bd
       0.00452839 -0.048958458 -0.052931126 -0.07220603
000130 61 80 a0 3b 99 ca bd 3d be 8b 1f bd 82 52 f3 bd
       0.0048981165 0.09267158 -0.038951628 -0.118809715
000140 c7 20 f1 3d 5e 84 83 3d f5 00 90 bd bf dd d5 bb
       0.1177383 0.064217314 -0.070314325 -0.0065266783
000150 c2 01 c6 bc 14 07 da 3c 68 b3 da 3d 23 0d bd bd
       -0.02417076 0.026614703 0.1067875 -0.09231021
000160 18 e7 fd 3d 5f d3 e3 3d 73 58 df bd e9 64 e0 3d
       0.12397593 0.111243 -0.10905542 0.10956747
000170 f8 2c b1 3d 5f 1d 0d 3d 2e 47 e8 ba 03 ea ae bd
       0.08651155 0.03445184 -0.0017721409 -0.08540728
000180 31 2c 14 3e 35 e1 89 3c 57 cf c8 3d e0 a6 5a bd
       0.14469983 0.01683102 0.09805172 -0.0533818
000190 97 8d f4 bd 75 f2 6a bd 4e 66 ab bd 3a 0a 45 bd
       -0.119410686 -0.05736013 -0.083691224 -0.048105456
0001a0 2b c6 b2 3d 41 a7 4f 3d 7e 55 8e 3b e6 21 8b bd
       0.08729204 0.050696615 0.0043436876 -0.06793575
0001b0 3b 23 04 3d 11 da 00 3e 7b b7 83 bd 3d 8b 64 3c
       0.03226016 0.12583186 -0.064314805 0.013949213
0001c0 07 9e 05 bd ca a9 2d 3d f4 dc 17 bd e6 e1 90 bd
       -0.03262141 0.04239825 -0.03707595 -0.07074337
0001d0 c0 99 c6 3d 7e 21 b3 bd 8c df f5 bc c7 c0 fc 3c
       0.09697294 -0.087466225 -0.030013822 0.030853642
0001e0 d1 07 91 bc a6 ff 56 3d 1b 85 37 3e b8 b0 4e 3d
       -0.017703922 0.0524899 0.1792187 0.0504615
0001f0 8b b6 07 bc 6c 81 53 be 54 50 a3 bd 39 6a fd bd
       -0.008283268 -0.2065484 -0.07974306 -0.12373776
000200 ef da 9b bd 72 06 45 bc a3 b5 1c 3e 74 c1 e8 3d
       -0.07610118 -0.012025462 0.15303664 0.11365023
000210 2c a2 f4 3d 9b 8e 11 3d 3d 89 50 3b b9 d4 d1 3c
       0.11944994 0.03553639 0.0031820082 0.02561413
000220 37 18 8a 3b b2 88 e5 bd 98 ca 3c 3d 06 38 06 bd
       0.0042143124 -0.11207713 0.046091646 -0.032768272
000230 f3 b8 c5 bc 57 f1 d8 bc 2b 10 3c be a2 90 b7 3d
       -0.024136042 -0.026482267 -0.18365543 0.089631334
000240 db 61 ee 3d ca 66 21 be 45 2a de bd 76 f3 2c 3c
       0.11639758 -0.15761867 -0.10847906 0.0105560925
000250 19 85 1d 3e 13 c5 9c 3d f7 36 f8 bc b7 af 55 bd
       0.15382804 0.076547764 -0.030299647 -0.052169528
000260 02 99 7e bd 73 db 11 3d fb bb ac 3d e2 c8 18 be
       -0.06215764 0.035609674 0.08434292 -0.1492038
000270 1a c5 63 bd 62 39 0a 3e aa 10 9b 3c 73 a2 f7 3c
       -0.055607893 0.13498452 0.018928844 0.030228829
000280 2b cd a2 3c 73 f1 c2 bc 3d 93 bb 3d 0f 57 32 bc
       0.019873222 -0.023796773 0.09158943 -0.010885014
000290 84 62 14 3e 1e 03 ec bd ff 06 1b bd 93 3b 07 3d
       0.14490706 -0.11524032 -0.03784847 0.0330158
0002a0 9d db ae 3c 7a 57 d0 bd e9 ee 96 bc 27 7b 04 3e
       0.021344954 -0.10172935 -0.018424468 0.12937604
0002b0 98 8a a3 3c 2e 36 df bc 89 a5 c7 bd a8 06 e8 bd
       0.019963548 -0.027247515 -0.0974837 -0.113293946
0002c0 79 d1 eb bd ca e7 dd bd 5c e9 3c be e2 ec 51 3d
       -0.11514563 -0.10835226 -0.18448395 0.0512513
0002d0 c2 c9 c3 bd 67 14 03 3d 91 2e 33 3d 1a bd 19 3e
       -0.095599666 0.03200188 0.04374558 0.15013543
0002e0 69 ba 28 be de ee da bc 3d 6a 7b bc 7c cc ae 3d
       -0.1647736 -0.026725229 -0.015345153 0.08535096
0002f0 6d a6 fe bc 0e 77 9a bc dc 99 50 3c 5b ca 19 3e
       -0.031085217 -0.018855598 0.012731995 0.15018599
000300 91 29 2e 3d 01 30 b6 3b 10 ad 50 bd d7 42 62 bd
       0.04252011 0.0055599217 -0.050946295 -0.055239525
000310 d2 0c 47 3e 7c fb e8 bd 38 5b b8 3d 33 37 d5 bd
       0.19438484 -0.11376092 0.090017736 -0.10410919
000320 6f 68 54 bd da 4e 71 bc e9 74 b4 bd f8 92 9b bd
       -0.051857408 -0.014728272 -0.08811361 -0.075963914
000330 71 d3 63 3d a3 21 78 3d a7 1b b5 bd e9 a1 c4 bd
       0.055621568 0.060578953 -0.08843165 -0.096011944
000340 79 80 e8 bc 44 29 a7 bc 03 0f 5b bc 93 29 c0 bc
       -0.028381573 -0.02040542 -0.013370278 -0.023457324
000350 a3 42 88 bd 99 6f 22 bb a6 21 d2 bd dd 9c af bd
       -0.06653335 -0.0024785756 -0.10260324 -0.08574841
000360 f7 2e 85 bc 8b de a3 bc 85 92 8a 3d 20 55 cb 3c
       -0.016257746 -0.020003578 0.06766228 0.024820864
000370 d6 ab c9 3d a9 c4 57 3d 3f 51 89 3d e1 f7 03 be
       0.09847228 0.052677784 0.067049496 -0.12887527
000380 5a 8f 17 be 11 52 32 bc 22 46 da 3c d0 bf e3 bd
       -0.14800778 -0.010883824 0.02664477 -0.1112057
000390 34 9e fd 3d bf e0 6c 3d cb 25 e6 bd b3 0e 26 bc
       0.123836905 0.057831522 -0.11237677 -0.0101353405
0003a0 2f 54 d8 bc df 61 86 bd 4c 3f e3 bd ae a9 9b bc
       -0.02640733 -0.06561636 -0.11096057 -0.019001808
0003b0 c8 0d 2c 3e f0 f2 2f bd e2 90 d3 bc db 03 79 3d
       0.16802132 -0.042956293 -0.025825921 0.060794692
0003c0 ef 2e 12 be 78 57 35 bd d3 19 86 bd 1e 70 db bc
       -0.14275716 -0.04427287 -0.06547894 -0.02678686
0003d0 07 e9 67 3a 15 5d 02 3e 67 ed b2 3c 92 c5 ae bc
       0.00088466745 0.1273082 0.021841718 -0.021334443
0003e0 b0 f6 ac bd ee 92 b8 bd ae 02 d0 3b c2 cc 7a b8
       -0.084454894 -0.090123996 0.0063479757 -5.979534e-05
0003f0 79 2c 06 3b 36 f7 85 bd 1f d9 06 be b1 2d 26 3d
       0.0020473285 -0.06541292 -0.13168763 0.04057092

lstm_layer.weight_hh_l0 f4 [400, 100]
000000 1b 5d d0 3b ec a8 9d 3d c3 2f 4f be cc 51 ac 3d
       0.0063587553 0.07698235 -0.20233063 0.08414039
000010 3f ee 1a 3e fb a7 cf bd 69 e3 ec 3c 43 b2 67 3d
       0.15129946 -0.101394616 0.028917031 0.056566488
000020 3f 2a a6 bd 9b 35 53 be 40 ba 46 3c cc 1a 93 3d
       -0.081135266 -0.20625918 0.012129366 0.071828455
000030 67 c0 fe 3c eb cb c2 bd bf cb 12 bd 64 7c 29 3e
       0.031097604 -0.095115505 -0.03583884 0.16551358
000040 a6 da be bc 50 48 89 3a 83 43 43 be 92 bc 29 be
       -0.02329762 0.0010473821 -0.19068722 -0.1657584
000050 30 87 2f bd 7f d2 0b bb 85 7a a7 bd cb 90 88 3d
       -0.042853534 -0.0021335182 -0.081776656 0.06668242
000060 13 d7 0e be 1e e6 e4 3b 64 40 6a bd 81 3c 04 3d
       -0.13949232 0.00698544 -0.057190314 0.032284264
000070 69 61 1f bd 76 25 b3 bc e4 1b 34 3e 13 4d 65 3d
       -0.038911257 -0.021868449 0.17588764 0.055981707
000080 51 75 0c 3e 1d 57 85 3d ca 43 33 be 40 ca 79 bd
       0.13716628 0.06510756 -0.17506328 -0.060983896
000090 11 c7 22 be 3d 2f 61 bd 9a 5a 5c bd a1 33 8e bd
       -0.1589625 -0.05497669 -0.053797342 -0.06943441
0000a0 a6 22 11 3c 2f 5d 07 3e 5f 60 2c bd 90 77 b8 3d
       0.0088583585 0.1321914 -0.042084094 0.0900718
0000b0 dc e3 a2 bc 54 ae 94 bc 5c 56 e7 3d 17 a2 6b be
       -0.019884042 -0.018149532 0.112957686 -0.23011051
0000c0 a2 55 f5 3d 12 3a 88 3b 52 8a 11 be aa aa 01 3e
       0.11979224 0.004157313 -0.14212921 0.1266276
0000d0 3f ae a8 bd 53 11 d8 bd e5 0b af bd d8 ee 20 be
       -0.0823636 -0.10550179 -0.085471906 -0.15716112
0000e0 eb e5 c5 3d 0b 5e 90 bd fd 63 fa bd 45 bf f8 bd
       0.09662994 -0.07049187 -0.122261025 -0.12145857
0000f0 6e 1d b5 3d 4a 59 55 3d f8 e4 aa 3d b3 08 2f 3d
       0.08843504 0.052087106 0.083444536 0.042732906
000100 ec 39 40 bb 67 46 13 bd 7b c8 c6 3d 24 36 de 3d
       -0.00293314 -0.035955813 0.09706207 0.1085017
000110 ee c5 83 3d a7 78 87 bd 92 06 3d 3e fd df 77 3d
       0.064342365 -0.066148095 0.18459538 0.060516346
000120 9d 10 a5 bd eb 48 b2 bd d6 dd aa bd 97 e3 96 3d
       -0.08059809 -0.08705314 -0.08343093 0.07367628
000130 1d 12 8e 3d 0b 30 53 bd e4 c3 39 3d 70 bf 34 bb
       0.069370486 -0.05155949 0.04535283 -0.0027579926
000140 29 13 a9 3d 17 c2 36 bc af 11 44 bd 2c 94 e9 3d
       0.08255608 -0.011154673 -0.047868427 0.11405215
000150 3c 99 ab 3d 2a c7 12 bd 15 9c 42 bd 6f 62 95 3d
       0.083788365 -0.03583447 -0.047512133 0.07294165
000160 4a 55 20 bc 8a 54 44 3e 73 de ec 3d 70 3a 39 3d
       -0.0097859595 0.19172874 0.11565866 0.045221746
000170 be 1f 9e 3d ca ca f3 bd 20 bc 01 be 5a 7a 71 bd
       0.07720898 -0.11903913 -0.1266942 -0.058954574
000180 52 c3 ab bc 48 f5 24 3e 86 02 45 3c be 16 08 be
       -0.02096716 0.16109192 0.012024527 -0.13289925
000190 92 25 c0 3d a6 b0 62 bd 22 25 c0 3d d7 d3 e4 3d
       0.09382166 -0.055344246 0.093820825 0.11173218
0001a0 ff ed 72 3d 1c a4 b3 bc 2f b9 47 bd c5 de ad 3d
       0.059309002 -0.02192884 -0.04876059 0.084897555
0001b0 6f cc 24 3e 23 9c e5 bd 2b 64 85 bd d5 98 70 bc
       0.1609361 -0.11211421 -0.06513246 -0.0146848755
0001c0 94 c8 eb bc ed 1b 4a bd c9 9b 46 3c 7f 19 5a bd
       -0.028782167 -0.04934304 0.012122103 -0.05324697
0001d0 df b6 0b 3d b1 24 59 bd 0a 62 20 bd 13 a7 d5 3c
       0.034109946 -0.053013507 -0.039155997 0.026080644
0001e0 00 46 56 bc af f3 90 3d ba df 90 bd be 11 94 bb
       -0.013078213 0.07077729 -0.070739225 -0.0045187166
0001f0 b6 30 c7 3c a6 ef 00 be d1 16 53 3b c5 63 42 3c
       0.02431522 -0.12591419 0.0032209645 0.011864607
000200 6a 91 e3 3d 61 f4 3c 3c b3 f3 37 3c 7d e9 6c bd
       0.1111172 0.011532874 0.011227536 -0.05783986
000210 86 2d c7 3c 6c 8f 10 bc f2 13 51 bc 0c 3a 29 bc
       0.0243137 -0.008823257 -0.012761103 -0.010328781
000220 f8 9f 17 3c f9 09 07 3e a6 ef 9c bd c0 fd f3 3c
       0.009254448 0.13187398 -0.07662897 0.029784083
000230 8f 0a ec 3d de c3 e5 3d 4d ff 05 be 55 c2 c6 3c
       0.115254514 0.11218999 -0.13085671 0.024262587
000240 24 61 b1 bd c4 13 9c bd c0 06 74 3d 62 be ed bd
       -0.08661106 -0.076209575 0.05957675 -0.11608578
000250 31 4d bf 3d 90 0a a6 3b 53 b6 ed bd fa 94 b3 3d
       0.09340895 0.005067177 -0.11607041 0.087686494
000260 94 1d e1 3c a6 f8 10 bd 58 3d e5 3d 72 ef 87 bd
       0.027479924 -0.03539338 0.11193341 -0.066374674
000270 32 76 3b 3d a8 93 82 3c ad 1c 12 3c 83 7a be bc
       0.045767017 0.015939549 0.00891797 -0.023251778
000280 57 30 10 3d 59 13 19 be 9f f9 ea bd 66 fe c5 3d
       0.03520235 -0.14948787 -0.11473393 0.09667663
000290 f5 6c 4b bd 5d 3d a9 3c dc 34 e2 3d fc f8 ae 3d
       -0.049664456 0.020659143 0.110452384 0.08543584
0002a0 22 49 50 3d ae 3d 26 be da 66 6a bb e0 11 25 3d
       0.050850995 -0.16234466 -0.003576687 0.04030025
0002b0 b8 b9 16 3e ae 9b 07 bd 06 2e b1 bc ae 8e d9 bd
       0.14719284 -0.033107452 -0.021628391 -0.10622917
0002c0 e5 7e b6 bc ae a8 4a 3e 4f 12 08 bd ac 0a cd bd
       -0.022277305 0.19790909 -0.033220585 -0.10011801
0002d0 b2 66 3e 3e ed 97 51 3d cf 0a a2 3d 28 b0 9b bc
       0.18593863 0.05117028 0.07912218 -0.019004896
0002e0 77 c2 6d bc fb 03 be 3d fd e4 d5 bd 40 9f e8 bd
       -0.014511696 0.09278103 -0.10444067 -0.113584995
0002f0 e8 2e 2e bd c9 84 28 3d d9 b5 31 bd d6 aa 42 3c
       -0.042525202 0.04114226 -0.043386314 0.011881551
000300 0c 62 c7 3c 45 42 9f bd 51 86 df 3c eb b6 9a bd
       0.024338745 -0.07776312 0.027285727 -0.0755442
000310 20 95 a5 3d aa 9c 99 3d 54 59 29 bb 1c 25 3f 3b
       0.08085084 0.075005844 -0.0025840597 0.0029166406
000320 fe 55 3a be 36 7e b3 bd 7b 47 1e bd 64 c8 fd 3d
       -0.18196866 -0.08764307 -0.038642388 0.12391737
000330 30 ea 11 be e7 d8 5c bd b2 8d dd bc 87 13 7d bd
       -0.14249492 -0.05391779 -0.027045105 -0.0617862
000340 c4 0c e8 3c 05 61 09 be b1 fe ca bd be 94 90 3d
       0.0283264 -0.13415916 -0.0991186 0.0705962
000350 a0 43 03 bd d2 50 07 3d e9 2a ae 3c 34 f4 d9 3d
       -0.032046914 0.03303606 0.021260696 0.10642281
000360 11 74 f6 bb b9 dd df bc 1f 5c 29 be c7 58 09 be
       -0.0075211604 -0.027327405 -0.16539048 -0.13412772
000370 4b b0 79 3d bf 35 ea 3c 9b 99 30 be bb 54 ea bc
       0.06095914 0.028590081 -0.17246096 -0.028604856
000380 c2 45 08 3e c0 51 92 3d fa 5d 1d be 02 a5 db 3c
       0.1330786 0.07144499 -0.1536788 0.02681208
000390 8f 63 e7 3d c9 d3 9f 3d 84 27 a1 3d dd b4 a3 bc
       0.11298286 0.07804067 0.07868865 -0.019983703
0003a0 80 09 2a 3d 79 c2 b4 3d 2e 43 49 bc 58 c5 4e 3d
       0.041512966 0.08826155 -0.012284083 0.05048117
0003b0 5b 87 35 bd e9 5c 0e 3e 8e 7e e3 bc 5a 9f b3 bd
       -0.04431854 0.1390263 -0.027770307 -0.08770628
0003c0 76 40 ac bc 80 5e c5 3d ce a5 18 3d 86 82 0e 3e
       -0.021026831 0.09637165 0.0372675 0.13916978
0003d0 c0 66 a4 3d 4e db b6 bc d0 03 9d 3d 8d 56 31 3d
       0.080274105 -0.02232137 0.07666743 0.043295432
0003e0 38 36 e1 3c 0f 03 ac 3d 29 09 1e bd 14 18 12 3d
       0.027491674 0.08399021 -0.038582955 0.035667494
0003f0 5b 72 9d bd bd 37 66 3c c2 e0 93 3d bf 8d 0a bd
       -0.07687827 0.014051375 0.072206035 -0.033826586

lstm_layer.bias_ih_l0 f4 [400]
000000 a2 fc 13 3e bb e2 ef 3d c6 e7 01 3e ac b9 fc 3d
       0.1445184 0.11713167 0.12686071 0.123401016
000010 20 bc ed 3d ff 2c 19 3e 57 cf 00 3e 1b 20 80 3e
       0.116081476 0.14958571 0.12579094 0.25024495
000020 4b ab 8b 3d 48 57 87 3d 49 ab 80 3e 8c 39 d2 3d
       0.06819781 0.066084445 0.2513068 0.102648824
000030 f5 db 3d 3e 87 8d 9f 3d fb 9f bb 3d 2d 76 48 3d
       0.18540938 0.07790666 0.09161373 0.048940826
000040 df 60 68 3d d3 29 1a 3d d6 66 3b 3e ae 9f 30 3e
       0.05673301 0.037637543 0.18300948 0.17248413
000050 d4 2d 9d 3d d6 38 50 3e 65 17 e6 3d c7 93 c6 3c
       0.07674757 0.20334181 0.11234931 0.024240388
000060 34 b3 3e 3d 22 d8 16 3e df 28 37 3e 53 01 a9 bb
       0.04655762 0.14730886 0.17886685 -0.0051576286
000070 5f 71 4c 3e 89 cc 6b 3e f0 25 31 3e 05 de 60 3d
       0.19965123 0.23027243 0.17299628 0.054899234
000080 bc b3 76 3e c6 b8 50 3e 16 d0 3d 3e 26 2f af 3d
       0.24092 0.20382985 0.1853641 0.08553915
000090 ab 45 f6 3d 8a a8 ca 3d bc bc 2b 3e 37 9e 3e 3e
       0.12025007 0.098954275 0.16771215 0.18615042
0000a0 82 a8 18 3e 83 c1 54 3d c0 b3 00 3e a8 65 da 3d
       0.1490803 0.05194236 0.12568569 0.10663921
0000b0 fa 3d 94 3d 84 01 31 3e 08 43 38 3e 98 2e fd 3d
       0.072383836 0.17285734 0.1799432 0.12362403
0000c0 18 53 55 3d 55 8b 1e 3e f5 a2 51 3e e4 39 e6 3d
       0.052081198 0.15482838 0.2047232 0.112415105
0000d0 4c 16 86 bd b3 19 cb bc 5b 6a a5 3d bf 30 43 3d
       -0.065472215 -0.024792528 0.08076926 0.04765391
0000e0 91 13 22 3e 5b c3 86 3e 41 ce bb 3d de 32 c0 3d
       0.15827776 0.2632092 0.09170199 0.09384702
0000f0 9c 05 c4 3d 0e 23 da 3d 0c 69 ad 3d a7 89 28 3e
       0.095713824 0.106512174 0.08467302 0.1645876
000100 52 d9 f4 3d d0 54 ab 3d f6 ac de 3d 88 9f 9b 3d
       0.11955513 0.08365786 0.108728334 0.075987875
000110 dd e7 3e 3d 92 01 66 3e d0 a8 02 3e fb a3 bf 3d
       0.04660784 0.22461537 0.1275971 0.09357449
000120 0c 1b 26 3e b3 10 01 3e 44 fe 96 3d bf c2 c5 3d
       0.16221255 0.12604026 0.07372716 0.096562855
000130 0f 65 2d 3e d0 c8 4c 3d 1f 1a 06 3e 6e 6e a2 3d
       0.16933082 0.049996197 0.13095902 0.07931219
000140 80 7c d8 3b 53 f4 85 3c 61 af 48 3e 04 a7 01 3e
       0.0066066384 0.016351854 0.19598152 0.12661368
000150 08 70 77 3d e8 cf 4d 3e 59 87 ce 3d d2 26 c8 3d
       0.060409576 0.20098841 0.10084409 0.097730294
000160 3e c1 e2 bc 35 f8 60 3d 89 ad ee 3d 43 6d 26 3e
       -0.027680036 0.05492421 0.11654193 0.16252618
000170 64 fc 63 3d 62 44 2e 3e c8 00 18 3e 50 56 37 3e
       0.05566062 0.17018273 0.14844048 0.1790402
000180 dc d8 71 3e aa 26 97 3d e1 a9 9d 3d 2c 19 0d 3e
       0.23617882 0.073804215 0.076984175 0.13779134
000190 a0 37 3b 3e 5b cc 23 3e b7 21 48 3c 7e b5 25 bd
       0.18282938 0.15995924 0.0122150695 -0.040456288
0001a0 c9 0d 33 3e 98 a0 e9 3d f8 e5 32 3e 59 f3 cd 3c
       0.17485727 0.11407584 0.17470539 0.025140451
0001b0 88 b1 e4 3d 55 00 0f 3e dd 67 24 bd dd 4d 2d 3e
       0.11166674 0.1396497 -0.040138114 0.16924234
0001c0 a2 df 1a 3d ec 4f 34 3c a7 7b 01 3e c8 d4 ad 3c
       0.03781093 0.011005383 0.12644826 0.021219626
0001d0 a5 e0 68 bd ea fa 43 3e e5 b4 85 bd a6 76 13 3e
       -0.056854863 0.19138685 -0.065286435 0.1440073
0001e0 52 3a 23 3d e7 d1 38 bd 6c 46 2f bc 2a 38 18 3e
       0.03985054 -0.045122053 -0.010697942 0.14865175
0001f0 7c 73 13 3d 0d ee 82 3c 39 94 51 bc 4a 3f a3 3d
       0.035998806 0.015982652 -0.012791687 0.07971056
000200 66 85 84 3d 5e 15 97 3d 87 ad 27 ba 5f a9 70 3d
       0.06470756 0.07377122 -0.0006396402 0.058755275
000210 5d 8c a5 bc d0 0d 0e 3d e8 39 24 3e a7 88 32 3e
       -0.020208532 0.03468114 0.16037714 0.17434941
000220 f9 63 22 3e 48 b3 7d 3d b4 34 8e 3d a3 9b f5 3c
       0.15858449 0.061938554 0.06943646 0.02998144
000230 8b ee 7a 3d 65 b7 8e 3c 15 a1 21 3e fd 1e 38 3d
       0.06126265 0.017421434 0.15784104 0.044951428
000240 9c 8a 1b 3e 52 84 43 3e b8 6e 5e 3d 07 ee 19 3e
       0.15189594 0.19093445 0.05430481 0.15032206
000250 19 ab 45 bd c2 48 5a 3d 05 63 28 3e 3c 67 0c 3e
       -0.048258875 0.053292044 0.16444023 0.13711256
000260 34 d5 81 3d 22 69 14 3e 6f da 4c 3c 52 03 ba 3d
       0.063394934 0.1449323 0.0125032505 0.090826645
000270 93 d7 e5 3d 06 e8 a9 bb a5 7a 89 3d b3 08 6e bd
       0.11222758 -0.00518513 0.06712846 -0.058113765
000280 b8 5c e0 ba 5a b7 f7 3d b7 70 d9 3c be 03 1e 3e
       -0.0017117476 0.120955184 0.026543004 0.15431115
000290 18 0c ae 3d 5b e4 aa 3d fc 9c 33 3e 4c c0 a3 3d
       0.084984004 0.083443366 0.17540354 0.07995662
0002a0 13 4f 76 3c 9d 76 fd 3d 47 38 08 3e 48 cf bc 3d
       0.015033501 0.12376139 0.13302718 0.09219223
0002b0 d8 8c e2 bc 8b 3e 53 3d 8d 19 3b bd 7c 97 06 3e
       -0.02765505 0.051573317 -0.045678664 0.13143724
0002c0 75 8a 2f 3e 6f 95 1b 3e d1 ac f8 3d cc 4f 2f 3e
       0.17142661 0.15193723 0.12142337 0.17120284
0002d0 58 67 33 3d 35 5a 2e 3e 4c 55 23 3b dc d8 16 bd
       0.04379973 0.17026599 0.0024922667 -0.036827907
0002e0 c3 f9 08 bc 32 54 e1 3d e3 5c dd 3d b2 ea e8 bc
       -0.008360329 0.11002387 0.10808732 -0.028432224
0002f0 45 61 fc 3d 8e 89 ac bc 49 10 e7 3c 4d fc 97 bd
       0.1232324 -0.021061685 0.028206008 -0.074211694
000300 02 9c d0 3d 92 da 1a 3e cf 9e 8b 3d f0 ec e6 3d
       0.10186006 0.1512244 0.068174 0.11275661
000310 2e 35 8e 3d 56 68 28 bc 2b c1 bc 3d 9d 6f 6e 3d
       0.06943737 -0.010278782 0.09216531 0.05821191
000320 63 5c 09 be f4 37 e7 bd f1 f7 1e be a7 08 25 3e
       -0.13414149 -0.11289969 -0.1552427 0.16116582
000330 88 2c c0 3d 40 5c c2 bd 24 a1 34 bd 67 b9 e8 3d
       0.09383494 -0.094902515 -0.04409899 0.11363488
000340 22 56 9a bd 16 b2 fc bc 2e 81 71 3c 8e f9 81 bc
       -0.0753596 -0.030846637 0.0147402715 -0.015866067
000350 ab 6c 5b bc b6 18 2d be 2b 8a 45 be be 9e 64 bd
       -0.013392608 -0.16903958 -0.19290988 -0.05581545
000360 eb f1 82 3d 57 b4 b8 3d 3e a7 0e bc 44 c1 26 be
       0.063937984 0.09018772 -0.008706866 -0.16284662
000370 f1 30 24 bc 84 af d5 3c 89 8b 2e be 95 22 83 3d
       -0.010021434 0.026084669 -0.17045416 0.064030804
000380 65 36 34 3e ec 2d 28 be 93 0b f3 bc 10 d3 d7 3c
       0.17598875 -0.16423768 -0.029668605 0.02634576
000390 5b 8b 2b bd e2 5e 46 3d df 07 28 3e 63 7e 32 bd
       -0.041880947 0.04843033 0.16409253 -0.043577563
0003a0 68 ec b0 3c 1d cd 82 bc b2 68 36 be 84 ff 23 39
       0.021597102 -0.015966946 -0.17813376 0.00015640078
0003b0 ee 82 51 bd cf c8 e3 3d a9 9b 6f bc 23 1c 3f bd
       -0.051150255 0.111222856 -0.014624515 -0.046657693
0003c0 cb 67 f9 3d c9 79 4c 3d 09 8b d1 bd b8 86 ef bd
       0.12178 0.04992083 -0.10231597 -0.116956174
0003d0 f5 6d db 3d 78 22 ec bd 22 37 62 3d da 26 e7 bd
       0.10714332 -0.11530012 0.05522836 -0.11286707
0003e0 11 c4 01 3e a5 00 bc 3d 5b 8f 2d be bb 13 da 3b
       0.1267245 0.091798104 -0.16949217 0.006655184
0003f0 16 59 c4 3d b4 6f 06 be 93 d5 20 be a6 3b 49 3d
       0.09587304 -0.13128549 -0.15706472 0.04912915

lstm_layer.bias_hh_l0 f4 [400]
000000 92 b0 b4 3d fc 2f 64 3e 73 e5 41 3e a8 d3 03 3e
       0.088227406 0.2228393 0.18935184 0.12873709
000010 1a db 86 bc 1e b5 58 3e 5c 2a a2 3d 95 6a ff 3d
       -0.016461898 0.2116284 0.07918236 0.12471501
000020 46 97 95 3d b1 99 44 3e de f8 0c 3e 91 0b 4b 3e
       0.07304244 0.19199254 0.1376681 0.19828631
000030 f9 cb 0a 3d d6 f3 25 3e d6 91 30 3d 8e 07 37 3e
       0.03388593 0.16206297 0.04310783 0.17873976
000040 20 8b 0e 3e 2d 8d 55 3e c2 4d 09 3e 13 43 49 3e
       0.1392026 0.20854636 0.13408569 0.19654493
000050 90 7f 67 3e dc e6 ca 3d 78 ee 5f 3e 20 8f 1e 3e
       0.22607255 0.09907314 0.21868312 0.15484285
000060 f8 86 50 3d 3c 6f 30 3e 3a bb 1e 3e 17 5d b3 3c
       0.050909966 0.17229933 0.15501109 0.021894975
000070 2a 15 2c 3d 6e 92 44 3e 2f e3 2c 3e 72 19 2d 3d
       0.04201237 0.19196483 0.16883539 0.042260595
000080 00 33 59 3e db 01 70 3d 2a 5b 3f 3e 90 08 d9 3d
       0.21210861 0.05859552 0.1868712 0.10597336
000090 f6 bf a8 3d f7 e8 d2 3d ef 9b db 3d b9 18 23 3e
       0.08239739 0.10298341 0.10723101 0.159274
0000a0 0a 92 90 3d 27 ed 4d 3d 71 a0 07 3e 88 00 e7 3d
       0.07059105 0.050274994 0.13244797 0.11279398
0000b0 11 bb 10 3e 19 c6 fa 3c 6b fe 28 3e 79 d9 a8 3d
       0.1413386 0.030612038 0.16503303 0.082446046
0000c0 cb 3a 1f 3e a9 ab f8 3d 83 ca 5f 3e 41 68 75 3b
       0.15549771 0.121421166 0.21854596 0.0037446173
0000d0 fe a9 23 3d a2 c6 3c 3d 28 fc d2 3d fd 9a be 3d
       0.03995704 0.04608787 0.10302001 0.093069054
0000e0 af 8b 9d 3d 9e 77 ba 3d d4 05 2f 3e 14 19 f2 3d
       0.07692658 0.091048464 0.17092067 0.118211895
0000f0 77 54 99 3d ef 07 75 3d f1 cd 7b 3d 34 88 c3 3d
       0.074868135 0.05982202 0.061475698 0.09547463
000100 02 75 2b 3e 35 c8 44 3e 3b d2 aa 3c c2 b2 71 3e
       0.16743854 0.19216998 0.020852199 0.23603347
000110 97 4c 84 3d 33 1a 7a 3e 92 0f 17 3e 2c b5 f8 3d
       0.06459921 0.24424057 0.14752033 0.12143931
000120 51 7b ba 3d df 1f 38 3e ad 23 01 3e f8 12 91 3d
       0.09105552 0.17980908 0.12611265 0.07083696
000130 13 92 52 3e 57 cf 08 3e b6 ee 65 3d b4 13 f8 3d
       0.20563535 0.13360344 0.056135856 0.12113133
000140 4e 63 e3 3d f4 79 3c 3e 73 84 f3 3d a3 f0 bb 3d
       0.11102925 0.18405896 0.11890497 0.09176757
000150 e9 f6 34 3d e4 09 fa 3d 53 f4 6a 3e 6b 81 4f 3e
       0.044180784 0.12208918 0.22944765 0.20264213
000160 35 41 af 3c a1 de 11 3e 57 3c 65 3e a7 61 0b 3e
       0.021393398 0.14245082 0.22386299 0.1361147
000170 2c 38 53 3e b6 42 3a 3e 72 c0 14 3e 5b e4 8e 3d
       0.20626897 0.1818951 0.14526537 0.06977149
000180 54 39 69 3e 8f 3c 53 bc 8f b0 48 3e ca 91 56 3c
       0.22775775 -0.012892856 0.19598602 0.013096282
000190 0a 88 9f 3d 19 e3 b3 3d f5 de b5 3d 0f c2 8d bd
       0.07789619 0.0878355 0.08880416 -0.06921779
0001a0 e2 9a 14 3e 2f ed 9c 3d 22 1d 15 3e 0a 44 10 bc
       0.14512208 0.07662427 0.14561895 -0.008805284
0001b0 3b 8b 5a 3d 83 76 fb bc 75 0b 0b 3e d0 dd 10 3e
       0.053355437 -0.03069616 0.1357859 0.14147115
0001c0 6f 22 a5 3d a3 4f 9b 3d 66 09 e2 bc 4a c5 3f 3e
       0.08063208 0.07583549 -0.027592372 0.18727604
0001d0 81 00 79 3d 80 8a 3c 3e c7 54 9b 3d a3 5a b0 3d
       0.060791496 0.18412209 0.07584529 0.086110376
0001e0 55 45 31 3e e6 2b 00 3e a4 ff 04 3e c7 80 2f 3e
       0.17311604 0.12516746 0.12988144 0.17138968
0001f0 6e 54 b5 3d b4 a0 87 3c 9f 0b a9 3d 09 27 5d 3e
       0.08853994 0.016556121 0.0825417 0.21596922
000200 fc 39 9e 3d bb 22 c2 3d 05 4b cd 3c 12 43 ed 3d
       0.077259034 0.094792806 0.025060186 0.11585058
000210 1a e0 a5 bc 7a d0 70 3d 9f 79 0d 3e 43 ca f6 3d
       -0.020248462 0.05879257 0.13815926 0.12050297
000220 6a b1 08 3e d1 de df 3d 36 96 12 3b cf 7f 93 3d
       0.13348928 0.10931171 0.0022367365 0.07202112
000230 6e eb ba 3d 60 ea 40 3d f9 a3 e8 3c fb d6 16 3d
       0.09126936 0.047098517 0.0283985 0.036826115
000240 5c e9 08 3d ca fd cf 3d 28 11 d2 3d 24 3b f5 3d
       0.033425674 0.10155828 0.102571785 0.11974171
000250 e9 d2 b1 3d fa bb 63 3e bd b9 1f 3d ed e4 08 3e
       0.08682806 0.22239676 0.038995493 0.13368578
000260 8a aa 64 3e ad 0e 1d 3e a5 e7 11 3e 2f b3 48 3d
       0.2233068 0.1533763 0.14248522 0.048999008
000270 09 42 1b 3d 62 b8 9a 3d 41 69 e3 3d 00 90 53 bd
       0.037904773 0.075546995 0.1110406 -0.051651
000280 8d 3b d8 3c f3 cd 9a ba f2 5e 9f 3d 60 f7 ff 3d
       0.026395584 -0.0011810645 0.07781781 0.12498355
000290 e9 06 b8 bc 6b d7 a4 bc 11 f2 c8 3d fd 45 a9 3d
       -0.022464233 -0.02012225 0.098117955 0.08265302
0002a0 c1 f5 13 3e bd 5f 71 3e 55 71 35 3e 9b 82 d2 3d
       0.14449216 0.23571678 0.17719014 0.10278817
0002b0 78 73 4f 3b b6 83 b3 3d 3e ca 19 3d c8 77 b0 3d
       0.0031654518 0.08765356 0.03754639 0.086165965
0002c0 12 aa 69 3d 72 f2 b8 3d e8 10 23 bd da 84 c5 3d
       0.057046957 0.09030618 -0.039811045 0.0964448
0002d0 8b 9a a9 3c 9f f8 2d 3e 57 6d 57 bd 0c b2 dc 3d
       0.020703575 0.16989373 -0.05259451 0.10776147
0002e0 3d e4 8a 3d c7 60 02 3d 04 e3 27 3e 64 fb d4 3c
       0.06781814 0.031830575 0.16395193 0.025998779
0002f0 8c 37 3a 3e 52 67 2d bc 96 74 08 3e 17 60 b0 bd
       0.18185252 -0.0105837155 0.13325724 -0.08612078
000300 12 aa c6 3d 81 32 0c 3e 25 17 79 3d 55 1f ac 3c
       0.09700407 0.1369114 0.060813088 0.021011034
000310 5d 10 fe 3b 72 3e 16 3d dd eb bd 3d 5a c5 28 3e
       0.0077534155 0.036680646 0.09273503 0.16481534
000320 f0 17 2a be 75 82 85 3c 6b 3e 83 bd fa 77 de 3d
       -0.16610694 0.016297558 -0.0640839 0.108627275
000330 f5 74 a9 3d 00 fd 21 be 55 5a 11 be 2c 8d fa 3c
       0.08274261 -0.15819168 -0.14194615 0.030584894
000340 7d 05 64 3b 06 72 36 be 70 13 1b be 6a 6b b8 3b
       0.003479331 -0.17816934 -0.15144134 0.005628039
000350 10 14 d0 3d 87 d9 b7 bd d6 7a 2e be 20 40 6a bd
       0.101600766 -0.08977037 -0.17039046 -0.05719006
000360 06 8e 48 3e fb 37 ef 3d 95 0f 0b be 36 40 0e be
       0.19585428 0.11680599 -0.13580163 -0.13891682
000370 08 8b de bd bc c8 d9 bd 52 29 8f bd 39 6e 16 3e
       -0.10866362 -0.1063399 -0.06990303 0.14690484
000380 5b 6a ae 3d 9f 03 47 bd 72 76 29 be 7a 0d 96 bd
       0.085163794 -0.048587438 -0.1654909 -0.07326789
000390 38 d1 aa bd 9c 00 e1 3d 6e ff 17 3e 47 6e 2e bd
       -0.083406866 0.10986444 0.14843532 -0.042585637
0003a0 af 2d 94 3d 1d aa b5 bc 06 80 3b be 23 9d f3 3c
       0.07235276 -0.022175843 -0.18310556 0.029738015
0003b0 34 e6 ca bd 43 26 f9 3d cc 69 83 bd 78 9b 0f be
       -0.09907189 0.12165501 -0.064166635 -0.1402415
0003c0 74 11 23 3e 08 36 df 3d 6a 9c 03 bd dc 3f 06 3d
       0.15924627 0.108989775 -0.03213159 0.032775745
0003d0 32 9b 9e 3d 92 c1 8f bd 4f 81 ce 3d 88 60 8e bd
       0.07744445 -0.070193425 0.100832574 -0.069520056
0003e0 cf c7 15 3e da 84 89 3d b8 5d a4 bd ac 88 97 3c
       0.14627002 0.067147925 -0.08025688 0.018497787
0003f0 fe 7f e0 3c 01 f4 ec bd 1a de 18 be ff d2 96 3d
       0.027404781 -0.115699776 -0.14928475 0.07364463

out_layer.weight f4 [481, 100]
000000 3c e1 b1 bd bb 28 0e bd 1a a3 0e bc 60 6b b0 bd
       -0.08685538 -0.034706812 -0.008705879 -0.0861423
000010 7a 5a 39 3d d3 44 b2 bd 91 73 83 3d e7 94 ff bc
       0.0452523 -0.087045334 0.06418527 -0.031198932
000020 70 23 2d be 88 da 06 be ae 13 2a bd f3 e6 05 bc
       -0.1690805 -0.131693 -0.041522674 -0.008172738
000030 26 6b ab bd c8 3c b9 bd dd dd 28 3c e2 df c6 3d
       -0.08370046 -0.09044796 0.010306803 0.09710671
000040 2a 9e 04 bc f0 d3 11 bd d2 db eb bb 9a 6a 0b 3c
       -0.00809435 -0.03560251 -0.0071978355 0.0085093025
000050 70 bc 1e be 1a 60 1d be 3e 9e aa bc 69 ce 44 3a
       -0.1550157 -0.15368691 -0.020827409 0.0007507564
000060 17 86 37 3d 28 86 11 be 43 42 d3 bd cb ed fb bb
       0.044805612 -0.14211333 -0.10315373 -0.0076882592
000070 f7 29 a4 3d 3c 39 8e bc 3a ae c5 3d 1c 2b 3a 3d
       0.08015817 -0.017361276 0.09652372 0.04545127
000080 71 14 29 be 59 6a 9b 3d f9 33 e5 bd 97 60 0f be
       -0.16511704 0.075886436 -0.111915536 -0.1400169
000090 d0 5b 6e 3c aa d0 9e 3c bf 49 aa 3d 29 e3 2d bd
       0.014548257 0.019386608 0.08314847 -0.042452965
0000a0 cc 0e af 3d 1d e9 b4 3d 96 09 e9 bd 31 af ec bc
       0.08547744 0.08833525 -0.113787815 -0.028892132
0000b0 00 7e 51 3d 55 b1 63 bc f2 a0 ce bb 53 1b fc bd
       0.051145554 -0.01389726 -0.0063058073 -0.12309899
0000c0 bc 39 a4 bd 14 ae a5 bd 4c a6 c8 bd f9 9e 16 be
       -0.080188245 -0.080898434 -0.097973436 -0.14709081
0000d0 9e fb 9a bd 8a 83 a2 bd c4 cc 1d be 9c 93 c1 bc
       -0.075675234 -0.07935245 -0.15410143 -0.023629956
0000e0 cb d1 a7 bd b4 3e 29 be 31 8a b7 bd f9 77 43 bd
       -0.08194312 -0.16527826 -0.08961905 -0.047721837
0000f0 d3 dc 16 3e 13 cf 33 bd 6a e1 56 bb 44 b9 df 3d
       0.14732675 -0.043898653 -0.0032788166 0.109240085
000100 8c ce d0 bc 7b 5e cf bb c5 f8 1a 3e 1a 14 12 be
       -0.025489114 -0.0063284016 0.1513396 -0.1426548
000110 f7 d5 27 bd e9 2a 44 bb 7a eb 8a bc e5 61 44 be
       -0.040975537 -0.0029932803 -0.016957987 -0.19177969
000120 34 73 96 3d c3 9f d5 3c 75 17 c2 bd 3f 81 4b 3d
       0.07346192 0.026077157 -0.0947713 0.049683806
000130 c2 ec 02 3e 92 24 14 be 2d 67 a9 3d e1 b1 e9 3b
       0.12785628 -0.14467075 0.08271632 0.0071318005
000140 80 65 3a 3e 04 9f 33 be 2b 87 38 be 64 80 1a 3e
       0.18202782 -0.17541128 -0.18020312 0.1508804
000150 6f fa 0e 3e f5 65 b6 3d 19 8b 0a 3e 5d 63 77 3d
       0.1396272 0.089061655 0.13529624 0.060397495
000160 73 f1 bc 3d 9c e7 2f 3e 79 7e 9f 3d a5 ad b9 bc
       0.0922574 0.17178196 0.077877946 -0.022665808
000170 b5 f5 ac bc af ad 3c be 84 7d c0 bd 95 e4 58 bd
       -0.021113256 -0.1842563 -0.0939894 -0.052952368
000180 25 48 b4 3c 3e 5c 03 bc 79 0d 43 be 36 b5 98 bd
       0.022007057 -0.008017598 -0.19048108 -0.07456438
000190 20 13 c4 bd 1a 37 1c 3d 39 10 bf 3d 54 88 8f bc
       -0.0957396 0.038138486 0.09329266 -0.017521061
0001a0 9a d9 de 3d 5a 7e b6 3d 8b 43 bd 3d 69 4d a5 bd
       0.10881348 0.089108184 0.092413984 -0.080714054
0001b0 60 93 96 bc 1b 9b 87 bd 29 db 21 3d 93 9f 30 3e
       -0.01838082 -0.06621381 0.039515648 0.17248373
0001c0 ca ae 1e be 99 7e 9e bd 94 ed 0b be b9 28 52 bb
       -0.15496364 -0.0773899 -0.13664848 -0.003206773
0001d0 9a 84 3c bc 44 3d 28 3e 50 d0 e0 3c 49 7d fb 3d
       -0.011506224 0.16429621 0.027443081 0.122797556
0001e0 85 09 24 be 4b fe 12 3e 18 1b 84 3d 0f 03 fc 3d
       -0.16019256 0.14354818 0.0645048 0.12305271
0001f0 36 5d 1f 3d 0d fe 05 be 2c a4 9a bd de 64 98 3d
       0.038907252 -0.13085194 -0.075508446 0.07441114
000200 e9 db 8e bd d2 e5 9b 3d 7f 94 67 bd 83 ff 93 3d
       -0.06975538 0.07612194 -0.0565381 0.07226469
000210 f9 9b 29 be 99 4a 2c 3e 31 63 36 3d 30 a8 7d bd
       -0.16563405 0.16825332 0.04452819 -0.061927974
000220 4a bf 48 bd b5 fc e8 3d 2c 17 c1 3d 0a cb 88 bd
       -0.049010552 0.11376325 0.09428248 -0.06679352
000230 a3 ad 03 3e ac 35 73 3d b3 b8 1d 3d 71 38 83 3d
       0.12859206 0.059377357 0.03850622 0.0640725
000240 24 d7 72 bd 78 2a 80 3d 8c b9 2a bd 37 40 f4 bd
       -0.059287205 0.062581 -0.041680858 -0.119263105
000250 2e 60 8b bd 2b cf b8 3d fd 02 19 be f5 8c c4 3a
       -0.06805454 0.09023889 -0.14942546 0.0014995622
000260 43 90 45 bc 68 dc a0 bc 83 cc ba bd 8d 0e 13 bc
       -0.01205832 -0.019636348 -0.09121039 -0.008975637
000270 d9 af b0 3d fb ce 6f bc 34 fb 90 bd d8 e4 40 3b
       0.0862729 -0.01463675 -0.07079163 0.0029433277
000280 b8 3a 07 be 2a 1f b4 bd 23 ef 5b 3d f6 72 94 3b
       -0.13205993 -0.087950066 0.053694855 0.004530306
000290 2f 0c b3 bc 15 89 0e bd cf bc af 3d 41 f4 11 bd
       -0.021856396 -0.0347987 0.08580934 -0.03563333
0002a0 dd 2c 34 3d 5c 00 b5 3d 27 0d 33 be 08 33 89 bd
       0.043988097 0.08837959 -0.17485486 -0.066991866
0002b0 83 fe 2a 3d 50 48 df 3d de 5f 00 be 64 30 3e 3d
       0.041746628 0.109024644 -0.1253657 0.046432868
0002c0 9f 65 08 3d e1 30 ad bc 50 14 92 3c 3f 0a f1 3d
       0.03330004 -0.021141471 0.017831951 0.117695324
0002d0 50 ee 3f bd bb 32 13 be e6 e3 74 3b d1 14 59 3b
       -0.046858132 -0.14374821 0.0037367283 0.003312398
0002e0 5d a4 5b bd ee 80 32 3d 45 31 5b 3d f2 2f cc 3d
       -0.053623546 0.04357999 0.053513784 0.09970082
0002f0 e5 9d 7c 3d 51 58 84 bb c6 8e 07 3d a9 0f 19 3d
       0.061674017 -0.0040388484 0.033095144 0.03736845
000300 00 75 bb bd 12 a1 44 be 2a b0 5f be 78 ca 89 bd
       -0.09153175 -0.19202068 -0.21844545 -0.06728071
000310 fb d0 19 3e 15 f3 9a bc 66 ef 42 bd 6e 25 0e 3c
       0.15021126 -0.018914739 -0.04759159 0.008675916
000320 63 5c 74 bd d2 79 a3 bd 1d 52 b1 bd 1a 3c 09 3e
       -0.05965842 -0.0798222 -0.0865824 0.13401833
000330 91 a2 52 3e 3c e9 76 3c c5 09 cf bd f0 a8 d9 bc
       0.20569827 0.015070256 -0.10109285 -0.026569813
000340 09 1b c1 bc a4 84 ab 3d 75 8a eb 3c 43 a5 c8 3d
       -0.023572462 0.083749086 0.028752545 0.09797146
000350 3c af c1 3d 6c 64 8f 3d 76 5e 9d 3b 65 93 ac bd
       0.094572514 0.07001576 0.0048025204 -0.08426551
000360 ea 2d c6 bd 32 4c 1f bd 5c ca 78 3d fd 6b 60 bd
       -0.09676726 -0.038891025 0.06073986 -0.054790486
000370 b6 fd d3 3d d4 60 18 3b 80 7a e0 bd 54 bf 6b bc
       0.10351126 0.0023251073 -0.10960865 -0.014388878
000380 5e 1d bc 3c c9 27 03 be 9d a3 08 3c 05 6e ab bd
       0.022963222 -0.12808146 0.00833979 -0.08370594
000390 3e d1 52 bd 1a 73 53 3d 8c 3f 1e 3d ba e9 30 3d
       -0.05146908 0.05162344 0.03863482 0.04319165
0003a0 4e a4 90 3c 7d 4b 4a bd 37 d2 e9 bc e1 f9 9d 3d
       0.017656472 -0.049388397 -0.028542621 0.07713676
0003b0 35 30 1c be a8 a7 4f bd 5e 3f ed 3c ee 04 96 bd
       -0.15252765 -0.050697 0.02896088 -0.07325159
0003c0 80 32 61 3c 46 fc b8 3c f9 d6 31 bd 33 be d9 3d
       0.01374495 0.02258123 -0.043417905 0.10631981
0003d0 83 76 b0 bc 48 6f 84 bd e7 c8 2c bd 9e 27 19 bc
       -0.021540886 -0.06466538 -0.042183783 -0.009347824
0003e0 a3 dd 1b bd 5a 8b a4 bc 1b 7f 54 bd be d9 f2 3d
       -0.038053166 -0.02008598 -0.05187903 0.11857937
0003f0 34 90 08 be 2e b1 d9 bd a1 b5 89 bd 93 38 d6 3d
       -0.13336259 -0.106294975 -0.06724096 0.104600094

out_layer.bias f4 [481]
000000 a2 f3 0e 3e 3e d0 39 3b be aa c1 3d 82 dc 58 3d
       0.13960126 0.0028352882 0.094563946 0.052944668
000010 51 07 14 3e 6f 18 ac 3a 91 0f a7 bb 7b 3f 66 bb
       0.14455916 0.001312984 -0.005098291 -0.0035133052
000020 8e 6d 40 bd 15 fa 83 3c a4 ac 5e 3d 91 c1 f6 3c
       -0.04697948 0.01611046 0.05436386 0.030121597
000030 b3 1e 1e 3c 0a 54 34 3d 6c 0a dd 3c d9 61 05 3e
       0.009650874 0.04402546 0.026982509 0.13025607
000040 8b 09 ed 3d b7 a5 98 bd c7 03 5b 3d 73 5c 26 3d
       0.11574086 -0.074534826 0.0534704 0.04061551
000050 dc 36 90 3d b7 de 90 3d 97 da 27 3e 72 a2 20 3e
       0.070417136 0.070737295 0.16391979 0.15686968
000060 42 41 87 bd 70 e0 e3 3d 35 22 25 bc 58 23 78 3d
       -0.06604244 0.111267924 -0.010078956 0.06058058
000070 2e 22 fe 3b 75 f9 fd 3d d1 bc 31 bd ed e4 80 3d
       0.0077555394 0.12401096 -0.04339296 0.06293664
000080 eb 0d 3a 3d 02 cd de bc 11 35 2d 3e 11 f6 2a bd
       0.04542343 -0.027197365 0.16914774 -0.041738573
000090 65 c0 27 3d 09 4f a5 3d ff 15 d6 bc 94 7b b8 bb
       0.040954966 0.080717154 -0.026133535 -0.005629966
0000a0 dd 59 8a bc 85 73 11 3e 49 f7 95 3d d0 f3 53 3d
       -0.016888553 0.14204223 0.073225565 0.05174619
0000b0 ad 2f 05 3d dd 01 ee 3d 41 3b 63 3d fc 86 62 3d
       0.03251617 0.11621449 0.05547643 0.055304512
0000c0 58 02 34 3e 34 23 c7 bc b1 ca f7 bc ca ed fd 3d
       0.17579019 -0.024308778 -0.030248018 0.1239887
0000d0 e0 3d b2 3d d8 d3 ec 3d 10 c6 85 3d 59 3f ce 3c
       0.08703208 0.115638435 0.06531918 0.02517669
0000e0 a1 7a 52 3d e6 11 21 3e 71 c0 36 3d b7 cd 9c 3d
       0.05138648 0.15729484 0.04461712 0.076564245
0000f0 3c 30 86 bc d8 74 04 3e 5e 4b 8c bc 11 7b ac 3d
       -0.016380422 0.12935197 -0.017125782 0.084219106
000100 ab 5f 6b ba 68 e7 ee bc 93 5a 9a 3d c1 69 d0 3d
       -0.0008978794 -0.029163077 0.07536807 0.10176421
000110 96 8d 4c 3d 45 c9 7a 3d 57 be a5 3d 6a 47 a4 3c
       0.049939714 0.0612271 0.08092945 0.020053584
000120 e5 a0 0d 3e 41 a6 4f 3d cd 23 63 bd f6 f5 a2 3c
       0.13830908 0.05069566 -0.055454064 0.019892674
000130 9b 03 ab 3d 3a 1a 1b bd c7 a4 96 3d fa bc e7 3d
       0.08350297 -0.03786681 0.073556475 0.11315341
000140 4d 9a 8e 3d 81 87 b3 3b 68 0f 4a 3d 6b 96 10 3e
       0.06963024 0.0054788 0.0493311 0.1411988
000150 13 8b cf 3b 13 49 c1 3d c9 23 59 3d 4d 70 1b 3d
       0.0063337176 0.09437766 0.053012643 0.037948895
000160 f9 ed 8a bc 6b e3 92 3d b4 00 83 bd 4e 6c 5d 3d
       -0.016959177 0.07172283 -0.063966185 0.054058366
000170 c0 88 e1 bd 9b 90 5f 3d 0e ba ab bd f6 f8 c4 3d
       -0.11012411 0.054581266 -0.083850965 0.09617798
000180 3f cd a1 3d 5e 7a 16 3d 4d 71 01 3d e9 ea b7 3d
       0.07900476 0.036737792 0.031602193 0.089803524
000190 a2 dd 0c 3d 02 81 77 bc 76 3f 23 bd d2 a1 21 bb
       0.034391053 -0.015106441 -0.039855443 -0.0024663103
0001a0 ae 4b 00 3e c4 da 83 3c f1 11 66 3d ca f2 0a 3e
       0.1252887 0.016095527 0.056169454 0.13569179
0001b0 64 0a 86 3d b5 81 e5 3d ea ac 89 3c 87 c8 94 3d
       0.065449506 0.1120638 0.016806085 0.0726481
0001c0 52 6b 6d 3d 0f 75 4f 3c 5f 91 12 3e 59 85 fa 3b
       0.057963677 0.012662186 0.14313267 0.007645291
0001d0 1e ca 65 bc 22 8f 49 3c e5 af 34 3d 3f 2e 86 3d
       -0.014025239 0.012302192 0.04411306 0.065517895
0001e0 f6 c8 06 3e 02 1d 76 bc 1e 73 0f 3c 68 48 19 bd
       0.13162598 -0.015021564 0.008755473 -0.037422568
0001f0 93 85 25 bc 0d 95 8f 3d ee b2 87 bc ff 31 b5 3d
       -0.010102647 0.07010851 -0.016564813 0.088474266
000200 53 eb 73 bd 6c 69 e2 bc 3f 06 47 3d d1 69 f2 3d
       -0.059550595 -0.02763816 0.04858994 0.11836589
000210 ca fb 51 3d 1b bc f9 bb 21 ff 41 bc 6a 2d 48 bd
       0.051265515 -0.007621301 -0.011840613 -0.048871435
000220 9a 22 bd 3d 1a 48 2c bc e2 2a ca 3d 0f ec f1 3c
       0.09235115 -0.010515237 0.098714605 0.029531507
000230 93 9b 0d 3e df 57 06 3e 43 d5 71 3d a3 17 37 3d
       0.13828878 0.13119458 0.059041273 0.044700276
000240 1f dc 2d 3d 18 4c aa 3c 22 0b fc 3d ed 58 46 3d
       0.042446252 0.020788237 0.12306811 0.04842465
000250 5c b0 a4 3b 8b d1 09 3e 3e 4a 16 3d 47 a0 a3 3c
       0.0050259065 0.1345884 0.036691897 0.019973887
000260 ea b5 53 3c c8 bb b3 3d 31 af f6 3d 1e ce 2a 3d
       0.01292179 0.08776051 0.12045134 0.041700475
000270 8b 50 a5 3c 3b ac 45 bb c0 58 f0 3c 3f c1 5f 3d
       0.020180007 -0.0030162472 0.029339194 0.054627653
000280 aa 82 1c 3e ee ca 98 bc b5 1c b2 3d f4 57 52 3d
       0.1528422 -0.018651452 0.08696882 0.05135341
000290 73 f6 b6 3d c7 51 ac 3d 33 7f 7d bb 38 02 3a 3d
       0.08933725 0.08414035 -0.0038680553 0.045412272
0002a0 e6 57 b4 3d f9 ba 36 3d 30 ca d7 ba 04 5a 78 bd
       0.08805828 0.044611905 -0.0016463455 -0.06063272
0002b0 86 50 e4 3d db 62 82 3c 7b 22 10 bd b1 e3 57 3c
       0.11148171 0.015916279 -0.035189133 0.013176844
0002c0 91 bd c3 3d f5 52 82 bc 17 cd 00 3e b7 fc c5 3d
       0.09557641 -0.015908698 0.12578236 0.09667342
0002d0 8d bd 38 3d 51 80 57 3d 09 e7 79 bd 51 ff 8f 3c
       0.045102645 0.052612606 -0.061011348 0.017577799
0002e0 f6 d9 e1 3d 78 7c c9 bc 9d 19 14 3d db 61 75 3d
       0.11027901 -0.024595484 0.03615724 0.059907775
0002f0 b4 26 94 3c e8 c4 46 3d b9 77 32 3e 6b 59 a2 3d
       0.018084861 0.04852763 0.17428483 0.079272114
000300 6f 66 19 3e 6d f4 de 3d c0 02 87 3d 26 58 84 bb
       0.14980482 0.10886464 0.065923214 -0.0040388284
000310 59 71 78 3d 23 4b b9 3d 47 f3 96 3d 48 ad 23 3d
       0.06065497 0.09047534 0.0737062 0.039960176
000320 07 da 06 3d f3 bf b4 3d 48 0f ad bd d2 36 87 3d
       0.03292277 0.08825674 -0.0845018 0.06602253
000330 2e 8f 32 3c 7a ba 03 3d 8b 09 39 3d 59 e9 d2 3d
       0.0108983945 0.03216026 0.045175117 0.10298414
000340 fe cd 82 3d 61 01 48 bd 48 5e 1b 3e cb 79 70 3c
       0.06386946 -0.04882944 0.15172684 0.014677475
000350 3f d5 a3 3d a7 49 17 3d fc 05 0b 3d 2c 8c 36 3d
       0.07999658 0.036935475 0.033941254 0.044567272
000360 b0 6d f1 3d 83 ff 35 3d c1 3d ff 3d f2 78 f9 3d
       0.11788499 0.044433128 0.124629505 0.121812716
000370 4f 38 21 3d 2a 3a 98 3d 26 c1 8c bd 39 42 a2 3d
       0.03936034 0.07432969 -0.06872778 0.07922787
000380 dd fc c4 3d ee 4d 11 3e aa 91 6a bd 13 72 88 bd
       0.09618542 0.14189884 -0.057267822 -0.06662383
000390 56 5c 0c bd 30 00 31 bc c4 00 60 3d dc 34 20 3e
       -0.034267746 -0.010803267 0.05468823 0.15645164
0003a0 c7 e8 ae 3d 6d e6 d0 3b 2a ad a6 3d c8 e8 cd 3c
       0.085404925 0.006375125 0.08138497 0.025135413
0003b0 ac 63 11 3d 65 40 c5 3c 74 fd e7 3d af 86 a8 3d
       0.035495445 0.024078557 0.11327639 0.08228814
0003c0 bc 72 00 3d 8f 9c 4a bc f0 d4 a9 3c b8 23 70 3d
       0.03135942 -0.012366428 0.02073142 0.058627814
0003d0 f8 45 e4 3d 31 e9 1e bc f4 4c 24 3d 0c 87 b3 3d
       0.11146158 -0.009699152 0.04011245 0.087659925
0003e0 0c a2 c8 3d 72 b0 06 bc 4b a4 1e 3e 3b b3 c9 3d
       0.09796533 -0.008220779 0.1549236 0.098486386
0003f0 94 a1 b1 3d dd c2 b8 3d 59 c2 b7 3d fd 7d 34 bd
       0.08673397 0.09021542 0.08972616 -0.044065464
