ckpts/dkt/alg05/model.ckpt (torch, 804255 bytes, 7 tensors)

interaction_emb.weight f4 [796, 100]
000000 f5 ae b9 bf 3c 5d e0 be fe 9c 9e 3c f8 75 37 bc
       -1.4506518 -0.43821132 0.01936197 -0.01119756
000010 9b d6 a1 bf 49 0f bc bf 62 c1 0e bf 3f 19 74 bf
       -1.2643617 -1.4692165 -0.5576383 -0.9535102
000020 64 68 f8 3e a1 f3 d9 3e e6 86 32 3f 71 9f b0 3f
       0.48517144 0.42568687 0.6973709 1.3798658
000030 88 04 56 bf 8a a0 85 3f 78 4a fa be 11 63 8e 3f
       -0.83600664 1.0439618 -0.4888494 1.1123983
000040 19 54 94 bf 88 88 81 bf 5e 72 74 bf 12 0f 19 3f
       -1.1588165 -1.0119791 -0.9548701 0.5978862
000050 c7 dd 47 3d 02 10 10 3f 38 ac 51 3f a3 fe 84 bf
       0.048795488 0.56274426 0.8190341 -1.0390209
000060 dd e5 7a be 0a 2c 7d 3e c3 ce de bf 5d d7 bd 3d
       -0.24501748 0.24723831 -1.7406849 0.09269593
000070 2a f1 88 bf 6c a6 2f be 8a ac 16 be 1f f4 de bf
       -1.0698597 -0.17153329 -0.14714256 -1.741825
000080 52 70 6b be a8 94 75 3f 86 4b 11 bf d7 42 d1 3e
       -0.22992066 0.95929956 -0.56755865 0.40871307
000090 07 5f 23 3f 22 61 10 3f 1d 4f ed 3f f0 d9 5c bf
       0.63816875 0.5639821 1.8539768 -0.86270046
0000a0 99 26 7b bf 6b cf 12 bf ca de e1 3e 1e eb db 3f
       -0.9810577 -0.57347745 0.44115287 1.7181127
0000b0 e6 cd 92 be 68 0b b3 3e d7 d1 7d bf da 4b 05 3f
       -0.28672713 0.3496964 -0.99148315 0.52068865
0000c0 34 d8 ae 3f 7f 91 14 3f 2c 7f 4a bf 58 5f c8 3e
       1.365973 0.5803451 -0.791003 0.39135242
0000d0 09 e9 2e 3f 4c 27 98 bd 6f 2a b9 3f f8 15 a5 3e
       0.68324333 -0.0742937 1.4466075 0.32243323
0000e0 1e dd 5d 3f d7 22 b7 bf 85 3f 63 bd 90 14 72 3e
       0.86665523 -1.4307507 -0.0554805 0.23640656
0000f0 d7 2b 14 be bb cb ba 3e 8a 7a c2 3e 2b f6 75 bf
       -0.14469849 0.3648356 0.37984115 -0.9607875
000100 27 92 97 bf ee fe 62 3f 13 4a a2 3e a0 b5 7d be
       -1.1841477 0.8867024 0.3169714 -0.24776316
000110 37 ce 9c bf 5b 18 64 bf bf f0 99 3f 32 58 fe 3e
       -1.2250432 -0.89099663 1.2026595 0.49676663
000120 84 08 78 3f 0f bb 24 3f b9 a4 aa bf ea 2b 98 be
       0.96887994 0.6434793 -1.3331519 -0.29721004
000130 fc e6 10 3e 16 d2 b4 bf 4c 90 d3 3f d3 93 ba 3f
       0.14150614 -1.4126613 1.6528411 1.4576362
000140 78 2a d6 3e 1d 62 85 be 4c 61 85 3f 36 51 30 bf
       0.41829276 -0.26051417 1.0420318 -0.6887392
000150 48 83 52 bf 77 54 e7 be 4c 6a 57 bf 32 08 6e 3f
       -0.8223157 -0.4518163 -0.8414657 0.92981255
000160 69 87 83 3f 67 39 28 3f a6 02 f7 be 4a b8 b1 3e
       1.0275699 0.6571259 -0.48244208 0.34710914
000170 81 ce 3a 3f 2e e5 4e bf b8 54 46 bf e0 8e 1d 3e
       0.7297135 -0.8081845 -0.7747302 0.15386534
000180 7d 27 5e bf e1 05 1e 40 19 49 28 3f d3 b5 04 bf
       -0.86779004 2.4691088 0.6573654 -0.5183994
000190 29 bf f5 be be 01 3f bf 42 44 b1 bf 65 1f 48 be
       -0.47997406 -0.74612033 -1.3848956 -0.19543226
0001a0 53 f0 96 be 60 4b 85 3e f9 da cb bf ee a9 81 3e
       -0.29480228 0.2603407 -1.59262 0.2532496
0001b0 4b 9f 16 40 37 20 c8 3f 6b 9c e5 bf 65 68 00 bf
       2.3534725 1.5634831 -1.793836 -0.50159293
0001c0 a7 df 98 bf 99 49 e8 bf 8d c4 dc 3f 88 da 3d be
       -1.1943253 -1.814746 1.7247483 -0.18540394
0001d0 3f 6e fe 3e 5c d2 8d bf 60 ca 0c 3e 6b 93 35 bf
       0.49693486 -1.1079822 0.13749075 -0.70928067
0001e0 88 a7 93 be 9c 38 b1 bf 15 8c 3e bf f9 b5 8c 3f
       -0.28838754 -1.3845401 -0.744325 1.0993034
0001f0 ea f2 25 3f 9f 44 1b bf f0 3d 0b 40 9f 85 6f bf
       0.6482378 -0.6065158 2.1756554 -0.93563265
000200 53 ba 76 3e ac 9c 6e bf 33 f4 dc be 4d 1a 1e bc
       0.24094515 -0.9320781 -0.4315506 -0.009649825
000210 fe 55 b0 3e 44 de 6b 3e 54 6d 45 bf 3a 1c 0f 3f
       0.34440607 0.23034006 -0.77119946 0.55902445
000220 57 26 ac 3e f0 e7 1c be bc 08 88 3e 65 21 7a bf
       0.33623 -0.15322852 0.26569164 -0.97707206
000230 22 50 05 c0 33 15 88 3f e4 14 aa 3f ed cf 3f 3e
       -2.083016 1.063147 1.3287625 0.18731661
000240 ed 53 49 3f e8 86 fc 3f f8 3a 9b be 02 51 fa bf
       0.78643686 1.972867 -0.30318427 -1.9555972
000250 1d 8f 62 3f 64 4d 3f 3d a6 81 b5 bf a8 d4 2e c0
       0.88499624 0.046704665 -1.418019 -2.7317295
000260 5d fb 39 3f bd d4 77 3f bc 90 05 3f 98 1f 85 3f
       0.72649175 0.9680899 0.5217397 1.0400267
000270 b8 e0 fe be d9 e6 85 3f cd ac e4 3f 5e 94 a9 3f
       -0.49780822 1.0461074 1.7865235 1.3248403
000280 3d 15 e5 be 93 84 82 bc 2e f9 8c bf 43 ca 31 3f
       -0.44742766 -0.015932357 -1.1013544 0.6944925
000290 2f 17 bd 3c 8f 79 79 bd 64 4c 0a c0 72 9f a4 3e
       0.023082344 -0.060906943 -2.1609125 0.32152897
0002a0 59 c2 d9 bf 7c 7b 87 3c 77 6f a7 bf 96 da b8 bf
       -1.7012435 0.016538374 -1.3080891 -1.4441707
0002b0 29 10 4b bf 45 d2 95 bf 9b 66 51 3f ec 6d 9d be
       -0.79321533 -1.1704794 0.8179719 -0.30747926
0002c0 e4 06 b0 3f ed 8c a9 be fe 9d de bf f2 ef 39 bf
       1.3752103 -0.3311533 -1.7391965 -0.7263175
0002d0 ba 09 24 bf 25 1a 29 3d 9f f3 a0 be d5 06 a7 bf
       -0.6407734 0.0412847 -0.31435868 -1.304896
0002e0 4e 3d 9c 3f db 6e 6f bf 65 b4 20 3f 4a 20 ad 3e
       1.2206209 -0.9352853 0.6277526 0.33813697
0002f0 55 c1 b1 3f e8 0c 59 bf 0e 6a 40 bf 7c db ce bf
       1.3887125 -0.8478532 -0.75161827 -1.6160731
000300 51 b2 49 bf c2 cb 90 bf 00 6f de 3e fe ac 87 be
       -0.78787714 -1.1312182 0.4344406 -0.2649917
000310 cb b1 2d be f4 51 81 3f 6b 35 c3 3f 17 ac c1 be
       -0.16962354 1.0103135 1.5250677 -0.37826607
000320 6b b1 af 3e 91 99 e5 bf 5d 81 8e bf f9 5c 71 3f
       0.34315047 -1.793749 -1.1133229 0.9428249
000330 02 ff 02 40 76 1f 84 bf bc 7f 31 bf 25 dd 73 bf
       2.0468144 -1.0322101 -0.6933553 -0.95259315
000340 30 bc 26 3f 3d 45 ca 3f e2 93 93 3f 0b 85 93 3d
       0.651309 1.580238 1.1529505 0.0720311
000350 b9 3c 4b bf 38 f8 a7 3e 31 3b d3 be db 5f 54 3f
       -0.7938953 0.32806563 -0.41256097 0.82958764
000360 97 dc 48 3f 09 e7 1b 3f a6 c7 13 3e cf ce 05 40
       0.78461593 0.60899407 0.14431629 2.0907476
000370 46 23 f5 be ca db 29 3e 45 d5 bf bf 33 73 0b 3f
       -0.47878474 0.16587749 -1.498696 0.54472655
000380 ab 8b 41 be 82 24 29 3f a0 09 92 bf 7a 94 74 3f
       -0.18900935 0.6607133 -1.1409187 0.9553906
000390 33 66 48 bf 97 ad 54 bf e6 9f 74 3f b2 e2 6b bf
       -0.78280944 -0.8307738 0.95556486 -0.92142785
0003a0 10 64 03 40 d8 03 50 be 97 58 ef bf d9 37 ac bf
       2.0529823 -0.20313966 -1.869891 -1.3454543
0003b0 d3 5d be 3d 97 46 cc 3f 13 5e 93 bf ba 2a 22 bf
       0.09295239 1.5959042 -1.1513084 -0.63346446
0003c0 7e 77 b5 bc 74 74 b7 bf c0 d0 6b bf c8 a6 11 3f
       -0.022151705 -1.4332414 -0.921154 0.56895113
0003d0 3d 55 43 3e 19 4d c8 be a1 6e 7e 3e df ef 8c be
       0.19075485 -0.3912132 0.24846889 -0.27526757
0003e0 17 3c 0e 40 27 fd 1a 40 fc 28 19 bf 43 65 f8 3e
       2.2224176 2.4217012 -0.5982816 0.48514757
0003f0 ac 7c 73 bf 67 b9 25 3f e7 57 80 bf 79 32 00 3f
       -0.9511211 0.64736027 -1.0026826 0.50077015

lstm_layer.weight_ih_l0 f4 [400, 100]
000000 91 00 a0 bd 3f f7 29 3e 50 73 9e 3d 1a b0 b5 bc
       -0.07812608 0.16598223 0.07736838 -0.022178698
000010 0a 51 3b 3d 3a b4 96 3d 9f 15 c6 3d 5b 85 54 bd
       0.04573158 0.07358594 0.09672093 -0.05188499
000020 82 e6 bc bc 34 68 2b be f2 17 cf 3c fd d9 41 3c
       -0.023059133 -0.16738969 0.025279973 0.011831758
000030 93 15 74 bc 26 78 ee 3c e2 bd 33 bc de 9f da 3d
       -0.014897722 0.029110026 -0.010970565 0.106750235
000040 98 38 96 bd a0 9d 12 3d 2d e5 da 3d 66 ea 8d 3d
       -0.07335013 0.035794854 0.10688243 0.069294736
000050 07 bf 6b 3c 94 8e 19 3d 53 94 79 bd 74 6d 86 bd
       0.014388806 0.03748949 -0.06093247 -0.06563845
000060 4a 35 71 bd 79 03 57 bc b1 78 2f 3d 4a bb 81 3c
       -0.05888871 -0.013123387 0.04283971 0.015836377
000070 1d 52 3b be c2 8c 67 bd ab d5 d4 bc a6 59 20 3c
       -0.18293042 -0.05653072 -0.025980791 0.009786999
000080 e7 24 9a 3d d9 08 b7 bd 37 a1 69 3d a0 a8 c3 bc
       0.0752657 -0.089372344 0.057038512 -0.023884118
000090 f4 d8 cf 3c 21 5a cc 3d 8d 37 8e bd 1c df 7d 3d
       0.025372006 0.09978128 -0.06944189 0.06198035
0000a0 08 9a 98 bd 8c 38 ce bd 9d 51 17 be 67 37 21 be
       -0.07451254 -0.10069379 -0.14777227 -0.1574379
0000b0 ce 7c 92 3c ef 48 f4 3d 72 85 91 3d 5a 9d 72 3d
       0.017881777 0.119279735 0.07105531 0.059232093
0000c0 e9 9a 7e bd 45 11 44 ba 91 5b c3 3d 1d af 07 be
       -0.062159453 -0.000747938 0.09538949 -0.13250394
0000d0 0d 24 a3 3d 9d 8e 1c 3d 8d 1b 79 3d a1 86 d5 3c
       0.079658605 0.038221944 0.06081729 0.026065173
0000e0 00 46 5e bd 5f de 3e 3d 1c a0 82 bd 96 bc e0 bc
       -0.054265976 0.04659879 -0.06378195 -0.027433675
0000f0 62 ee fd 3d c8 5b a4 bc 0d e7 73 3d 62 b6 e7 bc
       0.123989835 -0.020063296 0.05954652 -0.02828521
000100 59 fc 7b bd bc e2 3d 3d f0 c6 e6 3c 73 69 25 3d
       -0.061519954 0.04635881 0.028171033 0.040383767
000110 2e 6f 71 3d c4 70 3d bc dd 0e 53 3b 5e ce b9 bd
       0.05894392 -0.01156253 0.0032204904 -0.090725645
000120 85 76 8b 3c ed f7 42 3d c5 e6 ee bd 0b 07 1c 3d
       0.017024288 0.04759972 -0.116651095 0.038092654
000130 67 a4 84 3d 67 82 de 3c be 4c ae 3d cd cc e5 3d
       0.0647667 0.02716179 0.08510731 0.11220703
000140 4a 1c a2 3d de d3 37 3e 57 df 52 bd f6 9f a0 bd
       0.07915552 0.17951915 -0.051482525 -0.0784301
000150 15 be fa 3d a9 3e c4 bd 3e d3 05 3e 1c d3 62 bd
       0.122432865 -0.09582264 0.13068864 -0.05537711
000160 a3 ea 9b 3d 22 5e c7 3d 1a 36 bb 3d d4 6d 2b 3d
       0.07613113 0.09734751 0.091411784 0.041852787
000170 7c 54 c5 bd c3 b8 62 bd a2 be 80 bd 19 48 ed bc
       -0.09635255 -0.055351984 -0.0628636 -0.028965043
000180 0b e4 89 bd ff d0 dc bd 4f c7 18 3d 74 14 b0 3b
       -0.06732949 -0.1078205 0.03729945 0.005373532
000190 47 57 57 bc 20 f8 95 3d 25 c1 05 3d 98 0f 2f bc
       -0.013143367 0.07322717 0.0326549 -0.01068487
0001a0 c7 40 95 3d 0a be ea 3c e7 1d ba bc d9 19 05 3d
       0.07287746 0.02865507 -0.022719337 0.032495353
0001b0 9c c5 5f bd 43 64 65 3d 7b d1 59 bb 4c 9b cf 3c
       -0.054631814 0.05600382 -0.0033236432 0.025342606
0001c0 19 7f 37 bc 12 5f ef bd 47 c0 c0 3b 95 07 ac 3d
       -0.011199736 -0.11688055 0.0058822962 0.08399884
0001d0 7f 73 37 bd e8 c9 11 3d 3b 99 cc bb 1b d1 82 3c
       -0.04478788 0.035592943 -0.0062438524 0.01596885
0001e0 68 88 83 3d 8e 84 c2 bd 96 91 24 3d 09 0d 47 3d
       0.06422502 -0.09497939 0.040177904 0.048596416
0001f0 6b bc 41 3d c1 e8 9b bd 5c e4 36 bd 59 2d 04 be
       0.04729883 -0.07612754 -0.044651374 -0.12907924
000200 a0 4f 03 bd 06 3c 49 bc c0 bb d4 3d 93 10 2e bd
       -0.03205836 -0.012282377 0.10387373 -0.042496275
000210 eb 4b 2b 3d fc 90 ed 3c 0c 6a 21 bd 87 94 89 3c
       0.041820448 0.028999798 -0.039407775 0.016794456
000220 75 bd ce 3d c1 42 f8 3c 3a 64 3f bd 76 84 e1 bc
       0.1009473 0.030305268 -0.046726443 -0.027528983
000230 1e bf 36 3d 70 57 d0 bb 9f 4b 6f 3d 28 aa 48 bc
       0.044615857 -0.0063580796 0.058421727 -0.0122476
000240 74 51 1b 3d ed 24 b9 bc 84 8f 42 be 4d 2e e4 3d
       0.037919477 -0.022600615 -0.1900006 0.11141644
000250 f6 9c 77 3b 9e 29 81 3d 47 ac 70 3d fd e3 ee bc
       0.0037782765 0.06306766 0.058758046 -0.029161448
000260 b8 df 85 3c 1d 8d cf 3c fd d3 a6 3d 64 b1 92 3d
       0.016342029 0.025335843 0.08145902 0.07162741
000270 34 c4 90 bd 52 c8 b4 3d 2a 15 a5 bd 12 52 21 3c
       -0.07068673 0.088272706 -0.08060677 0.009846227
000280 cd f5 cd 3c 92 6e 50 bc 2d e7 5d bd 8c a7 3b 3d
       0.025141621 -0.0127216745 -0.054175545 0.045814082
000290 ba 5d 64 bd 5e 56 83 bd c3 32 9e bd a0 9c 1b 3c
       -0.055753447 -0.064129576 -0.07724526 0.0094977915
0002a0 4e e3 d7 bd e8 e4 e1 3d ae 7a b4 39 86 f2 e4 bd
       -0.10541402 0.110299885 0.0003442368 -0.1117907
0002b0 48 83 b2 3d 70 5a 91 3d f1 23 78 bd fe 82 56 bd
       0.08716446 0.07097328 -0.06058115 -0.052371018
0002c0 0b d0 08 bd ce e3 c6 3d ae 82 28 3d 16 7b 2d 3e
       -0.03340153 0.09711419 0.04114025 0.16941485
0002d0 67 9a b3 bd c5 fc e5 3d 9d d4 0f 3d 85 e1 84 3a
       -0.08769684 0.112298526 0.035114873 0.0010138011
0002e0 45 e4 c1 bd 8f 16 58 bd 47 71 53 bb bc 39 c7 bc
       -0.09467367 -0.05275589 -0.0032263563 -0.024319522
0002f0 bc 08 28 bb 15 7f 72 bd 6d 02 af 3d ab ce 9a 3c
       -0.0025639972 -0.059203226 0.085453846 0.018897375
000300 a1 84 a1 bd 71 ef 89 bb 11 7a 34 3d 40 e0 cb bc
       -0.07886625 -0.004209452 0.044061724 -0.024887204
000310 a8 96 15 3d 86 90 14 bd 9c 2b fd 3b 00 db 49 3d
       0.03652063 -0.03627064 0.007726146 0.04928112
000320 0b 6b 0b 3e da 8c a1 bc aa 8c 9e 3d ba 3f 01 3e
       0.13615052 -0.019720484 0.07741673 0.12621966
000330 d9 54 57 3d bd 05 14 3d 69 c5 15 be bb 64 e6 bd
       0.05257115 0.036138285 -0.14626087 -0.112496816
000340 cd 91 22 be 59 30 83 3d 7d 7c ac bd ab 99 31 bc
       -0.15875931 0.06405706 -0.08422182 -0.01083986
000350 17 7c 8f 3b 5d 88 01 be c7 5c cd bc 55 5b 86 bd
       0.0043788063 -0.12649675 -0.025068654 -0.06560389
000360 ec bc 0b 3e 78 66 51 bd 92 8a 6f bb bd 37 71 bd
       0.13646287 -0.051123112 -0.00365511 -0.058891047
000370 56 c6 2c 3d f1 37 ca bb b4 ce 6a bc 7e 1c bf 3d
       0.042181335 -0.0061712195 -0.014331508 0.09331606
000380 63 10 64 bc 69 14 70 3d 1e 05 ac 3d 2e f0 a3 3c
       -0.0139199225 0.058613215 0.083994135 0.020011988
000390 fb c3 f8 bd ea de 14 bd 8d 5b ae 3d aa 93 e0 bc
       -0.12146755 -0.0363454 0.08513556 -0.027414162
0003a0 39 e9 10 be 89 b7 11 3e 95 60 f5 3c 55 0d 5d 3d
       -0.14151467 0.1423017 0.02995328 0.053967793
0003b0 11 c9 d6 3d 8f 0d 84 bd f1 cd bb bd 31 b9 fb 3c
       0.10487569 -0.064478986 -0.091701396 0.030727955
0003c0 b0 c3 f9 3d e5 f6 5d bc c2 d2 d5 bd 88 a3 6b 3d
       0.121955276 -0.013547634 -0.104405895 0.057529002
0003d0 6c 8b 9c 3c 9b ee 0b 3e 5c eb 07 be 31 a2 66 bd
       0.01910945 0.1366524 -0.13273376 -0.05630702
0003e0 14 18 15 be f8 82 a7 bd 28 e8 8e bd d8 42 b0 bd
       -0.14559966 -0.08179277 -0.06977874 -0.086064994
0003f0 23 bd 94 bd 28 99 cf bc 3f 60 3e 3c 2b 6e 7c 3d
       -0.072626375 -0.025341585 0.011619627 0.0616285

lstm_layer.weight_hh_l0 f4 [400, 100]
000000 19 da 9e 3c 6c f4 27 be 34 88 83 bd cc a1 e6 3d
       0.019391106 -0.16401833 -0.06422463 0.11261329
000010 08 2a d1 3d 73 c0 2b 3e 3a 87 a0 bd 0a c0 2d 3d
       0.10213095 0.16772632 -0.078382924 0.04241947
000020 f6 00 77 3d cb e0 83 3d a0 6f dd 3c f9 43 d0 bc
       0.06030365 0.0643936 0.027030766 -0.025423037
000030 47 b4 f5 bc 04 c2 a6 3d fe 28 3b 3d 2e 93 ce bc
       -0.02999319 0.08142474 0.04569339 -0.025216665
000040 e0 39 77 3d 9e 22 74 bd f2 f5 26 be d9 81 84 bd
       0.06035793 -0.059603326 -0.16304758 -0.06470079
000050 36 49 10 bd 1f db 1d bd bb e1 80 3d 2d 14 a3 bd
       -0.03522607 -0.03853905 0.06293055 -0.079628326
000060 67 3c cd 3d 15 8d d2 3c af 4d c2 3d 11 a4 39 3d
       0.100212865 0.025702039 0.09487473 0.04532248
000070 ae 44 b8 bc fc 17 72 bd d1 3c 0e bc 12 d4 25 3d
       -0.022493687 -0.059104905 -0.008681492 0.04048545
000080 41 da 43 3c 85 80 23 3e de 0f 86 bd 55 18 11 bd
       0.011953891 0.15966995 -0.06545995 -0.035423595
000090 1a 5b b8 3d ab 1b 81 bc e4 05 9a 3c b0 02 7c 3c
       0.09001751 -0.015760263 0.018801637 0.0153815
0000a0 28 fd e7 3c f2 3a d4 bd 59 d4 c6 bd e6 84 dc bc
       0.028318956 -0.103628054 -0.09708471 -0.02691884
0000b0 3a 5c ba bd 66 c4 55 3d 55 bd 42 bd ad c8 f5 bc
       -0.09099622 0.052189253 -0.047543842 -0.030002916
0000c0 f8 e9 da bc bc 8c 1f bd 8b 42 43 3d 9e 82 97 3d
       -0.026722893 -0.038952574 0.047670882 0.0739796
0000d0 65 9c 54 3d 70 58 b5 bd 67 9c f7 bd 60 c0 47 bc
       0.051906962 -0.08854759 -0.12090378 -0.012191862
0000e0 43 8e 8d 3d e7 54 cf 3d 4e a0 ea bd d8 66 64 bd
       0.069119 0.10123616 -0.11456357 -0.055762142
0000f0 ba 5a 5f 3d 99 5e 37 3d 41 58 74 bd d4 da 92 ba
       0.054529883 0.04476795 -0.059654478 -0.0011204132
000100 86 6c 5a 3c a0 30 98 3d 3d 24 ba bd 63 e9 45 bd
       0.013331538 0.074311495 -0.09088943 -0.048318278
000110 95 40 db bd 3b a8 7b bd 85 a0 29 3d 1e d4 e7 3d
       -0.107056774 -0.061439734 0.04141285 0.11319755
000120 c1 c7 f9 3b 07 9a f5 bc e0 ab af bd f5 63 90 bd
       0.0076226895 -0.029980673 -0.085777044 -0.07050315
000130 90 e7 97 bd a5 82 34 bd 0a 41 01 be 29 54 1c bd
       -0.07417214 -0.044069905 -0.12622467 -0.0381662
000140 87 14 8f 3d 4b 00 d0 bd ad bd 4c bd 0e 64 45 bd
       0.06986337 -0.10156306 -0.049985576 -0.048191123
000150 80 85 4a bd fe 1b 92 3d d7 4b 6c bc f4 e6 e9 3c
       -0.04944372 0.07134245 -0.0144223785 0.02855251
000160 10 9f 35 bd 99 3e 78 3c c7 50 f8 3c 0a 72 55 bd
       -0.044341147 0.015151643 0.030311955 -0.05211071
000170 be fe da 3d 4c 13 45 bd bf 23 e0 3b 3d 3d 06 bd
       0.106931195 -0.048114106 0.0068401988 -0.032773245
000180 d6 38 13 3d 61 af 7e 3d fa a1 7c 3c e9 ee 8d 3d
       0.035942875 0.062178973 0.015419478 0.06930334
000190 2c e7 8f bc 93 bb 5e 3c de b7 c2 bc a4 6f 9c bd
       -0.017566286 0.013594526 -0.023769315 -0.07638481
0001a0 a4 f9 24 bd c0 74 1f bd 7f ce bb 3d 06 48 d9 3c
       -0.04027714 -0.0389297 0.091702454 0.026523601
0001b0 c2 4f 6c bd e2 e6 e4 bd aa 2e 13 3d 3a 7b d6 3d
       -0.05769325 -0.1117685 0.035933174 0.10472722
0001c0 cb 60 b3 bd 32 f0 a4 bc 33 80 0b 3c 07 c4 15 3d
       -0.08758696 -0.020134065 0.008514452 0.0365639
0001d0 d3 26 60 bd 62 21 9d 3b 5c 08 e4 bd e1 14 7e bd
       -0.054724526 0.0047952393 -0.11134407 -0.06203163
0001e0 01 1a a0 3d 09 d7 19 3e 00 7d 25 3d ca dd 1e bd
       0.0781746 0.15023436 0.040402412 -0.038785733
0001f0 5c 6c ca bc d9 34 44 3d ec 6b 44 bc 49 87 20 bd
       -0.024709873 0.047901962 -0.011988621 -0.039191518
000200 a4 2c 1c 3d 98 9a f4 bc c3 1e 2d bd 43 22 21 3a
       0.03812851 -0.029858872 -0.042265665 0.0006146768
000210 13 1f 37 3e 88 2c a5 3b b2 53 87 bd f9 84 b4 3d
       0.17882948 0.005040709 -0.066077605 0.08814425
000220 76 b7 e5 bd c7 70 40 3d 5a 04 bd 3d 04 bc 8d 3c
       -0.11216633 0.046982553 0.092293456 0.017301567
000230 b8 a2 c8 bb 40 a5 cb 3b aa 61 99 3d 62 0c d7 bd
       -0.006122913 0.0062147677 0.07489331 -0.10500409
000240 91 ae d1 bd a9 d6 45 3d 8a f1 55 3a 9d 05 82 3d
       -0.10238374 0.04830042 0.00081612973 0.06348727
000250 d1 68 10 3d b0 3b a8 3d 3b 25 c3 bd e4 5c b1 bd
       0.03525621 0.082145095 -0.095285855 -0.086602956
000260 29 1a 50 bd eb fc 59 bd 9b 82 7f bc 63 c9 52 bb
       -0.0508062 -0.053219717 -0.015595104 -0.0032163493
000270 88 31 74 3d 55 d7 60 3d 5d 89 a1 bd c6 a1 71 3b
       0.05961755 0.054892857 -0.07887528 0.0036870106
000280 cc c7 5f bd 43 61 9a 3c 20 6c 67 bc 26 b5 24 3e
       -0.0546339 0.018845206 -0.0141249 0.16084728
000290 f5 4a 22 bc b1 48 f8 bd 83 77 81 3d f5 17 8b 3c
       -0.009905566 -0.1212324 0.06321623 0.016979197
0002a0 4f 13 23 3e 5e ed eb 3d 78 72 5d 3d 88 56 b9 3d
       0.15925334 0.115198836 0.054064244 0.09049708
0002b0 e6 04 a6 bd 82 c7 f6 bd d0 0b bb 3d 6b 33 5c bd
       -0.08106403 -0.12049772 0.091331124 -0.053759973
0002c0 ee 1b 16 3e ca 9e 05 3d 1a 82 f1 3d 36 8c f3 bd
       0.14659092 0.032622136 0.11792393 -0.118919775
0002d0 bc 73 7a bc 8d e7 f7 bd 7f 9e 2b be 3d 93 0e be
       -0.015286382 -0.12104712 -0.1675968 -0.13923354
0002e0 7a ca d4 bc 47 0c 1e 3e 77 e7 cd 3d 61 af 4c bd
       -0.025975455 0.15434371 0.10053914 -0.04997194
0002f0 b8 00 1c 3d e6 4b df bd a1 48 8e bd 72 62 04 3e
       0.038086623 -0.10903148 -0.069474466 0.12928179
000300 1f 38 01 3e 03 91 13 3d 44 f6 95 bd ba f1 93 bd
       0.12619065 0.036026966 -0.07322362 -0.0722384
000310 00 39 83 3d 2d 06 ba 3d 23 17 40 3d ab 1e 46 3e
       0.06407356 0.09083209 0.046897065 0.19347636
000320 10 c5 32 3a ee 43 4d bd 59 56 04 be 3c 70 a5 bd
       0.0006819526 -0.05011361 -0.12923564 -0.08078048
000330 f2 f2 cd bc ec 0d 8e bc 7f 39 ba bc 0a 4d a0 bd
       -0.02514026 -0.017340623 -0.022732494 -0.07827194
000340 3b 00 1c 3d 04 44 e1 bc 4c cb 1f 3e 57 56 02 3e
       0.038086157 -0.027498253 0.15604895 0.12728249
000350 24 f3 8b bd 94 0e 7b bd 67 74 74 3d 4f 60 c7 bd
       -0.06833485 -0.0612932 0.059681322 -0.09735166
000360 ab 5f b3 bd 6d f0 8c 3d 9d 6c 03 be 1a e9 ce 3d
       -0.087584816 0.06881795 -0.12834401 0.10103054
000370 a4 a7 22 be fe 79 fd bc 8c f9 dd bd e9 99 54 bc
       -0.15884262 -0.03094196 -0.10838613 -0.012976148
000380 66 3b ca bd 42 9c c3 bc fd f2 b0 3d 07 5a 9e 3d
       -0.098746106 -0.02387822 0.08640096 0.07732015
000390 e4 ad f5 3c 2f db 30 3e 5d 39 b2 3d fc 48 c6 3d
       0.029990144 0.17271112 0.087023474 0.096818894
0003a0 4c 23 99 3c 7b 7f 85 bd a7 e7 5d bd 47 36 e2 3d
       0.018693589 -0.065184556 -0.054176 0.11045509
0003b0 36 80 d0 bd 05 29 ad 3b df 53 99 3d be cf ab bd
       -0.10180704 0.005284431 0.074867 -0.08389233
0003c0 29 b6 0a 3e 70 c3 0e 3b f0 c2 c1 3d 5d d2 98 bc
       0.13546051 0.002178397 0.094610095 -0.018654997
0003d0 65 86 8d bd 31 b0 8b bd 17 68 54 3e 44 ef 8b bb
       -0.06910399 -0.06820715 0.20742832 -0.004270466
0003e0 5a c7 74 bc 0d 99 69 3d 39 df e1 3b af ab 9f bd
       -0.014940107 0.057030726 0.0068930653 -0.07796418
0003f0 e2 78 a2 bb 9b 31 ed 39 82 09 8d 3d 1a cd 1f be
       -0.004958258 0.00045241122 0.06886579 -0.15605584

lstm_layer.bias_ih_l0 f4 [400]
000000 72 f0 20 3e 27 eb f5 3d c6 2d 33 3d f1 a3 05 3d
       0.15716723 0.120077424 0.043744825 0.03262705
000010 a1 12 88 bc cd b1 5a 3b ba ca 6e 3d 0f b7 f2 3d
       -0.016610445 0.0033370138 0.058298804 0.11851322
000020 47 68 00 3e 7a a1 10 3e d1 af da 3c 16 42 b9 3d
       0.12539779 0.14124098 0.026695164 0.09045808
000030 a3 a3 95 3c 9e 05 cc 3c 55 e2 e1 3d d1 b6 40 bc
       0.018266505 0.024905022 0.110294975 -0.011762337
000040 d2 19 ad 3d 4f 01 4f 3e 69 f7 9f 3d 4b 5c 15 3e
       0.084521905 0.20215343 0.078108616 0.14585988
000050 67 dd 16 3e 52 90 90 3d d4 a6 da 3d b0 c6 84 b8
       0.14732896 0.07058777 0.10676351 -6.331259e-05
000060 13 a3 04 3d 57 7d 36 3e 36 b5 73 3d c9 2c 3c 3e
       0.032382082 0.17821251 0.059498988 0.18376459
000070 15 7f 16 3c ce 96 bd 3c 61 de 1a 3d ff 72 2c 3c
       0.009185572 0.023143198 0.037809733 0.010525464
000080 6c 7b 1a 3e d8 dd 58 3d d6 73 fc 3d 56 e4 29 3d
       0.15086144 0.05294594 0.123267815 0.041477524
000090 23 94 b1 3d d7 df d9 3d 64 0c 32 bc 20 c8 97 3c
       0.08670833 0.10638397 -0.010867212 0.018528044
0000a0 79 10 32 3e fc cd 97 3c 6f 9e 23 3e 34 d0 c4 3d
       0.17389096 0.018530838 0.15978406 0.09610024
0000b0 85 66 a6 3c 39 44 92 3d 17 51 cf 3b 01 38 86 3b
       0.020312557 0.07141919 0.0063268053 0.0040960317
0000c0 18 ea 86 bb 6c 01 0e 3e f2 26 4a 3d 86 63 0d 3e
       -0.0041172616 0.1386773 0.049353547 0.13807496
0000d0 ab df b2 3d a8 d6 d3 bb 6d db fd 3d 85 58 a8 3d
       0.087340675 -0.006464798 0.12395368 0.08220009
0000e0 2d 53 97 3d 22 b1 1c 3e b0 29 33 bc 7a fd f7 3d
       0.073889114 0.15301946 -0.010935232 0.12108894
0000f0 75 b9 1a 3e b7 d0 a8 3d 2a 69 c9 3c ed 93 fb 3d
       0.15109809 0.08242934 0.024586279 0.12284074
000100 73 71 0c 3e 28 78 9a b9 97 f7 bf 3d 8b 29 0c 3e
       0.13715152 -0.00029462692 0.09373396 0.13687722
000110 d2 d4 00 3c 94 22 c1 3d 5e c7 0f 3d 8e d4 16 3e
       0.00786324 0.094304234 0.03510224 0.1472952
000120 a6 09 26 3e 4f f8 03 3e f9 b0 a6 3d e2 c1 5b bc
       0.16214618 0.12887691 0.081392236 -0.0134129245
000130 54 be f7 3d 3a dd 81 3d fc 26 c2 3d 60 2f 3e 3d
       0.12096849 0.06341024 0.09480092 0.0464319
000140 ea 2b 18 3e 85 83 ce bb 98 e7 44 3e 88 2c 1c 3e
       0.14860502 -0.0063022994 0.19228971 0.15251362
000150 15 9d e9 3d b0 06 41 bc 8f 6a 6d 3c 6f da 6c 3d
       0.11406914 -0.01178138 0.014490738 0.057825502
000160 3a 00 92 3d d8 b2 e0 3d 99 76 d3 3d dd e4 fd 3d
       0.071289495 0.10971612 0.10325355 0.12397168
000170 83 d1 cd 3d 96 00 dd 3d 0c 39 2b 3e e1 c0 0d bd
       0.10049727 0.107911274 0.1672098 -0.03460777
000180 5b 04 37 3d c8 35 de 3d ce fb 24 3d 35 7a 75 3b
       0.044681888 0.10850102 0.040279202 0.0037456874
000190 4a ef 09 3e 3e 79 a6 bc fc 8e af 3d 9f 1f a9 3d
       0.13470188 -0.020321485 0.08572194 0.08257984
0001a0 c6 a8 be 3d de 40 72 3d aa e8 ba 3d a0 a4 65 3d
       0.09309535 0.059143893 0.091264084 0.0560652
0001b0 c7 90 a9 3d 8a 5a c6 3d 74 5e 03 3d f5 e8 c4 3c
       0.08279567 0.09685238 0.0320725 0.024036864
0001c0 9e e9 0a 3d 76 23 ff 3d 7c 86 d3 bc 26 4f f4 3c
       0.0339142 0.124579355 -0.025820963 0.029822897
0001d0 84 25 2e bd 84 15 19 3e 58 23 45 3d 56 3a 32 3d
       -0.042516246 0.14949614 0.04812941 0.043512665
0001e0 08 bb b8 3c 54 59 ae 3d 61 4e c6 3d 1d 8d 5d 3d
       0.022550121 0.08513132 0.09682918 0.054089654
0001f0 48 3d f0 3d ff 28 e8 3c f7 67 24 bd 7f 7a a7 3d
       0.117304385 0.028339861 -0.04013821 0.08177661
000200 7d d2 64 3d e9 a4 cb 3d 4c ee e2 3d fb 05 0c bd
       0.0558648 0.099435635 0.11080608 -0.03418539
000210 96 b2 77 bc 01 40 8e bd 1d dc 15 3e 10 31 d2 3d
       -0.015118262 -0.069458015 0.14634748 0.10263264
000220 18 4e dc 3d dc 24 36 3d 8f 0d 6b bd 99 47 27 3d
       0.10757083 0.044468746 -0.057385977 0.040839765
000230 6b 65 42 3d 02 37 1b 3b a6 9d 0c 3d e1 26 99 3d
       0.04746 0.002368391 0.034330033 0.07478119
000240 d2 c2 9b bc 2e ae 5a 3d 79 3d a2 3d b7 56 25 3d
       -0.019013796 0.053388767 0.07921881 0.0403659
000250 11 a2 08 3e 7c 37 d0 3d 89 15 4c 3d 9d 75 4f 3d
       0.13343073 0.10166833 0.049825225 0.050649274
000260 05 f5 b7 3d 3a 59 04 3d f0 9a dc 3c e8 7b 58 3d
       0.08982281 0.032311656 0.026929349 0.05285254
000270 79 83 3b 3d a4 e0 03 3e 2b 71 40 bd 29 cf c7 3c
       0.04577968 0.12878662 -0.046982925 0.024390774
000280 88 a2 19 3e ed 35 1d 3e 8f 40 d3 3d 45 3b 68 ba
       0.15003407 0.15352602 0.10315048 -0.00088589295
000290 75 c4 e7 3b f8 3f fb 3d 44 25 49 3d ff 87 c0 3d
       0.00707298 0.122680604 0.049107805 0.09400939
0002a0 af 7d 7c bc 29 38 9b bc 95 e3 2f 3d ac 1a a1 3d
       -0.015410825 -0.018947678 0.04294165 0.078664154
0002b0 89 31 9b 3c 18 1c 94 3d 3b c3 9f 3d 4e 61 c7 bb
       0.018944519 0.07231921 0.07800909 -0.0060845977
0002c0 64 56 5d 3d c7 08 ff 3d d6 71 88 3d 05 57 a4 bd
       0.054037467 0.12452846 0.066623375 -0.0802441
0002d0 ed 29 b0 3d 55 0e fb 3d a0 a2 66 3d fe fd df 3d
       0.08601747 0.12258593 0.056307435 0.10937117
0002e0 f7 8f 5d 3d df d0 c3 bc 94 d2 98 38 c4 af b7 3c
       0.054092374 -0.023903308 7.287148e-05 0.022422679
0002f0 7e 3b d5 bc 65 f7 0d 3e 05 5d 05 3e 5d b9 99 3d
       -0.026029345 0.13863905 0.13023765 0.07506058
000300 2c 06 82 3d 53 69 bf bc c1 3d 99 bc 00 22 67 3d
       0.063488334 -0.023365652 -0.018706204 0.05642891
000310 89 13 26 3c 36 64 2b 3e 20 f1 0d 3e ea 79 82 3d
       0.0101364935 0.16737446 0.13861513 0.063709095
000320 bd 15 9c bd dc 09 1c be 4e 85 d9 3c ae 2e 30 bd
       -0.07621334 -0.15238136 0.026552822 -0.043013267
000330 bc 4e a8 bd f0 a4 6b 3d e9 5e e7 bc 9e 5b ae 3b
       -0.082181424 0.057530344 -0.028243499 0.00532098
000340 40 79 bc 3d 1e 0b ab bd 4c 7d bd 3d 56 a7 16 3c
       0.09202814 -0.0835173 0.09252414 0.009195169
000350 30 55 7c 3d c4 cc e4 bc c4 e4 44 bd 3b ab 8c bd
       0.06160468 -0.027929671 -0.04806973 -0.06868597
000360 a0 2f 02 be 9c 90 b6 bd fb ec 49 bd 88 47 0e be
       -0.1271348 -0.08914301 -0.049298268 -0.13894475
000370 a3 46 00 bd 45 cd 1c 3e 7a a8 48 bd 08 4a 8d bd
       -0.031317364 0.15312679 -0.048988797 -0.06898886
000380 6a f2 9b 3d ab 05 a8 bd c6 fd 75 bd 75 05 61 3d
       0.07614596 -0.08204206 -0.06005647 0.054936845
000390 34 37 02 be 13 a6 61 bd 52 fc 64 bd ae 45 23 bd
       -0.12716371 -0.05509002 -0.055904694 -0.039861374
0003a0 fe da 41 3d ae 24 75 bd 34 a5 5b 3d a2 69 ad 3d
       0.047327988 -0.059849434 0.053624347 0.084674135
0003b0 8d fa b1 bd 80 1a fe 3d eb ce 81 3c 35 fe bb 3c
       -0.08690367 0.12407398 0.015845736 0.022948364
0003c0 b7 c2 0c 3e 3c 6a 0a bd 89 74 2e ba e9 e5 f7 bd
       0.13746153 -0.03379272 -0.00066549383 -0.12104399
0003d0 2a 15 19 3c 1a 5a a0 ba 1e 77 b1 3d 5c 2f d8 bc
       0.009343425 -0.0012233884 0.08665298 -0.02638977
0003e0 d9 59 22 3d 43 33 87 3d ec bf b3 bd a0 cf 53 bd
       0.039636467 0.06601574 -0.087768406 -0.05171168
0003f0 85 45 bf bc da 82 12 bd 94 c0 85 3c 38 84 16 be
       -0.02334858 -0.03576932 0.01632718 -0.14698875

lstm_layer.bias_hh_l0 f4 [400]
000000 81 10 23 3e db ea b0 3d 5d db 46 3d 3a 0b 26 3d
       0.15924264 0.08638545 0.048549045 0.04053805
000010 fa bb 9b bc 64 b2 26 3d 9b 60 c2 3d 45 f7 d7 3c
       -0.019010533 0.04069747 0.09491082 0.026363024
000020 eb 93 d1 3d 2d 83 b4 3d 06 be c4 bc 33 41 03 3e
       0.10233291 0.08814082 -0.024016391 0.1281784
000030 e1 48 bf bc f3 3f 80 3d 54 3a d1 3d a4 de ed 3d
       -0.023350181 0.06262197 0.10216203 0.11614731
000040 4c ed 31 3e d0 d9 eb 3c 7b 90 36 3d 7f fb 8f 3d
       0.17375678 0.028790385 0.04457138 0.07030391
000050 f3 37 12 3e f0 8e 17 3e 7d 2c 94 3d 5a 29 72 bb
       0.14279155 0.1480062 0.07235048 -0.0036950917
000060 b2 bc 17 bc ea ac c4 3d 8a d1 8d 3d d9 af 3f 3e
       -0.009261297 0.09603293 0.06924732 0.18719424
000070 17 37 da 3d 7b 69 0d 3e 69 07 fa 3c 74 df 3e 3e
       0.10655039 0.13809769 0.030521112 0.18639928
000080 69 18 3c 3e 7b 4e c6 bb 75 bf 03 3e 2d 8f 38 3d
       0.18368687 -0.006051836 0.12866004 0.045058418
000090 e6 8e da 3d ee 34 a7 3d 83 3b eb 3b 9e f2 81 3c
       0.10671787 0.081643924 0.007178725 0.01586276
0000a0 3f 99 11 3e ee a4 b6 3d d8 5f 2f 3e 8b 65 3c 3e
       0.14218615 0.089181766 0.17126405 0.1839811
0000b0 75 28 12 3d 52 69 31 3d 37 22 fb bc fe b4 c7 bb
       0.035683114 0.043313332 -0.030655963 -0.006094574
0000c0 e6 1f 1c 3e 9e 0d 85 3d dc 97 ad 3c f3 ac c5 3d
       0.15246543 0.06496738 0.021190576 0.09652128
0000d0 a4 6f f7 3c db 32 c2 3d 06 99 70 3d 64 52 07 3e
       0.030204602 0.09482356 0.058739685 0.13215023
0000e0 53 7b ad 3d bc 17 bb 3c eb 85 38 3e bd 3f 19 3e
       0.08470788 0.022838466 0.18019836 0.1496572
0000f0 da 4d 0f 3e f1 b7 3f 3e 2f 4c e5 3d 2f ab 1d 3e
       0.13994542 0.18722512 0.111961715 0.15397333
000100 00 3d 8f 3d 8b ee 06 3e 72 82 8f 3d 94 00 02 3d
       0.06994057 0.13176934 0.07007302 0.031738833
000110 24 6a 1e 3e 9d 9b f6 3d aa b1 1f 3e a0 8e 8d 3d
       0.15470177 0.120414 0.15595117 0.06911969
000120 4b 8c 02 3d 72 ba b2 3d 93 4f 8e 3d 63 2e 26 3d
       0.031872075 0.08726968 0.06948771 0.04057158
000130 c8 f3 52 3d bd fb 6b 3d d8 ba 2c 3e 61 9e ae bc
       0.05150202 0.057613123 0.1686815 -0.021315755
000140 a0 97 16 3d cd 04 72 3c 15 20 18 3e 62 ca 8c 3c
       0.036765695 0.014771652 0.14855988 0.017186347
000150 15 70 fb 3d 50 d5 1b 3e 8c 6f e9 3d b6 43 3a 3d
       0.12277237 0.15218091 0.11398229 0.04547473
000160 ec c3 cb 3c 8d 03 a3 3c c6 40 62 3d 2c 96 e4 3d
       0.024873696 0.019899154 0.055237554 0.111614555
000170 fe df 39 3e 04 76 f3 3d 8e 36 54 3d 7f 86 eb bc
       0.18151852 0.11887744 0.05180984 -0.028750656
000180 b8 32 0a 3e 03 97 0c 3d e9 d7 2d 3e 7f b4 49 bc
       0.1349591 0.034323703 0.16976894 -0.0123111
000190 12 b4 ee 3d af 35 8a 3d 49 b0 7c bc 18 bb 67 3d
       0.116554394 0.067485206 -0.015422889 0.05657491
0001a0 4e 0e 9b 3c b3 24 7d bc e4 48 b0 3d fa cb 2c ba
       0.01892772 -0.015450644 0.08607653 -0.0006591674
0001b0 b0 7f ea 3d 07 c4 ec bb 62 a5 57 3d 52 fd 9f 3c
       0.11450136 -0.0072255167 0.052647956 0.019529972
0001c0 0a 34 51 3d 78 73 a7 3b 01 b6 31 3b 83 bf 3e 3c
       0.05107502 0.0051102005 0.002711654 0.01164234
0001d0 1e 77 f4 3d 9e 52 27 3e 7e f5 97 3d 25 3b 6c bd
       0.11936782 0.1634011 0.07419871 -0.057673592
0001e0 a5 c2 77 bc c4 f8 b4 3d 3d 2b 0e 3e ee e4 24 bd
       -0.0151220905 0.08836511 0.13883682 -0.040257387
0001f0 4d 27 0c 3e 6e 3b d6 bc d8 df 86 3d 68 e3 9d 3d
       0.13686867 -0.026151385 0.065856636 0.0770939
000200 92 51 6d bd a9 ed e8 3c 96 23 93 3d a5 6c ff 3c
       -0.05793912 0.028433638 0.07184522 0.031179735
000210 0b 34 09 3e 51 ff 86 3d 37 04 1d 3e 2a 54 f1 3c
       0.13398759 0.065916665 0.15333639 0.029459078
000220 f4 08 3d 3d 90 8a 95 3d fb e5 0c bd 24 c2 2b 3d
       0.046151116 0.07301819 -0.034399014 0.041933194
000230 f2 c1 e5 3b 85 41 46 bd 2a 62 69 bc 22 3d 25 3d
       0.0070116455 -0.048402328 -0.014244596 0.040341504
000240 39 ea b2 3d 92 94 15 3d bd 95 69 3d e3 4a bb 3d
       0.08736081 0.03651864 0.057027567 0.09145143
000250 28 ea 01 3d 35 f6 5b 3d bb 3e c0 3d 39 81 03 3d
       0.03171745 0.0537016 0.09386965 0.03210566
000260 a4 77 8f 3d cb 0f a3 3d 71 a1 ce 3d 77 79 f8 bc
       0.070052415 0.07961997 0.10089386 -0.030331356
000270 8d d6 c5 3c 51 4e 21 bd 23 e5 36 bd 06 4c fb 3d
       0.024150157 -0.03938133 -0.044652116 0.1227036
000280 9b 04 78 3d 71 6b 37 bd 4b 79 32 3e 9c 83 ae 3d
       0.060551267 -0.0447802 0.17429082 0.08521196
000290 ff 0c 38 3d 7b 30 ad bc e4 3a 01 3e 6c ae c0 3d
       0.04493427 -0.021141281 0.12620121 0.09408268
0002a0 35 99 ed 3d 97 af ad 3d b0 a4 82 3d 53 59 83 3d
       0.116014875 0.08480757 0.06379068 0.064135216
0002b0 6c 63 8e 3d 4a 43 0d 3e 69 85 e6 3b d3 34 18 3d
       0.06952557 0.137952 0.0070349467 0.037159752
0002c0 04 77 b1 3d a4 57 fd 3d bd f6 5d 3d 90 46 54 bc
       0.086652786 0.12370232 0.054190386 -0.012956277
0002d0 ff 8e 0c 3e 47 67 8a 3d 4d 42 4c bd da 3e 02 3d
       0.13726424 0.0675798 -0.049867917 0.03179822
0002e0 09 f3 2c 3e 22 98 53 bd a5 92 e9 3d 5f 54 57 3c
       0.16889586 -0.051658757 0.11404923 0.013142674
0002f0 ea b6 c2 3d 20 e8 19 3e 35 f3 fa 3d 71 48 05 3e
       0.09507544 0.15029955 0.12253419 0.13015915
000300 51 cf 0e 3d db 65 46 3c 0d e2 7e bc 86 2e 20 3e
       0.03486568 0.012109245 -0.015556824 0.15642747
000310 e1 ca 2a bc 6a 4c 4e 3c 3f 45 ce 3d e0 57 c6 bc
       -0.010424347 0.012591461 0.100718014 -0.024211824
000320 39 ee 5c 3d a1 a2 1a 3c fa 0d ae bd 89 fc 89 bd
       0.053938124 0.009438188 -0.084987596 -0.067376204
000330 65 d7 eb bc 06 2d ad 3d 2a 21 4b bd 34 87 7a bd
       -0.028789232 0.08455853 -0.049592175 -0.061164096
000340 58 55 85 3d 65 7e f9 bd 87 11 8b 3d 0e c7 02 3e
       0.06510419 -0.12182311 0.067904525 0.12771246
000350 7e 63 79 bd 92 26 92 3d f1 a0 1b 3d 85 d3 d4 bb
       -0.0608859 0.07136263 0.037995283 -0.0064949417
000360 27 29 94 bb 98 fb 95 bd 01 84 f2 bd 37 c9 9c bc
       -0.0045215073 -0.07323378 -0.11841584 -0.019138915
000370 24 d8 e2 3c bf e9 16 3e 08 e8 07 be ce c0 d2 bd
       0.027690955 0.14737605 -0.13272107 -0.10290681
000380 e7 54 b0 bc 5d 40 b0 3a 35 ce c7 3d 7e 16 6e bb
       -0.02152486 0.0013446916 0.09756128 -0.0036329324
000390 21 c2 2c 3d 51 b3 e2 bc e8 6d ae bd 06 e4 4a bc
       0.042177323 -0.027673395 -0.08517057 -0.012383467
0003a0 69 e6 b4 3b 76 a6 32 3b 3d 7c dc bc b0 94 a8 3d
       0.005520631 0.0027259863 -0.02691471 0.08231485
0003b0 b5 f5 39 3c fa 54 01 3e 2a db 00 3e bf 56 a4 bd
       0.011350085 0.12630072 0.12583604 -0.08024358
0003c0 14 ab db 3d 8e bb a1 bc d9 91 40 bd 7a 9d ac bc
       0.1072599 -0.019742753 -0.04701409 -0.021071184
0003d0 6f f9 ec bd ab 4f 27 be bc 38 6d bc f9 57 09 3d
       -0.11571013 -0.16338985 -0.014478859 0.033531163
0003e0 ed e4 35 bd 09 7d 1b 3d 17 c6 a8 bd 35 54 03 be
       -0.044407774 0.03796104 -0.08240908 -0.12825091
0003f0 27 8e 37 bd ef 19 e2 bd 27 11 82 bd 23 77 14 be
       -0.0448133 -0.11040103 -0.06350928 -0.14498572

out_layer.weight f4 [398, 100]
000000 7f 5f 12 3d 81 a0 2c be 0f f1 7f bd aa a8 5f 3d
       0.035735603 -0.16858102 -0.06248575 0.05460421
000010 c5 d2 d4 bd 0f 55 cc bd d0 16 54 bc 38 f3 a0 bc
       -0.103917636 -0.09977161 -0.012944892 -0.019647226
000020 b5 f8 c9 bd 58 c0 3d bd f4 21 02 3e 86 21 d7 3d
       -0.0986189 -0.04632601 0.12708265 0.10504441
000030 ce 60 81 bd ae 9f 81 3d 69 4a c9 3d b5 fe 5e 3b
       -0.06317292 0.063292846 0.09828646 0.003402633
000040 7b a6 e1 bd 23 d5 0b bd 7e 92 d7 3d 1c 67 06 3d
       -0.11018082 -0.03413881 0.10525988 0.032813177
000050 1c 96 a3 3d 15 ea 5d bd 52 df 31 bd ee 07 8f bc
       0.079876155 -0.054178316 -0.043425865 -0.017459836
000060 c2 31 aa 3d 6b 56 02 be 1a 90 76 3c 28 0f 95 3c
       0.08310272 -0.12728278 0.015049005 0.018195704
000070 59 92 3a 3d c0 c2 e4 3c e8 7c 0e 3d 5e 94 49 bd
       0.045549724 0.027924895 0.03478709 -0.04921376
000080 b1 40 97 3d 9b c1 46 3d 78 1a 69 bd 4f 16 2d 3d
       0.07385386 0.04852448 -0.05691001 0.042257603
000090 a8 ac d8 bd dd e4 02 3d 99 fb be bd 42 64 32 3d
       -0.105798066 0.031956542 -0.09325332 0.043552645
0000a0 0b ec 04 bd 06 c5 b5 3c 83 d1 40 3d 42 ea 21 be
       -0.03245167 0.022188675 0.047074806 -0.15812019
0000b0 5d 70 ab bd bd b2 b2 3c 58 69 87 bd 5c 11 3d bc
       -0.08371041 0.021813745 -0.066118896 -0.011539783
0000c0 8d 9a 93 3d 06 6f 8c 3d d6 b4 0c 3c b3 98 49 3b
       0.072072126 0.068571135 0.0085880365 0.0030761182
0000d0 2f cc 14 3d 6c 29 84 3d 81 10 d8 bc fa 60 e6 bd
       0.036327537 0.06453213 -0.026375057 -0.112489656
0000e0 d8 51 cb 3d 27 b4 e1 bc c4 55 77 bd 93 95 0f be
       0.0992772 -0.027551724 -0.060384527 -0.14021902
0000f0 52 91 d9 bd 0b cc 24 be d2 1f 81 3d dd 3e f6 3d
       -0.10623421 -0.16093461 0.06304897 0.12023709
000100 bb 50 cc bd 58 55 22 be da 74 b5 3d 42 12 d9 bd
       -0.099763356 -0.15852869 0.08860178 -0.105991855
000110 be f6 02 3b e4 76 49 bd 0d 8c 95 3d e3 aa 3a 3c
       0.0019983496 -0.04918565 0.07302103 0.011393282
000120 51 8c 04 be 09 26 72 3d b0 00 e1 bd 1e 9e e9 bc
       -0.12944151 0.059118304 -0.10986459 -0.028517779
000130 ba 51 00 3e b8 47 c6 bd 7d a9 56 be d4 cb 16 3c
       0.12531176 -0.09681648 -0.20963092 0.00920387
000140 23 52 c0 3d c8 60 0e be 9b b6 00 3c 0a 50 28 3e
       0.09390666 -0.13904107 0.007856037 0.16436782
000150 01 01 6b bd fc 6b 45 b9 fa eb ff bd 6e 06 4b 3d
       -0.057374004 -0.00018827611 -0.12496181 0.04956668
000160 c8 28 8c 3d 6b dc b7 bd 62 33 a1 3d b7 80 ae bc
       0.06843716 -0.08977588 0.078711286 -0.02130161
000170 f1 a2 96 bc 4c 21 a6 3d 8c bf a4 3d a6 e1 a9 bd
       -0.018388243 0.081118196 0.08044347 -0.08294992
000180 b0 69 bd 3d 6a 2e de bd 0b 1f 28 3d 6b 40 06 3d
       0.09248674 -0.108486965 0.04104523 0.032776278
000190 ff cf d5 bd 95 27 53 3d b5 36 fd 3d e5 bd a5 bd
       -0.10440063 0.05155142 0.1236395 -0.0809286
0001a0 ce 70 07 be 87 b6 99 3d a1 4c ad 3d a7 bb 8d bd
       -0.13226625 0.075055175 0.084618814 -0.069205575
0001b0 27 c4 dc bc 7f a7 26 be 45 f8 ca bc 66 c3 8b 3b
       -0.026949001 -0.16274832 -0.024776587 0.0042652367
0001c0 f1 ed a4 3d 59 13 3b 3e fd fa 94 3d 57 1d 50 bd
       0.08053196 0.182691 0.07274435 -0.05080923
0001d0 dd bf aa bd 82 0d 32 3c dd 19 7c 3d 4f f4 8e bd
       -0.08337376 0.010867478 0.061548103 -0.06980192
0001e0 05 25 cb 3d b1 4a 02 3e 22 15 0b be 69 33 12 be
       0.0991917 0.12723805 -0.1358228 -0.14277424
0001f0 49 13 d8 bd 53 92 89 bc 85 0c a5 bc b4 16 33 3e
       -0.10550553 -0.016793406 -0.020147571 0.1748913
000200 9d 29 e3 bd e0 89 c3 3c f3 2a 7c 3d 0a bb c6 3c
       -0.110919215 0.023869455 0.061564397 0.024259109
000210 40 f6 7a 3d 06 e1 b0 bd a0 e0 99 bd 29 68 08 3e
       0.06127 -0.0863667 -0.07513547 0.13320984
000220 c8 6a 83 bd df 6b 23 3d 97 64 2d 3e 89 34 11 bc
       -0.06416851 0.039897796 0.16932903 -0.008862623
000230 6a 9b 1b 3e 9e ab 22 be 1a 6d b7 bd 53 dc 58 3d
       0.15196005 -0.1588578 -0.08956356 0.052944493
000240 e6 e3 5c bc bf 7b 74 bc a3 a2 d4 3c 75 db e8 3d
       -0.01348207 -0.0149220815 0.025956457 0.11369983
000250 62 43 17 bd cc 72 78 bb ab 43 2f be 9e 44 97 bd
       -0.036929496 -0.003791022 -0.17115657 -0.073861346
000260 95 a6 0b be 82 52 c8 3d 65 cf 81 3d 4a 9a 2e be
       -0.13637765 0.09781362 0.063383855 -0.17051044
000270 bb 3b 71 3d 78 c5 9e bd b3 3c ce 3c 92 7a a6 3c
       0.058894854 -0.07752508 0.025175428 0.020322118
000280 fa 17 23 be 0d 64 b4 3d fe 42 70 3d af 55 c5 3d
       -0.15927115 0.08808146 0.05865764 0.096354835
000290 49 58 1f 3c 00 ca fd 3c fd d3 b0 3d af 90 ee bd
       0.009725639 0.03098011 0.086341836 -0.1164869
0002a0 1a 39 dd 3d 00 1a 0a be 9f 9f 24 3e ff c0 08 3e
       0.10801907 -0.1348648 0.16076516 0.13354872
0002b0 9d cc 74 bd 08 d6 d0 bd 56 bc e4 bd 66 7d 4f bd
       -0.059765447 -0.10197073 -0.11168735 -0.0506567
0002c0 12 18 46 3c b4 40 4a 3e 1d d6 7a bd d9 23 25 bd
       0.0120907 0.19751245 -0.06123935 -0.04031739
0002d0 18 fe 36 3d 57 a2 d1 3c 9b 71 48 be 90 f0 ad 3c
       0.044675916 0.025590105 -0.19574587 0.021232873
0002e0 fe 1b ae bc 64 10 25 3c 6e 58 ef 3d 36 23 7b bd
       -0.021253582 0.010074709 0.116867885 -0.061312877
0002f0 f2 90 07 be 07 80 81 bd d7 f6 7c 3c 34 6f bc 3d
       -0.13238886 -0.063232474 0.015439711 0.09200898
000300 0e da 6f 3d 39 c2 a0 3d a4 5c 90 3c ff 70 2d be
       0.058557563 0.07849545 0.0176223 -0.16937636
000310 05 a1 17 3e af 4b 21 3e 23 a7 80 3d e9 8c 08 be
       0.14807518 0.15751527 0.06281879 -0.13335003
000320 cb d3 e4 bd 69 2a 25 be 82 0e d2 bd c4 d0 47 3e
       -0.11173209 -0.1612946 -0.102566734 0.19513232
000330 c8 01 55 bd 5a aa 22 bd d6 c4 76 3c 43 5d cf bd
       -0.05200365 -0.03971324 0.015061578 -0.1012521
000340 a9 3e b3 bd b2 34 16 bc f5 2f 50 3e f3 73 59 bd
       -0.08752186 -0.009167837 0.20330794 -0.053089093
000350 64 cc 29 3e 5e 32 2e bd 0a 56 fb 3c 1d fe c3 bc
       0.16581875 -0.042528503 0.030680675 -0.023924882
000360 3f 82 ef bd 73 25 aa bc c7 bf 97 bc 33 60 f7 3c
       -0.11694764 -0.02076981 -0.018524064 0.030197239
000370 40 31 b2 3d 8c 6e 09 3e e2 8d c3 3d ba e6 99 bd
       0.087008 0.13421077 0.095485464 -0.07514711
000380 2c fb 03 be 36 4a 1c bd 19 3a 07 3e 6b f4 f4 3d
       -0.12888783 -0.03815671 0.13205756 0.119606815
000390 d5 f1 d8 bd 08 16 6d bc 1e 53 11 bd 25 6d 8a 3d
       -0.10593001 -0.014470585 -0.035479657 0.06759099
0003a0 dc 35 2e bd 64 73 0f bc 80 b3 09 be 27 48 82 3d
       -0.042531833 -0.008755539 -0.1344738 0.06361418
0003b0 0f 30 75 bd ce 45 01 bd 19 4b aa 3b 5f cb dc 3d
       -0.059860285 -0.03156071 0.0051969406 0.107809775
0003c0 c7 4c 0b 3e a5 b5 d0 bd b1 ec b1 3d 0f a5 88 bc
       0.13603507 -0.10190896 0.086877234 -0.016680269
0003d0 ba 77 c1 bc 12 e6 1f be 04 a4 95 3b cc bc 5c 3e
       -0.02361666 -0.15615109 0.0045666713 0.21556395
0003e0 87 21 76 3d 6f 86 7f 3d 2e 30 df bd 6a 65 fc bc
       0.060090568 0.062384065 -0.108978614 -0.030810077
0003f0 7d d2 79 bd 19 c5 93 bb 9d 05 ee 3d 45 5c 9d bd
       -0.060991753 -0.00450958 0.116221644 -0.07683615

out_layer.bias f4 [398]
000000 b9 4b 76 3d dc 83 18 3d 2e 5b f6 3c f3 4e f3 3d
       0.06013081 0.037235126 0.030072775 0.11880293
000010 cf ec 8a 3d c8 f8 80 3d 09 c9 47 3d 55 2a 34 bd
       0.06783449 0.06297451 0.048775706 -0.043985683
000020 35 f1 57 3d e0 cb ae 3d 22 90 af 3c 25 8e 16 3e
       0.052720267 0.0853498 0.021431033 0.14702661
000030 06 e2 5d 3d 88 eb c0 bc ad 27 6e bd 19 fe 88 bb
       0.05417063 -0.02354981 -0.058143307 -0.0041806814
000040 bd ff 8c b9 ce 48 2c bd 41 a1 b3 3d 0c e6 8a 3d
       -0.0002689342 -0.04206162 0.08770991 0.06782159
000050 ef a8 d0 3b 77 8a dd 3d 43 f5 01 3e ee 8f 07 3d
       0.0063677947 0.10817426 0.12691216 0.033096246
000060 dc c4 b5 bc 4b ec 4f 3c 44 c7 7d bd 54 5e 94 bd
       -0.022188596 0.012690614 -0.061957613 -0.07244554
000070 57 8c f6 bc fe a0 aa 3d 88 19 8b 39 1a 7d 8a bc
       -0.030096216 0.08331488 0.00026531168 -0.016905356
000080 5a 5f e6 3d dd 90 95 3d 4f 9a 10 3d de 5f 0c bd
       0.112486556 0.07303021 0.03530341 -0.034271114
000090 a4 1f 0f 3d 70 e3 0a 3e 82 ac d4 3c 46 69 d4 3c
       0.034942284 0.13563323 0.025961164 0.025929105
0000a0 2a 6c 8e bd 4b 50 87 3d 18 50 57 bd 73 8c b1 3c
       -0.069542244 0.066071115 -0.052566618 0.021673417
0000b0 9d ba 28 3b 4a 86 66 3d 8f a5 c4 bd a8 d6 9b 3d
       0.0025745996 0.05628041 -0.0960189 0.07609302
0000c0 b4 75 d1 3d 5c db 8d 3d ee bf 93 3c a8 e0 90 3d
       0.10227528 0.06926605 0.018035855 0.070741
0000d0 83 e9 4d 3d fc 64 0a 3b 35 ae 9e bd 89 1c 94 3d
       0.050271522 0.002111732 -0.07748071 0.07232005
0000e0 30 d9 c9 bb 5e a1 dd 3d a0 d1 0b 3d b9 11 96 bd
       -0.006159924 0.10821794 0.03413546 -0.07327599
0000f0 65 60 bb bd e4 94 5e bc 98 39 e3 bb bc 8f 8a bb
       -0.09149245 -0.013585303 -0.006934356 -0.0042285603
000100 1f d5 0f bd 27 b4 4e 3d 9c 6a d9 bd 31 4e a9 bd
       -0.035115357 0.050464775 -0.10616037 -0.08266867
000110 67 7d ac 3d 56 70 70 3d 23 91 4b bd fb 30 f3 bb
       0.08422356 0.058700882 -0.04969896 -0.0074216104
000120 80 57 62 bd ee 59 32 bd 2c 3b fb 3d f8 c7 a6 3d
       -0.055259228 -0.043542795 0.122671455 0.0814361
000130 fc a5 a6 3b 1f ae bd 3d 80 27 00 be a4 f4 52 3d
       0.005085705 0.092617266 -0.12515068 0.05150284
000140 a6 30 04 39 c8 fd 1f bd 81 ef 4e 3d 91 2b ac 3d
       0.00012606624 -0.039060384 0.050521377 0.08406747
000150 d4 7a 87 bc 09 70 21 3e d6 ae 27 b9 7b f6 0b be
       -0.016538061 0.15765394 -0.00015991493 -0.13668244
000160 d2 fd 7a bd f6 a1 d7 bc 1e e2 4a 3d 25 65 96 bd
       -0.06127722 -0.026322346 0.04953205 -0.073435105
000170 11 17 06 bc 77 67 99 3b 51 5b 8e bd e3 a7 12 3d
       -0.00818421 0.0046815234 -0.06951011 0.03580464
000180 b6 2d f3 bc c9 8a 87 3d fb 29 f3 3d 03 b7 ee 3d
       -0.029684883 0.06618268 0.118732415 0.116560005
000190 7d 1b fa 3b a7 99 13 3d de 87 ad 3d 27 f1 68 bd
       0.0076326714 0.036035206 0.0847318 -0.056870606
0001a0 1c ea b3 3d 7d 98 02 3e b1 4e 8f 3c f2 f1 f0 bd
       0.08784887 0.12753482 0.017493578 -0.117648974
0001b0 b9 2a 0e bb 81 39 04 be c5 b6 8c bd b7 55 f6 bd
       -0.0021692945 -0.12912561 -0.06870798 -0.120280676
0001c0 d9 d0 e6 3b a6 6a 4a 3d 94 ae ae 3d 1a c6 01 be
       0.0070439395 0.049418114 0.08529392 -0.12673226
0001d0 fb 17 8b 3d f3 94 a5 3d e1 f9 8e bd 50 e6 91 3d
       0.06791683 0.080850504 -0.06981254 0.07124007
0001e0 32 7d 58 3d 41 36 65 bd 04 20 84 3d 42 26 69 bd
       0.05285377 -0.055959944 0.06451419 -0.05692125
0001f0 71 ae b8 bd 94 b6 32 bd 88 2e 15 bd f4 cc ad 3c
       -0.09017647 -0.04363115 -0.03642133 0.021215893
000200 9d d0 c4 3d 49 e0 0a be 38 c5 4f bd 89 8b 48 bd
       0.09610102 -0.1356212 -0.05072519 -0.048961196
000210 e4 54 48 bd 1b d5 87 bd 0a e8 6f bc ec d2 e8 3d
       -0.048909083 -0.066324435 -0.014642725 0.11368355
000220 0b 65 69 bc 68 d3 68 bd 8b 0a 20 bd 5d c8 ad 3d
       -0.014245282 -0.056842238 -0.039072555 0.08485482
000230 a0 4a e5 bd 5f 6b a6 bd 97 6d ee bd d5 40 8d bd
       -0.11195874 -0.08125948 -0.11641996 -0.06897131
000240 79 90 86 3c d8 d7 db 3d 84 1b 2f 3c b3 36 81 3c
       0.016426312 0.10734528 0.010687713 0.015773153
000250 69 0f 14 bb eb b5 4b 3d 45 0b dd 3d c7 db 07 3e
       -0.0022592193 0.049734037 0.10793165 0.13267432
000260 4b 1f 56 3d 9d 50 3c bb bc 31 53 3d 44 92 05 3d
       0.052275937 -0.0028734573 0.051561102 0.032610193
000270 80 84 d6 3c 70 ba 42 bd d2 0c 70 3d 42 09 a0 3c
       0.026186228 -0.047541082 0.058605976 0.019535664
000280 a0 71 30 bd 12 5f 7e bd c7 a7 2a 3b 81 82 c5 3d
       -0.04307711 -0.062102385 0.0026039944 0.09644032
000290 8c 1c 42 bd d4 99 5e bd 57 0f bb 3d 24 2f e4 3d
       -0.047390506 -0.05434592 0.09133785 0.11141804
0002a0 6d 33 06 bc d7 ff 1b bd 13 27 0f bd 0f 07 c3 3c
       -0.008190972 -0.038085785 -0.034949373 0.023807077
0002b0 0f 87 ca 3d 96 eb f5 3d da f4 5c 3d 8c c1 ac bd
       0.09889042 0.12007825 0.053944446 -0.08435354
0002c0 ac ab ae 3c fd e8 4e 3d e5 dc f3 bd 0b 1d c3 3d
       0.021322094 0.050515164 -0.11907367 0.09527024
0002d0 5a 86 18 3c b4 18 5b bd 41 12 a4 bc 7e 65 dd bc
       0.009309376 -0.053490356 -0.020028235 -0.027025934
0002e0 65 26 20 bd e4 ac 60 bc 47 0f ce 3c 36 f8 08 3e
       -0.039099116 -0.013713095 0.02515377 0.13375935
0002f0 bb 0b a0 3c d1 df 1e 3e bf 08 d2 bd f8 ff 58 bd
       0.019536844 0.15515067 -0.102555744 -0.052978486
000300 23 67 6d bd ea 22 9e bd db cb c7 bc ae 84 93 bd
       -0.057959687 -0.07721503 -0.024389198 -0.07203041
000310 b6 60 c2 3b 06 7e a9 bc 08 ee d3 bc 79 bb 60 3c
       0.005931939 -0.020689975 -0.025870338 0.013716572
000320 20 9b 7a 3d cc a3 bc bc 2e 49 b8 3d 57 9e 2d bd
       0.061183095 -0.023027323 0.08998333 -0.042387333
000330 94 55 78 3d 50 a4 c0 3d 1e 07 92 bb 22 a7 8b 3c
       0.06062849 0.0940634 -0.004456415 0.017047469
000340 7c 70 2b bc c5 f3 d5 bb 6f 29 87 3d 6e b7 27 bd
       -0.01046383 -0.0065293037 0.065997 -0.040946417
000350 20 47 b1 3d 71 d4 b7 bc 84 34 ca bd 3c 5d 4d bd
       0.08656144 -0.022440167 -0.09873298 -0.050137743
000360 ce c7 7f 3d ad 82 31 bd 63 31 ac 3d bb 21 0f 3e
       0.062446408 -0.043337513 0.08407857 0.13977711
000370 20 a3 c4 3d 5d 53 57 3d 43 9d de 3d 08 20 cf 3d
       0.09601426 0.052569736 0.10869839 0.10113531
000380 c6 99 00 3e 47 6f 12 3e 29 65 b4 3d 5d a8 7e bd
       0.1255866 0.14300261 0.08808357 -0.062172282
000390 13 5c 06 3d 90 b3 0d bd 38 68 e1 3c a6 53 05 bd
       0.032802653 -0.034595072 0.027515516 -0.032550476
0003a0 00 f3 85 bd a7 5a dd 3a b3 97 d1 3d 08 a4 2b bd
       -0.06540489 0.0016887978 0.102340125 -0.04190448
0003b0 a9 62 92 bc 0f 37 8d bd 04 c6 02 bd 9a 84 8a 3d
       -0.01786931 -0.06895267 -0.031927124 0.06763573
0003c0 2e 33 34 be 81 9b 72 bd 5e 94 8a 3d 01 8d c0 3d
       -0.17597649 -0.05923033 0.0676658 0.09401894
0003d0 1a cf 37 3d c9 af 9c 3a b8 8b ef 3c 17 70 88 3d
       0.04487524 0.0011954244 0.029241428 0.066620044
0003e0 26 47 c8 bd ee af 16 bc e0 a6 4a 3c 31 c2 b9 3c
       -0.097791955 -0.009197218 0.012368888 0.022675605
0003f0 28 9a 82 bd f1 b1 0f bc 13 c8 cb bd 48 38 f1 3d
       -0.06377059 -0.008770452 -0.099502705 0.11778313
