ckpts/mysaint/alg05/model.ckpt (torch, 367703 bytes, 49 tensors)

encoder_layer.norm_layers.weight f4 [64]
00000000: 82a4 823f 04a1 823f 5268 7f3f 534f 813f
00000010: dab4 803f dcaa 7f3f cac8 813f 75c3 803f
00000020: 5b2a 7d3f db68 7c3f 5624 803f 19ac 803f
00000030: 041f 813f 1b6c 823f d075 813f a706 7c3f
00000040: 4201 803f ed73 813f 6c2d 813f ad18 803f
00000050: 97dd 823f 96ca 823f a9ad 803f 6860 823f
00000060: 6bfa 7e3f 92e5 763f a386 7c3f 4613 803f
00000070: 98c3 7a3f 1ea9 7f3f b8c1 803f 726e 843f
00000080: 582d 7f3f 2606 843f 1d56 803f 467d 7d3f
00000090: 9bb4 773f 242b 833f d9d1 793f a6c0 7f3f
000000a0: 95a2 803f 8709 823f 2497 803f 29d3 7e3f
000000b0: 3dec 7a3f ac65 823f 29e6 7e3f 2cfa 7f3f
000000c0: 2c26 823f 59a1 833f b0be 813f df24 813f
000000d0: d32e 7c3f 03d5 813f 0f9c 803f c174 813f
000000e0: 7890 803f 569c 7e3f 9db4 803f bd91 7d3f
000000f0: b552 803f 464e 7c3f dcf6 7d3f 8f52 813f
1.0206454 1.0205388 0.99768555 1.0102333 1.0055192 0.99870086 1.0139401 1.0059649
0.98892754 0.98597497 1.0011089 1.005252 1.008759 1.0189241 1.0114079 0.9844765
1.0000384 1.0113503 1.0091987 1.000753 1.0223874 1.0218074 1.0052997 1.0185671
0.9960086 0.96444046 0.9864294 1.0005882 0.979547 0.9986743 1.0059118 1.0346205
0.99678564 1.0314376 1.002628 0.9901928 0.9675996 1.024754 0.9758583 0.99903333
1.0049616 1.0159158 1.0046124 0.99540955 0.9801672 1.0187278 0.99569947 0.99991107
1.0167899 1.0283614 1.0136318 1.0089377 0.9850895 1.0143131 1.0047625 1.0113755
1.0044088 0.994573 1.0055119 0.99050504 1.002524 0.98556936 0.992048 1.010332

encoder_layer.norm_layers.bias f4 [64]
00000000: 79d7 c6bc 3c9f d03b a41b f3bb f534 ffbb
00000010: 8d58 0cbc ffd2 3cbc 98b8 84bc 6385 7b3c
00000020: f521 b5ba 7866 db3b 1b39 59bb 070c 4bbc
00000030: b96b acbb bf0b f73b e894 9d3b e5c0 28bc
00000040: 02aa 743b a435 023c 05d9 b13b e527 98bb
00000050: 8ded 133c 51de 813b 5a4d 6a3c e434 cfbb
00000060: 3b89 edb9 7a10 053d 4b43 6cbb d6ca 2abc
00000070: 5c3b 9dbc b0df e0bb 363d 24bb 546f a43c
00000080: 9424 8ebc 7f5b 4cbc a250 e8bb 8026 c43b
00000090: 8eb2 fa3c 1ea1 3cbc f2e2 88ba b660 383b
000000a0: 5652 053c 8f84 a83c 9b62 653c c541 2b3c
000000b0: 28ab b8bc f67f d63b a6bd 97ba e8aa ba3b
000000c0: 6618 ddbb 5d23 123c 8c4a 60bc ea8e b6bc
000000d0: 7cee acbb 18f0 453b 93fd 2e3c 128f ea3b
000000e0: e617 2d3b c3a9 95bc 6e72 e53a db62 bebb
000000f0: 1cdb 80bc d446 1a3a 305b 863c 55d8 a43c
-0.024272667 0.0063666385 -0.0074190665 -0.0077882954 -0.008566034 -0.011524915 -0.016201302 0.015351626
-0.0013819324 0.006695565 -0.003314561 -0.012393004 -0.005261865 0.007539242 0.004809011 -0.010299896
0.0037332778 0.007947359 0.005427482 -0.0046434277 0.0090288045 0.0039632698 0.014300669 -0.0063234437
-0.00045306407 0.032486416 -0.0036050852 -0.010424336 -0.019193344 -0.006862603 -0.0025060899 0.020072617
-0.017351426 -0.012472986 -0.0070896903 0.005986035 0.03060272 -0.011513023 -0.0010443612 0.0028133816
0.008137306 0.020571021 0.01400056 0.010452692 -0.022542551 0.006546016 -0.0011576905 0.005696643
-0.0067472933 0.008919564 -0.013689648 -0.022284944 -0.005277453 0.0030202921 0.010680574 0.0071581686
0.002641195 -0.018269425 0.0017505416 -0.0058101243 -0.01572948 0.0005885188 0.016400903 0.020122686

encoder_layer.multihead_layers.0.0.in_proj_weight f4 [192, 64]
00000000: 3c47 003e 2684 ab3d 9aa3 083e a97e 853d
00000010: 483f a5bd d720 dc3d 3bd9 763d cf35 453d
00000020: a62d 00be ae2e a83d 68ce 703d 86b0 8fbd
00000030: b1b1 92bd 92b2 82bd 25d2 dabd 9c7d 81bb
00000040: 4502 fabd 38ce 933d 2f0f ff3d acab da3d
00000050: 964e 17bd a77e 3d3c 7c3b a3bd 4435 1cbe
00000060: 259a ef3d 1cc8 cdbd 1b54 f7bc 6051 08be
00000070: 3e12 cebd 7f20 02be 28ff 1dbe 66a7 673d
00000080: c463 bd3d 6aad 1e3e 5f94 aa3d 91c8 b8bd
00000090: ef2c ab3d 4813 d5bd 7cf5 56bd 3acf 62bd
000000a0: cdf4 b7bd 970b f53d ce91 e0bc 7782 0b3e
000000b0: 8a2c a93d 2443 5c3d 63b8 993d d783 22be
000000c0: 548c a2bd d45a 1a3e 7595 ea3d af31 b33d
000000d0: affb 14be a58c 84bd 8688 91bd 19b9 0abd
000000e0: ed4c 9ebd fd0f 78bd ce72 9c3d 6219 433c
000000f0: c0c9 053e eb5c 823d 8c6d 533d 6842 babd
00000100: 7466 153d 8e91 df3d 1399 d8bd bbc3 a33d
00000110: 8f05 29bd cedb a23d b68a df3d b688 863c
00000120: 1f8a c8bc 6ba2 e33d e331 a23c 2b0e 0bbd
00000130: effb faba 4d8e b8bc 176d c63d 8295 5d3d
00000140: 1705 a13d aad6 b9bd 077e b5bd 7bc2 aabc
00000150: 0e7c 77bd 4582 f7bd 2373 b93d fb8b 80bd
00000160: a9fd f83d b507 cb3d d63d eb3b fa97 62bd
00000170: 10b6 d13d a65a 423d 8772 c33d 7273 ba3c
00000180: bec5 cb3d 6850 ec3c 83ef 51bd b7b3 223c
00000190: 074e cabd 7824 d5bd b106 563d 96ab 013e
000001a0: 2a9f bebd 2317 173e 6f36 973d 620d 87bd
000001b0: 8719 e93c 3676 10be fca8 aa3d 9758 083e
000001c0: 86ed ebbc 694c d8bc f309 3e3d c0eb c13d
000001d0: 1d5d 4bbc aee2 96bc f37e 9f3d be8c d43d
000001e0: 3d56 293d 4e23 8d3c c4ca 873c bd60 03be
000001f0: 1eb1 473d c842 903c 9411 63bd 64fc f0bd
00000200: 944b 27ba cc30 09be 5305 fabd f94b c43c
00000210: 4424 b0bd 72f1 86bd 4639 4cbd 698b 463d
00000220: 2df4 f33c a1c9 f8bb c967 f0bd 7e57 0a3e
00000230: c5aa c4bd ba8c 05be ac80 c63d dcfb b9bc
00000240: 0e71 f13d 5fa1 25bd c933 19be 640c d13d
00000250: ca97 9bbd 5e1c 113d 736c c6bc de6b 043e
00000260: f5d7 f3bd 0fd4 d63d 3852 a1bd 93cd f3bd
00000270: 221c c83d 86ae 2abe 9444 b13c f4f4 793d
00000280: 567f 1dbd 30ae afbd 116c 14bc 4b40 a83d
00000290: 63f0 0b3e 2dc2 903c 65e0 d5bd 5db3 ca3d
000002a0: 60e5 4abc a1bb 08bd 6e49 aebd 4e36 043d
000002b0: dafa dcbc 4e34 26be 4505 5fbb 771b 0dbe
000002c0: 7fa4 da3d af99 093e 9db3 923d 37bd a63d
000002d0: 3635 c3bd ac64 ef3c 6552 183e 7b39 ed3d
000002e0: 32d7 a3bd f244 18be 1311 3fbc 7f26 97bc
000002f0: e341 b1bd df4a f8bd fefc d33d a3b4 6cbd
00000300: a1bc c03d a526 a03d 99a3 ed3d 5245 9a3d
00000310: 2df1 2cbe 3d88 c2bc 2f7e e83d ddaa 14be
00000320: 55a8 a03b fc22 f13d 3aff 5a3a 56e4 f6bd
00000330: f20c c93b f4e2 e53d e700 e93d 5538 1d3d
00000340: 6af5 11be 1e47 b6bd 9a21 10be 8a6f 123e
00000350: 8536 543d eda8 2d3e 8448 14be ac79 053d
00000360: c4e2 763d db34 703c 1748 033e 7abd a6bd
00000370: 54c7 bfbd b91f 04bd 479c fabd 4117 35be
00000380: 28ec 04be b762 cabd 0b4f 113d 476a c8bc
00000390: f9a0 25bd 5cc0 98bd 0c29 063e b06c 743d
000003a0: 6f0c df3c 5209 183d ca29 b23d f8eb 563d
000003b0: 4de8 a5bc 389a 483d 6da4 253d 17d4 ba3d
000003c0: 66d8 00be 3947 ad3d 5e5a 8b3c 7023 973d
000003d0: d65e f4bc 533d b33c 3e79 9dbd 66a9 ee3c
000003e0: 4140 3a3d 4ba8 fbbc ea66 d6bd de1e 403d
000003f0: caf8 42be a796 1dbe 9c41 d53d 0f95 8d3d
0.12527174 0.08374815 0.13343659 0.06518299 -0.080687106 0.10748451 0.06026576 0.04814702
-0.12517413 0.082120284 0.058790594 -0.07016091 -0.07162798 -0.06381716 -0.10684613 -0.0039517414
-0.12207464 0.072170675 0.12454068 0.10677275 -0.03694018 0.011565841 -0.0797033 -0.15254694
0.116993226 -0.100479335 -0.030191472 -0.13312292 -0.10062073 -0.12707709 -0.15429366 0.056556128
0.092475444 0.1549584 0.08329081 -0.0902263 0.0835818 -0.10404068 -0.052480206 -0.055373408
-0.08982239 0.11965101 -0.027413275 0.13623987 0.08260448 0.053774968 0.07505872 -0.15870605
-0.07936922 0.1507371 0.11454288 0.08749711 -0.14549135 -0.06472138 -0.07106118 -0.03386793
-0.07729516 -0.060562123 0.07639085 0.011907907 0.13065243 0.06365379 0.051618144 -0.09094697
0.03647466 0.10916434 -0.105760716 0.07996317 -0.041265067 0.07952081 0.10915129 0.01642261
-0.024479924 0.11114963 0.019799178 -0.03394906 -0.0019148568 -0.022528792 0.09688776 0.05409766
0.07862299 -0.09074147 -0.088619284 -0.020844689 -0.060421042 -0.12085394 0.09055164 -0.06276699
0.12157757 0.099135794 0.0071790023 -0.055320717 0.10239804 0.04744973 0.09543329 0.022760127
0.09949826 0.028846934 -0.051253807 0.009930543 -0.09878164 -0.104073465 0.052252475 0.12663111
-0.09307702 0.1475492 0.07383429 -0.065943494 0.028454555 -0.14107594 0.083330125 0.13315044
-0.028799783 -0.026403623 0.046396207 0.09468794 -0.012412337 -0.018418636 0.077878855 0.10378407
0.04134201 0.017228749 0.016576178 -0.12829871 0.048752896 0.017609969 -0.055436686 -0.1176689
-0.00063818065 -0.13397521 -0.12208047 0.023962008 -0.08600667 -0.06589021 -0.049859308 0.048472796
0.029779518 -0.0075923954 -0.117385454 0.13509938 -0.09602884 -0.13041964 0.09692511 -0.022703104
0.117891416 -0.0404371 -0.1496116 0.102074414 -0.07597311 0.035427444 -0.024221634 0.12931773
-0.11906425 0.10489666 -0.0787701 -0.119044445 0.09770991 -0.16668138 0.021639146 0.06102462
-0.038451515 -0.085781455 -0.009058968 0.08215388 0.13665919 0.017670715 -0.104431905 0.09897492
-0.012383789 -0.033382062 -0.08510099 0.03227835 -0.026975084 -0.1623089 -0.003403024 -0.13780008
0.106759064 0.13437532 0.07163165 0.081415586 -0.095316336 0.029222809 0.14875181 0.11583229
-0.080000296 -0.1487005 -0.011661786 -0.018450974 -0.08655145 -0.121236555 0.10350989 -0.057789456
0.09410978 0.07819871 0.116034694 0.07532753 -0.16888876 -0.023746604 0.113521926 -0.14518304
0.0049028792 0.11774251 0.0008354072 -0.120552704 0.0061355764 0.112249285 0.11377125 0.0383838
-0.14253774 -0.08900283 -0.14075318 0.14300361 0.051809806 0.16958971 -0.14480788 0.03258674
0.060274854 0.014661039 0.12820469 -0.081416085 -0.09364191 -0.032256816 -0.12236839 -0.17684652
-0.12980711 -0.098821096 0.035475772 -0.02446474 -0.04043672 -0.07458565 0.13101596 0.059673965
0.027227608 0.037118264 0.08699377 0.05247113 -0.020252371 0.0489752 0.04044001 0.09122484
-0.1258255 0.0846085 0.017010864 0.07379806 -0.029830378 0.021879828 -0.07689141 0.02913351
0.045471434 -0.030719897 -0.10468848 0.046904437 -0.19040218 -0.153895 0.104129046 0.06913196

encoder_layer.multihead_layers.0.0.in_proj_bias f4 [192]
00000000: 9d30 9dbb 7187 1bbc 378e 823b a48b 41ba
00000010: 5d24 d4bc 6e14 92bc 0588 aabb 5d87 0a3d
00000020: 6882 f33c 72a9 103c 18c5 4a3c 9c51 0fbd
00000030: ef8a 8e3c 7cfe 31bc 2943 e53b 8e78 123c
00000040: 6cfe 65bc 654d 04bd 87d9 9b3c 6e67 84bc
00000050: 10fd 743c 69a1 2dbc 2a42 4e3c 2454 4e3b
00000060: fd50 a9bc 8418 e13c 45f5 b73b 9238 c33c
00000070: 780b 933c 1a7a cb3c 9b47 093d b03b 323c
00000080: 6078 80bc cfff 2f3c 6ffb 103c 42dc ccbb
00000090: 35ae febc 18c4 d63c f033 2e3c 3a7f 8f3b
000000a0: 48ba 5bbc 1fa5 d73b be5e 80bc 1ca7 91bc
000000b0: fd96 c2bb c33f ecba 7cb1 a4bb 1801 523a
000000c0: 2e41 1aba 9331 62bc 126b d6bc 94cf 61bc
000000d0: 4406 be3b 7946 38bc 7a5a 0abc c9db bd3b
000000e0: 78e8 403c 5cf1 443b ef8c 913c 5446 ee3c
000000f0: d6b1 ee3b 9bad bd3c e366 0e3d 81e6 edbb
00000100: 04f5 3f37 642a 51b7 1ccf e4b7 702e 1437
00000110: 009f be37 4ee3 8437 d52b 05b8 9219 ffb7
00000120: c7cf 2938 c9c5 beb7 65af 73b7 eda7 2a37
00000130: 2c06 e836 5b04 b737 b7b3 d1b6 795c f1b5
00000140: 71c8 8ab7 4d29 54b7 fcbe c5b7 b39c a0b6
00000150: f8a7 ca37 5408 15b8 0570 e736 3842 7437
00000160: 5e55 1eb8 757c 59b8 ae6c 0538 302a fab7
00000170: 5491 ac35 4900 6e37 2a41 7db8 6ecc 2bb7
00000180: 7cea 3bb8 5e5d 59b7 63af 1637 d1fc 2c36
00000190: bb3f c937 2a82 14b8 3735 b3b6 2633 03b8
000001a0: 734d ca37 411c 20b8 720d 96b7 a54e 4db8
000001b0: 0daa e7b7 3018 1fb6 c9a7 f937 a07e afb7
000001c0: 77ca 67b7 52b6 0237 6a03 9cb7 fea0 8337
000001d0: a71c b737 7057 a5b7 a2b3 f2b5 be95 a137
000001e0: 7fc0 4ab7 ead2 2bb5 6244 8236 7157 1ab8
000001f0: 8de8 d3b6 3f6e e7b3 b6b3 1d37 7f4c ce37
00000200: 5818 18bc 13e3 5d3c 7b0c e2bb a824 98bc
00000210: fe9f 513b a345 9abc b7cf 9f3b fc49 233a
00000220: 1156 cabb b67c 44bc 8591 6bbb e74e 75bb
00000230: a26f 55bc 4701 d03c 3b76 c53b e9f4 563c
00000240: c294 dabc 824b f3bc 91e8 3b3c 6616 d8bb
00000250: c37f 493a 0e3e 703c c55e a43c 62a8 a0bb
00000260: 8238 a73b a3d7 2f3c fc27 f43b 18e2 bb3b
00000270: 9e51 6e3a f7a1 973c eead c33c e769 9ebb
00000280: c912 d23b 4c3b 5fbb 6561 8c3c 206b 6cbb
00000290: e680 63bb 1815 6abc 3553 b7bc 9807 1a3a
000002a0: 8587 f1bc 3423 7c3c 9674 d8bc a9bd 0abc
000002b0: 88b3 6ebc 7063 ba3a cb97 82bc 48c2 d1bc
000002c0: 8b37 5cbb b098 49bc 1da9 293b 5e24 8b3b
000002d0: 5ddf 1d3b 5f2d 043c 8443 47bc 5f01 683b
000002e0: 341f 333c ee19 fdbb d7aa ca3b d6eb a13b
000002f0: f1ec 08bc dbd0 afba 3cfd e5bb 1ee8 593c
-0.004797055 -0.009492741 0.0039842385 -0.0007383174 -0.025896246 -0.017832007 -0.005204203 0.0338205
0.029725268 0.008829461 0.012376092 -0.03498994 0.017400233 -0.010863896 0.0069965315 0.008939875
-0.01403771 -0.03230037 0.019024624 -0.0161626 0.014952913 -0.010597565 0.012589017 0.0031483257
-0.020668501 0.02747751 0.005613955 0.023830686 0.017949805 0.024838496 0.033515554 0.010878488
-0.0156824 0.010742142 0.008849009 -0.0062518427 -0.031088928 0.026216552 0.0106325 0.0043791803
-0.013411112 0.0065809633 -0.015670177 -0.01777988 -0.0059384094 -0.0018024374 -0.0050260406 0.0008011027
-0.00058843463 -0.013805765 -0.026174102 -0.013782401 0.0057990868 -0.011247271 -0.008444423 0.0057940227
0.011774175 0.0030051088 0.017767398 0.02908627 0.0072843833 0.02315407 0.03476609 -0.007260144
1.1441534e-05 -1.2467241e-05 -2.727616e-05 8.8322995e-06 2.2723805e-05 1.5841473e-05 -3.1750493e-05 -3.0410276e-05
4.0486248e-05 -2.2741866e-05 -1.4524766e-05 1.0171888e-05 6.9148573e-06 2.1817328e-05 -6.249607e-06 -1.7982812e-06
-1.654422e-05 -1.2645801e-05 -2.3573164e-05 -4.7866138e-06 2.4158493e-05 -3.5532124e-05 6.8973773e-06 1.4558951e-05
-3.774964e-05 -5.185274e-05 3.1810887e-05 -2.9821967e-05 1.2857295e-06 1.4185972e-05 -6.038059e-05 -1.0239992e-05
-4.4802655e-05 -1.2955947e-05 8.981532e-06 2.5777156e-06 2.3990744e-05 -3.5407174e-05 -5.3408107e-06 -3.128047e-05
2.4116342e-05 -3.8173286e-05 -1.7887654e-05 -4.8949052e-05 -2.7616532e-05 -2.3706925e-06 2.9761244e-05 -2.092059e-05
-1.3815813e-05 7.791054e-06 -1.8598239e-05 1.5691385e-05 2.1828642e-05 -1.9710249e-05 -1.8082685e-06 1.9262425e-05
-1.2084957e-05 -6.4009384e-07 3.8822627e-06 -3.6797897e-05 -6.3153625e-06 -1.07768294e-07 9.399771e-06 2.4592735e-05
-0.009283148 0.013542908 -0.0068984604 -0.018572167 0.0031986232 -0.018832034 0.0048770565 0.0006228981
-0.0061748107 -0.011992624 -0.003594489 -0.0037431063 -0.013027104 0.025391234 0.006026057 0.013119915
-0.026682261 -0.02969909 0.011469022 -0.006594467 0.00076865795 0.0146632325 0.02006472 -0.0049028853
0.005103172 0.010732564 0.0074510556 0.0057337396 0.00090911414 0.018509848 0.023886647 -0.004834402
0.006410931 -0.0034062443 0.017136285 -0.0036074594 -0.003471428 -0.014287256 -0.022378543 0.00058757653
-0.029483566 0.015389252 -0.02642278 -0.00846807 -0.014569171 0.0014220309 -0.015941521 -0.025605336
-0.0033602442 -0.01230447 0.0025888153 0.0042462787 0.0024089434 0.008067458 -0.012162093 0.0035401208
0.010932732 -0.0077240383 0.0061849165 0.004941444 -0.0083572725 -0.0013413684 -0.0070187133 0.01329997

encoder_layer.multihead_layers.0.0.out_proj.weight f4 [64, 64]
00000000: a813 5cbd f60c 65bc 2362 9b3d a398 e1bd
00000010: 2828 ac3c f512 9f3d fb95 723d 67ee 4dbd
00000020: a8d2 9b3d 41b8 39bd 906b 113d a23e 023e
00000030: 9c2c a3bd 2f0b a93d dc83 193c 30f8 bdbc
00000040: 6589 20bd 051e b23d 4d5a a4bd 08b4 a6bd
00000050: c5b9 a23d 7a87 a43d ba38 873d e5f4 e4bc
00000060: fb6f d9bd 4a7a 373d 9efa cebd c44d ddbd
00000070: 3a03 2d3d 7591 a83d 7b20 963c 54c9 053d
00000080: b638 d7bd f574 edbd ccb5 5b3d 368e e93d
00000090: 5d17 8d3d 8b02 773d e53e b13d cd48 2cbd
000000a0: c5ff ce3c a105 d7bd 4722 cdbc cc01 8c3d
000000b0: edab 3e3d c117 bc3b 6fa4 913d 1813 8e3d
000000c0: 2938 b53d c288 d1bd 2b3f f93d 72f9 e3bc
000000d0: 1396 14bb 0e8a cd3c 31a3 fcbd 23f8 773d
000000e0: 5614 933d 9f2e 76bd f34b c8bd 7d87 d43d
000000f0: 5ed4 2f3d 81be e2bd 5813 bcbd 3005 cc3d
00000100: b8ec 9abd ca0e 443c 8e94 103d 51a3 623d
00000110: 16f7 ddbd bb0c d0bd de92 843d 14ac 01bd
00000120: 1baa bcbd d529 d93d f360 933d a391 92bd
00000130: 3b3b fdbc 97ff 04bd 7cd2 fdbd fb19 cf3b
00000140: a733 5f3d e88f ba3d c4cc 273b 3edb c13d
00000150: 0330 f03d b7f9 963d 6db8 fe3c a2af 91bd
00000160: 19f5 87bd 0b37 e6bd 1546 a2bd e38a 9139
00000170: 33bb 03be b0b5 183d 15b9 613d 9782 8fbd
00000180: 1d5d 993c f9dc 773d 74f3 1abe ffd9 633d
00000190: cff6 933d 8ca8 033e 0d74 66bd 5350 f9bc
000001a0: f0dd d83d d49b 9c3d 6ae1 1cbd 4045 fa3d
000001b0: cbb1 debd b0b8 bd3d 3a9e b6bc 51f0 8a3d
000001c0: a31d 823c 909e 73bc bae4 a6bd a436 753c
000001d0: 1960 df3b 3b17 3abd e847 6e3d 2c07 a63a
000001e0: 92ef 163d f88e dbbd 234c b1bd 955d a93d
000001f0: 75bd 37bc e175 f4bd 0e94 213c fcf1 ca3c
00000200: 7919 9c3d 6205 0d3e 5add 173d fd14 63bd
00000210: f692 6b3d ffb3 d83d d238 81bd 807b a3bd
00000220: 1f52 e0bd b4a2 033e 5905 a73c d3ca 62bc
00000230: 34e3 913d 2a9f dfbc 9409 ba3d a6ed ecbc
00000240: 4617 8e3d 55b5 a13d ed71 5dbd 72be 80bd
00000250: acc9 8a3d 3bf6 6cbd 7fcd bd3d 2b8c ff3d
00000260: 88f2 b23d 1a96 b4bd f1c6 943d 14ef d1bd
00000270: 30ec a0bd 2c34 b43d f364 05bd 456e 393d
00000280: 52e1 ef3b 508b 8dbc daf0 b1bd b5af a93a
00000290: 5077 6a3c 734d 2dbd 68b3 fb3b 3bcf 96bd
000002a0: e7d4 b73d 059b bf3d 2713 5dbd 6f69 543d
000002b0: 1e18 ea3d cae7 29bd 306e 41bd 7178 12be
000002c0: d77e b63d 7bf9 f5bc 6807 8fbb aea8 05bd
000002d0: 31c0 b93d 459c a63c 49c5 b73d 15fe 58bc
000002e0: 1930 86bc f65e 7a3c bb3d 0ebd 2333 d73d
000002f0: a1f6 ecbd b316 033e bd3d 2b3c 71cd b73c
00000300: fcbb febd 664a d6bd 543a a9bd 45f2 9abd
00000310: bffc 183d 8386 09be d12f 823d cfe7 103e
00000320: 0b81 3cbd 6d81 5f3d a177 c8bd ba32 b0bd
00000330: 77b4 6ebc 3ef6 db3d 384b fc3d 9fe1 e3bd
00000340: 5cb6 fb3d 70ec 8ebd 0e93 aebd 516b 013d
00000350: 0aba adbd b43f 37bd ab7c 97bc 0c53 833d
00000360: b7a2 d03d e01d c63d 9399 60bd 7c1e 4abd
00000370: 86af 13bd 9806 eb3c 95ec 2a3c 9cb5 a9bd
00000380: fd72 e3bd 37a9 35bd 4f4a d53c 002c 1a3d
00000390: 119c 71bc 3117 85bd abe6 1a3c 81f6 6abd
000003a0: dc77 e93d a781 80bd 1b2e 9ebd 28e5 edbc
000003b0: 0c1f 253c 90dd 43bb 8f9c 083d ce60 97bd
000003c0: e9a9 bb3a 4680 bebd 0636 44bd b570 9b3d
000003d0: d98d 3abb 3c5c f33c 3945 cdbd 2825 7e3c
000003e0: 6fff 8bbd bc48 6ebb af34 86bc 67fa 503d
000003f0: 3d36 903d cc00 cb3d d076 b0bd 6dc8 97bd
-0.053729683 -0.013980141 0.075870775 -0.11015441 0.021015242 0.07767288 0.059225064 -0.050276186
0.07608539 -0.045341734 0.03550297 0.12719205 -0.07967493 0.08254086 0.009369817 -0.023189634
-0.03919353 0.08697132 -0.08025036 -0.08139807 0.07945589 0.080336526 0.066026166 -0.027948806
-0.10617062 0.04479436 -0.10106395 -0.10805848 0.042239405 0.08230869 0.018326035 0.032662705
-0.10508864 -0.115945734 0.053640172 0.11404078 0.06889222 0.06030516 0.08654574 -0.042061616
0.025268445 -0.104991205 -0.025040759 0.0683628 0.04655068 0.0057401364 0.07111441 0.069372356
0.08848602 -0.102311626 0.121702515 -0.027828906 -0.002267246 0.025090244 -0.12335814 0.060539376
0.07181613 -0.060103055 -0.09780111 0.10377405 0.04292714 -0.11071492 -0.09183377 0.09961927
-0.07564682 0.011966417 0.035297923 0.055331532 -0.108381435 -0.10158678 0.06473325 -0.031658247
-0.092121325 0.10603682 0.07196226 -0.07156684 -0.030912032 -0.032470312 -0.12393662 0.006320236
0.05449262 0.09109479 0.0025604228 0.09465645 0.117279075 0.07371848 0.0310938 -0.071135774
-0.066385455 -0.11240967 -0.07923523 0.00027760034 -0.1286438 0.037282646 0.05510815 -0.0700733
0.018721158 0.06051347 -0.15131932 0.05562782 0.072248094 0.12857264 -0.05626302 -0.03043381
0.10589206 0.07646909 -0.03830091 0.1222024 -0.10873755 0.09263742 -0.022292245 0.06784118
0.015883273 -0.014869347 -0.08149095 0.014966641 0.0068168757 -0.04543231 0.058174044 0.0012666932
0.036849566 -0.107206285 -0.086571 0.082698025 -0.011214604 -0.11936546 0.009861959 0.02477359
0.07622046 0.13771585 0.03707633 -0.055439938 0.0575132 0.105812065 -0.06309666 -0.0798254
-0.10953163 0.12855035 0.020388292 -0.013842302 0.07123414 -0.027297575 0.09083858 -0.028921913
0.06938033 0.078959145 -0.054063726 -0.062863246 0.06776747 -0.05785201 0.09267711 0.12477907
0.087376654 -0.08817692 0.072645076 -0.10250679 -0.07857549 0.087990135 -0.032566976 0.045271177
0.0073205614 -0.017278343 -0.08688517 0.0012946042 0.014310673 -0.04231019 0.007681299 -0.07363745
0.08976155 0.093557395 -0.053973343 0.05185836 0.11430381 -0.041480817 -0.047224224 -0.14303757
0.089109115 -0.030026188 -0.0043648966 -0.03263157 0.09069861 0.020338187 0.08973176 -0.013244172
-0.016380357 0.0152814295 -0.03472684 0.105078004 -0.11570478 0.12801628 0.010451731 0.02243683
-0.12438199 -0.10463409 -0.08263078 -0.075657405 0.037350412 -0.13430218 0.063567765 0.14150928
-0.046021502 0.05456679 -0.097884424 -0.08603425 -0.014569393 0.10740326 0.12319034 -0.11127018
0.12290642 -0.069786906 -0.08524142 0.031596486 -0.0848275 -0.044738486 -0.018492064 0.06412324
0.101872854 0.09673667 -0.05483396 -0.04934548 -0.036056064 0.028689668 0.010432382 -0.08286592
-0.11105917 -0.04435083 0.02603641 0.037639618 -0.014746682 -0.06498564 0.00945441 -0.05736399
0.113998145 -0.06274729 -0.07723638 -0.029039934 0.010078203 -0.00298867 0.03335243 -0.07391511
0.0014317605 -0.0930181 -0.047903083 0.075898565 -0.0028465895 0.029707067 -0.10022969 0.015511788
-0.068358295 -0.003635927 -0.016382543 0.051020052 0.07041595 0.09912261 -0.08616412 -0.07411275

encoder_layer.multihead_layers.0.0.out_proj.bias f4 [64]
00000000: cdb2 90bb 8e57 f9bb 7a0c e63b 1391 bc3b
00000010: 4a70 9dbb 7dfe c6bb 0c78 d23b aaf0 353c
00000020: e7d6 01bc aaa6 1cbb 5ae2 b0b9 cc05 083c
00000030: 8e87 a6bb dd7c cd3a 01e2 9fbc f24d 0a3a
00000040: cab7 1c3c cb36 703c b672 423c 239a b8bb
00000050: e6c6 b8bb 5f34 15bc 1c86 a23c b1ce e3ba
00000060: 8787 c53b e150 0ebc 1178 e53a e9c8 373c
00000070: c86b b53c bb43 203c ce4e a0b9 0a7c faba
00000080: 747a 92bc f110 4abc 3f90 173c 2401 c1bb
00000090: 86ce 593c b9c9 c53b b6fd d839 770f c93b
000000a0: 390c 3e3c 9e82 82bc cdb6 42bc 0b9c 123b
000000b0: 6028 9339 4942 acbb fe59 aaba 7da3 0a3c
000000c0: bf0c 5ebb 5c99 b93b 1306 7ebb 54cd 17bb
000000d0: 03d3 ab3b 6656 833b d1a4 c4bb 7089 133b
000000e0: 3033 683a c966 ce3b 31ca ec3b f3d5 57bc
000000f0: 599c 393b 5a43 8c3c 229c 373b 7211 62bc
-0.004415846 -0.0076093143 0.0070205303 0.005754599 -0.0048046457 -0.006072818 0.006423002 0.011104742
-0.007924772 -0.002390305 -0.0003373798 0.008302163 -0.0050820773 0.0015677471 -0.019516947 0.0005275897
0.009565303 0.014661501 0.0118681695 -0.005633609 -0.005638945 -0.0091067245 0.019839339 -0.0017380324
0.006028119 -0.008686275 0.0017507096 0.011217334 0.02214612 0.009781773 -0.00030576292 -0.0019110453
-0.017880656 -0.012333141 0.0092507 -0.0058900286 0.013293868 0.00603601 0.0004138776 0.0061358768
0.011599594 -0.015931424 -0.011884403 0.002237084 0.00028068107 -0.0052569252 -0.001299679 0.00846183
-0.003388211 0.005664034 -0.0038760945 -0.0023163157 0.0052436604 0.004008102 -0.006001093 0.002251234
0.0008857725 0.006298874 0.0072262515 -0.013173568 0.002832195 0.01712196 0.0028016646 -0.013798105

encoder_layer.multihead_layers.1.0.in_proj_weight f4 [192, 64]
00000000: 3c47 003e 2684 ab3d 9aa3 083e a97e 853d
00000010: 483f a5bd d720 dc3d 3bd9 763d cf35 453d
00000020: a62d 00be ae2e a83d 68ce 703d 86b0 8fbd
00000030: b1b1 92bd 92b2 82bd 25d2 dabd 9c7d 81bb
00000040: 4502 fabd 38ce 933d 2f0f ff3d acab da3d
00000050: 964e 17bd a77e 3d3c 7c3b a3bd 4435 1cbe
00000060: 259a ef3d 1cc8 cdbd 1b54 f7bc 6051 08be
00000070: 3e12 cebd 7f20 02be 28ff 1dbe 66a7 673d
00000080: c463 bd3d 6aad 1e3e 5f94 aa3d 91c8 b8bd
00000090: ef2c ab3d 4813 d5bd 7cf5 56bd 3acf 62bd
000000a0: cdf4 b7bd 970b f53d ce91 e0bc 7782 0b3e
000000b0: 8a2c a93d 2443 5c3d 63b8 993d d783 22be
000000c0: 548c a2bd d45a 1a3e 7595 ea3d af31 b33d
000000d0: affb 14be a58c 84bd 8688 91bd 19b9 0abd
000000e0: ed4c 9ebd fd0f 78bd ce72 9c3d 6219 433c
000000f0: c0c9 053e eb5c 823d 8c6d 533d 6842 babd
00000100: 7466 153d 8e91 df3d 1399 d8bd bbc3 a33d
00000110: 8f05 29bd cedb a23d b68a df3d b688 863c
00000120: 1f8a c8bc 6ba2 e33d e331 a23c 2b0e 0bbd
00000130: effb faba 4d8e b8bc 176d c63d 8295 5d3d
00000140: 1705 a13d aad6 b9bd 077e b5bd 7bc2 aabc
00000150: 0e7c 77bd 4582 f7bd 2373 b93d fb8b 80bd
00000160: a9fd f83d b507 cb3d d63d eb3b fa97 62bd
00000170: 10b6 d13d a65a 423d 8772 c33d 7273 ba3c
00000180: bec5 cb3d 6850 ec3c 83ef 51bd b7b3 223c
00000190: 074e cabd 7824 d5bd b106 563d 96ab 013e
000001a0: 2a9f bebd 2317 173e 6f36 973d 620d 87bd
000001b0: 8719 e93c 3676 10be fca8 aa3d 9758 083e
000001c0: 86ed ebbc 694c d8bc f309 3e3d c0eb c13d
000001d0: 1d5d 4bbc aee2 96bc f37e 9f3d be8c d43d
000001e0: 3d56 293d 4e23 8d3c c4ca 873c bd60 03be
000001f0: 1eb1 473d c842 903c 9411 63bd 64fc f0bd
00000200: 944b 27ba cc30 09be 5305 fabd f94b c43c
00000210: 4424 b0bd 72f1 86bd 4639 4cbd 698b 463d
00000220: 2df4 f33c a1c9 f8bb c967 f0bd 7e57 0a3e
00000230: c5aa c4bd ba8c 05be ac80 c63d dcfb b9bc
00000240: 0e71 f13d 5fa1 25bd c933 19be 640c d13d
00000250: ca97 9bbd 5e1c 113d 736c c6bc de6b 043e
00000260: f5d7 f3bd 0fd4 d63d 3852 a1bd 93cd f3bd
00000270: 221c c83d 86ae 2abe 9444 b13c f4f4 793d
00000280: 567f 1dbd 30ae afbd 116c 14bc 4b40 a83d
00000290: 63f0 0b3e 2dc2 903c 65e0 d5bd 5db3 ca3d
000002a0: 60e5 4abc a1bb 08bd 6e49 aebd 4e36 043d
000002b0: dafa dcbc 4e34 26be 4505 5fbb 771b 0dbe
000002c0: 7fa4 da3d af99 093e 9db3 923d 37bd a63d
000002d0: 3635 c3bd ac64 ef3c 6552 183e 7b39 ed3d
000002e0: 32d7 a3bd f244 18be 1311 3fbc 7f26 97bc
000002f0: e341 b1bd df4a f8bd fefc d33d a3b4 6cbd
00000300: a1bc c03d a526 a03d 99a3 ed3d 5245 9a3d
00000310: 2df1 2cbe 3d88 c2bc 2f7e e83d ddaa 14be
00000320: 55a8 a03b fc22 f13d 3aff 5a3a 56e4 f6bd
00000330: f20c c93b f4e2 e53d e700 e93d 5538 1d3d
00000340: 6af5 11be 1e47 b6bd 9a21 10be 8a6f 123e
00000350: 8536 543d eda8 2d3e 8448 14be ac79 053d
00000360: c4e2 763d db34 703c 1748 033e 7abd a6bd
00000370: 54c7 bfbd b91f 04bd 479c fabd 4117 35be
00000380: 28ec 04be b762 cabd 0b4f 113d 476a c8bc
00000390: f9a0 25bd 5cc0 98bd 0c29 063e b06c 743d
000003a0: 6f0c df3c 5209 183d ca29 b23d f8eb 563d
000003b0: 4de8 a5bc 389a 483d 6da4 253d 17d4 ba3d
000003c0: 66d8 00be 3947 ad3d 5e5a 8b3c 7023 973d
000003d0: d65e f4bc 533d b33c 3e79 9dbd 66a9 ee3c
000003e0: 4140 3a3d 4ba8 fbbc ea66 d6bd de1e 403d
000003f0: caf8 42be a796 1dbe 9c41 d53d 0f95 8d3d
0.12527174 0.08374815 0.13343659 0.06518299 -0.080687106 0.10748451 0.06026576 0.04814702
-0.12517413 0.082120284 0.058790594 -0.07016091 -0.07162798 -0.06381716 -0.10684613 -0.0039517414
-0.12207464 0.072170675 0.12454068 0.10677275 -0.03694018 0.011565841 -0.0797033 -0.15254694
0.116993226 -0.100479335 -0.030191472 -0.13312292 -0.10062073 -0.12707709 -0.15429366 0.056556128
0.092475444 0.1549584 0.08329081 -0.0902263 0.0835818 -0.10404068 -0.052480206 -0.055373408
-0.08982239 0.11965101 -0.027413275 0.13623987 0.08260448 0.053774968 0.07505872 -0.15870605
-0.07936922 0.1507371 0.11454288 0.08749711 -0.14549135 -0.06472138 -0.07106118 -0.03386793
-0.07729516 -0.060562123 0.07639085 0.011907907 0.13065243 0.06365379 0.051618144 -0.09094697
0.03647466 0.10916434 -0.105760716 0.07996317 -0.041265067 0.07952081 0.10915129 0.01642261
-0.024479924 0.11114963 0.019799178 -0.03394906 -0.0019148568 -0.022528792 0.09688776 0.05409766
0.07862299 -0.09074147 -0.088619284 -0.020844689 -0.060421042 -0.12085394 0.09055164 -0.06276699
0.12157757 0.099135794 0.0071790023 -0.055320717 0.10239804 0.04744973 0.09543329 0.022760127
0.09949826 0.028846934 -0.051253807 0.009930543 -0.09878164 -0.104073465 0.052252475 0.12663111
-0.09307702 0.1475492 0.07383429 -0.065943494 0.028454555 -0.14107594 0.083330125 0.13315044
-0.028799783 -0.026403623 0.046396207 0.09468794 -0.012412337 -0.018418636 0.077878855 0.10378407
0.04134201 0.017228749 0.016576178 -0.12829871 0.048752896 0.017609969 -0.055436686 -0.1176689
-0.00063818065 -0.13397521 -0.12208047 0.023962008 -0.08600667 -0.06589021 -0.049859308 0.048472796
0.029779518 -0.0075923954 -0.117385454 0.13509938 -0.09602884 -0.13041964 0.09692511 -0.022703104
0.117891416 -0.0404371 -0.1496116 0.102074414 -0.07597311 0.035427444 -0.024221634 0.12931773
-0.11906425 0.10489666 -0.0787701 -0.119044445 0.09770991 -0.16668138 0.021639146 0.06102462
-0.038451515 -0.085781455 -0.009058968 0.08215388 0.13665919 0.017670715 -0.104431905 0.09897492
-0.012383789 -0.033382062 -0.08510099 0.03227835 -0.026975084 -0.1623089 -0.003403024 -0.13780008
0.106759064 0.13437532 0.07163165 0.081415586 -0.095316336 0.029222809 0.14875181 0.11583229
-0.080000296 -0.1487005 -0.011661786 -0.018450974 -0.08655145 -0.121236555 0.10350989 -0.057789456
0.09410978 0.07819871 0.116034694 0.07532753 -0.16888876 -0.023746604 0.113521926 -0.14518304
0.0049028792 0.11774251 0.0008354072 -0.120552704 0.0061355764 0.112249285 0.11377125 0.0383838
-0.14253774 -0.08900283 -0.14075318 0.14300361 0.051809806 0.16958971 -0.14480788 0.03258674
0.060274854 0.014661039 0.12820469 -0.081416085 -0.09364191 -0.032256816 -0.12236839 -0.17684652
-0.12980711 -0.098821096 0.035475772 -0.02446474 -0.04043672 -0.07458565 0.13101596 0.059673965
0.027227608 0.037118264 0.08699377 0.05247113 -0.020252371 0.0489752 0.04044001 0.09122484
-0.1258255 0.0846085 0.017010864 0.07379806 -0.029830378 0.021879828 -0.07689141 0.02913351
0.045471434 -0.030719897 -0.10468848 0.046904437 -0.19040218 -0.153895 0.104129046 0.06913196

encoder_layer.multihead_layers.1.0.in_proj_bias f4 [192]
00000000: 9d30 9dbb 7187 1bbc 378e 823b a48b 41ba
00000010: 5d24 d4bc 6e14 92bc 0588 aabb 5d87 0a3d
00000020: 6882 f33c 72a9 103c 18c5 4a3c 9c51 0fbd
00000030: ef8a 8e3c 7cfe 31bc 2943 e53b 8e78 123c
00000040: 6cfe 65bc 654d 04bd 87d9 9b3c 6e67 84bc
00000050: 10fd 743c 69a1 2dbc 2a42 4e3c 2454 4e3b
00000060: fd50 a9bc 8418 e13c 45f5 b73b 9238 c33c
00000070: 780b 933c 1a7a cb3c 9b47 093d b03b 323c
00000080: 6078 80bc cfff 2f3c 6ffb 103c 42dc ccbb
00000090: 35ae febc 18c4 d63c f033 2e3c 3a7f 8f3b
000000a0: 48ba 5bbc 1fa5 d73b be5e 80bc 1ca7 91bc
000000b0: fd96 c2bb c33f ecba 7cb1 a4bb 1801 523a
000000c0: 2e41 1aba 9331 62bc 126b d6bc 94cf 61bc
000000d0: 4406 be3b 7946 38bc 7a5a 0abc c9db bd3b
000000e0: 78e8 403c 5cf1 443b ef8c 913c 5446 ee3c
000000f0: d6b1 ee3b 9bad bd3c e366 0e3d 81e6 edbb
00000100: 04f5 3f37 642a 51b7 1ccf e4b7 702e 1437
00000110: 009f be37 4ee3 8437 d52b 05b8 9219 ffb7
00000120: c7cf 2938 c9c5 beb7 65af 73b7 eda7 2a37
00000130: 2c06 e836 5b04 b737 b7b3 d1b6 795c f1b5
00000140: 71c8 8ab7 4d29 54b7 fcbe c5b7 b39c a0b6
00000150: f8a7 ca37 5408 15b8 0570 e736 3842 7437
00000160: 5e55 1eb8 757c 59b8 ae6c 0538 302a fab7
00000170: 5491 ac35 4900 6e37 2a41 7db8 6ecc 2bb7
00000180: 7cea 3bb8 5e5d 59b7 63af 1637 d1fc 2c36
00000190: bb3f c937 2a82 14b8 3735 b3b6 2633 03b8
000001a0: 734d ca37 411c 20b8 720d 96b7 a54e 4db8
000001b0: 0daa e7b7 3018 1fb6 c9a7 f937 a07e afb7
000001c0: 77ca 67b7 52b6 0237 6a03 9cb7 fea0 8337
000001d0: a71c b737 7057 a5b7 a2b3 f2b5 be95 a137
000001e0: 7fc0 4ab7 ead2 2bb5 6244 8236 7157 1ab8
000001f0: 8de8 d3b6 3f6e e7b3 b6b3 1d37 7f4c ce37
00000200: 5818 18bc 13e3 5d3c 7b0c e2bb a824 98bc
00000210: fe9f 513b a345 9abc b7cf 9f3b fc49 233a
00000220: 1156 cabb b67c 44bc 8591 6bbb e74e 75bb
00000230: a26f 55bc 4701 d03c 3b76 c53b e9f4 563c
00000240: c294 dabc 824b f3bc 91e8 3b3c 6616 d8bb
00000250: c37f 493a 0e3e 703c c55e a43c 62a8 a0bb
00000260: 8238 a73b a3d7 2f3c fc27 f43b 18e2 bb3b
00000270: 9e51 6e3a f7a1 973c eead c33c e769 9ebb
00000280: c912 d23b 4c3b 5fbb 6561 8c3c 206b 6cbb
00000290: e680 63bb 1815 6abc 3553 b7bc 9807 1a3a
000002a0: 8587 f1bc 3423 7c3c 9674 d8bc a9bd 0abc
000002b0: 88b3 6ebc 7063 ba3a cb97 82bc 48c2 d1bc
000002c0: 8b37 5cbb b098 49bc 1da9 293b 5e24 8b3b
000002d0: 5ddf 1d3b 5f2d 043c 8443 47bc 5f01 683b
000002e0: 341f 333c ee19 fdbb d7aa ca3b d6eb a13b
000002f0: f1ec 08bc dbd0 afba 3cfd e5bb 1ee8 593c
-0.004797055 -0.009492741 0.0039842385 -0.0007383174 -0.025896246 -0.017832007 -0.005204203 0.0338205
0.029725268 0.008829461 0.012376092 -0.03498994 0.017400233 -0.010863896 0.0069965315 0.008939875
-0.01403771 -0.03230037 0.019024624 -0.0161626 0.014952913 -0.010597565 0.012589017 0.0031483257
-0.020668501 0.02747751 0.005613955 0.023830686 0.017949805 0.024838496 0.033515554 0.010878488
-0.0156824 0.010742142 0.008849009 -0.0062518427 -0.031088928 0.026216552 0.0106325 0.0043791803
-0.013411112 0.0065809633 -0.015670177 -0.01777988 -0.0059384094 -0.0018024374 -0.0050260406 0.0008011027
-0.00058843463 -0.013805765 -0.026174102 -0.013782401 0.0057990868 -0.011247271 -0.008444423 0.0057940227
0.011774175 0.0030051088 0.017767398 0.02908627 0.0072843833 0.02315407 0.03476609 -0.007260144
1.1441534e-05 -1.2467241e-05 -2.727616e-05 8.8322995e-06 2.2723805e-05 1.5841473e-05 -3.1750493e-05 -3.0410276e-05
4.0486248e-05 -2.2741866e-05 -1.4524766e-05 1.0171888e-05 6.9148573e-06 2.1817328e-05 -6.249607e-06 -1.7982812e-06
-1.654422e-05 -1.2645801e-05 -2.3573164e-05 -4.7866138e-06 2.4158493e-05 -3.5532124e-05 6.8973773e-06 1.4558951e-05
-3.774964e-05 -5.185274e-05 3.1810887e-05 -2.9821967e-05 1.2857295e-06 1.4185972e-05 -6.038059e-05 -1.0239992e-05
-4.4802655e-05 -1.2955947e-05 8.981532e-06 2.5777156e-06 2.3990744e-05 -3.5407174e-05 -5.3408107e-06 -3.128047e-05
2.4116342e-05 -3.8173286e-05 -1.7887654e-05 -4.8949052e-05 -2.7616532e-05 -2.3706925e-06 2.9761244e-05 -2.092059e-05
-1.3815813e-05 7.791054e-06 -1.8598239e-05 1.5691385e-05 2.1828642e-05 -1.9710249e-05 -1.8082685e-06 1.9262425e-05
-1.2084957e-05 -6.4009384e-07 3.8822627e-06 -3.6797897e-05 -6.3153625e-06 -1.07768294e-07 9.399771e-06 2.4592735e-05
-0.009283148 0.013542908 -0.0068984604 -0.018572167 0.0031986232 -0.018832034 0.0048770565 0.0006228981
-0.0061748107 -0.011992624 -0.003594489 -0.0037431063 -0.013027104 0.025391234 0.006026057 0.013119915
-0.026682261 -0.02969909 0.011469022 -0.006594467 0.00076865795 0.0146632325 0.02006472 -0.0049028853
0.005103172 0.010732564 0.0074510556 0.0057337396 0.00090911414 0.018509848 0.023886647 -0.004834402
0.006410931 -0.0034062443 0.017136285 -0.0036074594 -0.003471428 -0.014287256 -0.022378543 0.00058757653
-0.029483566 0.015389252 -0.02642278 -0.00846807 -0.014569171 0.0014220309 -0.015941521 -0.025605336
-0.0033602442 -0.01230447 0.0025888153 0.0042462787 0.0024089434 0.008067458 -0.012162093 0.0035401208
0.010932732 -0.0077240383 0.0061849165 0.004941444 -0.0083572725 -0.0013413684 -0.0070187133 0.01329997

encoder_layer.multihead_layers.1.0.out_proj.weight f4 [64, 64]
00000000: a813 5cbd f60c 65bc 2362 9b3d a398 e1bd
00000010: 2828 ac3c f512 9f3d fb95 723d 67ee 4dbd
00000020: a8d2 9b3d 41b8 39bd 906b 113d a23e 023e
00000030: 9c2c a3bd 2f0b a93d dc83 193c 30f8 bdbc
00000040: 6589 20bd 051e b23d 4d5a a4bd 08b4 a6bd
00000050: c5b9 a23d 7a87 a43d ba38 873d e5f4 e4bc
00000060: fb6f d9bd 4a7a 373d 9efa cebd c44d ddbd
00000070: 3a03 2d3d 7591 a83d 7b20 963c 54c9 053d
00000080: b638 d7bd f574 edbd ccb5 5b3d 368e e93d
00000090: 5d17 8d3d 8b02 773d e53e b13d cd48 2cbd
000000a0: c5ff ce3c a105 d7bd 4722 cdbc cc01 8c3d
000000b0: edab 3e3d c117 bc3b 6fa4 913d 1813 8e3d
000000c0: 2938 b53d c288 d1bd 2b3f f93d 72f9 e3bc
000000d0: 1396 14bb 0e8a cd3c 31a3 fcbd 23f8 773d
000000e0: 5614 933d 9f2e 76bd f34b c8bd 7d87 d43d
000000f0: 5ed4 2f3d 81be e2bd 5813 bcbd 3005 cc3d
00000100: b8ec 9abd ca0e 443c 8e94 103d 51a3 623d
00000110: 16f7 ddbd bb0c d0bd de92 843d 14ac 01bd
00000120: 1baa bcbd d529 d93d f360 933d a391 92bd
00000130: 3b3b fdbc 97ff 04bd 7cd2 fdbd fb19 cf3b
00000140: a733 5f3d e88f ba3d c4cc 273b 3edb c13d
00000150: 0330 f03d b7f9 963d 6db8 fe3c a2af 91bd
00000160: 19f5 87bd 0b37 e6bd 1546 a2bd e38a 9139
00000170: 33bb 03be b0b5 183d 15b9 613d 9782 8fbd
00000180: 1d5d 993c f9dc 773d 74f3 1abe ffd9 633d
00000190: cff6 933d 8ca8 033e 0d74 66bd 5350 f9bc
000001a0: f0dd d83d d49b 9c3d 6ae1 1cbd 4045 fa3d
000001b0: cbb1 debd b0b8 bd3d 3a9e b6bc 51f0 8a3d
000001c0: a31d 823c 909e 73bc bae4 a6bd a436 753c
000001d0: 1960 df3b 3b17 3abd e847 6e3d 2c07 a63a
000001e0: 92ef 163d f88e dbbd 234c b1bd 955d a93d
000001f0: 75bd 37bc e175 f4bd 0e94 213c fcf1 ca3c
00000200: 7919 9c3d 6205 0d3e 5add 173d fd14 63bd
00000210: f692 6b3d ffb3 d83d d238 81bd 807b a3bd
00000220: 1f52 e0bd b4a2 033e 5905 a73c d3ca 62bc
00000230: 34e3 913d 2a9f dfbc 9409 ba3d a6ed ecbc
00000240: 4617 8e3d 55b5 a13d ed71 5dbd 72be 80bd
00000250: acc9 8a3d 3bf6 6cbd 7fcd bd3d 2b8c ff3d
00000260: 88f2 b23d 1a96 b4bd f1c6 943d 14ef d1bd
00000270: 30ec a0bd 2c34 b43d f364 05bd 456e 393d
00000280: 52e1 ef3b 508b 8dbc daf0 b1bd b5af a93a
00000290: 5077 6a3c 734d 2dbd 68b3 fb3b 3bcf 96bd
000002a0: e7d4 b73d 059b bf3d 2713 5dbd 6f69 543d
000002b0: 1e18 ea3d cae7 29bd 306e 41bd 7178 12be
000002c0: d77e b63d 7bf9 f5bc 6807 8fbb aea8 05bd
000002d0: 31c0 b93d 459c a63c 49c5 b73d 15fe 58bc
000002e0: 1930 86bc f65e 7a3c bb3d 0ebd 2333 d73d
000002f0: a1f6 ecbd b316 033e bd3d 2b3c 71cd b73c
00000300: fcbb febd 664a d6bd 543a a9bd 45f2 9abd
00000310: bffc 183d 8386 09be d12f 823d cfe7 103e
00000320: 0b81 3cbd 6d81 5f3d a177 c8bd ba32 b0bd
00000330: 77b4 6ebc 3ef6 db3d 384b fc3d 9fe1 e3bd
00000340: 5cb6 fb3d 70ec 8ebd 0e93 aebd 516b 013d
00000350: 0aba adbd b43f 37bd ab7c 97bc 0c53 833d
00000360: b7a2 d03d e01d c63d 9399 60bd 7c1e 4abd
00000370: 86af 13bd 9806 eb3c 95ec 2a3c 9cb5 a9bd
00000380: fd72 e3bd 37a9 35bd 4f4a d53c 002c 1a3d
00000390: 119c 71bc 3117 85bd abe6 1a3c 81f6 6abd
000003a0: dc77 e93d a781 80bd 1b2e 9ebd 28e5 edbc
000003b0: 0c1f 253c 90dd 43bb 8f9c 083d ce60 97bd
000003c0: e9a9 bb3a 4680 bebd 0636 44bd b570 9b3d
000003d0: d98d 3abb 3c5c f33c 3945 cdbd 2825 7e3c
000003e0: 6fff 8bbd bc48 6ebb af34 86bc 67fa 503d
000003f0: 3d36 903d cc00 cb3d d076 b0bd 6dc8 97bd
-0.053729683 -0.013980141 0.075870775 -0.11015441 0.021015242 0.07767288 0.059225064 -0.050276186
0.07608539 -0.045341734 0.03550297 0.12719205 -0.07967493 0.08254086 0.009369817 -0.023189634
-0.03919353 0.08697132 -0.08025036 -0.08139807 0.07945589 0.080336526 0.066026166 -0.027948806
-0.10617062 0.04479436 -0.10106395 -0.10805848 0.042239405 0.08230869 0.018326035 0.032662705
-0.10508864 -0.115945734 0.053640172 0.11404078 0.06889222 0.06030516 0.08654574 -0.042061616
0.025268445 -0.104991205 -0.025040759 0.0683628 0.04655068 0.0057401364 0.07111441 0.069372356
0.08848602 -0.102311626 0.121702515 -0.027828906 -0.002267246 0.025090244 -0.12335814 0.060539376
0.07181613 -0.060103055 -0.09780111 0.10377405 0.04292714 -0.11071492 -0.09183377 0.09961927
-0.07564682 0.011966417 0.035297923 0.055331532 -0.108381435 -0.10158678 0.06473325 -0.031658247
-0.092121325 0.10603682 0.07196226 -0.07156684 -0.030912032 -0.032470312 -0.12393662 0.006320236
0.05449262 0.09109479 0.0025604228 0.09465645 0.117279075 0.07371848 0.0310938 -0.071135774
-0.066385455 -0.11240967 -0.07923523 0.00027760034 -0.1286438 0.037282646 0.05510815 -0.0700733
0.018721158 0.06051347 -0.15131932 0.05562782 0.072248094 0.12857264 -0.05626302 -0.03043381
0.10589206 0.07646909 -0.03830091 0.1222024 -0.10873755 0.09263742 -0.022292245 0.06784118
0.015883273 -0.014869347 -0.08149095 0.014966641 0.0068168757 -0.04543231 0.058174044 0.0012666932
0.036849566 -0.107206285 -0.086571 0.082698025 -0.011214604 -0.11936546 0.009861959 0.02477359
0.07622046 0.13771585 0.03707633 -0.055439938 0.0575132 0.105812065 -0.06309666 -0.0798254
-0.10953163 0.12855035 0.020388292 -0.013842302 0.07123414 -0.027297575 0.09083858 -0.028921913
0.06938033 0.078959145 -0.054063726 -0.062863246 0.06776747 -0.05785201 0.09267711 0.12477907
0.087376654 -0.08817692 0.072645076 -0.10250679 -0.07857549 0.087990135 -0.032566976 0.045271177
0.0073205614 -0.017278343 -0.08688517 0.0012946042 0.014310673 -0.04231019 0.007681299 -0.07363745
0.08976155 0.093557395 -0.053973343 0.05185836 0.11430381 -0.041480817 -0.047224224 -0.14303757
0.089109115 -0.030026188 -0.0043648966 -0.03263157 0.09069861 0.020338187 0.08973176 -0.013244172
-0.016380357 0.0152814295 -0.03472684 0.105078004 -0.11570478 0.12801628 0.010451731 0.02243683
-0.12438199 -0.10463409 -0.08263078 -0.075657405 0.037350412 -0.13430218 0.063567765 0.14150928
-0.046021502 0.05456679 -0.097884424 -0.08603425 -0.014569393 0.10740326 0.12319034 -0.11127018
0.12290642 -0.069786906 -0.08524142 0.031596486 -0.0848275 -0.044738486 -0.018492064 0.06412324
0.101872854 0.09673667 -0.05483396 -0.04934548 -0.036056064 0.028689668 0.010432382 -0.08286592
-0.11105917 -0.04435083 0.02603641 0.037639618 -0.014746682 -0.06498564 0.00945441 -0.05736399
0.113998145 -0.06274729 -0.07723638 -0.029039934 0.010078203 -0.00298867 0.03335243 -0.07391511
0.0014317605 -0.0930181 -0.047903083 0.075898565 -0.0028465895 0.029707067 -0.10022969 0.015511788
-0.068358295 -0.003635927 -0.016382543 0.051020052 0.07041595 0.09912261 -0.08616412 -0.07411275

encoder_layer.multihead_layers.1.0.out_proj.bias f4 [64]
00000000: cdb2 90bb 8e57 f9bb 7a0c e63b 1391 bc3b
00000010: 4a70 9dbb 7dfe c6bb 0c78 d23b aaf0 353c
00000020: e7d6 01bc aaa6 1cbb 5ae2 b0b9 cc05 083c
00000030: 8e87 a6bb dd7c cd3a 01e2 9fbc f24d 0a3a
00000040: cab7 1c3c cb36 703c b672 423c 239a b8bb
00000050: e6c6 b8bb 5f34 15bc 1c86 a23c b1ce e3ba
00000060: 8787 c53b e150 0ebc 1178 e53a e9c8 373c
00000070: c86b b53c bb43 203c ce4e a0b9 0a7c faba
00000080: 747a 92bc f110 4abc 3f90 173c 2401 c1bb
00000090: 86ce 593c b9c9 c53b b6fd d839 770f c93b
000000a0: 390c 3e3c 9e82 82bc cdb6 42bc 0b9c 123b
000000b0: 6028 9339 4942 acbb fe59 aaba 7da3 0a3c
000000c0: bf0c 5ebb 5c99 b93b 1306 7ebb 54cd 17bb
000000d0: 03d3 ab3b 6656 833b d1a4 c4bb 7089 133b
000000e0: 3033 683a c966 ce3b 31ca ec3b f3d5 57bc
000000f0: 599c 393b 5a43 8c3c 229c 373b 7211 62bc
-0.004415846 -0.0076093143 0.0070205303 0.005754599 -0.0048046457 -0.006072818 0.006423002 0.011104742
-0.007924772 -0.002390305 -0.0003373798 0.008302163 -0.0050820773 0.0015677471 -0.019516947 0.0005275897
0.009565303 0.014661501 0.0118681695 -0.005633609 -0.005638945 -0.0091067245 0.019839339 -0.0017380324
0.006028119 -0.008686275 0.0017507096 0.011217334 0.02214612 0.009781773 -0.00030576292 -0.0019110453
-0.017880656 -0.012333141 0.0092507 -0.0058900286 0.013293868 0.00603601 0.0004138776 0.0061358768
0.011599594 -0.015931424 -0.011884403 0.002237084 0.00028068107 -0.0052569252 -0.001299679 0.00846183
-0.003388211 0.005664034 -0.0038760945 -0.0023163157 0.0052436604 0.004008102 -0.006001093 0.002251234
0.0008857725 0.006298874 0.0072262515 -0.013173568 0.002832195 0.01712196 0.0028016646 -0.013798105

encoder_layer.ffn.0.linear1.weight f4 [64, 64]
00000000: 4b78 92bc c9c3 553d 4b2b 68bb 58a2 ddbd
00000010: 737d 8a3d 8b55 15bd c301 edbd a626 74bd
00000020: 4321 aabd 9d66 d7bd 0dae aa3d d6b1 a73d
00000030: 576a 83bd c212 95bd 3b29 983c b172 d43d
00000040: dfee ddbd 4062 203d 382b bcbd f8b8 c33d
00000050: 87d4 813d 0746 973d c83b c7bd a8a2 e53d
00000060: 6206 71bd 1de2 533d def9 38bd c240 d33d
00000070: 292b c0bc 7be6 be3d 6c5c ddbd a642 ab3c
00000080: 2290 9abd 97e4 9c3d 83b2 5f3c 1fea 35bd
00000090: 2f61 f83c 4199 42bd 3338 a73c dd32 7fbd
000000a0: 66ba 83bc 08fb d93d bbb0 35bd ddc7 c7bd
000000b0: eacd 06bd 8e50 51bb 3fd4 883d e138 1c3d
000000c0: 877f 31bd 89d8 1fbd 9ada d5bc 2cb5 b8bc
000000d0: c31a c63d b3bb ee3d b567 86bc 4b85 f5bd
000000e0: 7b2f 42bd 1b24 f5bd e3d3 5ebd e96a c23d
000000f0: 858f 9dbc f1b3 893b 8614 d2bd 338c c1bd
00000100: 344e 443d d650 c139 dfb5 f13d d051 9cbc
00000110: 4bd1 d6bd ed7b 0bbe 30f6 013e b666 063c
00000120: b9cf 693d 3aa8 e0bd 9649 b43d f152 773d
00000130: 1cbf 9e3d bdd4 16bd 9c23 7ebd 3459 e53b
00000140: 3026 f0bd b258 f0bc 9acc 823d 6204 a4bc
00000150: 5a69 e0bd 863f 8abd 3c7f 7e3d 0714 7b3d
00000160: 04c6 b0bd 0f8a 60bd 5c16 59bd 39c8 a83b
00000170: e4e2 d03d c36d b23d f711 64bd e400 a43b
00000180: 888c deba 0ed5 48bc 9b99 59bd c96f b3bd
00000190: 23df 173d af6c a3bd 8868 8abc 6428 8c3c
000001a0: ba21 acbd 7156 ffbd 5e84 a4bd 1c13 103d
000001b0: f87b 453d 8874 92bc 0924 83bd 55a4 fc3d
000001c0: 16e0 f03b 190b 2aba fa4b a63c fabe 2fbd
000001d0: ac92 9e3c 175a 243c 1162 c3bd c6e1 da3d
000001e0: cf6d 6e3d 0390 f6bc e779 d2bd c351 2e3d
000001f0: 7dba 56bd fe5a be3d 2bdf a6bc 50f0 ecbd
00000200: 08c3 73bd 8508 233b e3a8 08bc b9cf 7abd
00000210: 8abe e8bd 10f7 5fbd eee2 be3d 845b b4bd
00000220: 81b4 ae3c 4808 4e3c 48db d5bd 78ac 0bbd
00000230: 297a 90bd d0be b73d 99ac b03d c11f e2bd
00000240: b38b 213c 325b 9fbc 8646 d8bd b82b c6bd
00000250: ebd2 60bc 5fa5 443d db20 8e3d 67b0 b5bd
00000260: d466 8fbd ac25 babd 4a7e b1bd dc9f d1bd
00000270: 92dd 8bbd e740 18bd 6aa1 8e3c 6062 a83d
00000280: c33d 013d 35ba 8d3d 4c7f cf3d 525b af3a
00000290: b075 cb3c b80a 033e 5a13 8a3c 3c7f aa3c
000002a0: 8c25 01be e705 8a3d 019b 263d 1609 abbd
000002b0: f388 143e de13 5ebd 7b77 3b3d 5637 cc3d
000002c0: 182f 793d 3f0f 113d bfb7 38bd 9c46 0fbc
000002d0: 451f fd3c 9441 363d ac2b 12bd 2b18 c3bd
000002e0: 4de5 8fbd 81b3 11bc cad5 8bbd 51ab dcbd
000002f0: e36d d33d 12da 9bbd 46e2 c23d 6a5d 26bd
00000300: 9682 d7bd 7076 0d3d a033 403d 293c 953d
00000310: 52c9 323d cee4 42bc c90b a0bd e8c1 20bd
00000320: eaa9 873d 08d7 af3c 306c dfbd 8216 c03d
00000330: f8ac 71bb cc23 813c 1749 013d bead 2b3c
00000340: 7ee4 b73d 8fd9 b8bd 4438 1a3d 8012 483c
00000350: b9d9 d13c e23f 73bb 18d3 003e d996 81bd
00000360: 8dca 4c3c c970 1b3e 6f0c bd3d 35af 87bd
00000370: d439 1b3d 7fa5 99bb 9694 14bd 1f83 edbc
00000380: 21ed 1e3c 69e5 b93d b778 fbbd 0e02 b03d
00000390: 6290 5ebd 212f 1a3d e80b cabc a6f1 00bd
000003a0: ae6f 14bd 8a25 ed3c d2b5 0b3d 1148 d6bc
000003b0: 82f4 86bd 9dec f13c ceb1 2ebd 3d0e e83c
000003c0: ecea 43bd 7461 ffbc a1b4 19be d675 e5bb
000003d0: 7b27 c6bc 7b7d 68bd 159d 323d c289 22bd
000003e0: 70b6 0dbd 5870 e23c 4c75 d53d 1b91 9abc
000003f0: bef6 03be 2a1d 3bbd 33d9 85bd 4028 bd3d
-0.017879626 0.05218867 -0.0035426195 -0.1082198 0.06762209 -0.036458533 -0.11572602 -0.05960717
-0.083071254 -0.10517619 0.08333979 0.081882164 -0.06416767 -0.072789684 0.018574348 0.10373438
-0.10836577 0.0391562 -0.09187931 0.09556764 0.063393645 0.073864035 -0.09728199 0.11212665
-0.058843978 0.05172931 -0.045160167 0.10315086 -0.02345808 0.093213044 -0.10808644 0.020905804
-0.075470224 0.076607876 0.0136534 -0.04441273 0.030319778 -0.047509436 0.02041254 -0.062304366
-0.016080093 0.106435835 -0.044357996 -0.09754918 -0.03291122 -0.0031938883 0.06681108 0.03814018
-0.04333451 -0.039024863 -0.026105214 -0.022547327 0.09673073 0.116568945 -0.016406873 -0.11988314
-0.047408562 -0.11969777 -0.05440129 0.09493048 -0.019233475 0.004202359 -0.10257821 -0.09450569
0.047926143 0.00036872056 0.11802267 -0.01908198 -0.10489138 -0.13621493 0.1269157 0.008203199
0.057082865 -0.10969587 0.08803098 0.060381833 0.07751295 -0.036823977 -0.06204568 0.006999159
-0.11726034 -0.029339168 0.06386681 -0.020021621 -0.10957594 -0.067503974 0.06213306 0.061298396
-0.086315185 -0.054819163 -0.05299984 0.0051508215 0.10199526 0.08712342 -0.055681195 0.005004989
-0.0016979137 -0.012257827 -0.053125005 -0.08761556 0.037078034 -0.07979714 -0.016895548 0.017109104
-0.0840487 -0.12467659 -0.080330595 0.035174474 0.04821393 -0.017877832 -0.064033575 0.12336031
0.007350932 -0.0006486639 0.0202999 -0.04290674 0.019357048 0.010031245 -0.09540189 0.10687594
0.05821019 -0.030097967 -0.10277157 0.042558443 -0.052423943 0.09294699 -0.020370087 -0.115692735
-0.05951217 0.0024876904 -0.008341047 -0.061233256 -0.113644674 -0.054678977 0.09320627 -0.08806518
0.021326305 0.012575217 -0.10442215 -0.034100026 -0.0705455 0.089719415 0.086266704 -0.11041213
0.009859967 -0.019452665 -0.10560326 -0.096763074 -0.013722162 0.048009273 0.069398604 -0.08871537
-0.07002035 -0.090892166 -0.08666666 -0.10235569 -0.068293706 -0.03717127 0.017410953 0.082218885
0.03155304 0.06920282 0.10131702 0.0013378656 0.024836391 0.12797058 0.01685493 0.020812623
-0.12611979 0.06739407 0.040675167 -0.083513424 0.14505367 -0.054218166 0.045768242 0.09971492
0.060835928 0.03541493 -0.04509711 -0.008744862 0.0308987 0.044496134 -0.03568618 -0.09526094
-0.070261575 -0.008892895 -0.068278864 -0.107748635 0.103236936 -0.07609953 0.095158145 -0.04061643
-0.10522954 0.03453678 0.046924233 0.07286865 0.043649025 -0.011895372 -0.07814748 -0.039247423
0.066242054 0.02146484 -0.10909307 0.09379293 -0.003687678 0.01576414 0.031563845 0.010478435
0.08979128 -0.09025871 0.037651315 0.012211442 0.025616514 -0.0037116935 0.12580526 -0.063276
0.012499464 0.15179743 0.09230887 -0.06625215 0.037896946 -0.004688918 -0.036274515 -0.028993187
0.009700091 0.0907696 -0.12278884 0.08594142 -0.054336913 0.037642602 -0.02466388 -0.031480454
-0.03623932 0.028948564 0.034108944 -0.02615741 -0.06589605 0.029531771 -0.042650037 0.028327102
-0.04783146 -0.031174399 -0.1501031 -0.0070025725 -0.024188748 -0.056760293 0.043606836 -0.039682157
-0.034597814 0.02764146 0.10422763 -0.01886802 -0.12887093 -0.04568211 -0.06535568 0.09236193

encoder_layer.ffn.0.linear1.bias f4 [64]
00000000: 98ba 573c 8dc1 d1bd 9b79 dcbd 5ede ba3d
00000010: bc48 8cbd 926c e4bd 7c26 703d 37e0 8ebd
00000020: 527a b93c fce8 fbbd 7477 7dbc de1d 8c3d
00000030: b9a9 b7bd e017 dbbc 4b86 0d3d 37d4 8fbc
00000040: 774e ffbd a6b5 8d3c 8b35 96bd 9da3 cbbc
00000050: 942e f8bd 2d99 a93d a6f0 f1bd 83e7 a5bd
00000060: ab2e ce3d 8676 8ebd 6055 d0bc 7fc8 9dbd
00000070: b1f8 033e c3d2 41bd b466 3cbd c4ec 8c3c
00000080: aa72 6abc 3b1c 65bd 1b9b ad3d 6686 913c
00000090: 8b5a 39bd 1a9b 03be e6e9 613c c479 4abd
000000a0: 68ed 1cbc ad7c 873d 03e4 afbd 22c4 95bd
000000b0: b673 d73d fbfe e3bd 1b97 993d 6a59 c7bc
000000c0: a391 163d fae0 6cbd e43a 653d f9ab d93d
000000d0: df83 f73d 2591 093d c1c7 cebd f771 03be
000000e0: 9470 883d 35dd 09be 4018 693c 7d1d d83d
000000f0: 48ed b4bd a74e dfbd 053f b83d b327 fe3d
0.013167046 -0.10241995 -0.10765382 0.091244444 -0.068498105 -0.11153521 0.05863045 -0.06976359
0.022641335 -0.123002976 -0.015470374 0.06841634 -0.08967919 -0.026744783 0.0345519 -0.017557247
-0.12466138 0.01729853 -0.07334431 -0.02485829 -0.12118259 0.08281169 -0.11813478 -0.08100798
0.10067495 -0.069562 -0.025431335 -0.07704257 0.12887837 -0.04732014 -0.045996383 0.017202742
-0.014309565 -0.055935126 0.0847685 0.017764281 -0.045252364 -0.12852135 0.013788676 -0.04943253
-0.009578086 0.06615577 -0.08588412 -0.073128 0.10520117 -0.11132618 0.07499524 -0.024334628
0.036759984 -0.057831742 0.055964366 0.10628504 0.12085699 0.033585686 -0.10096694 -0.12836443
0.066620976 -0.1346329 0.014226973 0.105524994 -0.0883432 -0.109036736 0.08996395 0.12409916
