ckpts/dkvmn/assch/model.ckpt (torch, 121019 bytes, 13 tensors)

Mk f4 [20, 50]
0	0x3eec2e14	0.46128905
1	0xbeb5f7ee	-0.35540718
2	0x3e11702c	0.14202946
3	0xbdb2ce59	-0.08730764
4	0xbe79fd01	-0.2441292
5	0xbd0cdcc8	-0.03439024
6	0xbef2e493	-0.47440013
7	0xbd030d92	-0.031995364
8	0x3f1cad05	0.61201507
9	0x3e3de344	0.18543726
10	0xbe95eb1e	-0.29280943
11	0xbde5d76f	-0.11222731
12	0xbd34519b	-0.044023138
13	0xbddd2ecd	-0.10799942
14	0x3f155eda	0.58347857
15	0x3ea28a10	0.31745958
16	0xbebb9caf	-0.36642978
17	0x3d8eac4c	0.06966457
18	0xbe911216	-0.2833411
19	0x3f43b275	0.7644418
20	0xbd2e4046	-0.042541765
21	0xbe2a8a54	-0.1665433
22	0x3c0dd900	0.008657694
23	0x3f09359f	0.53597444
24	0xbe0232c0	-0.12714672
25	0xbe6ee712	-0.23330334
26	0x3d9c59bb	0.07634302
27	0x3e18b595	0.14913018
28	0xbea9acfa	-0.33139783
29	0x3dbbbec8	0.09167248
30	0x3ccf6f95	0.025321761
31	0x3e9af87d	0.30267707
32	0x3c678069	0.014129736
33	0xbc7e8cd1	-0.015536503
34	0xbd11a6b5	-0.035559375
35	0x3e776c80	0.24162483
36	0x3f155848	0.5833783
37	0x3e318b4e	0.17338297
38	0xbd14af86	-0.036300205
39	0x3b0277f0	0.0019907914
40	0xbec5376f	-0.38518855
41	0xbd9e8538	-0.07740253
42	0x3eb9d3c3	0.36294374
43	0x3ea45bc4	0.32101262
44	0xbde5bc17	-0.11217516
45	0xbeca4cb4	-0.39511645
46	0xbe9860ac	-0.29761255
47	0xbe2870a7	-0.16449223
48	0xbd9bddf1	-0.07610691
49	0xbd8aaf0d	-0.067716695
50	0x3efaaaf4	0.48958552
51	0x3ea91a29	0.3302777
52	0xbf1d9e82	-0.6156999
53	0x3df74677	0.12073987
54	0x3ec105ef	0.3769984
55	0x3ea23d87	0.31687567
56	0x3d45ce9e	0.04829275
57	0xbd9aba40	-0.075550556
58	0x3e84722e	0.25868362
59	0xbd2e845b	-0.042606693
60	0x3ebbc1e5	0.36671367
61	0xbe91de67	-0.28489992
62	0xbe7f0abe	-0.24906442
63	0x3e1f8804	0.1557923
64	0x3f280f10	0.65647984
65	0xbeba2379	-0.36355188
66	0xbeac8596	-0.33695668
67	0x3e4e9eaf	0.2017772
68	0x3d96bd0a	0.07360275
69	0xbe0b801c	-0.13623089
70	0xbe15ad2d	-0.14616843
71	0x3d3a6c0f	0.04551321
72	0x3d82113b	0.06350943
73	0xbc54feac	-0.013000172
74	0x3dad12e5	0.084508695
75	0x3e2dd79a	0.16976777
76	0x3f074695	0.52842075
77	0x3d428c08	0.047496825
78	0xbddd2d98	-0.10799712
79	0xbe926fa8	-0.28600812
80	0xbe7c7adb	-0.2465624
81	0xbbf8428a	-0.0075762914
82	0x3d8b26b6	0.06794493
83	0x3dbb669a	0.09150429
84	0xbd4f8d14	-0.050671652
85	0xbde102c5	-0.10986856
86	0x3e422deb	0.18962829
87	0x3ea2ad33	0.31772766
88	0x3e9d2f2d	0.30700055
89	0x3c3bba9a	0.0114580635
90	0x3e3a15b0	0.18172336
91	0x3ea15c39	0.31515673
92	0x3e620091	0.22070529
93	0x3e0a7ff3	0.13525371
94	0x3f0ddadb	0.5541207
95	0xbe156528	-0.1458937
96	0x3e8028a0	0.25030994
97	0x3e296052	0.1654065
98	0xbe6ba957	-0.23013817
99	0xbe4d0ab0	-0.20023608
100	0xbdbb6417	-0.0914995
101	0x3e8805d8	0.26566958
102	0x3c1c1d96	0.009528538
103	0x3e16e798	0.14736784
104	0x3e86615d	0.26246157
105	0x3e5b5ed7	0.21422897
106	0x3ec090d1	0.37610486
107	0xbdcca539	-0.09992451
108	0xbd79535f	-0.060870524
109	0xbdc24fdb	-0.094878875
110	0x3e304721	0.17214634
111	0xbeb46fdd	-0.35241595
112	0xbdc09f82	-0.09405424
113	0xbe83f343	-0.2577153
114	0xbe47498a	-0.19461647
115	0x3ea20ad9	0.316489
116	0xbf0d41ee	-0.55178726
117	0x3e97b43c	0.29629695
118	0xbb7a19ab	-0.0038162272
119	0xbe84947a	-0.2589453
120	0x3decbe94	0.115597874
121	0xbe99996f	-0.29999873
122	0xbe854bc1	-0.26034358
123	0xbd2eb87b	-0.042656403
124	0xbe8ca8ce	-0.27472538
125	0x3f16249e	0.58649623
126	0xbcb6c1f1	-0.022309275
127	0xbf464242	-0.7744485
128	0xbe23de45	-0.16002758
129	0xbdc6f5d7	-0.09714859
130	0x3e43ed81	0.1913357
131	0xbec13096	-0.3773238
132	0x3e8d33b9	0.27578524
133	0x3ce7e0a8	0.028305367
134	0x3d0d2a22	0.03446401
135	0x3eacc2c8	0.33742356
136	0xbec64f98	-0.387326
137	0xbf07de9b	-0.53074044
138	0xbf0c10c2	-0.5471307
139	0x3dec64be	0.115426525
140	0x3e3bd1a4	0.1834169
141	0xbd8e9daf	-0.069636695
142	0x3d999608	0.07499319
143	0xbeb8f23b	-0.36122307
144	0xbc991e0a	-0.018691082
145	0xbe93052e	-0.2871489
146	0x3c720442	0.014771523
147	0xbe16e70d	-0.14736576
148	0x3e27fb2e	0.16404411
149	0xbde81161	-0.1133144
150	0x3eac758c	0.3368343
151	0xbdd6698d	-0.10469351
152	0x3e8bfc55	0.27340952
153	0x3e887a0a	0.26655608
154	0x3e34030c	0.17579287
155	0xbe66480e	-0.22488424
156	0xbea621f2	-0.32447773
157	0xbe315d22	-0.17320684
158	0x3e5271f1	0.20551278
159	0x3ea9df3c	0.33178127
160	0x3d95731f	0.07297348
161	0x3e62b23f	0.22138308
162	0x3dc04260	0.0938766
163	0xbe05cb49	-0.13065828
164	0x3e9ba870	0.30401945
165	0xbdc1cd0a	-0.09462936
166	0xbe3cc2de	-0.18433711
167	0x3dc91235	0.09817926
168	0x3c94fe9e	0.018187817
169	0xbe885ec1	-0.26634791
170	0xbc6d7a35	-0.014494468
171	0xbec52878	-0.38507438
172	0x3e48b0ca	0.1959869
173	0x3c129c43	0.0089483885
174	0x3eb27819	0.34857252
175	0x3ef20714	0.47271025
176	0xbec7a9f2	-0.38996845
177	0x3c473bb8	0.012160234
178	0x3d85759f	0.06516575
179	0x3e7b7eeb	0.24560134
180	0xbd9ccce7	-0.076562695
181	0x3d8a28e7	0.06746083
182	0x3ebaeca6	0.36508673
183	0x3d5d8fb9	0.054092143
184	0xbe4f9f9d	-0.20275731
185	0x3ec5eed8	0.38658786
186	0xbdc00d01	-0.0937748
187	0x3d9d5270	0.07681739
188	0x3df03db7	0.11730521
189	0xbecb6278	-0.39723563
190	0xbebd3095	-0.36951128
191	0x3deae22f	0.11468922
192	0x3de202ff	0.11035728
193	0x3e2f7659	0.1713499
194	0x3e858a98	0.260823
195	0x3d0b661c	0.034032926
196	0x3da477a2	0.08030631
197	0x3e8d7abf	0.2763271
198	0x3b816326	0.003948587
199	0xbea6566b	-0.32487807
200	0xbec795a8	-0.38981366
201	0x3d4ba5df	0.049718734
202	0x3e99c653	0.30034122
203	0xbd6ddae0	-0.058070064
204	0x3ea0a767	0.31377718
205	0xbe0ada58	-0.13559854
206	0x3ee51036	0.4473893
207	0xbe7e7ca5	-0.24852236
208	0xbe9c23fe	-0.3049621
209	0x3daddbd2	0.08489193
210	0xbdcfc59c	-0.10145113
211	0xbdd78bed	-0.105247356
212	0xbdce05ee	-0.10059725
213	0xbc81d975	-0.015850762
214	0x3a3133a2	0.0006759708
215	0xbdf94b6a	-0.12172587
216	0xbe3b492b	-0.1828963
217	0x3e81846f	0.2529635
218	0xbe3e0602	-0.1855698
219	0xbdbbb8f5	-0.09166137
220	0xbe26884c	-0.1626293
221	0xbe9f0e4e	-0.310656
222	0x3ed1ec17	0.41000435
223	0xbe4b4f54	-0.1985448
224	0xbe217cb8	-0.15770233
225	0x3e5e5622	0.21712545
226	0x3db84c43	0.08998921
227	0x3edc1bda	0.4299
228	0xbe4e9c33	-0.20176773
229	0x3e2cda01	0.16880037
230	0xbe265a17	-0.16245304
231	0xbc4f829f	-0.01266542
232	0x3e75f10c	0.24017733
233	0x3d61eb11	0.055155817
234	0x3e0e32a0	0.138865
235	0x3cde15f9	0.027110087
236	0x3d91ade9	0.07113249
237	0xbd9a07fc	-0.07521054
238	0xbe1d9011	-0.15386988
239	0xbda1db0d	-0.07903109
240	0x3e31cc9b	0.17363207
241	0x3da5fbbb	0.081046544
242	0x3d7ae8bf	0.06125712
243	0x3c725703	0.014791253
244	0xbe2854bb	-0.16438572
245	0x3dbadbeb	0.09123977
246	0xbe78f07a	-0.24310485
247	0xbe36f69b	-0.1786751
248	0x3e8c6656	0.27421826
249	0xbeb2b2b0	-0.34901953
250	0x3dd90b9c	0.105979174
251	0xbf042758	-0.51622534
252	0xbe511eee	-0.20421955
253	0x3efa7a6d	0.48921528
254	0x3daafa21	0.083484896
255	0xbe88debd	-0.26732436

Mv0 f4 [20, 50]
0	0xbcbf6c08	-0.023366943
1	0xbd7d4887	-0.061836746
2	0xbd5d3a93	-0.05401094
3	0x3dbf5f9c	0.09344408
4	0x3c8c8b93	0.017156398
5	0xbd46126e	-0.04835742
6	0xbea4a5f3	-0.3215786
7	0x3ed6f7c6	0.4198591
8	0x3ea07f7d	0.31347266
9	0x3e8e4461	0.27786544
10	0x3f51b240	0.8191261
11	0xbe702cbb	-0.23454563
12	0xbe97bf44	-0.29638112
13	0xbe9a9d21	-0.30198005
14	0x3e2279a8	0.1586672
15	0x3e83f9ff	0.2577667
16	0xbf0f6a84	-0.56021905
17	0x3ded1406	0.11576085
18	0x3dbe994f	0.09306585
19	0xbe4596ab	-0.19295757
20	0xbe1290de	-0.14313075
21	0xbd47f822	-0.048820622
22	0xbd248b7a	-0.040172078
23	0x3da1f6e5	0.079084195
24	0xbd3b4b3c	-0.045726046
25	0xbe7383d3	-0.23780756
26	0xbe36f065	-0.1786514
27	0xbe7937ef	-0.24337743
28	0x3dbb71fc	0.091526
29	0x3e6816ac	0.22664899
30	0x3e076c4b	0.13224904
31	0xbfa8a527	-1.31754
32	0x3f059e9e	0.52195156
33	0x3e80930f	0.25112197
34	0x3dc82124	0.09771946
35	0xbe36a29f	-0.17835473
36	0x3d25a99e	0.040444963
37	0xbe8e40b6	-0.27783746
38	0x3f334f7e	0.7004317
39	0xbb655287	-0.0034991817
40	0xbe457448	-0.19282639
41	0xbf63c30b	-0.88969487
42	0xbef313e7	-0.47476122
43	0x3cb1a26c	0.021683894
44	0xbe21ee2a	-0.15813509
45	0x3ebd7a48	0.37007356
46	0xbe6ad8ed	-0.22934313
47	0xbe8289b6	-0.2549569
48	0xbda96189	-0.082705565
49	0x3e73af0c	0.23797244
50	0xbeb15d0f	-0.3464131
51	0xbd8cbe76	-0.06872265
52	0x3e6ba551	0.23012282
53	0x3d29714d	0.041367818
54	0xbe166413	-0.14686613
55	0x3e8e098c	0.2774166
56	0xbeebe754	-0.46074927
57	0xbe334d01	-0.17509843
58	0xbd9f345d	-0.077736594
59	0x3ea05f33	0.3132263
60	0x3e0186a0	0.12649012
61	0xbea995ca	-0.33122092
62	0x3e1bc285	0.15210922
63	0xbd578388	-0.052615672
64	0xbc0b5fcb	-0.008506726
65	0x3e23482b	0.15945499
66	0xbe556777	-0.2084025
67	0x3e7fa526	0.24965343
68	0xbd831bca	-0.06401785
69	0xbd3563ba	-0.04428456
70	0xbc846710	-0.016162425
71	0x3e32a8a0	0.17447138
72	0x3f957709	1.1676952
73	0xbceed1ce	-0.029152777
74	0xbeaa2b4f	-0.33236167
75	0xbe7104bf	-0.23536967
76	0xbe0c5404	-0.13703924
77	0xbda4e04f	-0.08050596
78	0xbd809719	-0.062788196
79	0xbc637dfa	-0.013885016
80	0x3e7096af	0.23494981
81	0x3c361424	0.0111132
82	0x3e4fee20	0.20305681
83	0xbe8525de	-0.26005453
84	0xbd2f5770	-0.042807996
85	0xbd0ab5b6	-0.0338647
86	0x3f02f026	0.5114769
87	0xbe26e285	-0.16297348
88	0x3f08dde7	0.53463596
89	0x3ea6be73	0.32567176
90	0x3df5f5ad	0.120097496
91	0xbef465ad	-0.47733822
92	0xbdc0a19d	-0.09405825
93	0xbe8afa0d	-0.271439
94	0xbf2157c4	-0.63024545
95	0x3e88174e	0.2658028
96	0x3e147105	0.14496239
97	0xbe75a68a	-0.23989311
98	0xbe3ed02c	-0.18634099
99	0xbe5ba443	-0.2144938
100	0x3e031e38	0.12804496
101	0x3e871703	0.26384744
102	0xbdc1e52a	-0.09467538
103	0xbe5a52ad	-0.21320601
104	0x3e25ab51	0.16178633
105	0xbd1e5ac8	-0.038660794
106	0xbef7dede	-0.48412222
107	0xbe0fbad0	-0.14036107
108	0x3e44e31d	0.19227262
109	0xbcc20b6f	-0.023687093
110	0xbc410fbe	-0.011783538
111	0x3ec000c8	0.37500596
112	0x3e88e4a0	0.26736927
113	0x3e005ad8	0.12534654
114	0xbe9774e2	-0.29581362
115	0xbe146b83	-0.14494137
116	0xbe779c3b	-0.24180691
117	0x3f032571	0.51229006
118	0xbe2c9ab8	-0.16855896
119	0xbc342690	-0.010995522
120	0x3d6e4b8d	0.05817752
121	0xbddc91a7	-0.107699685
122	0x3ca82d0c	0.020529293
123	0x3eddbcb3	0.4330803
124	0xbe8f8fb1	-0.28039315
125	0x3e6d524f	0.2317593
126	0x3ea0f4fe	0.31436914
127	0xbf043697	-0.516458
128	0x3d5cfc0b	0.053951304
129	0x3ee01328	0.43764615
130	0xbd193969	-0.037408266
131	0xbc15de34	-0.009147216
132	0x3ea33bff	0.3188171
133	0xbe9ea811	-0.309876
134	0x3eae03b1	0.3398719
135	0x3e76c8a7	0.2409998
136	0x3f407386	0.75176275
137	0xbddbe437	-0.10736888
138	0x3d79e677	0.061010804
139	0x3d38fe29	0.04516426
140	0xbebd0512	-0.3691793
141	0xbeaa4db8	-0.3326242
142	0xbe69f9ad	-0.2284915
143	0xbd965f7c	-0.07342431
144	0x3e892c33	0.26791534
145	0x3ec4b100	0.3841629
146	0xbe8e0380	-0.27737045
147	0xbe9e40dc	-0.3090886
148	0x3d8009fb	0.062519036
149	0xbc9076df	-0.017634807
150	0x3e906b0b	0.28206667
151	0x3e8ea452	0.2785974
152	0xbb168993	-0.0022970184
153	0xbd6fc743	-0.05853964
154	0x3e0c2033	0.13684158
155	0xbeae4129	-0.34034088
156	0xbf0683e7	-0.52545017
157	0xbe64c26d	-0.22339793
158	0xbc1d9c25	-0.009619747
159	0x3e5a3ec0	0.21313
160	0xbedc3444	-0.43008626
161	0xbe2da0c4	-0.16955858
162	0x3e9804b2	0.29691082
163	0x3e198068	0.1499039
164	0x3e67a60b	0.22621934
165	0xbef3493b	-0.47516808
166	0x3e615cfd	0.22008128
167	0x3f02c1e2	0.5107709
168	0xbdcf5cb4	-0.101251036
169	0xbeb29e8c	-0.34886587
170	0xbe3cdf2c	-0.18444508
171	0xbde3d9bb	-0.11125513
172	0x3f48709c	0.7829683
173	0xbf0731e9	-0.5281053
174	0xbe04788c	-0.1293661
175	0xbecadf0a	-0.3962329
176	0xbe683f0d	-0.22680302
177	0xbdd8a436	-0.10578196
178	0xbf23af50	-0.6393938
179	0xbea14016	-0.31494206
180	0x3ae1f3eb	0.0017238831
181	0x3dc761df	0.09735464
182	0x3ecafe3d	0.39647093
183	0x3e80948a	0.25113326
184	0x3e5836af	0.2111461
185	0x3da24d0d	0.079248525
186	0xbe0beb6b	-0.13664024
187	0xbedec3d7	-0.4350879
188	0x3eda7a83	0.42671594
189	0xbdb90fc2	-0.09036209
190	0xbdb49f7b	-0.08819481
191	0xbec69f75	-0.3879353
192	0x3db15b97	0.086600475
193	0xbe3f4525	-0.1867872
194	0x3aafc3b5	0.0013409766
195	0xbca59031	-0.020210357
196	0xbeb4d382	-0.35317618
197	0xbcaaacd3	-0.020834362
198	0x3eab7056	0.33484143
199	0xbe4a3cb3	-0.19749717
200	0x3dbfe4a8	0.093697846
201	0xbee1cfaa	-0.44103748
202	0x3ca2bcbe	0.01986539
203	0x3eddec94	0.43344557
204	0x3e0656da	0.13119069
205	0xbc52147b	-0.012822266
206	0x3d51d475	0.051228005
207	0x3e177250	0.147897
208	0xbd0fc042	-0.03509546
209	0x3e223692	0.1584113
210	0x3e19ff99	0.15038909
211	0xbde91d0b	-0.11382493
212	0x3e880719	0.26567915
213	0x3e43bc1d	0.19114728
214	0xbe9150e3	-0.28382024
215	0x3d2e8491	0.042606894
216	0xbd9ade75	-0.075619616
217	0x3dbef11c	0.09323332
218	0x3ebd2a5d	0.36946383
219	0x3e315c33	0.17320327
220	0x3e201e34	0.15636522
221	0x3d45fd58	0.04833731
222	0x3f5fa4ef	0.87361044
223	0xbec49531	-0.38395074
224	0x3e9911c7	0.29896376
225	0xbdafb1fd	-0.085788704
226	0x3da25fc9	0.07928426
227	0x3e8062c9	0.25075367
228	0xbf164d6b	-0.5871188
229	0xbea3c2be	-0.31984514
230	0xbd47c98e	-0.048776202
231	0xbd5efd7a	-0.054440953
232	0x3e9742b8	0.2954309
233	0x3dafce22	0.085842386
234	0x3e81767a	0.25285703
235	0xbee6d85b	-0.4508694
236	0x3d2cb405	0.042163868
237	0xbe9c3d05	-0.30515304
238	0x3eb52faf	0.35387942
239	0x3e94d6aa	0.29070026
240	0x3d979b0d	0.074026205
241	0x3e4f0f94	0.20220786
242	0xbecd5067	-0.40100405
243	0x3c1db3f0	0.00962542
244	0x3e860e40	0.26182747
245	0x3dcd4441	0.10022784
246	0xbea28ee8	-0.31749654
247	0x3ef483b0	0.4775672
248	0x3d072019	0.032989595
249	0xbee86875	-0.45392194
250	0xbee05a5f	-0.43818948
251	0xbe90a1f1	-0.2824855
252	0x3f20101f	0.625246
253	0xbf07084c	-0.52747035
254	0x3e040771	0.12893464
255	0x3e31faf9	0.17380895

k_emb_layer.weight f4 [102, 50]
0	0xbf2b3adc	-0.6688669
1	0xbe1fc550	-0.15602612
2	0xbf92f5d8	-1.1481276
3	0x3fe08525	1.7540632
4	0x3fcd35ec	1.6032081
5	0x3f45c53e	0.7725409
6	0x3ec46f63	0.3836623
7	0x3f6bcc77	0.92108864
8	0x3f31fa0c	0.69522166
9	0x3f312d7a	0.69210017
10	0xbe8dc369	-0.2768815
11	0xbfd55a45	-1.6668173
12	0xbf939ef9	-1.153289
13	0xbf15fdce	-0.585904
14	0xbdb81d43	-0.08989956
15	0x3fce455c	1.6114917
16	0x3fcd69a6	1.6047866
17	0xbf5ea55d	-0.86971074
18	0xbee101c1	-0.4394665
19	0x3f37fe9d	0.71872884
20	0x3fcc5e58	1.5966291
21	0x3f8488b3	1.0354217
22	0xbf89f12f	-1.0776728
23	0x3f936e91	1.1518117
24	0x3ed8b130	0.42322683
25	0xc00b67fb	-2.1782215
26	0x3dede382	0.11615659
27	0x40100823	2.2504966
28	0xbf484d0e	-0.78242576
29	0x3d4f0d49	0.05054978
30	0x3def952f	0.116983764
31	0x3f28e032	0.65967095
32	0xbf518ac6	-0.81852376
33	0x3ff8d2e1	1.9439355
34	0xbe8bf719	-0.27336958
35	0x3f59d470	0.8508978
36	0xbfc57ce3	-1.5428737
37	0x3efdc79d	0.49566355
38	0xbecf3d2d	-0.4047636
39	0xbf7670d5	-0.9626592
40	0x3f457675	0.77133876
41	0x3ecd9f16	0.40160435
42	0xbf738a35	-0.9513276
43	0x3fea2983	1.8293918
44	0xbf6dbb5b	-0.92864007
45	0xbf02a506	-0.51033056
46	0xbf33d316	-0.70243967
47	0xc0010d2f	-2.0164297
48	0x3fd161ca	1.6357968
49	0xbfa0ed2c	-1.2572379
50	0x3f95ac45	1.1693197
51	0xbff0daa6	-1.8816726
52	0x3d31b792	0.043387957
53	0xbe07fe3d	-0.13280578
54	0xbfb6396f	-1.4236277
55	0xbf28cc73	-0.65936965
56	0x3f6dd632	0.9290496
57	0x3e38259f	0.17983101
58	0xbf1dac44	-0.6159098
59	0xbea5e69a	-0.32402498
60	0x3e305a92	0.1722205
61	0xbfa589a9	-1.2932636
62	0x3fabab45	1.3411642
63	0xbf9bff83	-1.2187351
64	0xbf54a163	-0.83058757
65	0xbf3d4da2	-0.73946583
66	0xbc6812d1	-0.014164642
67	0xbf62d19d	-0.88601094
68	0xbe0a4ea1	-0.13506557
69	0x3e924d4a	0.28574592
70	0x3f50c32b	0.815478
71	0x3fc531fd	1.540588
72	0x3f5c97d7	0.8616919
73	0xbf6d80a2	-0.92774403
74	0xbf6605df	-0.8985271
75	0x3d80cbd6	0.062888786
76	0xbf88fcc7	-1.0702142
77	0x3f8023a5	1.0010878
78	0x4054d6f3	3.3256195
79	0x3f8f66f6	1.1203296
80	0x3f14267a	0.5787121
81	0xbf083738	-0.5320926
82	0x3f4147e1	0.75500304
83	0xbe87b374	-0.265041
84	0xbffec98f	-1.9905261
85	0x3eadc13e	0.33936495
86	0x3ed55ebf	0.41673848
87	0xbe62efc8	-0.22161782
88	0x3f66d1b1	0.90163714
89	0x3ea5ad66	0.32358855
90	0xbe992306	-0.29909533
91	0xbe9c19ca	-0.30488425
92	0x3fb20c5d	1.3910023
93	0xbe9bbffe	-0.30419916
94	0xbf870466	-1.0548217
95	0x3e4b931b	0.19880335
96	0x3f809759	1.0046188
97	0xbfaf5c20	-1.3699989
98	0xbec59aff	-0.38594815
99	0xbf162fa3	-0.5866644
100	0x3ed56230	0.41676474
101	0xbf341818	-0.70349264
102	0x3fbd164d	1.4772431
103	0x3f124d84	0.5714953
104	0x3f7dbd61	0.99117094
105	0x3f2f4665	0.6846679
106	0xbf294c93	-0.6613247
107	0xbeb31b83	-0.34981927
108	0xbe9892a9	-0.29799393
109	0x3f95b253	1.1695045
110	0x3f243b1c	0.64152694
111	0xbf07e9a2	-0.5309087
112	0xbeec90f0	-0.4620433
113	0x3fa661d6	1.2998607
114	0xbdd12382	-0.10211851
115	0x3ee2fcd6	0.44333524
116	0x3fd284f3	1.6446823
117	0x3ef3383f	0.4750385
118	0xc025fa9a	-2.5934205
119	0xbfb56113	-1.417025
120	0x3ec4a3dc	0.38406265
121	0x3fb6618a	1.4248517
122	0xbfaef29f	-1.3667792
123	0x3f06360c	0.5242622
124	0xbf942f56	-1.1576946
125	0xbecc08b4	-0.3985039
126	0xbec57c82	-0.38571554
127	0xbfd58729	-1.6681873
128	0xbf3912b6	-0.72294176
129	0xbf4db2a4	-0.8035071
130	0xbf11cb46	-0.56950796
131	0xbfad0168	-1.3516054
132	0xbf07f3c1	-0.53106314
133	0xbee82138	-0.45337844
134	0xbf22f83e	-0.6366004
135	0xbf594917	-0.8487715
136	0x3dc13916	0.094347164
137	0xbe2a369d	-0.16622396
138	0x3f6d3741	0.92662436
139	0xbe83f85a	-0.25775415
140	0xbf674745	-0.90343124
141	0x3e56f1a1	0.20990612
142	0xbeae1fa0	-0.34008503
143	0x3e486167	0.19568406
144	0xbf9985a0	-1.1993904
145	0x3e59014b	0.211919
146	0x3fbdf279	1.4839622
147	0x3f08ecb3	0.53486174
148	0xbf193468	-0.5984559
149	0xbec4f59e	-0.3846864
150	0xbf675b26	-0.90373456
151	0x3f9291d7	1.1450757
152	0x3f18569b	0.5950715
153	0x3f75d495	0.960275
154	0x3f0648f8	0.5245509
155	0xbd676791	-0.056495253
156	0xbe5fa4a8	-0.21840155
157	0x3ebcf0c9	0.36902454
158	0xbfd50e0a	-1.6644909
159	0xbfbff796	-1.4997432
160	0xbee109ce	-0.43952793
161	0xbf272ea4	-0.6530554
162	0xbe6303e9	-0.2216946
163	0xbeb77e37	-0.35838482
164	0x3f9fc525	1.2482039
165	0x3fada958	1.3567305
166	0xbf044e27	-0.5168175
167	0xbfe54d20	-1.7914162
168	0x3faea83f	1.3645095
169	0xbf8cd41c	-1.1002231
170	0xbf47bb90	-0.7802057
171	0xbf78432b	-0.9697749
172	0x3f60098f	0.87514585
173	0x4033472e	2.8012195
174	0xbe04705d	-0.12933488
175	0xbfbc91f4	-1.4732041
176	0x3f80a61b	1.0050691
177	0x3e88d1a2	0.26722437
178	0xbf9aa4ec	-1.208158
179	0xbe85eea4	-0.2615863
180	0x3eda7917	0.4267051
181	0x3f5ab2e1	0.854292
182	0xbf02b99b	-0.5106446
183	0xbb4b0032	-0.0030975458
184	0xbfed9a52	-1.856272
185	0xbf944929	-1.1584827
186	0xbf087786	-0.5330738
187	0x3fd401e1	1.6563073
188	0xbe2ada7a	-0.16684905
189	0x3f620cb6	0.88300645
190	0xbf90683b	-1.1281809
191	0xbf4eabbf	-0.80730814
192	0x3fa7749b	1.308246
193	0x3e9a6daf	0.30161807
194	0x3ee4014e	0.44532245
195	0x3ebc2d93	0.3675352
196	0xbf6ac3dc	-0.9170511
197	0x3f9bec4e	1.218149
198	0x3f2944c4	0.66120553
199	0x3ff9c20e	1.9512346
200	0x3ee145b9	0.43998507
201	0xbc670f97	-0.014102838
202	0x3e6f9fc7	0.23400794
203	0xbf776b85	-0.96648437
204	0x3fac4c42	1.3460772
205	0xbfde24c6	-1.7354972
206	0x3f6a0787	0.91417736
207	0x3f6c8e4d	0.92404634
208	0x3e9d47f9	0.30718973
209	0x3f34ddde	0.7065104
210	0xbf7abf28	-0.9794793
211	0xbffa6c3d	-1.9564282
212	0x3f47f060	0.7810116
213	0xbf27e2e4	-0.6558058
214	0xbf6df15a	-0.929464
215	0xbe9e3163	-0.30897054
216	0xc01f4117	-2.4883478
217	0xbfa67485	-1.3004309
218	0xbf8fa351	-1.1221715
219	0x3fc36f91	1.5268422
220	0xbfc9fb8a	-1.5779889
221	0x3df59091	0.119904645
222	0x3f7a6961	0.97817045
223	0xbf926847	-1.1438073
224	0xbe382985	-0.17984588
225	0x3f11ea4a	0.5699812
226	0x3f97cefe	1.1860044
227	0x40128fd2	2.290028
228	0x3fd9dc9a	1.7020447
229	0xbd3a436b	-0.04547445
230	0x3de32927	0.110918336
231	0xbfcb0638	-1.5861273
232	0x3f3312ce	0.6995057
233	0xbf43260a	-0.7622992
234	0xbf9e6f76	-1.2377765
235	0xbdeb580f	-0.11491405
236	0xbfc2ed94	-1.5228753
237	0xbf4a7cef	-0.79096884
238	0x3e855b08	0.26046014
239	0xbebe9c81	-0.37228778
240	0xbea77516	-0.32706517
241	0x40096cb6	2.1472602
242	0x3f86ccf1	1.0531293
243	0xbea523b2	-0.32253796
244	0xbf4d9157	-0.80299896
245	0x3fdaacbf	1.7083968
246	0xbfdc45c2	-1.7208788
247	0x3f962323	1.1729473
248	0x3f063044	0.524174
249	0xbee5e199	-0.4489868
250	0x3fcb9cef	1.5907267
251	0xbf96ef9d	-1.1791874
252	0x3e7a1526	0.2442213
253	0xbf33fb3a	-0.70305216
254	0xbf0848bd	-0.5323599
255	0xbf4bac9b	-0.7956025

v_emb_layer.weight f4 [204, 50]
0	0xbf1ae703	-0.60508746
1	0xbf99a0cf	-1.20022
2	0x4029bc94	2.652135
3	0x3fa8a835	1.3176333
4	0xbedb382a	-0.42816287
5	0xbfceac1b	-1.6146272
6	0x3fe9bab3	1.8260101
7	0x3e835596	0.25651234
8	0x3ea7a6b2	0.32744366
9	0x3e0383de	0.12843272
10	0x3f7b23ed	0.98101693
11	0xbee1781f	-0.44036958
12	0xbedaa8ce	-0.42706913
13	0xbd5db860	-0.05413091
14	0xbf52987d	-0.8226393
15	0x3f77f7b7	0.9686236
16	0x3ddca338	0.10773319
17	0x3a916b73	0.0011094644
18	0x3f8e9df0	1.1141949
19	0x3ec1821d	0.3779458
20	0xbf5e6339	-0.8687015
21	0x3da19061	0.07888866
22	0x3f5e27f6	0.86779726
23	0x3d158932	0.036507793
24	0xbf431a7f	-0.76212305
25	0x3f218757	0.6309714
26	0x3fc33ba4	1.5252576
27	0xbef02ade	-0.46907705
28	0xbf8d8477	-1.105605
29	0x3f10a416	0.56500375
30	0xbf1d483d	-0.6143835
31	0xbf082ed2	-0.5319644
32	0x3f0eeef5	0.5583337
33	0x400def00	2.2177124
34	0xc0012aaf	-2.0182302
35	0x3e502d00	0.20329666
36	0xbf38118a	-0.7190176
37	0xbd489c9b	-0.048977476
38	0xbfe9c6fd	-1.8263851
39	0x3dbd06ad	0.09229789
40	0x40193af3	2.394223
41	0xbfa13de1	-1.2597009
42	0x3fed634b	1.8545927
43	0x3f88735b	1.0660204
44	0x3f609b04	0.87736535
45	0xbf8aea0b	-1.0852674
46	0xc027dbbf	-2.6227872
47	0xbe8b1b50	-0.27169275
48	0xbf4a174b	-0.7894179
49	0x3f4740fc	0.77833533
50	0x3dd7327f	0.10507678
51	0x3f99f157	1.2026776
52	0x3f1a4b9e	0.6027163
53	0xbf83fea6	-1.0312088
54	0xbe3e2e34	-0.18572313
55	0x3ecdd3f7	0.4020078
56	0x3fb43fe2	1.4081995
57	0x3f53fad2	0.82804596
58	0xbf202956	-0.62563074
59	0x3f8b29bd	1.0872113
60	0x3faf94ba	1.3717263
61	0x3e7cbc60	0.24681234
62	0x3e23b2aa	0.15986124
63	0x3fbacf36	1.4594486
64	0xbdcf83cf	-0.10132562
65	0xbd7b7182	-0.061387546
66	0x3b58080c	0.003296378
67	0xbf42a1e6	-0.7602829
68	0xbf5639cb	-0.83681935
69	0xbf626d9e	-0.8844851
70	0xbf9a4c45	-1.2054526
71	0xbfc115df	-1.50848
72	0x3fab6abb	1.3391947
73	0x3eeee5f7	0.46659824
74	0xbf1616a2	-0.58628285
75	0x3ef9370c	0.4867481
76	0xbe341c39	-0.17588891
77	0xbf594ab6	-0.84879625
78	0x3f497283	0.78690356
79	0xbebeeb70	-0.37289
80	0x3e8bfb7f	0.27340314
81	0x3e743c9a	0.23851243
82	0xbfb80176	-1.4375446
83	0x3f6fea0a	0.9371649
84	0x3ed7914d	0.42103043
85	0xbf3d7cce	-0.7401856
86	0x402ea65f	2.7289045
87	0xbcbbe801	-0.022937777
88	0xbe663df7	-0.22484575
89	0x3dbd227d	0.09235094
90	0xbf769cc4	-0.96332955
91	0x3fb4f5ec	1.4137549
92	0xbec1181c	-0.37713706
93	0xbf81d806	-1.014405
94	0xbddf6b2e	-0.10909115
95	0xbfad7956	-1.3552654
96	0xbfe72527	-1.8058213
97	0x400d6cea	2.2097726
98	0xbf386aa6	-0.7203773
99	0x3f2ad326	0.66728437
100	0xbdedff73	-0.11620989
101	0xbf4d361d	-0.80160695
102	0xbfa65a3a	-1.2996285
103	0xbf037d5e	-0.5136317
104	0x3d992fae	0.07479797
105	0xbfd484de	-1.6603048
106	0xbf1be617	-0.60897964
107	0x3ff59875	1.9187151
108	0x3eda1457	0.42593643
109	0xbf21d25a	-0.63211596
110	0xbc851203	-0.01624394
111	0xbef9d52f	-0.4879546
112	0x3f72f3e0	0.94903374
113	0x3fabc301	1.3418885
114	0xbeb9a8c4	-0.3626157
115	0x3f6ce89c	0.92542434
116	0x3f8af3a3	1.0855602
117	0xbfb61e36	-1.422797
118	0x3fd1b34d	1.6382843
119	0x3f032a63	0.5123655
120	0x3f03952d	0.513995
121	0x3f63eddc	0.8903482
122	0x3f5a5853	0.8529102
123	0xbf934d30	-1.1507931
124	0x3eda6797	0.42657158
125	0x3fa8c61f	1.3185462
126	0xbf9ff13e	-1.2495496
127	0xbfd4bae4	-1.6619534
128	0x3f2ce6ad	0.67539483
129	0xbda42c6d	-0.08016286
130	0x3fab9091	1.3403493
131	0x3f8bbe6e	1.091749
132	0xbfbae859	-1.4602157
133	0x3e4a2f62	0.19744638
134	0x3f9de6e5	1.2336088
135	0x3f502be5	0.8131698
136	0x3f418298	0.75589895
137	0x3f07758e	0.5291375
138	0x3e795554	0.24348956
139	0xc031d90d	-2.7788727
140	0xbea70ed3	-0.32628497
141	0x3f8992fc	1.0747981
142	0x3fa64d5b	1.2992357
143	0xbdf057ed	-0.117355205
144	0xbec8d979	-0.39228418
145	0x3e42b52b	0.19014423
146	0xbeff4f03	-0.4986497
147	0x3f421696	0.75815713
148	0xbfe7c97e	-1.8108366
149	0xbe872a5d	-0.26399508
150	0xbfb6d680	-1.428421
151	0xbc625992	-0.013815301
152	0x4003537a	2.05197
153	0xbe732515	-0.23744614
154	0xbf491b61	-0.785574
155	0xbf0a5e23	-0.5404989
156	0xbfacf613	-1.3512596
157	0xbf875c4c	-1.0575042
158	0xbeb752e4	-0.35805428
159	0x3eb73a8b	0.35786852
160	0x3f82b4cd	1.0211426
161	0xbdf976f5	-0.121808924
162	0x3f6168a2	0.8805028
163	0xbf1ce31e	-0.61284053
164	0x4011ead0	2.2799568
165	0xc014fc22	-2.327889
166	0xbf5b25b9	-0.85604435
167	0x3f886d97	1.0658444
168	0xc003122c	-2.0479841
169	0xbea31877	-0.31854603
170	0x3fc5243f	1.5401686
171	0x3e68ff24	0.22753578
172	0x3fca311c	1.5796237
173	0x4013a3a3	2.3068626
174	0xbe238794	-0.15969688
175	0x3efda1f8	0.49537635
176	0xbf7cd312	-0.9875957
177	0xbe4d84b1	-0.20070149
178	0x3f344527	0.7041802
179	0x3ed864f4	0.4226452
180	0xbf856a3f	-1.0423049
181	0x3ffba389	1.9659282
182	0xbce4fa61	-0.027951421
183	0x3f0aba3e	0.54190433
184	0xbea9639c	-0.33083808
185	0x3f3a303f	0.7272987
186	0x3f0801d8	0.53127813
187	0x3e980636	0.2969224
188	0xc00aaee2	-2.166924
189	0xbf255c63	-0.64594096
190	0xbf880a33	-1.0628113
191	0x3d8e06ef	0.06934916
192	0xbe21121c	-0.15729564
193	0x3f4baed6	0.79563653
194	0xbe27ab67	-0.16373979
195	0xbf16c5f8	-0.58895826
196	0xbf241763	-0.64098185
197	0x3ed8ff65	0.4238235
198	0xbd20de9b	-0.039274793
199	0x3f8502e0	1.0391502
200	0x3f3b22d4	0.7310002
201	0x3ec2311d	0.37928095
202	0x3f741e7b	0.9535901
203	0x3f08ada0	0.5338993
204	0x3ea172cf	0.31532905
205	0xbe30bb6e	-0.17258999
206	0xc03e2ea9	-2.971598
207	0x3f47510a	0.7785803
208	0x3f232547	0.63728756
209	0x40077c36	2.1169562
210	0x3e20c49c	0.157
211	0xbec96185	-0.39332214
212	0x3ec8eade	0.3924169
213	0x3ed1f130	0.41004324
214	0xbd235f07	-0.039885547
215	0x3fe6f1f1	1.8042585
216	0xbe758b0f	-0.23978828
217	0xbd794f55	-0.060866673
218	0xbf6387bc	-0.8887899
219	0xc02128ed	-2.518123
220	0xbfbe2407	-1.4854745
221	0xbf86970b	-1.0514845
222	0xbe96b1cf	-0.29432532
223	0xbfe11f77	-1.7587727
224	0x3f2cf898	0.67566824
225	0x3f4b3b15	0.7938703
226	0xbfaab3d0	-1.3336124
227	0xbe610435	-0.21974261
228	0xc0156d8e	-2.3348117
229	0x3f1cd9c9	0.61269814
230	0x3ef31ae1	0.47481444
231	0x3fad9cd6	1.3563488
232	0xbf9e0029	-1.2343799
233	0x3f4bb7fb	0.79577607
234	0x3f65c6f5	0.8975671
235	0xbf97a6e8	-1.1847811
236	0x3f1773f5	0.5916131
237	0xbd079bcb	-0.03310756
238	0xbe5e8c36	-0.21733174
239	0x3f230526	0.6367973
240	0x3f5a6c5d	0.853216
241	0xbf41a285	-0.7563861
242	0x3f12cfbf	0.57348245
243	0xbd8e7e79	-0.069577165
244	0xbe682555	-0.22670491
245	0x402e8985	2.7271435
246	0x3ecd97a7	0.40154764
247	0x3f598092	0.8496181
248	0xbf6093a4	-0.8772528
249	0xbe726b33	-0.23673706
250	0x3f699823	0.9124777
251	0x3fda20fc	1.7041316
252	0xbf6da2ba	-0.92826426
253	0xbf03a3af	-0.51421636
254	0xbfae894a	-1.3635647
255	0xbfa9ab51	-1.3255407

va_emb_layer.weight f4 [30, 50]
0	0xbfab7c19	-1.3397247
1	0x3f01880a	0.50598204
2	0x3e64ed6b	0.22356193
3	0x3f688351	0.9082537
4	0xbf8a50c4	-1.0805898
5	0x3f0b4d25	0.5441459
6	0xbddde4fd	-0.10834692
7	0xbe341dc2	-0.17589477
8	0xbf8fdd65	-1.1239439
9	0xbf834718	-1.0256071
10	0xbf19807b	-0.5996167
11	0xc0081453	-2.1262405
12	0xbf8e73ef	-1.112913
13	0x3f069f64	0.5258696
14	0xbf0dea26	-0.5543541
15	0xbfc7b4e6	-1.5602081
16	0xbfbcdef8	-1.4755545
17	0xbebcf4ed	-0.36905614
18	0xbdf108e4	-0.11769274
19	0xbf1636d4	-0.5867741
20	0x3f24a154	0.6430867
21	0xbf47a568	-0.77986765
22	0xbf09d288	-0.5383687
23	0xbf17904c	-0.59204555
24	0xbef97642	-0.48723036
25	0x3f75171b	0.9573838
26	0x3f8211e2	1.0161707
27	0x3f60b8a8	0.87781763
28	0x3f8c0b68	1.0940981
29	0xbf8fb3b9	-1.1226722
30	0x3eed5e55	0.46361032
31	0xbee19848	-0.44061494
32	0xbf5984ea	-0.84968436
33	0xbf0ca98f	-0.54946226
34	0xbeab4f42	-0.33458906
35	0xbfb68cff	-1.4261779
36	0xbf2df31c	-0.6794908
37	0xbf48ec86	-0.78485906
38	0xc01c1399	-2.4386961
39	0xbe22cec2	-0.15899184
40	0x3fcd4967	1.6038026
41	0xbfbfcafd	-1.4983822
42	0xbf2cc457	-0.6748709
43	0xbf7571c0	-0.95876694
44	0xc0022eac	-2.0340986
45	0xbfd3cf7c	-1.6547694
46	0x3f4471ea	0.7673632
47	0xbf48987b	-0.78357667
48	0xbe440ad2	-0.19144753
49	0xbedd6bc1	-0.43246272
50	0x40026b93	2.0378158
51	0xbec234a7	-0.37930796
52	0xbeb0fc81	-0.34567645
53	0xbf0110c5	-0.50416213
54	0xc0175646	-2.3646407
55	0x3fd49edc	1.661098
56	0xbef96712	-0.4871145
57	0xbfb5c1ef	-1.4199809
58	0x3d6f9f24	0.058501378
59	0xbf217809	-0.63073784
60	0xbf8c55fd	-1.0963742
61	0xbf00aa0c	-0.5025947
62	0xbf94809e	-1.1601751
63	0x403cec3b	2.9519184
64	0x3dc5ad49	0.09652192
65	0xbf79ba76	-0.9755014
66	0xbf0654c5	-0.524731
67	0x3f9feb9f	1.2493781
68	0x3f995814	1.1980004
69	0xbe6260d7	-0.22107254
70	0x3e68d53d	0.22737594
71	0xc002b273	-2.0421417
72	0x40263312	2.596867
73	0x3f954310	1.1661091
74	0xbf5f308d	-0.8718346
75	0x3ead1ad9	0.33809546
76	0xbe75cdb9	-0.24004258
77	0xbe372765	-0.17886122
78	0x3f013c5c	0.50482726
79	0x3efdafca	0.4954818
80	0x3f4089c0	0.7521019
81	0xbfad223e	-1.3526075
82	0x3fa8e543	1.3194965
83	0x3fb63386	1.4234474
84	0x3f331ab2	0.6996261
85	0xbf0df7ba	-0.55456126
86	0xbfcf5f9a	-1.620105
87	0x3fb4bfe6	1.4121063
88	0xbf97d712	-1.1862509
89	0xbf8f40cb	-1.1191648
90	0x3e3e0f36	0.1856049
91	0x3fb35a06	1.4011848
92	0xbfae0742	-1.3595965
93	0x3f13d9d6	0.57754266
94	0xbf98e6c1	-1.194542
95	0x408b5ffa	4.355466
96	0x3fc3d933	1.5300659
97	0x4020101d	2.5009835
98	0xbec5a367	-0.3860123
99	0x3f65e5dd	0.8980387
100	0xbf100fac	-0.56273913
101	0x3fb9a645	1.4503866
102	0xbe0f3e40	-0.1398859
103	0xbebed9c4	-0.37275517
104	0xbf75c0a5	-0.9599708
105	0x3fd95c91	1.6981374
106	0x3f03823d	0.513706
107	0xbfe0d7f3	-1.7565902
108	0x3edad8ce	0.42743534
109	0x3ee80f79	0.45324305
110	0x3f017fc0	0.50585556
111	0xbcbb6f97	-0.022880359
112	0xbf72117d	-0.94557935
113	0xbe53f89a	-0.20700303
114	0x3fe0c524	1.7560163
115	0x3f5f28ad	0.8717144
116	0x3f1a2664	0.6021483
117	0xbf294d3d	-0.6613348
118	0xbe9f9b87	-0.31173345
119	0xbf9002b4	-1.1250825
120	0xbe04f992	-0.12985829
121	0x3ee1b9c9	0.44087055
122	0xbe135152	-0.1438649
123	0x3f2fafaf	0.68627447
124	0x3d3a09e0	0.045419574
125	0xbf8f3b65	-1.1190001
126	0xbf8e60e8	-1.1123323
127	0x3f20f660	0.6287594
128	0x3f7a3332	0.9773437
129	0x3fdfc362	1.7481501
130	0xbf56814a	-0.8379103
131	0xbe484839	-0.19558801
132	0x3f645979	0.89199024
133	0xbf8db639	-1.1071235
134	0xbf3a2c7d	-0.72724134
135	0xbeb9e221	-0.36305335
136	0xbc9de7ae	-0.019275513
137	0xbee8f9c5	-0.4550306
138	0x3ef24d98	0.47324824
139	0xbff2770a	-1.8942578
140	0x3d91f77e	0.071272835
141	0x3f6f84ae	0.9356183
142	0x3ebee2fa	0.37282544
143	0x3dfdcd7c	0.12392709
144	0xbf06564c	-0.5247543
145	0x3f6877f3	0.9080803
146	0x3e10b517	0.1413158
147	0x3ee529df	0.44758508
148	0x3fd9f8d1	1.7029058
149	0xbf9041d4	-1.1270089
150	0x3ff50f21	1.9145242
151	0x3fa14f2f	1.260229
152	0x3ee298ba	0.44257146
153	0x3ffed591	1.9908925
154	0x3ff7787a	1.9333642
155	0xbf8e881c	-1.1135287
156	0xbee6a087	-0.45044348
157	0xbf5fe77e	-0.87462604
158	0x3f895957	1.0730389
159	0xbf568660	-0.8379879
160	0xc0122d7e	-2.2840266
161	0xbfefd4b7	-1.873679
162	0xc0059951	-2.0874827
163	0xbd8e2dfc	-0.069423646
164	0x3eacd8c6	0.33759135
165	0xbf8445c8	-1.0333796
166	0xbe366c0b	-0.17814653
167	0xbf1c1155	-0.60963947
168	0x3e981541	0.29703715
169	0xbdc18f19	-0.09451122
170	0xbf779c27	-0.96722645
171	0x3f72da14	0.9486401
172	0xbed1665a	-0.408984
173	0xbf88656e	-1.0655954
174	0x3f2c8102	0.6738435
175	0xbfc7c029	-1.5605518
176	0x3dbc3d69	0.091914006
177	0x3f531bf5	0.82464534
178	0xbf906ff5	-1.1284167
179	0xc018df4e	-2.3886294
180	0xbda23816	-0.07920854
181	0xbfb656aa	-1.4245198
182	0xbf356c92	-0.7086879
183	0xbd1f55b0	-0.038900077
184	0xbf1b90e6	-0.6076797
185	0xbf1573e7	-0.5837998
186	0xbe0a3d27	-0.1349989
187	0x3ef73685	0.48283783
188	0xc0156555	-2.3343098
189	0xbf28cc31	-0.6593657
190	0x3fc816d9	1.5631973
191	0xbe540085	-0.20703323
192	0x3d5c1ceb	0.053738516
193	0xbe50c03d	-0.20385833
194	0xbf30e593	-0.691003
195	0xbfaec7f0	-1.3654766
196	0x3f6e99de	0.9320353
197	0x3fd4e75b	1.6633104
198	0xbda72672	-0.0816163
199	0xbfcab6e9	-1.583707
200	0x3dbb0789	0.091322966
201	0xc00fb6ba	-2.2455277
202	0xbecbb4b0	-0.3978629
203	0xbfc4d8ae	-1.5378625
204	0xc01a74b8	-2.413374
205	0xbf2d4ccd	-0.67695314
206	0xbf8c5a38	-1.0965033
207	0x4002f935	2.0464604
208	0x3fb4e8dd	1.4133564
209	0x3f0e9c4d	0.55707246
210	0xbe44a52e	-0.19203636
211	0x3f96ac07	1.1771249
212	0xc02cba5a	-2.698874
213	0xc000c266	-2.0118651
214	0xbfea6f90	-1.8315296
215	0x3e825e65	0.25462642
216	0xbed461e9	-0.4148095
217	0x3f2c7ce9	0.673781
218	0xbfef1677	-1.8678731
219	0xbd9d0eba	-0.076688245
220	0xc01d43d7	-2.4572656
221	0x3fb11d56	1.3837078
222	0x4024d07f	2.5752256
223	0xbf9b56ba	-1.2135842
224	0x3ebd0b96	0.36922902
225	0x3f3fe2dd	0.7495554
226	0xbf14ec7e	-0.5817336
227	0x3f5121da	0.8169228
228	0x400fd12f	2.2471426
229	0x3f36e5aa	0.7144419
230	0x3f6fdacf	0.9369325
231	0xbe5c117b	-0.21491043
232	0x3f3ab7c8	0.7293668
233	0xc00b9dd9	-2.1815093
234	0x3f3746c9	0.71592385
235	0xbf066ef7	-0.5251307
236	0x3faf2b6d	1.3685127
237	0x3f712f58	0.94212866
238	0xbd50fc58	-0.051021904
239	0x3e844969	0.25837258
240	0x3f7debf5	0.99188167
241	0xc02c2b7f	-2.6901548
242	0x3fefefda	1.8745072
243	0x3f3f0832	0.7462188
244	0xbf8f2d9a	-1.1185791
245	0x400b5d11	2.1775553
246	0xbf8bdfc0	-1.0927658
247	0xbf8c463e	-1.0958936
248	0x3e94130a	0.28920776
249	0xbf989c29	-1.1922656
250	0xbf83ccc7	-1.0296868
251	0x3f83391c	1.0251803
252	0x3fbe553a	1.4869759
253	0xbe4a918b	-0.19782083
254	0x3ec94f53	0.39318332
255	0x3f20b404	0.6277468

vb_emb_layer.weight f4 [4, 50]
0	0x3fc19eca	1.5126584
1	0x4021e664	2.529687
2	0xbf3c983f	-0.7366981
3	0xbea9b1a2	-0.33143336
4	0xbf1fa1b2	-0.623561
5	0xbf83e0a7	-1.0302933
6	0x3fb21728	1.3913317
7	0xbfece868	-1.8508425
8	0x4012b446	2.292253
9	0xbf93ab10	-1.1536579
10	0xbd2063f2	-0.039157815
11	0x3fe86a3a	1.8157418
12	0x3f04f24c	0.51932216
13	0x3fa90580	1.3204803
14	0xbf1097ef	-0.5648183
15	0x3ec08b60	0.37606335
16	0x3fa81661	1.313183
17	0xbf80bd6d	-1.0057808
18	0xbf9e7449	-1.2379237
19	0xbc99188a	-0.018688459
20	0xbfd27bf6	-1.644408
21	0x3e4eb901	0.20187761
22	0x3ff10361	1.8829156
23	0x3f82ba1c	1.0213046
24	0x3dc21719	0.09477062
25	0xbebac562	-0.36478716
26	0xbe4044eb	-0.1877629
27	0xbf7ec565	-0.9951995
28	0xbfbdb637	-1.4821233
29	0xbfb3f6ac	-1.4059653
30	0x3f55ad5b	0.83467644
31	0x3f8e733d	1.1128918
32	0xbf9260cc	-1.143579
33	0xbf8ec02b	-1.1152395
34	0x3fb87d46	1.441323
35	0x3eba8024	0.3642589
36	0x3ea0879d	0.31353465
37	0x3fdcf09a	1.7260926
38	0xbef8584b	-0.48504862
39	0xbe4d6e22	-0.20061544
40	0x3fd8f00d	1.6948258
41	0x3efdc1b1	0.49561837
42	0xbf564f18	-0.8371444
43	0xbd9e9cfc	-0.07744786
44	0x3f3219ad	0.6957043
45	0x3e500888	0.20315754
46	0x3f89e05b	1.0771593
47	0x3f14acb2	0.5807601
48	0xbf3d1ceb	-0.7387225
49	0xbee98426	-0.45608634
50	0xbf112ca3	-0.56708735
51	0xbed45b2e	-0.41475815
52	0x3f84fd3c	1.0389781
53	0xbf4894dd	-0.7835215
54	0xbfe7ce57	-1.8109845
55	0xbdcc3e11	-0.09972776
56	0x3f23576e	0.6380528
57	0xbf08402c	-0.5322292
58	0xbf54af6a	-0.8308016
59	0x3f6fa56a	0.93611777
60	0xbfd8d870	-1.6941051
61	0x3f971e7d	1.1806179
62	0x3fbc4cd2	1.4710944
63	0xbfbc54eb	-1.4713415
64	0x3a452b25	0.00075213826
65	0x3e20ef4f	0.15716289
66	0x3faeec7e	1.3665922
67	0xbf55577b	-0.8333661
68	0xbe5ac563	-0.2136436
69	0x3ff59764	1.9186826
70	0x3e836f62	0.25670916
71	0x3ff755f7	1.9323109
72	0xbfc3486d	-1.5256478
73	0xbde97208	-0.11398703
74	0xbfedbe65	-1.8573729
75	0xbf2831e7	-0.65701145
76	0x3fb54137	1.4160527
77	0x3fc13456	1.5094097
78	0xbd8a2772	-0.06745805
79	0xbf8f7fa7	-1.1210831
80	0xbf2ba186	-0.6704334
81	0xbfd0c4e8	-1.6310091
82	0xbfc52a76	-1.5403583
83	0xbf0bf45f	-0.54669756
84	0x3f41a4b1	0.75641924
85	0xbede1536	-0.43375558
86	0xbd034e80	-0.032057285
87	0x3e96612d	0.29371014
88	0x3e4a54f3	0.19758968
89	0x3c8acd77	0.016943676
90	0xbf4e19ce	-0.80508125
91	0xbf3c5388	-0.7356496
92	0xbe546d5c	-0.20744842
93	0x3ecc86fd	0.39946738
94	0xbfa6c67f	-1.3029326
95	0xbf41df64	-0.7573149
96	0x3e0eb71e	0.13937041
97	0xbef78b1b	-0.48348317
98	0xbfcf01b1	-1.6172391
99	0x3f2de70e	0.67930686
100	0x3f828f2b	1.0199941
101	0x3fa8aea1	1.3178293
102	0x3fcaf9ac	1.5857444
103	0xbe96a992	-0.29426247
104	0x3f4cbcfc	0.7997587
105	0x3ec1a50c	0.37821233
106	0xbfc9b452	-1.5758154
107	0xc0228aa2	-2.5397115
108	0x3fc30a73	1.5237564
109	0x4003fa4b	2.0621517
110	0x3fc59778	1.543685
111	0x3efd746e	0.4950289
112	0x3dac408b	0.08410748
113	0xbf56ef82	-0.8395921
114	0x3e9f2e0a	0.31089813
115	0x3ee54439	0.44778612
116	0x3fb77fde	1.4335897
117	0x3f7dbd66	0.99117124
118	0x3f8921cb	1.0713438
119	0x3dba8ee6	0.09109287
120	0xbf0d97d0	-0.5530977
121	0xbeaebdeb	-0.3412927
122	0xbf9b6771	-1.2140943
123	0xbfcaf248	-1.5855188
124	0x3e99cade	0.30037588
125	0x3ef56bf1	0.47933915
126	0x3f4a0552	0.7891437
127	0x3f5d52be	0.8645438
128	0x3f201c84	0.6254351
129	0xbef7e1ac	-0.4841436
130	0xbdafae94	-0.0857822
131	0xbf44254e	-0.7661942
132	0xbfa6c374	-1.3028398
133	0xbf87e870	-1.0617809
134	0x3fa45a29	1.2840015
135	0x3fdac006	1.7089851
136	0x3f96de12	1.178652
137	0xbe4d23b9	-0.20033158
138	0xbf6eff7e	-0.933586
139	0xbfac6002	-1.3466799
140	0x3f835153	1.0259193
141	0x3fbc46a7	1.4709061
142	0x401ad0f8	2.4190044
143	0x40148916	2.320867
144	0xbfb46a2d	-1.4094902
145	0x3bf016ac	0.0073269214
146	0xbed8f81b	-0.4237679
147	0xbfa71eea	-1.3056309
148	0xbf8a1849	-1.0788661
149	0xc03a6e91	-2.9129984
150	0x3f31bfa6	0.6943306
151	0xbeba3c71	-0.36374238
152	0x3f8f44cd	1.1192871
153	0x3eb0d333	0.34536132
154	0x3f740c4a	0.9533125
155	0xbf8a4cf1	-1.0804731
156	0xbeb6cbd1	-0.35702375
157	0x3e80e828	0.2517712
158	0xbd944dbb	-0.072413884
159	0xbfcfa6ac	-1.6222739
160	0xbfc7603f	-1.5576247
161	0x3f447ec3	0.76755923
162	0x3edbc864	0.42926323
163	0x3f850de1	1.039486
164	0xbf666508	-0.8999791
165	0xc0033dd1	-2.050648
166	0xbf759d14	-0.9594281
167	0x3fcbbcb5	1.5916964
168	0xbf05a91b	-0.5221116
169	0x3fe737c2	1.8063891
170	0x3d48d5cd	0.04903202
171	0xbfd52e70	-1.6654797
172	0xc00c5cf7	-2.1931741
173	0x4009c5f3	2.1527069
174	0x3f69ea8f	0.91373533
175	0xbf864f08	-1.0492868
176	0x3ec290c4	0.38001072
177	0xbf38261d	-0.71933156
178	0xbf7a1364	-0.9768584
179	0xbe85a50d	-0.26102486
180	0xbd5e3b4c	-0.05425577
181	0xbf1bbf81	-0.60839087
182	0xbf984be4	-1.189816
183	0x3ee7d6a3	0.45280942
184	0x39f2aade	0.00046285143
185	0x3f8501dc	1.0391192
186	0x3eeed0ca	0.46643668
187	0x3edc79f6	0.430618
188	0x3def53d1	0.116859086
189	0x3e927e3c	0.28611934
190	0x3e6ea80f	0.23306297
191	0x3dbf7db9	0.093501516
192	0x3e82b9b0	0.25532293
193	0x3f19f2ff	0.6013641
194	0xbfd2252c	-1.6417594
195	0x3ffa016a	1.9531682
196	0xbf70e260	-0.9409542
197	0x3fa660ba	1.2998269
198	0x3f52b234	0.82303166
199	0xbf82ab90	-1.0208607

f_layer.weight f4 [50, 100]
0	0xbdb3eb29	-0.087850876
1	0x3c21a1f9	0.009865277
2	0xbe0aa05e	-0.13537738
3	0xbe36d522	-0.17854741
4	0xbc62359a	-0.013806725
5	0xbb9f8453	-0.004868069
6	0x3e16452f	0.14674829
7	0xbe22bec9	-0.15893091
8	0x3deff892	0.11717333
9	0x3e00b4d4	0.1256898
10	0x3bcba0c7	0.0062142345
11	0xbdcd0788	-0.10011202
12	0xbd90474a	-0.07044847
13	0x3e1338d8	0.14377153
14	0xbe153874	-0.14572316
15	0x3e216792	0.15762165
16	0x3d1de34e	0.038546853
17	0xbc3f0f69	-0.011661389
18	0x3cc9ce12	0.024634395
19	0x3e4899c2	0.19589904
20	0x3ceac263	0.028657144
21	0xbc403c52	-0.0117331315
22	0xbd0b3faf	-0.03399628
23	0x3da088dd	0.078386046
24	0xbd1c8c88	-0.03821996
25	0x3caadc5c	0.020857029
26	0x3dd71714	0.10502449
27	0x3e1aafda	0.15106145
28	0x3cf023a8	0.029313877
29	0x3ba87048	0.005140338
30	0x3d448a73	0.047983598
31	0xbd1b46ed	-0.037909437
32	0xbe1123da	-0.14173833
33	0x3cc510c0	0.024055839
34	0xbd71f25b	-0.05906902
35	0xbdc29015	-0.09500138
36	0x3e28e5b6	0.16493878
37	0xbd196480	-0.03744936
38	0xbdc98157	-0.09839123
39	0xbe36f31f	-0.17866181
40	0x3e189a95	0.14902718
41	0xbd0c73ce	-0.034290127
42	0xbe2079e7	-0.15671502
43	0xbc05e16c	-0.008171421
44	0xbe6e91df	-0.23297833
45	0x3d976897	0.07392996
46	0x3c9981bb	0.018738618
47	0xbdcc0c27	-0.099632554
48	0xbc87d118	-0.016579196
49	0xbd354627	-0.044256356
50	0xbcff8caf	-0.031195013
51	0x3e2d26d0	0.16909337
52	0x3d65e81e	0.056129567
53	0xbd0918b7	-0.033470836
54	0x3e109dfe	0.14122769
55	0xbaa32d1e	-0.0012449359
56	0xbd7fb6d3	-0.062430214
57	0x3d3fcd40	0.0468266
58	0xbcf7d912	-0.030254874
59	0xbc1d15c0	-0.009587705
60	0xbd535ef7	-0.051604237
61	0xbdbd3bb4	-0.09239903
62	0x3df707fe	0.12062071
63	0x3d3fa30d	0.046786357
64	0x3da59cc6	0.08086543
65	0xbdb8bf31	-0.09020842
66	0xbd5def0c	-0.05418305
67	0x3dfd1651	0.12357772
68	0x3d55431a	0.052065946
69	0xbcb6458a	-0.022249956
70	0xbd2696b1	-0.040671054
71	0xbda14c3f	-0.07875871
72	0xbde06d05	-0.10958294
73	0xbd99248d	-0.07477675
74	0xbc1fec9b	-0.009761001
75	0x3caebf3b	0.02133142
76	0xb9ad1e51	-0.0003301972
77	0xbb1195c7	-0.0022214518
78	0xbe03f765	-0.12887342
79	0x3e595005	0.21221931
80	0x3d1bfa11	0.03808028
81	0x3cee6b9e	0.02910405
82	0x3d20852b	0.0391895
83	0x3d9025c5	0.07038454
84	0x3d9dec21	0.07711054
85	0x3e285e98	0.16442335
86	0x3e79418e	0.24341413
87	0x3ded7150	0.11593878
88	0xbd79cdef	-0.06098741
89	0x3e0dfbb4	0.13865548
90	0x3e1bc183	0.15210538
91	0xbbebd711	-0.007197269
92	0xbd80f0b6	-0.06295912
93	0x3dcd52ba	0.100255445
94	0x3d9da9a8	0.07698375
95	0xbda47fb2	-0.080321684
96	0xbd9f9917	-0.077928714
97	0x3d813880	0.06309605
98	0x3e0dfc3c	0.13865751
99	0xbe13765c	-0.1440062
100	0xbe04edbd	-0.12981315
101	0x3e31cfff	0.173645
102	0xbdc8e592	-0.09809412
103	0xbe121163	-0.14264445
104	0xbce0284b	-0.027362963
105	0x3c3064f5	0.0107662575
106	0x3e2eee45	0.1708308
107	0x3c3ebe3d	0.011642036
108	0x3dc14345	0.09436659
109	0x3c819306	0.015817177
110	0x3bc52c21	0.0060172235
111	0xbe2a2947	-0.16617309
112	0x3db07a6b	0.086170994
113	0x3e0f0ae4	0.13968998
114	0x3c38fa54	0.011290152
115	0x3ddb960d	0.10721979
116	0xbc3c0b38	-0.011477284
117	0x3db8ea70	0.090290904
118	0x3d5ba42b	0.05362336
119	0x3e1a9fa2	0.15099958
120	0xbc21a58a	-0.009866128
121	0x3dc8bd49	0.09801728
122	0x3df4959b	0.119425975
123	0xbd5413a3	-0.05177654
124	0x3e14cb2f	0.14530633
125	0xbd6faba8	-0.058513314
126	0xbd614e70	-0.055006444
127	0xbd3368ea	-0.043801226
128	0xbe006edf	-0.12542294
129	0x3d10fe1e	0.035398595
130	0xbd0d45f9	-0.03449056
131	0x3da01fe3	0.07818582
132	0x3e2664db	0.16249411
133	0x3e877698	0.26457667
134	0x3da18bf7	0.07888024
135	0x3ca372d1	0.01995221
136	0x3e129026	0.14312801
137	0x3d3a8ef3	0.045546483
138	0xbcf9d1d7	-0.030495567
139	0xbe5e29ed	-0.21695681
140	0x3e44c035	0.19213946
141	0xbdb9fb95	-0.090811886
142	0xbdb1ee1e	-0.086879954
143	0x3dab831e	0.08374618
144	0xbe1bc6f1	-0.15212609
145	0x3e035865	0.12826689
146	0x3da46d21	0.08028627
147	0x3d6c39e2	0.05767239
148	0xbe077d63	-0.13231425
149	0xbd3d4c59	-0.04621539
150	0xbc87f4c0	-0.016596198
151	0xbe04be93	-0.12963323
152	0xbe2aaa2c	-0.16666478
153	0x3df43b3a	0.11925359
154	0xbc4e9edd	-0.012611118
155	0x3e0886ce	0.13332674
156	0x3db121e7	0.086490445
157	0xbc7b9047	-0.015354223
158	0xbc8fecba	-0.017568935
159	0x3dfc37de	0.12315343
160	0x3dd342b5	0.10315458
161	0x3dbb1c85	0.09136299
162	0x3b97e1a5	0.004635053
163	0x3decaf58	0.11556882
164	0x3dd129bf	0.102130406
165	0x3c4dc78b	0.012559782
166	0x3dc0114f	0.09378301
167	0x3d5e3d35	0.05425759
168	0xbde997fd	-0.114059426
169	0xbd1d7fd1	-0.038451973
170	0x3d95ae0b	0.07308587
171	0xbda5dfbd	-0.08099315
172	0x3de473c2	0.111548916
173	0xbccf2a6e	-0.025288787
174	0x3e0d71cc	0.13812941
175	0xbd9aba28	-0.07555038
176	0xbdca1a07	-0.098682456
177	0xbdbdf044	-0.09274343
178	0xbdc085c6	-0.09400515
179	0x3db06706	0.086134
180	0x3e28cbf6	0.16484055
181	0xbe462696	-0.19350657
182	0xbd40a839	-0.04703543
183	0xbe08e946	-0.13370237
184	0xbd06cea2	-0.032911904
185	0x3b352840	0.00276424
186	0x3d6384b4	0.055546477
187	0x3d4259cb	0.047448914
188	0x3da9f8d2	0.08299412
189	0xbae5baac	-0.0017526946
190	0x3e1ed2c8	0.15510094
191	0xbdc4d942	-0.09611751
192	0x3c4d1285	0.012516622
193	0x3dbb63cd	0.09149895
194	0x3ced9f64	0.029006667
195	0x3cd6c40b	0.026216527
196	0xbd3f75ac	-0.04674308
197	0xbd8bf52b	-0.068338715
198	0x3d8def88	0.069304526
199	0x3d097b22	0.033564694
200	0xbd005929	-0.03133503
201	0xbe17b207	-0.14814006
202	0x3e0fa69e	0.14028403
203	0x3e0ee82f	0.13955759
204	0xbd515b7c	-0.051112637
205	0x3dbf1535	0.09330217
206	0x3c89a776	0.016803484
207	0x3dae38b8	0.08506912
208	0xbe7407ba	-0.23831072
209	0xbde6733e	-0.112524495
210	0xbd6ac44e	-0.057316117
211	0x3dc7e9c6	0.097613856
212	0xbcd033a9	-0.025415258
213	0xbd1dc2b5	-0.038515765
214	0x3cbb2f98	0.022849843
215	0xbde3c57a	-0.1112165
216	0xbda8ba66	-0.08238678
217	0xbba6b5f1	-0.005087607
218	0xbc8f6059	-0.017501997
219	0xbe270f85	-0.16314514
220	0xbc8e91b1	-0.017403455
221	0x3b0f7519	0.0021889864
222	0xbd81b3ab	-0.06333097
223	0xbd584d15	-0.052807886
224	0xbe7ead1e	-0.24870726
225	0xbe2b918b	-0.16754739
226	0x3d5610e8	0.052262217
227	0x3e1710cc	0.14752501
228	0x3d988a11	0.07448209
229	0xbe0392af	-0.12848924
230	0xbdad0657	-0.08448475
231	0x3c3b5b55	0.0114353495
232	0x3e14bbd7	0.1452478
233	0xbe077360	-0.13227606
234	0xbcf36c11	-0.029714616
235	0x3ce9f30e	0.02855828
236	0xbdc1ed37	-0.09469073
237	0xbd3b1c9a	-0.045681573
238	0x3e7355e4	0.23763233
239	0x3e3e03ca	0.18556133
240	0xbe2c180e	-0.16806051
241	0xbe1ccbae	-0.15312073
242	0x3de88c71	0.11354912
243	0x3d675950	0.05648166
244	0x3cd85e85	0.026412258
245	0xbdec4308	-0.11536223
246	0xbca5f044	-0.02025617
247	0xbde40f72	-0.111357585
248	0x3dabb456	0.08384006
249	0x3df053a7	0.117347054
250	0x3c5c31ea	0.013439635
251	0xbe15b26e	-0.14618847
252	0x3c6346ca	0.013871858
253	0x3c0f612f	0.008751198
254	0x3d79029c	0.060793504
255	0x3d0d6114	0.03451641

f_layer.bias f4 [50]
0	0xbcb67af5	-0.022275427
1	0xbd408ce4	-0.047009364
2	0xbdd942df	-0.10608458
3	0x3dca1bf9	0.098686166
4	0xbdcaf609	-0.09910209
5	0xbd321de6	-0.043485545
6	0xbe0d96b8	-0.13827026
7	0xbc9286f4	-0.017886616
8	0xbdc1bb44	-0.09459546
9	0x3d915152	0.07095589
10	0xbd21eb57	-0.03953108
11	0xbca5c7f1	-0.020236941
12	0x3d2c1d27	0.04201999
13	0x3cfdc9a3	0.030979937
14	0x3d7e8563	0.062138926
15	0x3d2777f1	0.04088587
16	0xbe33faee	-0.17576191
17	0xbd51686c	-0.051124975
18	0xbdbdce6f	-0.0926789
19	0x3dc8e563	0.09809377
20	0x3d0aa6ed	0.0338506
21	0x3dfd7ad3	0.123769425
22	0xbc1bd0aa	-0.009510199
23	0xbc50a337	-0.012734226
24	0x3e9183c4	0.28420842
25	0x3d73dc91	0.05953652
26	0xbd518e36	-0.051161014
27	0x3d480cd0	0.048840344
28	0xbd943c38	-0.07238048
29	0x3da99718	0.08280772
30	0xbd651606	-0.055929206
31	0x3d555d9f	0.052091237
32	0x3d225664	0.03963317
33	0x3da55bc7	0.08074146
34	0xbd496d7c	-0.049176678
35	0x3d439d56	0.04775747
36	0xbd82d986	-0.063891456
37	0xbdde242d	-0.10846744
38	0xbe9b90b5	-0.3038384
39	0xbdf89a47	-0.12138801
40	0x3ca0828d	0.019593501
41	0x3c6651ff	0.014057635
42	0x3ba92bd0	0.0051626936
43	0xbdbe9836	-0.09306376
44	0xbb162a8c	-0.0022913544
45	0x3d036c5b	0.032085758
46	0xbd0b4327	-0.03399959
47	0x3e12363e	0.14278504
48	0xbe063796	-0.13107142
49	0xbdaf91c9	-0.08572728

p_layer.weight f4 [1, 50]
0	0xbe6cbc80	-0.23118782
1	0xbeb6bab4	-0.35689318
2	0x3ebd931f	0.37026307
3	0x3e823af3	0.254356
4	0x3ec3b148	0.38221192
5	0xbe3a55b6	-0.18196759
6	0xbed6585e	-0.41864294
7	0xbee4bd29	-0.44675568
8	0xbec6892d	-0.38776532
9	0xbedf047a	-0.43558103
10	0xbe95c3a0	-0.29250813
11	0x3e9b1495	0.3028914
12	0xbf000f61	-0.50023466
13	0xbe4de711	-0.20107676
14	0x3eb3dd25	0.35129657
15	0x3eae4cb6	0.340429
16	0x3e5eb3b0	0.21748233
17	0x3e9a80b4	0.30176318
18	0x3ec38b00	0.38191986
19	0x3e56787f	0.20944403
20	0x3dfb4197	0.1226837
21	0xbedfdda5	-0.4372379
22	0x3e667ce6	0.22508582
23	0xbe8e31b8	-0.27772307
24	0xbf2f8a82	-0.6857072
25	0xbe168370	-0.14698577
26	0xbebb00b6	-0.3652398
27	0xbeb0c1a1	-0.34522727
28	0xbeb60da5	-0.35557285
29	0xbedca2f0	-0.4309306
30	0xbe42032d	-0.18946524
31	0x3eaafce3	0.33396062
32	0x3ed19c4c	0.40939558
33	0xbe980825	-0.29693714
34	0xbe2c0f2b	-0.16802661
35	0xbeb2e89a	-0.34943086
36	0xbe0b36f6	-0.13595185
37	0x3e8af5e2	0.2714072
38	0x3f2aa8d7	0.6666388
39	0x3ebbef4d	0.3670601
40	0x3eb33437	0.35000774
41	0x3e7f068e	0.24904844
42	0xbe65a3dd	-0.2242579
43	0x3ecad4b8	0.39615417
44	0xbe87e485	-0.26541534
45	0xbe86d458	-0.2633388
46	0x3e6ac8b5	0.22928126
47	0x3ee19492	0.44058663
48	0xbeaf9b72	-0.34298283
49	0x3e8db99f	0.2768068
