ckpts/dkt/assch/model.ckpt (torch, 461975 bytes, 9 tensors)

interaction_emb.weight f4 [204, 100]
0	0xbf8a0d3b	-1.0785288
1	0x3fb8cdcf	1.4437808
2	0x4005e851	2.0923045
3	0x3fb3d110	1.4048176
4	0xbf0eb247	-0.5574078
5	0xbf3a028a	-0.72660124
6	0xbfc3fb45	-1.5311056
7	0x3f67dc21	0.90570265
8	0xbeead40e	-0.4586491
9	0x3c3d9265	0.011570548
10	0x3f88a626	1.0675704
11	0x3f4cc30f	0.79985136
12	0xbda12b46	-0.07869582
13	0x3f9e1166	1.234906
14	0x3fbbd6f2	1.4674971
15	0xbf3a2e5d	-0.72726995
16	0x3fd94c02	1.6976321
17	0x3ed3ab9c	0.41341865
18	0xbf46774b	-0.77525777
19	0xbdc6488e	-0.096818075
20	0xbf2b61fd	-0.66946393
21	0x3ddad43a	0.1068501
22	0xbea11e82	-0.31468588
23	0x3f580807	0.8438725
24	0x3f1ea5c0	0.61971664
25	0xbf4939d3	-0.7860386
26	0x3fbc4462	1.4708369
27	0xbfd7c486	-1.6856849
28	0xbf32126a	-0.6955935
29	0xbdd20180	-0.10254192
30	0x3f74b3da	0.9558693
31	0x3f363753	0.7117817
32	0x40025a16	2.0367484
33	0xbf1ac1eb	-0.60452145
34	0xbf8ef26c	-1.1167731
35	0xbe607521	-0.21919681
36	0x3f17c09b	0.5927827
37	0xbffc5b5f	-1.9715384
38	0xbf1f3f62	-0.6220609
39	0xbf1f0aef	-0.6212606
40	0xbf85f99b	-1.0466799
41	0xbfd97246	-1.6987998
42	0xbfea2ede	-1.8295553
43	0x3f49cb45	0.7882579
44	0x3e88bb53	0.26705417
45	0xbf873369	-1.0562564
46	0xbda936bb	-0.08262392
47	0xbf90e9d6	-1.1321361
48	0x3e813777	0.2523763
49	0x3e104d8b	0.1409208
50	0xbfd3d028	-1.6547899
51	0x3e7a0c27	0.24418698
52	0x3f27e09b	0.65577096
53	0x3f7bfe71	0.9843512
54	0xbfa28f2a	-1.269994
55	0xbe7c021d	-0.24610181
56	0xbe4ed4c8	-0.20198357
57	0x3dbb2dc6	0.0913959
58	0x3f8bd1f9	1.0923454
59	0x3ec9fb9e	0.3944978
60	0xc001cd73	-2.0281646
61	0x3e97de3c	0.2966174
62	0xbf8b57cd	-1.088617
63	0xbfe31ea6	-1.7743728
64	0x3f53da89	0.82755333
65	0xc01dbc89	-2.4646323
66	0x3f2ab578	0.6668315
67	0xbf1fbdbe	-0.623989
68	0x3f95fc6e	1.171766
69	0x3cf20257	0.029542131
70	0xbf86021a	-1.0469391
71	0x3f6a1037	0.9143099
72	0x3f8c0a77	1.0940694
73	0x3f6ffa60	0.93741417
74	0xbe15a34d	-0.14613076
75	0x3f9310dc	1.148952
76	0xbf4e5988	-0.80605364
77	0x3f5f91b8	0.87331724
78	0xbc3a0fc6	-0.0113563
79	0xbf626a9e	-0.88443935
80	0xbe0e3978	-0.1388911
81	0x3ece6e12	0.40318352
82	0x3f2976b7	0.6619677
83	0x3ef1eba6	0.47250098
84	0x3ebdb3bc	0.3705119
85	0x3f43b118	0.764421
86	0xbfa78762	-1.308819
87	0x3f39ccb1	0.7257796
88	0x3f9f35b6	1.2438266
89	0xbf5cdbb0	-0.86272717
90	0x3f0c3d2f	0.5478086
91	0x3ebbdfcb	0.36694178
92	0x3f21e289	0.6323629
93	0xbe8c4240	-0.27394295
94	0x3f6da95c	0.92836547
95	0xbf3a40ab	-0.72754925
96	0x3e677778	0.22604167
97	0xbf183cc9	-0.5946775
98	0xbd86d975	-0.065844454
99	0xbb7f52e4	-0.0038959319
100	0xbe3e0574	-0.18556768
101	0x3f585a13	0.8451244
102	0xbf87b12d	-1.0600945
103	0xbe8c5a2b	-0.27412543
104	0x3c95ba0b	0.018277189
105	0xbff21058	-1.8911238
106	0x3f5198ea	0.81873953
107	0x3ef0b9de	0.47016805
108	0xbf010086	-0.50391424
109	0x3f17becd	0.59275514
110	0x3f163cde	0.58686626
111	0x3ee4ca0b	0.44685397
112	0x3d7b42d7	0.06134304
113	0xbf498c9a	-0.78730166
114	0x3f195bc2	0.59905636
115	0xbf9d9402	-1.2310793
116	0x3f18baff	0.59660333
117	0x3faceaeb	1.3509191
118	0xbff8da0b	-1.9441541
119	0x3f82ebf2	1.0228255
120	0xbf1f9a8a	-0.6234518
121	0x3f56e552	0.83943665
122	0xbf9384ab	-1.1524862
123	0xbf5af26d	-0.8552616
124	0xc021bb29	-2.5270483
125	0x3e6c12e7	0.23054086
126	0x3f7a1713	0.9769146
127	0xbf405c3e	-0.7514075
128	0xbf8b1bc5	-1.086785
129	0xbf72b5c7	-0.9480862
130	0x3f8dca39	1.1077338
131	0xbf3e0bb3	-0.742366
132	0x3dc93932	0.09825362
133	0xbeab009b	-0.333989
134	0x3fdbd903	1.7175602
135	0xbf6451ff	-0.89187616
136	0xbef6e122	-0.48218638
137	0xbefa9f13	-0.4894949
138	0x3f278c6d	0.6544865
139	0xbefdcec8	-0.49571824
140	0x3ea3215a	0.31861383
141	0x3ec54307	0.385277
142	0x3f214362	0.62993443
143	0xbe9ca28c	-0.30592763
144	0x3fb9aa98	1.4505186
145	0x3d948f88	0.07253939
146	0x3ebd0299	0.36916044
147	0xbdf966b9	-0.12177796
148	0xbe18250c	-0.14857882
149	0x3e9e95de	0.30973715
150	0xbf0cf6df	-0.55064195
151	0x3f7cc876	0.9874338
152	0xbf87a99f	-1.0598639
153	0xbe835ef3	-0.25658378
154	0x403ffc09	2.999758
155	0xbfd5e47e	-1.6710355
156	0xc01b3d14	-2.425603
157	0x3edcf2a4	0.4315387
158	0x3fbe742c	1.4879203
159	0xbfae4723	-1.3615459
160	0xbe959bc3	-0.292204
161	0xbf59fb33	-0.85148925
162	0x3fbe3131	1.4858762
163	0xc03759aa	-2.8648477
164	0xbee86670	-0.45390654
165	0x3fe52df5	1.790465
166	0xbec93fac	-0.3930639
167	0xbd06987d	-0.032860268
168	0x3f83a2b9	1.0284034
169	0xbe56f904	-0.2099343
170	0x3f5305bf	0.8243064
171	0xbf8949f7	-1.0725697
172	0xbf679d0a	-0.90474
173	0x4008a2a2	2.1349263
174	0xbe464dd3	-0.19365625
175	0xbde8d91c	-0.11369535
176	0xbfdfa582	-1.7472384
177	0xbd071762	-0.032981284
178	0xbf9d4275	-1.2285906
179	0x40015cf5	2.0212986
180	0x3f04e08a	0.5190512
181	0xbf80b959	-1.0056564
182	0x3fb63738	1.4235601
183	0xbe9531ca	-0.2913955
184	0xbfd21f47	-1.6415795
185	0xc018cddd	-2.387565
186	0xbf08f61d	-0.5350054
187	0xc016a374	-2.3537264
188	0x3d8f103a	0.06985517
189	0xbe5f5b2c	-0.21812123
190	0xbfd2843b	-1.6446604
191	0x3f489dfb	0.7836606
192	0xbe856908	-0.26056695
193	0xbf40d7d9	-0.7532936
194	0xbe12921a	-0.14313546
195	0x3fb15f64	1.3857236
196	0xbfc1dd84	-1.5145726
197	0xbfd00f6c	-1.6254706
198	0xbe816398	-0.25271297
199	0xbf08f2b7	-0.53495353
200	0x3f88608e	1.0654466
201	0x3f88e02e	1.0693414
202	0xbf22e08e	-0.63623893
203	0xbf6dccb2	-0.92890465
204	0xbf5ba387	-0.857964
205	0x3e4f86c0	0.20266247
206	0x3faf0161	1.3672296
207	0xbfd5cfd4	-1.6704049
208	0x3c347ed7	0.011016569
209	0xbf5dd6fe	-0.8665618
210	0x3f02bf25	0.51072913
211	0x4040a9a7	3.0103548
212	0x3faec348	1.3653345
213	0x3f72800a	0.9472662
214	0x3f0e68c2	0.556286
215	0xbf135732	-0.57554924
216	0xbf140ec9	-0.5783506
217	0x3f4acd61	0.79219633
218	0x3f675cfb	0.9037625
219	0x3f0d40ae	0.5517682
220	0xbf2c3ecf	-0.6728334
221	0xbf5cb347	-0.86211056
222	0x3f92ce88	1.1469278
223	0x3f84559e	1.0338628
224	0x3f18c212	0.5967113
225	0xbef507ae	-0.47857422
226	0x40001e64	2.001855
227	0xbf9b458c	-1.2130599
228	0x3f173ecf	0.59080213
229	0x3f5d6147	0.8647656
230	0x3fb241f0	1.3926373
231	0x40067123	2.1006553
232	0xbe8afe59	-0.27147177
233	0x3f0f72f6	0.5603479
234	0xbf723ce6	-0.94624174
235	0xbeafbe48	-0.3432486
236	0x3f874c3f	1.0570143
237	0x3dfe0a0d	0.12404261
238	0x3f8b2956	1.087199
239	0x3d638e49	0.055555616
240	0xbeafd2b3	-0.34340438
241	0x3f7be8f8	0.9840236
242	0x3f9c3040	1.2202225
243	0xbf0df487	-0.55451244
244	0xbd316ce5	-0.04331674
245	0xbed82dd1	-0.42222455
246	0xbf02559f	-0.509119
247	0xbf5bd9c9	-0.8587919
248	0x3fb6f32e	1.4292963
249	0x3f78375d	0.9695948
250	0xbfd7815e	-1.6836355
251	0x3e2430bd	0.16034217
252	0xbe57c979	-0.2107295
253	0x3f9773c9	1.183221
254	0x3fdc6463	1.7218136
255	0x3ed23344	0.41054738

interaction_emb_a.weight f4 [30, 100]
0	0xbfc72f66	-1.556134
1	0xbed6bce5	-0.4194099
2	0xbf0d5212	-0.55203354
3	0x3e9001a4	0.28126252
4	0xbea5630a	-0.32302123
5	0xbefac560	-0.4897871
6	0xbf9ca07d	-1.2236477
7	0x3f7a4148	0.9775586
8	0x3fbc197f	1.4695281
9	0x3db77f8b	0.08959874
10	0xbeb1d196	-0.34730214
11	0xbf1ba1f8	-0.6079402
12	0xbfa3dee8	-1.28024
13	0x3f95d8c6	1.1706779
14	0xbf525459	-0.82159954
15	0xbdb8a21b	-0.09015294
16	0xbf9589ec	-1.1682715
17	0xbfc8a8e0	-1.5676537
18	0xbe96ec2f	-0.2947707
19	0x3fa33bbe	1.2752607
20	0xbf220fdc	-0.6330545
21	0xbef49b83	-0.47774896
22	0x3f010684	0.5040057
23	0x3fdf8493	1.7462333
24	0xbf9777e1	-1.1833459
25	0xbf5c7ae4	-0.86125016
26	0x3f8e0b89	1.109727
27	0x3e0d7b97	0.13816677
28	0xbed6793b	-0.41889367
29	0x3c024b3d	0.0079525085
30	0x3f6ce859	0.92542034
31	0xbf0cfbcd	-0.5507172
32	0xbea86d68	-0.3289597
33	0xbd08e505	-0.033421535
34	0x3f833a70	1.0252209
35	0xbe9f822e	-0.31154007
36	0xbf35b72b	-0.7098262
37	0x3fb8ca0f	1.4436663
38	0x3fb26470	1.3936901
39	0xbf1343ef	-0.57525533
40	0xbe050c05	-0.12992866
41	0xbf81fab3	-1.0154632
42	0xbfad3ef1	-1.3534833
43	0xbdbcebeb	-0.09224685
44	0x3e9dd74b	0.30828318
45	0xbe514f48	-0.204404
46	0x3ffaeccb	1.9603513
47	0x3e94b3f5	0.29043546
48	0xbf88b24d	-1.0679413
49	0x3f70bef6	0.94041383
50	0x3fe007a7	1.7502335
51	0x3d2cb275	0.042162377
52	0x3ead0f9b	0.3380097
53	0xbf3abdcf	-0.72945875
54	0x3f6c5a80	0.9232559
55	0xbeb11730	-0.34588003
56	0x3f734d9f	0.95040315
57	0xbf51793d	-0.8182562
58	0x3f2b724f	0.66971296
59	0xbecdcf80	-0.40197372
60	0x3ebffb58	0.37496448
61	0x3f9618e8	1.1726351
62	0xbf30d87a	-0.6908032
63	0xbd6230d6	-0.055222355
64	0xc0343080	-2.8154602
65	0xbfa7f31a	-1.3121064
66	0x3db9cd82	0.09072401
67	0xbf72d334	-0.9485352
68	0x3f40938e	0.7522515
69	0xbfbf2856	-1.4934185
70	0xbff41bf3	-1.907103
71	0x3fa060f4	1.2529588
72	0xbf4deff3	-0.8044426
73	0x3e8c49ac	0.27399957
74	0xc00e7984	-2.2261667
75	0x3f979c5c	1.1844592
76	0xbfae1103	-1.3598942
77	0x3fbdad9b	1.4818605
78	0x3e87e985	0.2654535
79	0x3e86d0ca	0.26331168
80	0xbe9d9ab3	-0.3078209
81	0x3fbfbd11	1.4979573
82	0x3e2e597b	0.17026322
83	0x3db01395	0.08597485
84	0x3fdfe914	1.7493005
85	0xbf06c8f2	-0.5265037
86	0x3ee5f316	0.44912022
87	0x3f2d711a	0.67750704
88	0xbf051974	-0.51991963
89	0xbfa2aaff	-1.2708434
90	0xbf5097a9	-0.81481415
91	0x3f124b61	0.5714627
92	0xbe9cf64c	-0.3065666
93	0x402bd1af	2.684673
94	0x3f4acedc	0.7922189
95	0xbfed8431	-1.8555967
96	0xbf14dfaf	-0.58153814
97	0x3f756496	0.95856607
98	0xbf202d14	-0.62568784
99	0xbf1831e4	-0.5945113
100	0x3f58a3e1	0.8462506
101	0x3f6826fd	0.9068449
102	0x3e9a370b	0.3012012
103	0xbffafa39	-1.9607612
104	0xbd856d88	-0.06515032
105	0x3ded7fcb	0.1159664
106	0xbe172bcd	-0.14762802
107	0x3f2c6bec	0.67352176
108	0x3f033693	0.5125515
109	0xbec64a3d	-0.38728514
110	0xbe932227	-0.28736994
111	0x3fa2fed0	1.2734013
112	0xc028680f	-2.6313512
113	0x3f5af483	0.85529345
114	0xbf8df8d1	-1.1091558
115	0x3f6335ba	0.88753855
116	0xbefaab78	-0.48958945
117	0x3f8bf280	1.093338
118	0x3fbd882d	1.4807183
119	0xbecbc1e6	-0.3979637
120	0xbf6d120b	-0.92605656
121	0xbf8e5d95	-1.1122309
122	0xbe525b5c	-0.20542663
123	0xbf59185b	-0.8480279
124	0xbf95e1f3	-1.1709579
125	0xbf46ca82	-0.7765275
126	0x3f5124cc	0.8169677
127	0xc003363e	-2.0501857
128	0x3f1edd54	0.6205647
129	0xb969b1f9	-0.00022286912
130	0xbf03234b	-0.5122573
131	0x3f0937a0	0.536005
132	0xbf95d2e2	-1.1704981
133	0xbcb191d9	-0.02167599
134	0x3e92d182	0.28675467
135	0x40224df7	2.5360086
136	0xbf025782	-0.50914776
137	0xbfc1f6fc	-1.5153499
138	0x3e6c8cee	0.23100635
139	0x4010c0ed	2.2617753
140	0xbec91259	-0.3927181
141	0x400e1b16	2.2204032
142	0x3fb0ca97	1.3811826
143	0x3e90701a	0.28210527
144	0x3fdb74b6	1.7144992
145	0xbf5abd49	-0.85445076
146	0x3fd6265c	1.6730456
147	0x3f9679d2	1.1755927
148	0xbfb4b95c	-1.4119067
149	0xc01881ff	-2.3829343
150	0x3ff0cc80	1.8812408
151	0xbf5df4cd	-0.8670166
152	0xbf25d5dc	-0.6477945
153	0xbf783058	-0.96948767
154	0x3f59b53f	0.85042185
155	0x3f23ab62	0.63933384
156	0x403bb37e	2.9328303
157	0x3eb7b073	0.35876808
158	0xbf9e1be6	-1.2352264
159	0xbf065592	-0.5247432
160	0xbfaa2c10	-1.3294697
161	0x3f1b1ec7	0.6059384
162	0x3fc82921	1.5637552
163	0x3fd57f85	1.6679541
164	0xbffbe555	-1.9679362
165	0xbeeb5e03	-0.45970163
166	0xc0013c00	-2.019287
167	0x3e48e3ee	0.19618198
168	0x3f66c285	0.90140563
169	0xbec0b1a7	-0.37635538
170	0xbdcf9ee6	-0.10137729
171	0x3f9ffbe6	1.2498748
172	0xbec95e3c	-0.39329708
173	0x3e48c160	0.19605017
174	0x3ec35b1a	0.38155442
175	0xbfb021ef	-1.3760356
176	0xbe402138	-0.18762672
177	0x4007ef33	2.1239746
178	0x3ee164a6	0.440221
179	0xc0297226	-2.647592
180	0xbf32d75a	-0.6985985
181	0x3f46ba9f	0.7762851
182	0xbf8839b8	-1.0642614
183	0x4026b217	2.6046197
184	0xc012b755	-2.2924397
185	0x3fc8a38d	1.5674912
186	0xbf532995	-0.82485324
187	0xbe9fb8a6	-0.31195563
188	0x3e103960	0.14084387
189	0x3f6ee1b8	0.9331317
190	0x3f9df205	1.2339483
191	0x3f27387b	0.6532056
192	0x3f375016	0.71606576
193	0xbf132369	-0.57475907
194	0x3f20e318	0.6284652
195	0xbff129b8	-1.8840857
196	0xbe352221	-0.176888
197	0xc0156ae7	-2.3346498
198	0xbeb91926	-0.36152
199	0xbf7d2dbf	-0.9889793
200	0xbd0deac8	-0.034647733
201	0xbf69df21	-0.9135609
202	0xbfb33f0e	-1.4003618
203	0x3f5aebb8	0.8551593
204	0x3f5a5353	0.8528339
205	0x3df127e3	0.11775186
206	0x3faf83af	1.3712062
207	0x3f627288	0.8845601
208	0x3ed3cfd0	0.41369486
209	0x3fbc94cd	1.473291
210	0x3f137280	0.5759659
211	0xbebf6c4f	-0.3738732
212	0xbf8b0551	-1.0860997
213	0xbf8fb637	-1.1227483
214	0xbed81fa1	-0.4221163
215	0x3f862eba	1.048301
216	0x3f0e7568	0.556479
217	0xbf61404b	-0.8798873
218	0x3f8256ee	1.0182779
219	0x4010a1be	2.259872
220	0x3e1f2983	0.15543179
221	0xc01c4d7d	-2.4422295
222	0x3ebb8e64	0.36632073
223	0x3fa9134a	1.3209012
224	0x3fd8b231	1.692938
225	0xbf11a422	-0.5689107
226	0xbf52e02a	-0.823733
227	0xbdae7c89	-0.08519847
228	0x3edc39be	0.43012804
229	0x401b852b	2.430003
230	0xbdb77e8d	-0.089596845
231	0xbe959b8d	-0.29220238
232	0xbf0826b3	-0.5318405
233	0x3de2ccce	0.1107422
234	0x3f9d3ebe	1.2284772
235	0xbe97ccb6	-0.2964837
236	0x3e20e6ed	0.15713091
237	0x3eaf623b	0.3425463
238	0xbf1c878b	-0.6114432
239	0x3f859b74	1.0438066
240	0x3ed357f9	0.41278055
241	0x3e8bafcd	0.27282563
242	0xbf9828e3	-1.1887478
243	0xbf8c84a3	-1.0977978
244	0xbf6e4b0c	-0.9308326
245	0xbd45775d	-0.048209537
246	0x3e18df1f	0.14928864
247	0xbec7705b	-0.38952908
248	0x3e29c737	0.165799
249	0xbc40622c	-0.011742156
250	0x3f91ceaf	1.13912
251	0xbe2ce73a	-0.16885081
252	0x3edabeec	0.42723787
253	0xbf0e706e	-0.55640304
254	0xbf2deb7e	-0.6793746
255	0xbf452624	-0.7701132

interaction_emb_b.weight f4 [4, 100]
0	0x3f320780	0.69542694
1	0x3b7685ed	0.0037616447
2	0x3fd49795	1.6608759
3	0x3e990eb2	0.29894024
4	0xbd00d1ca	-0.03145007
5	0xbfed1412	-1.852175
6	0xbbf7ae85	-0.007558646
7	0x3ea3b924	0.3197719
8	0x3ef1d115	0.4722983
9	0xc018b8bb	-2.386275
10	0xbeb95d20	-0.3620386
11	0x3d86bdbf	0.0657916
12	0x3fe03a90	1.7517872
13	0xbf4d667d	-0.8023451
14	0xbfbc0f47	-1.4692162
15	0x3fbe56d3	1.4870247
16	0xbf6521fb	-0.89504975
17	0xbe3d7f8e	-0.1850569
18	0x3f0c1aab	0.5472819
19	0xbf96d56c	-1.1783881
20	0x3f7a82e0	0.9785595
21	0xbf88bc80	-1.0682526
22	0x3f8c19c1	1.094536
23	0x3e40c8e2	0.1882663
24	0xbeaac5f0	-0.3335414
25	0xbd9c8349	-0.07642228
26	0xbe9d7244	-0.3075124
27	0x3f6e083c	0.92981315
28	0xbfbb5756	-1.4636028
29	0xbe34e504	-0.17665488
30	0xbf2bb625	-0.67074805
31	0xbf3c8cce	-0.7365235
32	0xbf86ca12	-1.0530417
33	0x3f868590	1.050951
34	0x3dc70c1d	0.09719107
35	0x3f088528	0.5332818
36	0xbddd8054	-0.10815492
37	0x3f0eee70	0.55832577
38	0x3f62f2c3	0.88651675
39	0xbe8d8f8d	-0.27648583
40	0x3f02230a	0.50834715
41	0x3f8dd8c5	1.1081778
42	0x3f59e93c	0.8512151
43	0xbdbcb8db	-0.09214946
44	0x4000ee8c	2.0145597
45	0x3e824dd6	0.2545001
46	0x3d4e6752	0.050391503
47	0x3d8f2ae0	0.069906
48	0x3d60dab1	0.05489606
49	0x3ef2195f	0.47284982
50	0xbf75b388	-0.9597707
51	0x3fe04362	1.7520564
52	0x3df21ae8	0.11821538
53	0xbfae423c	-1.3613963
54	0x3fb445b8	1.4083776
55	0x400d447f	2.2073057
56	0x3f893a8e	1.0720994
57	0x3fd61eaf	1.6728114
58	0xbfb2ff79	-1.3984214
59	0x3f468c65	0.77557975
60	0x3f324861	0.6964169
61	0x3f14927c	0.5803602
62	0x4001f3b9	2.0305007
63	0x3fdf1764	1.7429013
64	0x3fc83e63	1.5644039
65	0x3dfb5b8f	0.12273323
66	0xbf4684cc	-0.7754638
67	0xbebc6646	-0.36796778
68	0x3f0ed5b0	0.5579481
69	0xbe8876c6	-0.26653117
70	0x3fa100a8	1.2578325
71	0xbf3ed511	-0.74543864
72	0x3d4e7635	0.0504057
73	0x3ca6bd1e	0.02035385
74	0x3ed60339	0.41799334
75	0xbe7d8828	-0.2475897
76	0x3ef39fca	0.47582847
77	0xbf90bb3a	-1.1307137
78	0xbf88af0d	-1.0678421
79	0x3eb7d7d7	0.3590686
80	0xbf4f4350	-0.80962086
81	0x3db2ac07	0.08724218
82	0xbfc2ba49	-1.52131
83	0x3d2c1992	0.042016573
84	0x3f62cf2e	0.8859738
85	0xbf8f9d4e	-1.121988
86	0x3f6007b0	0.8751173
87	0xbf38425d	-0.7197626
88	0x3f5c0145	0.8593944
89	0x3f8a36d1	1.0797979
90	0x3f76042e	0.9610013
91	0x3e242104	0.1602822
92	0xbfc5acf1	-1.5443403
93	0xbe8dfe2d	-0.27732983
94	0xbfa82727	-1.3136948
95	0xbe7ecfb8	-0.24883926
96	0xbec0489b	-0.37555394
97	0xbde473c1	-0.11154891
98	0x3f3656b7	0.71226066
99	0xbf009975	-0.50234157
100	0xbe9c9532	-0.30582577
101	0xc02ecaf8	-2.7311382
102	0x3f3b0e54	0.7306874
103	0x3e68f401	0.2274933
104	0x3f816ceb	1.0111364
105	0xbe5ee25c	-0.21766037
106	0x3f484d07	0.78242534
107	0x3f375497	0.7161345
108	0x3fa33539	1.2750617
109	0x3f9ec092	1.2402518
110	0xbf20716b	-0.6267306
111	0xbf22e5dc	-0.6363199
112	0x3cc62d90	0.024191648
113	0x3f9f7db3	1.2460235
114	0xbf43cd45	-0.7648509
115	0xbe500637	-0.20314871
116	0x3f5a1260	0.8518429
117	0xbf8a622d	-1.0811211
118	0xbb311555	-0.0027020772
119	0x3f05ea35	0.52310497
120	0x3e3e41ed	0.18579836
121	0xbe55d43d	-0.20881744
122	0xbed4b238	-0.4154222
123	0x3e1dd522	0.15413335
124	0x3ee1800d	0.44043007
125	0x3f95c0c7	1.1699456
126	0x3eb0ac2e	0.34506363
127	0x3ef484f6	0.4775769
128	0x3f298d39	0.66231114
129	0xbe93d7b3	-0.28875503
130	0x3db42810	0.08796704
131	0xbeddc8a0	-0.43317127
132	0xbef15387	-0.4713404
133	0x3fe172bd	1.761314
134	0xbecb9030	-0.39758444
135	0x3f390bd0	0.7228365
136	0x3ef27281	0.47352985
137	0x3fc9e642	1.5773394
138	0x3e0b925e	0.13630053
139	0xbfa78281	-1.3086702
140	0x3f65cc80	0.8976517
141	0x3caf83be	0.021425124
142	0xbf5d9953	-0.8656208
143	0xbf2b1897	-0.66834396
144	0x3e281955	0.16415913
145	0xbf010f06	-0.5041355
146	0xbfd3426e	-1.6504648
147	0x3f9769cd	1.1829163
148	0x3ede98d5	0.43475977
149	0xc02adcf4	-2.669736
150	0x3ee8ba90	0.45454836
151	0x3e6ef3ee	0.2333524
152	0x3f0c8e60	0.54904747
153	0x3f0b75e5	0.5447677
154	0x3ef964af	0.48709628
155	0xbf5732e4	-0.8406203
156	0x3ebd786f	0.37005946
157	0xbf4de9b2	-0.80434716
158	0x3f1b2ab1	0.60612017
159	0xbf41d54d	-0.75716096
160	0xbf3f2e4e	-0.7468003
161	0x3f7f0283	0.9961321
162	0xbf09d6e0	-0.538435
163	0xbf02c525	-0.5108207
164	0xbf9145f4	-1.1349473
165	0xbf4ce968	-0.8004365
166	0xbe924bdc	-0.285735
167	0x3f4e11d2	0.8049594
168	0xbfb82ba3	-1.4388317
169	0x3e19907e	0.14996526
170	0xbfd8fac5	-1.6951529
171	0x3ecd8e74	0.40147746
172	0xbfdaab1d	-1.708347
173	0xbe888237	-0.26661846
174	0xbec716f6	-0.38884705
175	0x3e2975b8	0.16548812
176	0x3fa6261c	1.298038
177	0x3de030ff	0.10946845
178	0x3ed65ab8	0.41866088
179	0xbed5af51	-0.41735318
180	0xbd2bd625	-0.04195227
181	0xbf73ad3d	-0.95186216
182	0x3fb51887	1.414811
183	0xbdf7df3f	-0.12103128
184	0x3ffe6f04	1.9877629
185	0xbf02ae8e	-0.510476
186	0x40062b6c	2.0964003
187	0xbe5e7a99	-0.21726455
188	0xbfaa2332	-1.3291991
189	0xbe13c807	-0.14431773
190	0x3cc2adcc	0.023764513
191	0xbf3b0597	-0.73055404
192	0x3e058bc9	0.13041605
193	0xbee19ae6	-0.4406349
194	0xc00a56eb	-2.161555
195	0x3e35f635	0.17769702
196	0x3f64bd13	0.89351004
197	0xbf79a256	-0.9751333
198	0x3f91cb00	1.1390076
199	0xbf7964fd	-0.9741972
200	0xbd35310c	-0.044236228
201	0x3e4f635d	0.20252748
202	0x3f5b9fd0	0.8579073
203	0x3f499e27	0.78756946
204	0x3f9754bd	1.1822735
205	0x3f057355	0.5212911
206	0xbf1aed25	-0.60518104
207	0xc01509ef	-2.3287313
208	0x3eebdbe2	0.46066195
209	0x3e242771	0.1603067
210	0x3f8b5659	1.0885726
211	0x3f0193d3	0.50616187
212	0x3e2f43a0	0.1711564
213	0x3fa0af9e	1.2553594
214	0x3fa13ccb	1.2596678
215	0xbf675a4a	-0.90372145
216	0xbefbc466	-0.49173278
217	0x3f815c6d	1.0106331
218	0xbfca9a77	-1.5828389
219	0xc0002858	-2.0024624
220	0xbffbcec2	-1.9672472
221	0xbe07161e	-0.13192031
222	0xbe0b6807	-0.13613902
223	0x3e03d792	0.12875202
224	0x3f3eb944	0.7450144
225	0x3e67f1ce	0.22650835
226	0x3f7da436	0.9907869
227	0x3f29ff2f	0.66405004
228	0x3fd20914	1.640902
229	0xbe9400da	-0.289069
230	0x3f53e808	0.82775927
231	0x3f71a740	0.9439583
232	0xbd139bab	-0.03603713
233	0x3dfce198	0.12347716
234	0xbef17857	-0.47162125
235	0xbed2b4e9	-0.41153648
236	0x40155ad0	2.3336678
237	0xbe073395	-0.1320327
238	0x3e1934b7	0.14961515
239	0xbf9877ed	-1.1911598
240	0xbeee71b8	-0.46571136
241	0xbfff78dc	-1.9958758
242	0xbd481044	-0.048843637
243	0x3c9cb67c	0.019129984
244	0x3d9a58c3	0.07536461
245	0xbf510fc8	-0.81664705
246	0x3ef4c1ae	0.47804016
247	0xbf830467	-1.0235718
248	0xc0261e6e	-2.5956073
249	0xbf248f03	-0.6428072
250	0x3f3564e0	0.7085705
251	0x3f5b9441	0.8577309
252	0x3fa75c5c	1.3075061
253	0x3c83a234	0.016068555
254	0xbf2d4e87	-0.6769795
255	0x3f919140	1.1372452

lstm_layer.weight_ih_l0 f4 [400, 100]
0	0xbc86812e	-0.01641902
1	0xbd4e82c7	-0.050417688
2	0xbd426de8	-0.047468096
3	0x3e26edbc	0.16301626
4	0x3e189ecd	0.14904328
5	0xbb708737	-0.0036701688
6	0x3dca06ac	0.09864554
7	0x3cac09df	0.0210008
8	0x3cb415b6	0.021983009
9	0xbd0e6522	-0.034764417
10	0xbdf22ecc	-0.11825332
11	0x3d82e3fb	0.0639114
12	0x3e3d010d	0.18457432
13	0xbd143180	-0.03618002
14	0x3d467377	0.04844996
15	0xbb91c4eb	-0.0044485233
16	0xbd15944b	-0.036518376
17	0xbd8b5cb9	-0.06804795
18	0x3da1b72c	0.078962654
19	0x3d85b765	0.0652912
20	0xbd0153ff	-0.031574246
21	0xbd71ef3c	-0.059066042
22	0x3c2bcf3b	0.010486419
23	0xbcd10716	-0.025516074
24	0x3dacf581	0.08445264
25	0xbdabe601	-0.08393479
26	0xbdd6154f	-0.10453283
27	0xbd3612bd	-0.044451464
28	0xbdc078b1	-0.0939802
29	0xbdb3876d	-0.08766065
30	0x3cc0ab0d	0.023519063
31	0x38ea62da	0.00011176402
32	0xbdc4c385	-0.09607605
33	0x3dba0045	0.09082083
34	0x3c24a67a	0.010049457
35	0x3cc373d0	0.023858935
36	0xbc9b57a0	-0.018962681
37	0xbe043be1	-0.12913467
38	0x3d807d9e	0.062739596
39	0xbdedbc5a	-0.11608191
40	0x3dcfeb61	0.10152317
41	0x3d9d5e63	0.076840185
42	0x3e1d705c	0.15374893
43	0xbd18bdd5	-0.037290413
44	0x3db92bcc	0.09041557
45	0x3d17f0e1	0.037094954
46	0x3d752949	0.059853826
47	0xbc82ef30	-0.015983194
48	0x3c91a261	0.017777624
49	0xbd002ad6	-0.03129085
50	0x3b46acdc	0.0030315435
51	0x3e0369fc	0.12833399
52	0xbc184046	-0.009292668
53	0xbd832616	-0.06403749
54	0x3cd6e761	0.026233377
55	0x3d26661f	0.040624734
56	0x3e1700e6	0.14746436
57	0x3e225eaf	0.15856431
58	0xbe17130b	-0.14753358
59	0xbd5e5788	-0.054282695
60	0xbe0d1db9	-0.1378087
61	0xbdb2d41c	-0.08731863
62	0xbd530666	-0.051519774
63	0x3ddbbee9	0.107297726
64	0x3db17829	0.08665497
65	0x3c86b32b	0.016442856
66	0x3de2ad34	0.11068192
67	0xbdc5d6f4	-0.0966014
68	0xbdb0bd36	-0.08629839
69	0xbd55473c	-0.052069888
70	0x3ddb651f	0.10712647
71	0xbe2c9ffa	-0.16857901
72	0x3d99c8f5	0.07509033
73	0x3d551919	0.052025888
74	0x3dbe5fe2	0.09295632
75	0xbdd5a741	-0.10432292
76	0xbe1b21f2	-0.15149668
77	0xbe012bba	-0.12614337
78	0x3c975431	0.018472763
79	0xbd298934	-0.041390613
80	0x3db732b8	0.08945221
81	0x3dc60601	0.09669114
82	0xbc882bbe	-0.01662242
83	0x3df15ae0	0.11784911
84	0x3d72e1d4	0.059297398
85	0xbdea8930	-0.11451948
86	0xbc2a84e8	-0.010407664
87	0x3dcbe006	0.099548385
88	0x3c96396e	0.018337931
89	0xbd818f1c	-0.06326124
90	0xbb4e9cac	-0.003152649
91	0x3c3a0085	0.011352663
92	0xbc105f97	-0.008811853
93	0x3cccb6aa	0.024989445
94	0xbdb34a78	-0.08754438
95	0x3c3cad5d	0.011515942
96	0x3db831d7	0.08993881
97	0xbdd0913f	-0.101839535
98	0x3d980cf0	0.07424343
99	0xbdd19fb6	-0.102355406
100	0x3cb7c6cc	0.02243366
101	0x3d6ea6cd	0.058264542
102	0x3dae0e17	0.08498781
103	0xbd7b85d4	-0.061406925
104	0x3d51df27	0.051238205
105	0xbdf4139f	-0.11917805
106	0x3cd49e5d	0.02595442
107	0x3bdc9b5d	0.006732388
108	0x3d857ee9	0.06518347
109	0xbdead9fd	-0.11467359
110	0x3d38fcf9	0.04516313
111	0x3cedde09	0.029036539
112	0x3dddcfff	0.10830688
113	0x3e01e1e9	0.12683834
114	0xbe55ebe2	-0.20890763
115	0x3d868a42	0.06569339
116	0xbd9e7e8c	-0.07738981
117	0x3e0cb043	0.13739114
118	0x3d51825a	0.051149704
119	0xbe2777ad	-0.16354246
120	0x3d99c83c	0.07508895
121	0xbd48364e	-0.048879914
122	0x3e036897	0.12832867
123	0x3dad6fa0	0.084685564
124	0x3d4b3ba6	0.049617432
125	0x3c1ff515	0.009763022
126	0x3d166ac3	0.03672291
127	0x3defcb0f	0.11708652
128	0x3cf96676	0.030444365
129	0xbda7c440	-0.081917286
130	0x3e017bc7	0.12644874
131	0xbcc35c28	-0.023847654
132	0x3cd078ab	0.025448164
133	0x3d50ed8a	0.051007785
134	0x3db0fb41	0.08641673
135	0x3e0d227e	0.13782689
136	0xbdcd0818	-0.100113094
137	0xbe4ca046	-0.19983014
138	0x3daa6888	0.08320719
139	0x3df65d8b	0.12029561
140	0x3d124323	0.035708558
141	0x3e4c38fc	0.19943613
142	0x3e302068	0.17199862
143	0xbcd33692	-0.025782857
144	0x3e23467d	0.15944858
145	0x399a08d6	0.00029379752
146	0x3d47ec16	0.048809133
147	0x3e0edd06	0.13951501
148	0xbde9fea5	-0.11425523
149	0x3de87899	0.11351127
150	0x3ce9faa0	0.02856189
151	0xbe03e700	-0.12881088
152	0xbbd0b896	-0.0063696606
153	0xbe15a0d4	-0.14612132
154	0x3df32d48	0.11873871
155	0xbd5ae8e0	-0.053444743
156	0x3c7f32e0	0.015576094
157	0x3d7c8907	0.061654117
158	0xbd7cf6e5	-0.061758894
159	0x3e0e4629	0.13893951
160	0xbb3be546	-0.0028670593
161	0x3ddcf262	0.10788418
162	0x3c2db683	0.010602596
163	0x3e8c1c2a	0.27365237
164	0x3c923f65	0.017852494
165	0x3d4ea6f0	0.050452173
166	0xbdfafb50	-0.12254965
167	0xbb0db56b	-0.0021623026
168	0x3e3e5909	0.18588652
169	0xbe0fa5cc	-0.1402809
170	0xbc5d1bf6	-0.013495436
171	0x3d949a3f	0.072559826
172	0x3caa800d	0.020813012
173	0x3e0562f3	0.13026027
174	0x3d2d2983	0.042275917
175	0xbdca1e49	-0.09869058
176	0xbd6dcecc	-0.058058545
177	0x3d264696	0.04059466
178	0xbda3d1b1	-0.0799898
179	0xbd47ea2b	-0.048807304
180	0x3d04a53a	0.032384135
181	0x3d2b73ff	0.04185867
182	0xbd89a973	-0.06721773
183	0x3e571a5b	0.21006148
184	0x3d380c80	0.044933796
185	0xbd007ee3	-0.03137101
186	0x3d9b3edb	0.07580348
187	0xbde41b2b	-0.111379944
188	0x3d41ccc8	0.047314435
189	0x3d0c85a1	0.034307126
190	0x3d6693e3	0.05629338
191	0x3da81f4f	0.08209097
192	0xbcb2bbee	-0.021818127
193	0xbd97f783	-0.07420256
194	0xbd8838f4	-0.06651488
195	0xbe02e094	-0.12780982
196	0x3d1e9cf7	0.038723912
197	0x3dbba00d	0.09161387
198	0xbd3d2393	-0.046176504
199	0x3d96d642	0.07365085
200	0x3cec8087	0.02886988
201	0xbd93682d	-0.07197604
202	0x3e02de98	0.12780225
203	0x3c7ecaf4	0.0155513175
204	0xbd921ead	-0.07134757
205	0x3d5e3fdc	0.05426012
206	0xbcfbfa98	-0.03075914
207	0xbcd4fd6a	-0.025999743
208	0xbdf1f7f1	-0.11814869
209	0xbb261f0a	-0.002534809
210	0xbc842b0e	-0.016133811
211	0x3dabbdcb	0.083858095
212	0xbdbb50c9	-0.09146268
213	0xbc997c7c	-0.018736117
214	0xbe1b2417	-0.15150486
215	0xbcaaea3e	-0.020863649
216	0xbd6528bb	-0.055947047
217	0x3d95992e	0.07304607
218	0xbc62d530	-0.013844773
219	0x3dc8251d	0.09772704
220	0xbde857af	-0.11344849
221	0x3c5f832c	0.013642114
222	0x3c9f3ce0	0.019438207
223	0x3e07d43b	0.13264553
224	0x3dcd1651	0.10014022
225	0xbd6281ef	-0.055299696
226	0x3dd76935	0.105181135
227	0x3e01f3d7	0.12690674
228	0xbe0de36b	-0.13856284
229	0xbd443939	-0.047906134
230	0xbd604bfb	-0.05475996
231	0xbb317fe4	-0.0027084285
232	0xbd9cbdff	-0.076534264
233	0xbe025cd4	-0.12730724
234	0x3dee17ea	0.11625655
235	0xbd4ed06d	-0.05049174
236	0x3d254ac3	0.0403545
237	0x3cbba1a7	0.02290423
238	0x3d7c9fad	0.061675716
239	0xbda5f6b2	-0.08103694
240	0xbe39a861	-0.18130638
241	0x3d693b75	0.05694147
242	0xbd84c64c	-0.064831346
243	0x3dd49c8e	0.10381423
244	0x3d4921dd	0.04910456
245	0xbd0d7051	-0.03453094
246	0xbe1d4325	-0.15357645
247	0x3d9c9033	0.07644691
248	0xbc4531a7	-0.012035764
249	0x3e1ec176	0.15503487
250	0xbdb920b4	-0.09039441
251	0x3d832a7f	0.0640459
252	0x3d950c34	0.07277718
253	0xbe2ea892	-0.17056492
254	0x3da0b8f7	0.07847779
255	0x3d918598	0.07105559

lstm_layer.weight_hh_l0 f4 [400, 100]
0	0x3d80570f	0.06266605
1	0xbd92f6a9	-0.07175953
2	0xbe325283	-0.17414288
3	0xbddb676f	-0.10713088
4	0xbdcba8c1	-0.09944297
5	0x3e5a041b	0.21290629
6	0x3e02243b	0.12709133
7	0x3dcf8d80	0.10134411
8	0x3dbb9ba4	0.091605455
9	0x3e13b567	0.14424668
10	0xbe0aff1d	-0.1357388
11	0xbd92239d	-0.07135699
12	0xbd8c4f14	-0.068510205
13	0x3df426fa	0.11921497
14	0x3cc98ddc	0.024603777
15	0xbd173342	-0.036914118
16	0x3da4787a	0.080307916
17	0xbbf6e1ac	-0.0075342264
18	0xbd15bbf4	-0.0365562
19	0xbd8ab5e2	-0.06772973
20	0x3e337bac	0.17527646
21	0x3e3f1ec2	0.18664077
22	0x3dd48be4	0.103782445
23	0xbd220313	-0.039553713
24	0x3c0d4dff	0.008624553
25	0xbd4484b6	-0.047978126
26	0x3bfb215f	0.0076638903
27	0xbe1169dd	-0.1420054
28	0xbd46995e	-0.048486106
29	0xbd83ea2e	-0.064411506
30	0xbc9b84d4	-0.018984236
31	0x3dca4f3e	0.098783955
32	0x3d96c55b	0.07361861
33	0x3d9da2b2	0.07697047
34	0x3d7f39aa	0.062310852
35	0xbd9e28cd	-0.07722626
36	0xbdbad4ae	-0.09122597
37	0x3e156991	0.14591052
38	0x3de17920	0.11009431
39	0x3ca8ab46	0.020589482
40	0xbe1387a2	-0.14407209
41	0x3dc71ccd	0.0972229
42	0xbc843de3	-0.016142791
43	0xbda5d495	-0.080971874
44	0xbd953878	-0.07286161
45	0x3e18b38f	0.14912246
46	0x3de9864f	0.114025705
47	0x3db947d5	0.09046904
48	0x3dc5d667	0.096600346
49	0x3a3ffcf5	0.00073237653
50	0x3dbd1e38	0.092342794
51	0xbdb1390d	-0.0865346
52	0xbe11417a	-0.14185134
53	0xbd7ac672	-0.06122441
54	0xbbaec668	-0.0053337105
55	0xbcb25953	-0.021771109
56	0xbc690a56	-0.014223656
57	0x3d7e613d	0.062104452
58	0xbe38af29	-0.18035568
59	0xbdf0e0c5	-0.117616214
60	0xbda53a6a	-0.08067782
61	0x3da5ffd7	0.08105438
62	0xbca62035	-0.02027903
63	0x3dbea431	0.09308661
64	0xbe0f6f86	-0.14007387
65	0x3d99125f	0.07474207
66	0x3dfba806	0.12287907
67	0x3da6ba04	0.081409484
68	0x3d269a8c	0.04067473
69	0xbd19fe86	-0.037596248
70	0xbdf5c38e	-0.1200019
71	0xbc6b8498	-0.0143748745
72	0x3cad18c8	0.02112998
73	0x3e354de7	0.17705499
74	0x3dbeace6	0.093103215
75	0x3d37ab9c	0.044841394
76	0x3e1f48e3	0.15555148
77	0x3c9db424	0.019250937
78	0xbde8e108	-0.11371046
79	0x3d24ac2c	0.04020326
80	0x3df84da9	0.121241875
81	0x3c6f7a2b	0.014616529
82	0x3d8af268	0.067845166
83	0x3d4f4562	0.050603278
84	0x3df10aa4	0.11769608
85	0xbda76b24	-0.08174732
86	0x3d395659	0.045248363
87	0xbdba95a8	-0.09110576
88	0x3d2fd71f	0.042929765
89	0xbdc4a98c	-0.09602651
90	0xbd66c023	-0.05633558
91	0x3e6e872f	0.23293756
92	0x3dd6a25e	0.10480188
93	0xbd5f4a79	-0.054514382
94	0xbdde4ad7	-0.10854118
95	0xbc9cbe0f	-0.019133596
96	0x3d87f4b2	0.06638469
97	0x3d30f924	0.04320635
98	0x3dcba6f9	0.09943957
99	0x3d329607	0.04360011
100	0x3d7c6add	0.06162535
101	0x3c949cc7	0.018141164
102	0x3d8e3f77	0.06945699
103	0x3bb567bd	0.005536048
104	0x3dd16c61	0.1022575
105	0xbd8726e7	-0.06599217
106	0xbe3096ca	-0.17245021
107	0xbda105c2	-0.07862426
108	0x3db6fe9d	0.089352824
109	0xbb791eb3	-0.0038012683
110	0x3e4fead2	0.2030442
111	0x3d3f2bd7	0.04667267
112	0x3d40e7b9	0.047095988
113	0x3c80b02d	0.015709007
114	0x3b6a303f	0.0035734323
115	0xbe0fe710	-0.14052987
116	0x3d2ad85c	0.041710243
117	0x3d0d398f	0.03447872
118	0xbd568960	-0.052377105
119	0xbe17083b	-0.14749233
120	0x3e1faa51	0.15592314
121	0x3d8faecc	0.07015762
122	0xbd53ec0a	-0.051738776
123	0xbc49fda5	-0.01232854
124	0xbe213002	-0.1574097
125	0xbd8c8730	-0.068617225
126	0xbdfa155a	-0.12211104
127	0x3e00e5b8	0.12587631
128	0x3dbfbb71	0.093619235
129	0xbd5b7551	-0.05357868
130	0x3e6b9ee4	0.2300983
131	0x3d1c7a02	0.038202293
132	0xbe2e9556	-0.17049155
133	0x3e0416ab	0.12899272
134	0x3cd8c268	0.026459888
135	0x3cc382c6	0.023866069
136	0x3d16ddc3	0.036832582
137	0x3dfcd0c8	0.12344509
138	0x3c251e3b	0.010078008
139	0xbe46cb88	-0.19413579
140	0x3ba9c86e	0.005181364
141	0xbd4a6a95	-0.04941805
142	0x3cf3d1b8	0.029763088
143	0xbd99bf0c	-0.075071424
144	0xbcc9e1ed	-0.024643863
145	0xbb886a87	-0.0041630897
146	0xbcc04441	-0.023470046
147	0x3da119ec	0.07866272
148	0x3ea73252	0.3265558
149	0x3e8b80d6	0.27246732
150	0x3dc5769a	0.09641762
151	0x3dbf0ab7	0.093282156
152	0xbdeea69b	-0.11652871
153	0xbda3ba5d	-0.0799453
154	0xbe3876e4	-0.18014103
155	0x3e86f843	0.26361284
156	0x3c1b2190	0.009468451
157	0xbd80a0a9	-0.062806435
158	0x3dc5b514	0.096536785
159	0xbd0df035	-0.034652907
160	0xbd05a0a7	-0.032623913
161	0x3cae0196	0.02124099
162	0xbc7223cb	-0.0147790415
163	0x3d07e6ae	0.033178978
164	0xbd471dac	-0.04861228
165	0xbe19c8d7	-0.1501802
166	0x3e0ce735	0.13760073
167	0x3db99d0f	0.0906316
168	0xbc58fe74	-0.01324426
169	0x3cd91b61	0.026502313
170	0xbd911dfb	-0.070857964
171	0xbd6063b4	-0.054782584
172	0xbd2f2a31	-0.042764846
173	0xbd19874b	-0.03748254
174	0xbd5800fe	-0.05273532
175	0xbdd846d3	-0.10560384
176	0x3e0dfe58	0.13866556
177	0xbea13522	-0.3148585
178	0x3d290007	0.04125979
179	0xbdce28a0	-0.10066342
180	0xbd83df45	-0.0643907
181	0xbe0ab816	-0.13546786
182	0xbdd2052f	-0.10254895
183	0xbe4b656e	-0.19862911
184	0x3c403028	0.011730231
185	0xbded36b0	-0.115826964
186	0xbd1dd825	-0.03853621
187	0x3e226e71	0.15862443
188	0xbd5c6bc3	-0.053813707
189	0x3c8b6e63	0.01702041
190	0x3b111dbb	0.0022142965
191	0x3d151746	0.03639915
192	0xbe89328e	-0.26796383
193	0x3bfce109	0.007717256
194	0x3d662784	0.05619003
195	0x3d9b46c6	0.07581858
196	0xbdce3a0e	-0.10069667
197	0xbe227248	-0.15863907
198	0x3d9ac3b8	0.07556862
199	0x3a793740	0.0009506829
200	0x3cb29556	0.021799725
201	0x3c9ebbee	0.019376721
202	0xbd2ba5fb	-0.04190634
203	0xbdc91fdc	-0.0982053
204	0x3c7c9dbc	0.015418466
205	0xbe22312d	-0.15839072
206	0xbe4fcd81	-0.20293237
207	0x3de0fb44	0.10985425
208	0xbd837da5	-0.06420449
209	0xbdfe33b1	-0.12412203
210	0xbdb2f1b1	-0.08737505
211	0xbd6bbc35	-0.057552535
212	0xbd831d7c	-0.06402108
213	0xbe1e047a	-0.15431395
214	0x39e1334c	0.00042953563
215	0x3cddf0ef	0.027092425
216	0x3e0a0d30	0.13481593
217	0x3e065fbd	0.13122459
218	0xbc66c8b0	-0.014085934
219	0xbdf9cfaf	-0.121978156
220	0x3d271c5a	0.040798523
221	0x3bfd7242	0.007734568
222	0x3d78bc85	0.06072666
223	0xbe509cea	-0.20372358
224	0x3dd143b7	0.10217994
225	0x3e27aa23	0.16373496
226	0xbd52930f	-0.051409777
227	0xbcb1e09f	-0.021713553
228	0xbd812f55	-0.06307856
229	0xbcff3be0	-0.03115648
230	0x3e302dc9	0.17204966
231	0x3d74c731	0.059760276
232	0x3d8aefdc	0.06784031
233	0x3e484012	0.19555691
234	0xbdb9922f	-0.090610854
235	0x3d1342a3	0.03595222
236	0x3e51bde4	0.20482594
237	0xbd46ef54	-0.048568085
238	0x3d13466e	0.03595584
239	0xbd19e134	-0.037568286
240	0x3ccd8807	0.025089277
241	0x3e66645f	0.22499226
242	0x3cfde20b	0.030991575
243	0xbcd1c618	-0.025607154
244	0xbe15a802	-0.14614871
245	0x3e1ecbc8	0.15507424
246	0x3de926ab	0.113843285
247	0x3be8a607	0.00709987
248	0x3e1434ef	0.14473318
249	0xbe0a0a28	-0.13480437
250	0x3df4d0b8	0.119538724
251	0xbd97a9af	-0.074054115
252	0xbd24508c	-0.040115878
253	0xbe3ce628	-0.18447173
254	0xbdaa4038	-0.0831303
255	0xbdac4619	-0.084118076

lstm_layer.bias_ih_l0 f4 [400]
0	0xbd868e8c	-0.065701574
1	0xbd0db738	-0.03459856
2	0xbd7ccdbf	-0.061719652
3	0x3c280f7d	0.010257599
4	0xbd8f6908	-0.07002455
5	0x3dd0d7a2	0.10197379
6	0x3e2d726f	0.16938184
7	0xbb92e20f	-0.0044825147
8	0xbd2cdc26	-0.042202137
9	0x3d815d3b	0.063166104
10	0x3d36a1d8	0.04458794
11	0xbd91e24c	-0.07123241
12	0x3d776f43	0.06040884
13	0x3d0c3110	0.034226477
14	0x3dcfcde4	0.101466924
15	0x3dd1cac9	0.10243756
16	0x3a782086	0.00094652956
17	0xbacd3788	-0.0015656808
18	0x3d31be45	0.043394346
19	0xbc61be92	-0.013778346
20	0x3d8eac1f	0.06966423
21	0x3d46be59	0.048521373
22	0x3ddd5d22	0.10808779
23	0x3da3502e	0.079742774
24	0x3ce79651	0.028269919
25	0x3dfb1b34	0.12261048
26	0x3ddccc24	0.10781124
27	0x3d4487ce	0.047981076
28	0x3db77e38	0.08959621
29	0x3de383db	0.11109134
30	0xbca010a9	-0.019539194
31	0xbb8352f1	-0.00400769
32	0x3d9f0406	0.07764439
33	0x3ce46931	0.02788219
34	0x3d3931f9	0.045213673
35	0x3c7334ff	0.014844178
36	0x3dfcf9e3	0.123523496
37	0x3defe0de	0.11712812
38	0xbc8ee4ad	-0.017443025
39	0x3d43726f	0.047716554
40	0x3d3b61f3	0.04574771
41	0x3d9e1e10	0.07720578
42	0xbc57960c	-0.013158333
43	0x3d12d447	0.035846975
44	0x3e032715	0.12807877
45	0xbd0df85f	-0.034660693
46	0x3dac263d	0.08405731
47	0xbcc7be8b	-0.02438285
48	0xbcca9af5	-0.024732092
49	0xba882db7	-0.0010389601
50	0xbaf64890	-0.0018789936
51	0xbc270ee9	-0.010196426
52	0x3d8dba08	0.06920248
53	0x3d30b032	0.043136783
54	0x3d8263c7	0.06366687
55	0x3d39893e	0.0452969
56	0x3dbbf384	0.09177306
57	0x3d97d1d0	0.074130654
58	0x3cfe3115	0.031029264
59	0xbc6d34c6	-0.014477914
60	0x3dc75bab	0.09734281
61	0x3c1722d9	0.009224617
62	0x3d902835	0.07038919
63	0xbc51bb60	-0.012801021
64	0xbc39e261	-0.011345477
65	0xbbcc33fa	-0.006231782
66	0x3be436e3	0.006964551
67	0x3e1e2c37	0.15446554
68	0x3dbec4ec	0.093149036
69	0x3e0071bf	0.1254339
70	0x3dd6b29f	0.10483288
71	0xbdc2867a	-0.094983056
72	0x3d1df5f6	0.038564645
73	0x3e15d553	0.14632158
74	0xbd2a2c7c	-0.04154633
75	0x3d46b5fd	0.0485134
76	0xbd5a8901	-0.053353313
77	0xbdeea326	-0.11652212
78	0x3de81ed4	0.11334005
79	0xbd175ac3	-0.03695179
80	0xba2f20aa	-0.00066805875
81	0xbd2f855e	-0.0428518
82	0xbb99f24a	-0.0046980726
83	0x3de32c4c	0.11092433
84	0x3c892b09	0.016744154
85	0x3c6afc13	0.014342326
86	0x3c072d58	0.008250557
87	0x3d54fd4d	0.05199938
88	0x3a38822f	0.0007038442
89	0xbd902c59	-0.07039709
90	0xbc8a5f28	-0.016891077
91	0x3e03a287	0.12854968
92	0xbd48b919	-0.049004648
93	0xbc1e5e20	-0.009665996
94	0xbd61d435	-0.055134017
95	0x3d53f560	0.05174768
96	0x3d18cfce	0.037307553
97	0x3dc72851	0.097244866
98	0x3e0a7452	0.13520935
99	0x3dd180d2	0.10229649
100	0xbd924b2f	-0.071432464
101	0xbdc7a6ae	-0.097485885
102	0xbd97d5f0	-0.07413852
103	0xbdb9d2ee	-0.09073435
104	0xbd886118	-0.06659144
105	0x3b9bd60a	0.00475574
106	0xbd4c0b2a	-0.049815334
107	0xbd0e4887	-0.034737136
108	0x3d7eae9c	0.06217824
109	0x3cdace9e	0.02670985
110	0x393a485d	0.000177653
111	0xbde65ad5	-0.112477936
112	0x3d40ec0f	0.047100123
113	0x3dd1fc22	0.10253169
114	0xbd47c6aa	-0.048773445
115	0x3c4190f7	0.0118143475
116	0xbbf9855d	-0.007614775
117	0x3d8f3e16	0.06994264
118	0x3d9f34fe	0.07773779
119	0xbd17f380	-0.037097454
120	0x3c84bd32	0.016203497
121	0x3d7c9c1c	0.061672315
122	0x3da11f69	0.07867319
123	0xbd8769ad	-0.06611953
124	0x3d4feaff	0.05076122
125	0xbc30e21b	-0.010796095
126	0xbd83eb4a	-0.06441362
127	0xbdad107b	-0.08450409
128	0xbd5d7fe3	-0.05407704
129	0x3dbc1ea2	0.0918553
130	0x3ca8e7eb	0.0206184
131	0x3dfb8454	0.12281099
132	0x3c01776f	0.00790201
133	0x3cf88524	0.030336924
134	0xbd913223	-0.07089641
135	0xbcd1f1c5	-0.02562798
136	0xbd867f2c	-0.06567225
137	0xbd7f45e2	-0.062322505
138	0x3ca24d7e	0.019812342
139	0x3d8ef07f	0.06979465
140	0xbd797ef1	-0.060912076
141	0x3d9ceb39	0.07662053
142	0x3dddf6cd	0.10838089
143	0x3d263c59	0.040584896
144	0xbdcc7146	-0.09982543
145	0xbe08198e	-0.13290998
146	0x3d9e665a	0.07734366
147	0xbd8ebb66	-0.06969337
148	0x3c51225c	0.01276454
149	0xbd882511	-0.06647695
150	0xbd1565fe	-0.03647422
151	0x3db82021	0.08990503
152	0xbdc93b13	-0.09825721
153	0x3d26deea	0.04073993
154	0x3da7dc78	0.08196348
155	0x3d37ffad	0.044921566
156	0x3ca75f69	0.020431237
157	0xbd20a61a	-0.039220907
158	0xbc1c3ab4	-0.00953548
159	0xbdaf13fc	-0.085487336
160	0x3ce275ab	0.027644
161	0xbdc8eefb	-0.09811207
162	0xbd73ee10	-0.059553206
163	0xbda57c6f	-0.080803744
164	0xbd4598b0	-0.048241317
165	0x3dc6a446	0.096993014
166	0xbca28cf2	-0.019842599
167	0x3d4ce386	0.05002167
168	0x3cce1e18	0.025160834
169	0x3db91896	0.090378925
170	0x3d93e547	0.072214656
171	0x3c6c9d43	0.014441791
172	0x3bcc354e	0.0062319404
173	0xbc84a4ba	-0.016191829
174	0x3c72c8a6	0.014818346
175	0x3ced938f	0.029001025
176	0x3de48c9e	0.11159633
177	0x3de47011	0.111541875
178	0x3dca88a3	0.09889343
179	0xbd179321	-0.037005547
180	0xbd6032ee	-0.05473607
181	0xbd38eae2	-0.045145877
182	0x3dcec382	0.10095884
183	0xbdc15a59	-0.094410606
184	0xbb810087	-0.0039368304
185	0x3da46a02	0.08028032
186	0xbdd78c82	-0.105248466
187	0x3dacbc6e	0.084343776
188	0xbc229238	-0.009922557
189	0x3c24d8a0	0.010061413
190	0x3d8d500d	0.06900034
191	0xbd8c9f9f	-0.06866383
192	0xb9e63586	-0.00043908897
193	0x3d9692da	0.073522285
194	0xbd8de19c	-0.06927797
195	0x3d3e7f68	0.046508223
196	0x3dd2b656	0.10288684
197	0xbcf1dda2	-0.029524628
198	0xbcea8584	-0.028628118
199	0xbd982330	-0.074285865
200	0xbdce82a2	-0.1008351
201	0x3cdd693a	0.027027715
202	0x3be9d68f	0.007136173
203	0xbd8ab0bb	-0.0677199
204	0xbd5baf10	-0.05363375
205	0xbdcbbf33	-0.09948578
206	0x3d25686c	0.040382788
207	0xbda95df9	-0.08269877
208	0xbdb3aaf6	-0.087728426
209	0x3d29bee5	0.041441817
210	0xbd969354	-0.07352319
211	0x3d9e4e38	0.07729763
212	0x3c9d5b38	0.019208536
213	0x3d84cfcb	0.06484946
214	0xbdf564c1	-0.11982108
215	0xbdd471d9	-0.10373277
216	0xbcc29cfd	-0.023756498
217	0x3da40646	0.08009009
218	0xbd8c2be9	-0.06844313
219	0x3d9a55de	0.07535909
220	0x3dc65f03	0.09686091
221	0xbdb3942a	-0.087684944
222	0x3bfdc82f	0.007744811
223	0x3d9e359a	0.077250674
224	0xbda59ed0	-0.08086932
225	0x3dc19a80	0.09453297
226	0x3da350e2	0.079744115
227	0x3c7db671	0.015485392
228	0xbd8f6ee7	-0.07003575
229	0x3c9f38fe	0.019436356
230	0x3cbe485d	0.023227865
231	0x3d290a41	0.041269545
232	0x3d8e3dc5	0.06945375
233	0x3db2cc90	0.087304235
234	0x3d80c32d	0.06287227
235	0x3c414870	0.011797056
236	0xbd56da5b	-0.052454334
237	0xbd95b943	-0.073107265
238	0xbd0bc7d5	-0.03412612
239	0xbcfa4006	-0.030548107
240	0x3cc48171	0.023987504
241	0x3ddd9bd7	0.1082074
242	0x3c886b49	0.01665272
243	0x3da4fa1f	0.08055519
244	0x3d163597	0.0366722
245	0x3b5f5f48	0.0034083892
246	0x3d73097e	0.059335224
247	0xbc2d102e	-0.01056294
248	0xbdaf7c34	-0.08568612
249	0x3d4ef802	0.050529487
250	0x3d2b65d9	0.041845176
251	0x3dd56765	0.104201116
252	0x3bbf474e	0.0058373576
253	0x3d4c2b63	0.049846064
254	0x3d6b5315	0.05745228
255	0x3df1a538	0.11799091

lstm_layer.bias_hh_l0 f4 [400]
0	0xbd6a1f23	-0.0571586
1	0xbcbbb00e	-0.022911098
2	0xbd776a8c	-0.060404345
3	0xbbb69448	-0.0055718757
4	0xbd84c341	-0.06482554
5	0xbca26996	-0.019825738
6	0x3d4f8d21	0.0506717
7	0xbc77a29c	-0.015114453
8	0x3cfc1b4c	0.030774735
9	0x3dcdaf15	0.1004316
10	0x3db4f5ac	0.08835921
11	0x3d21dbb0	0.03951615
12	0x3d2f30e5	0.04277124
13	0x3d7eca8a	0.062204875
14	0x3d744f37	0.059645858
15	0x3e00c7eb	0.12576263
16	0x3e0ca86d	0.13736124
17	0x3d5e5a15	0.054285128
18	0xbc3f8e5a	-0.011691654
19	0xbc85b4ea	-0.016321618
20	0x3d309de5	0.04311933
21	0x3d885158	0.0665614
22	0xbd08bf4f	-0.03338557
23	0x3db1b6f0	0.08677471
24	0x3ca60bef	0.020269362
25	0x3c585410	0.013203636
26	0xbd2e289a	-0.04251919
27	0xbc9597c6	-0.018260848
28	0x3cef1990	0.029186994
29	0x3e0ef4ea	0.13960615
30	0x3d9991d6	0.07498519
31	0x3de24a58	0.11049336
32	0x3df704b4	0.12061444
33	0x3d00841b	0.031375986
34	0x3ccd937c	0.02509474
35	0xbc9fc71a	-0.019504119
36	0x3e04c718	0.12966573
37	0xbc23f56f	-0.010007246
38	0x3db27ed4	0.08715597
39	0x3ddd5d5d	0.10808823
40	0xbdb611f9	-0.08890147
41	0xbd253b73	-0.0403399
42	0x3d858739	0.06519932
43	0x3e09a297	0.1344093
44	0x3dff5baa	0.124686554
45	0xbd0397bf	-0.03212714
46	0xbd19402c	-0.037414715
47	0x3d5721e9	0.052522574
48	0x3ddf9ed9	0.1091897
49	0x3da391ea	0.07986815
50	0x3df4d108	0.11953932
51	0x3dae5227	0.08511763
52	0x3b9d7d57	0.0048062014
53	0x3dda944a	0.10672815
54	0xbd19d341	-0.037554983
55	0xbd1da194	-0.03848417
56	0x3e2a1087	0.16607867
57	0xbc9edfa6	-0.019393753
58	0x3d887090	0.066620946
59	0x3d4d123e	0.050066225
60	0xbc2e4934	-0.01063757
61	0x3d56e0a3	0.052460324
62	0x3b36ee06	0.002791287
63	0x3d9d0e5c	0.076687545
64	0xbd09f34a	-0.033679284
65	0x3c6da98e	0.014505757
66	0xba8d095d	-0.0010760237
67	0x3dd98180	0.10620403
68	0x3de34af8	0.110982835
69	0x3d27973a	0.040915705
70	0x3e03a77b	0.12856857
71	0x3db1220c	0.08649072
72	0xbc6824ba	-0.014168913
73	0x3d897918	0.0671255
74	0xbe1ed6a7	-0.15511571
75	0xbda740c3	-0.08166649
76	0x3dbe23de	0.09284185
77	0xbe18ba1a	-0.14914742
78	0x3d8183a8	0.063239396
79	0xbaabbc48	-0.0013102377
80	0xbd677856	-0.056511246
81	0xbb1ee365	-0.0024244424
82	0x3d39ed31	0.04539222
83	0x3ddc7e83	0.10766318
84	0xbb471805	-0.0030379307
85	0x3d89b272	0.06723489
86	0xbd9218dd	-0.071336485
87	0xbd11cb5e	-0.035594337
88	0x3df58557	0.11988323
89	0xbe2ca8f3	-0.16861324
90	0xbd41e9ec	-0.047342226
91	0xbd0a873b	-0.033820372
92	0xbd2ca6e9	-0.042151365
93	0x3c95e89d	0.018299395
94	0xbda5b80b	-0.08091744
95	0xbc26ae90	-0.010173455
96	0xbdaa7719	-0.08323497
97	0x3d100370	0.03515953
98	0x3d37a38b	0.0448337
99	0x3d1ded91	0.03855664
100	0xbdacc0a6	-0.08435182
101	0xbdb5e536	-0.08881609
102	0xbddcc2b6	-0.10779326
103	0xbdc1b71c	-0.094587535
104	0xbc92ad49	-0.017904894
105	0xbd3b3aa5	-0.045710225
106	0x3bf882d7	0.0075839567
107	0xbd5c4dfb	-0.053785305
108	0xbcb98f8d	-0.022651458
109	0x3d88ac23	0.066734575
110	0xbd44dcb7	-0.048062053
111	0xbddc878d	-0.10768042
112	0x3c0d5311	0.008625762
113	0xbd8e1da6	-0.06939249
114	0x3d5990b5	0.05311652
115	0xbd5cebe0	-0.053935885
116	0x3d2c625f	0.042086
117	0xbd7e17fb	-0.06203459
118	0x3d89c39e	0.06726764
119	0x3d5a9b2f	0.05337065
120	0x3cd48589	0.02594258
121	0xbce78328	-0.028260782
122	0xbdd275ac	-0.102763504
123	0xbc0f4ed4	-0.008746821
124	0x3d3066d8	0.04306683
125	0x3cf79788	0.030223623
126	0xbd191490	-0.037373126
127	0x3bde4648	0.0067832805
128	0x3dbab332	0.0911621
129	0xbdb8434f	-0.08997213
130	0x3d545e74	0.05184789
131	0x3d9c7f31	0.07641447
132	0x3d41e358	0.047335953
133	0xbccc3a80	-0.024930239
134	0xbd89f380	-0.06735897
135	0x3c2a37aa	0.010389248
136	0xbd3cc07b	-0.046082
137	0xbd93a642	-0.072094455
138	0xbd3fbaf2	-0.046809144
139	0x3d23083c	0.039802775
140	0x3dc091e0	0.094028234
141	0xbd47b3ae	-0.04875534
142	0x3c293d19	0.010329508
143	0x3d9234ff	0.071390145
144	0xbd5ff24b	-0.054674428
145	0xbe029410	-0.12751794
146	0x3da3d71f	0.080000155
147	0x3d4e25dd	0.050329078
148	0x3de33e7b	0.110959016
149	0xbd13a1d8	-0.036043018
150	0x3dbc9a73	0.09209146
151	0x3d937a21	0.072010286
152	0x3d3147cb	0.043281358
153	0xbc9b74a7	-0.018976523
154	0x3d6fd0a4	0.058548585
155	0xbd4b8b2b	-0.049693268
156	0xbd8ac47e	-0.06775759
157	0x3dabd5ca	0.083903864
158	0x3d2b69d9	0.04184899
159	0xbd68512f	-0.056718048
160	0xbd3d0e7e	-0.0461564
161	0xbd88893a	-0.06666799
162	0xbe022a1a	-0.12711373
163	0x3c8e80b2	0.017395351
164	0xbb62bd6d	-0.003459777
165	0xbda54e19	-0.080715366
166	0x3d834938	0.0641045
167	0x3d8fa8a1	0.07014585
168	0xbcebe255	-0.028794447
169	0x3d8e63db	0.0695264
170	0x3d48ca02	0.049020775
171	0x3dd19a94	0.102345616
172	0x3cb9a107	0.022659792
173	0xbe041242	-0.1289759
174	0x3d07c6a6	0.03314843
175	0x3d256f42	0.040389307
176	0x3cb67f92	0.022277627
177	0x3e283651	0.1642697
178	0x3d26001d	0.04052745
179	0x3d8c059a	0.06837006
180	0x3dd449b1	0.10365618
181	0x3c989800	0.018627167
182	0x3c16b8a0	0.0091992915
183	0xbd11dbc6	-0.035609983
184	0x3cb60d13	0.022223031
185	0x3de2a4aa	0.110665634
186	0xbdf5fca0	-0.12011075
187	0x3da0cd2e	0.07851635
188	0x3dafde48	0.08587319
189	0x3e321be3	0.1739345
190	0x3cb7f60e	0.022456195
191	0x3d7f38c8	0.06231001
192	0xbdb2937c	-0.08719537
193	0x3d08b401	0.03337479
194	0xbdafc472	-0.08582391
195	0x3dbda479	0.09259886
196	0x3cf3569b	0.029704383
197	0xbcd296e9	-0.025706725
198	0xbc138206	-0.009003168
199	0x3d999db0	0.0750078
200	0xbc81dadb	-0.015851429
201	0xbdd3958d	-0.10331259
202	0x3c1b7f66	0.009490823
203	0x3d392d39	0.045209143
204	0x3c70a2f7	0.014687291
205	0x3d44a55c	0.04800926
206	0xbdb4d677	-0.088299684
207	0x3dbd74a1	0.09250761
208	0xbd531846	-0.05153682
209	0xbccff982	-0.02538753
210	0x3d4cf061	0.05003393
211	0x3dc36ff9	0.095428415
212	0xbd6bf119	-0.057602976
213	0xbd41817f	-0.047242638
214	0x3cde21a1	0.027115645
215	0xbd9f0049	-0.07763726
216	0xbdd2df4f	-0.10296499
217	0xbdaafde7	-0.08349209
218	0xbdd10f8b	-0.10208043
219	0x3c0b124d	0.00848825
220	0x3d79278a	0.060828723
221	0xbdb62d9a	-0.088954166
222	0x3dd77e32	0.10522117
223	0x3d9c595a	0.0763423
224	0xbdd2e9b4	-0.102984816
225	0xbd2a5458	-0.041584343
226	0xbc1da22a	-0.009621182
227	0xbdb62102	-0.088930145
228	0x3d8469ac	0.06465468
229	0x3cc1a702	0.023639206
230	0xbd84202f	-0.06451451
231	0xbc59cd35	-0.013293554
232	0xbde7ec14	-0.11324325
233	0xbd6ff7dd	-0.05858599
234	0x3d5e1579	0.054219697
235	0xbc881f9a	-0.016616631
236	0x3dd91ee5	0.10601596
237	0xbdcb2d1a	-0.09920712
238	0x3c5745b4	0.013139177
239	0x3d98b537	0.07456439
240	0x3d915870	0.07096946
241	0xbd906bd0	-0.070518136
242	0x3d8e9c87	0.06963449
243	0x3d564256	0.052309357
244	0xbd9f9325	-0.077917375
245	0xbd550018	-0.052002043
246	0x3dcd0aa0	0.10011792
247	0xbd844e70	-0.06460273
248	0xbbab6d87	-0.0052315625
249	0x3d75644e	0.05991011
250	0xbde29f04	-0.11065486
251	0x3bbedc24	0.0058245827
252	0xbd303553	-0.043019604
253	0x3c817c33	0.015806293
254	0x3d815851	0.06315673
255	0xbd877265	-0.06613616
