ckpts/dkvmn/junyi10/model.ckpt (torch, 462337 bytes, 11 tensors)

Mk f4 [20, 50]
000000 28 12 8f 3e 24 62 c4 bd d9 88 57 be 5e 84 56 3e
       0.2794354 -0.09589031 -0.21048297 0.20948932
000010 68 a4 50 be 65 f6 e0 3c 0c 4c b3 3e f9 3e 5c be
       -0.20375216 0.02746124 0.35018957 -0.21508397
000020 25 91 46 be bb db 94 be 3a 54 a9 bd 3f 58 54 be
       -0.19391306 -0.2907389 -0.08268018 -0.20736788
000030 43 5c 18 be 71 50 1f 3f bf 6c fa 3d 63 f2 08 be
       -0.14878945 0.6223212 0.12227773 -0.13373713
000040 23 d6 34 be a1 bb 81 3d fe 8e aa 3e a0 74 40 bd
       -0.17659812 0.063346155 0.3331222 -0.046986222
000050 e9 83 83 be 15 62 89 be 38 5d db 3e 7d f6 89 bc
       -0.25686577 -0.26832643 0.42844558 -0.016841168
000060 ae a5 a6 be 84 db 64 bd a4 54 ed be 80 1f 08 bf
       -0.3254828 -0.05587341 -0.46353638 -0.53173065
000070 6f d3 16 3e 47 3e 35 3f 9e c6 9b bd cf 40 2c be
       0.14729093 0.7079815 -0.076062426 -0.16821598
000080 0b 4e 7a 3e f8 62 95 3e 71 70 13 3f 87 e2 02 3c
       0.24443834 0.2917707 0.57593447 0.007988579
000090 16 8a 23 3e 99 8d fb 3d b1 a1 a1 3d 7a cd a3 3d
       0.15970644 0.12282867 0.07892168 0.07998176
0000a0 ab a3 0c 3e 4e 52 4a 3e b0 6e 01 3f 50 1d a6 3e
       0.1373431 0.19757959 0.5055952 0.3244424
0000b0 7e 36 c8 3d f7 25 96 3e 4c ec 90 bc 0d 0f 4c 3e
       0.097760186 0.2932584 -0.0176908 0.19927616
0000c0 ac 6f 8b be 15 f7 65 3e 6a 6f 94 bb 58 6c 89 be
       -0.27233636 0.22457536 -0.004529883 -0.26840472
0000d0 98 08 0d bf f1 54 1f be a9 3a 96 3a 0c 9b 95 3d
       -0.5509124 -0.15559746 0.0011461574 0.073049635
0000e0 86 cf 8b be ac dc 8f 3d b2 62 62 be 92 f7 47 3e
       -0.27306765 0.07024512 -0.22107962 0.19528034
0000f0 cb 2c 49 bd 68 09 a0 3d fc 80 f8 3d b1 1c a1 3e
       -0.049114984 0.07814294 0.12133977 0.31467202
000100 9d cd ad 3c 08 df 35 3d cf 81 63 be 70 56 2d bd
       0.021216208 0.044402152 -0.22217487 -0.04231876
000110 31 19 8d 3d db 5a 49 be 40 e9 37 bb 83 de 8c 3b
       0.068895705 -0.19663565 -0.0028062612 0.0042989864
000120 a7 86 05 3f 4d f0 f2 bd 71 b1 d3 3d 7e 4b 2c be
       0.5215859 -0.1186224 0.10336579 -0.16825673
000130 de dd 71 be 69 61 b4 be db 63 98 3d 4e 5a 28 be
       -0.23619792 -0.35230568 0.07440921 -0.16440699
000140 ca 13 ba bd 85 95 b2 bd c2 d0 16 be e7 db 45 3e
       -0.09085806 -0.08719925 -0.14728072 0.19322167
000150 1a 6d 7f 3e cb 81 75 3e 37 4e fb bd a9 74 cd 3e
       0.24943963 0.23975293 -0.12270778 0.40128067
000160 86 84 2b 3e 31 6b b8 bd 28 17 82 bd 59 81 22 be
       0.16749772 -0.0900482 -0.06352073 -0.15869655
000170 8d 00 72 be be 1c 9d be b9 f5 e2 3e d0 5b 18 be
       -0.23633023 -0.3068599 0.44328097 -0.14878774
000180 10 14 9b 3d ee 54 60 3e bc d5 f6 bb ca 23 ca 3e
       0.07572186 0.21907398 -0.0075328033 0.3948043
000190 0d f7 70 be 37 e3 80 3e d2 81 96 3e 99 26 0d bd
       -0.23531742 0.2517335 0.2939592 -0.034460638
0001a0 b4 1b 2a 3e 18 20 be 3d c5 7e 0a 3e d2 80 c3 3e
       0.1661213 0.09283465 0.13524921 0.3818422
0001b0 6d c3 82 be 42 fd 2e 3e 2a c9 3a 3e c5 b4 4a be
       -0.25539723 0.17088798 0.182408 -0.1979552
0001c0 32 cd b9 3d ad 13 22 be 01 8c 0d be 9d 22 91 3d
       0.09072341 -0.15827818 -0.13822939 0.0708668
0001d0 cf 6f 76 3e 94 17 d2 be 52 3b 07 3e af e4 02 bd
       0.24066089 -0.41033614 0.13206223 -0.03195637
0001e0 bc ec 93 3e c9 26 46 bd cf 63 a2 bd c7 f6 5c 3e
       0.28891551 -0.048376832 -0.07929193 0.21578513
0001f0 8b 80 b8 3b 02 a4 38 bc d1 4e ca 3d 73 71 4e 3d
       0.005630558 -0.011269571 0.09878314 0.050401162
000200 58 f4 dc bd 1e ac 90 3e 7e 28 bb 3e d7 cb bf 3d
       -0.10788792 0.28256315 0.3655433 0.09365051
000210 1d 8a de be d8 81 39 3e 35 fc 7e 3d ab f9 61 3d
       -0.43464747 0.18115938 0.062252242 0.055169743
000220 40 6d a7 3d e2 32 b8 be a8 e6 54 3e 71 05 1f bc
       0.08175135 -0.3597632 0.20791113 -0.009705887
000230 9a 85 b5 be e5 05 1d bc cb e4 5d 3b dc 8d 64 bc
       -0.35453492 -0.009583925 0.0033858295 -0.013949838
000240 72 e9 c0 3c b6 54 8a 3d 45 a4 93 3e 56 4e 08 bf
       0.023548815 0.067544386 0.28836265 -0.5324453
000250 4e 09 02 be 97 bf 07 3e 67 f5 dc be 07 6f 8f bd
       -0.12698862 0.1325668 -0.43155977 -0.07003599
000260 d8 d1 3e 3e 96 a3 9e bd 94 0b a1 3c 5f c8 04 3e
       0.18634737 -0.07746045 0.019658841 0.1296706
000270 a1 b4 82 bd c1 74 3d be fb 8f d9 3d d0 47 c5 3e
       -0.063821085 -0.1850157 0.10623165 0.3853135
000280 56 aa 31 3e f9 e0 c9 bd c3 5b 02 bf a3 52 94 3e
       0.17350134 -0.09857363 -0.5092127 0.28969297
000290 ec 2d 67 be 75 f6 a1 3e 59 38 ac 3d 81 79 e9 3d
       -0.22576112 0.31633344 0.08409185 0.11400128
0002a0 82 c0 cf 3d 62 d8 e4 3d b5 a6 b9 be 80 5f 2d 3d
       0.1014414 0.11174084 -0.3626 0.042327404
0002b0 da 5c 6d 3e e2 6b 88 bd 84 1a 97 bd c7 0b b9 3d
       0.23179951 -0.06661202 -0.07378104 0.090354495
0002c0 aa 3d a8 bd 50 9e ab be 4c 4f 86 3e 2a d7 09 3f
       -0.082148865 -0.3351922 0.26232374 0.5384394
0002d0 36 c9 17 3d d9 ba 0d 3e 7d bc 11 bf b8 79 af 3d
       0.037057124 0.13840808 -0.56928235 0.08568138
0002e0 49 53 00 3e bb 70 48 3b 13 01 44 be 87 fa e8 bc
       0.12531771 0.003058477 -0.19141035 -0.028439773
0002f0 fc 0a 67 3e 7f c7 83 3e 26 9f d6 3d 0a fe 1f bd
       0.22562784 0.2573814 0.10479574 -0.03906063
000300 6b b7 17 3e d8 f8 70 be cc 00 d3 bd c6 dd 0f bd
       0.14816062 -0.23532426 -0.10302886 -0.03512361
000310 fa 5b 0b 3e 49 6a 4d be d6 08 dd bc 32 e6 53 3d
       0.13609305 -0.20060076 -0.026981752 0.051733203
000320 25 e2 21 bc a0 7b 5e be b9 cf 20 3e 8b 29 9c 3c
       -0.009880577 -0.21726847 0.1570424 0.019062778
000330 a8 a0 7e ba c9 6c 52 3d a4 19 b1 be 80 9a 1f 3e
       -0.00097132707 0.051373277 -0.34589875 0.15586281
000340 4c d9 46 3f 89 27 e4 3e c4 7f 51 be 59 7d ef bd
       0.7767532 0.44561413 -0.20458895 -0.1169383
000350 f3 f4 08 3d 26 0e ae 3d c0 c1 53 3d ae 1c df 3d
       0.033436727 0.08498792 0.051698446 0.10894142
000360 7f af 07 3d b0 f9 57 3e 4a a7 e5 3d 86 a6 6e bc
       0.03312635 0.21091342 0.112135485 -0.0145660695
000370 f0 4b 2a be 4c 68 6a 3e 04 fc ea bd 2d 94 9b 3e
       -0.1663053 0.22891349 -0.114738494 0.30386487
000380 2f 55 20 3e 89 ef 06 bf f6 5a 34 bd 5f e3 c2 3e
       0.15657495 -0.5270925 -0.04403206 0.38064095
000390 ca 8c 2f be 7e 61 93 be 17 a6 79 3e c8 e5 78 3e
       -0.1714355 -0.28785318 0.24379764 0.24306405
0003a0 4e 2b 95 bd e6 6f ab be 08 62 8d be c1 7b 01 3e
       -0.0728365 -0.3348381 -0.27613854 0.12644865
0003b0 3c 6b fa bd d2 5a a7 3e 4d 92 8e be 50 00 f9 bd
       -0.122274846 0.32686478 -0.27845994 -0.12158263
0003c0 c3 d9 a4 be c3 c4 77 bd 89 90 a2 3e 4b c3 fa 3e
       -0.3219739 -0.06049038 0.31750897 0.48977122
0003d0 12 d5 34 be 96 8b e3 bd e4 f2 84 3e eb 56 9c be
       -0.17659405 -0.11110608 0.2596656 -0.30535063
0003e0 48 a9 77 be 43 7f 32 3e 46 97 32 3e 46 f0 90 3e
       -0.2418567 0.17431359 0.17440519 0.28308314
0003f0 e7 fd 2c 3f e6 3c fd 3e 89 04 7f 3e 3a 19 3a 3e
       0.67574924 0.49460524 0.24904074 0.18173686

Mv0 f4 [20, 50]
000000 ef b2 66 3e 95 61 8e be 5a bf 03 3e 23 81 d1 be
       0.22529195 -0.27808824 0.12865964 -0.40918836
000010 ba cd 9e 3e 6d 12 6f 3e 38 ae ca 3e 55 30 69 be
       0.31016332 0.23346873 0.39586043 -0.22772343
000020 eb 66 63 3d 54 29 f5 3d 70 05 35 be 50 0f 11 be
       0.055518072 0.11970773 -0.17677855 -0.14165998
000030 0d 25 69 3d 1e 00 14 3e 5c 08 b1 3d 86 25 16 bf
       0.0569201 0.1445317 0.086441725 -0.58651006
000040 d6 21 05 bf 31 0b d5 3e 55 e5 a5 3e e8 7a 8d be
       -0.52004755 0.416101 0.3240153 -0.27632833
000050 c0 f0 02 3f c9 d4 c1 3e 8c 51 73 bd b7 54 03 be
       0.51148605 0.37857655 -0.05940394 -0.12825285
000060 23 ee 53 be f1 b2 98 be 2c 3d 37 3e 73 8d 0e bf
       -0.2069631 -0.2982402 0.17894429 -0.55684584
000070 cc 0b ff bc 07 d6 9e 3d 42 b6 84 be de 71 d8 be
       -0.031133555 0.07755666 -0.25920302 -0.42274374
000080 6f b2 9f bd e5 02 83 be bc 5e ba 3b 48 ac 81 be
       -0.077977054 -0.25588146 0.0056875627 -0.25326753
000090 21 61 25 be ec ae 17 bd cd 36 17 bd 38 83 f6 bd
       -0.16150333 -0.037032053 -0.036917496 -0.12036747
0000a0 45 f7 e6 bd 6b da d9 3d 08 9e af 3d 21 d8 08 3e
       -0.11277632 0.10637363 0.08575064 0.13363697
0000b0 c2 79 24 3d 29 be 3e 3e 9c e3 0b 3e 87 e8 f8 3b
       0.04015518 0.18627228 0.13661045 0.007596079
0000c0 62 bb 07 3f 55 86 4f be 2a e2 69 3e bb e3 7a be
       0.530203 -0.20266087 0.22840181 -0.24500935
0000d0 c0 af 16 bd a8 b0 e7 bd 1c c1 7a 3e 6e b7 7a 3e
       -0.036788702 -0.113129914 0.24487728 0.24484035
0000e0 7c d2 b5 3c c8 d3 a6 be 67 3c 66 bd f7 ab fc bd
       0.022195093 -0.3258345 -0.056209948 -0.12337487
0000f0 8c eb 9c 3e ca 04 e9 be b6 43 ca be 42 6a 13 bc
       0.30648458 -0.45511466 -0.39504784 -0.008997502
000100 b8 50 9d 3d c3 13 32 be a8 7f 68 be 42 0e dd be
       0.076814115 -0.17390351 -0.22704947 -0.4317494
000110 05 4e d8 bb 16 b1 f9 bd ce b3 27 bc 84 b8 5f be
       -0.0066010975 -0.121919796 -0.01023574 -0.21847731
000120 e0 c7 2c 3e 74 e8 9d be ab 95 01 be c7 9d 59 bd
       0.16873121 -0.3084141 -0.1265475 -0.053128984
000130 1f 0b 0f 3e 0b a7 8f be 50 56 f9 bd 7b 1b dc 3e
       0.13969086 -0.2805713 -0.12174666 0.42989716
000140 0f 6b 4c be 0d 9a e8 bd a9 9b f2 3d 31 06 40 be
       -0.19962715 -0.11357508 0.11846096 -0.18752362
000150 f0 b2 de bc 62 81 78 3e 00 9e 4b 3d 0b f2 6d 3d
       -0.027184933 0.24268106 0.049711227 0.05809216
000160 a0 2d 01 3e 92 28 ea bd 0d 20 12 3d 64 69 00 3e
       0.12615061 -0.114335194 0.035675097 0.12540203
000170 ab c6 a1 bc c9 0d 37 3e 65 a7 97 bd 78 ff 9a be
       -0.019748053 0.17876352 -0.07404975 -0.30273032
000180 58 1c 14 3a 11 47 22 bd 88 cf 8c be b0 f8 39 be
       0.00056499755 -0.039618555 -0.27502084 -0.18161273
000190 8d de 54 3e 31 c2 47 3c b3 91 86 bc 3f 40 20 be
       0.20788021 0.012192295 -0.016426897 -0.15649508
0001a0 a0 f0 ff 3e 44 40 20 3e 9e 8e 5b 3e 68 20 8b bc
       0.4998827 0.15649515 0.21441123 -0.016983226
0001b0 44 88 e1 be c9 85 00 bc 9a 1c b2 3e a7 9a 9f be
       -0.44049275 -0.007844397 0.34787446 -0.31172678
0001c0 86 d2 0f bc 34 44 9a 3e d7 8f e3 3e 99 8a 04 be
       -0.00877822 0.3013016 0.4444568 -0.12943496
0001d0 89 58 b6 bd bb 36 a8 3e a4 10 85 3e 44 ac 1b 3e
       -0.089036055 0.32854256 0.25989258 0.15202433
0001e0 01 dd 86 be 89 52 cd 3e 6c 8a a3 bc 98 fb 3b bb
       -0.26340488 0.40102032 -0.019963466 -0.0028683897
0001f0 f8 68 cc be 8d e6 17 be da 56 93 3e 25 89 4d 3c
       -0.39923835 -0.14834042 0.287772 0.012544905
000200 a5 5c 9f be 4c 3d 9d be d0 17 97 be ab 41 ea bc
       -0.3112537 -0.30710828 -0.29510355 -0.028595766
000210 05 fb 06 bd 3f 3a b3 be d6 05 8b 3e a2 12 8b 3e
       -0.032954235 -0.35005376 0.2715289 0.27162653
000220 2c 85 84 3e 31 b8 2a 3b 28 87 4c 3d fd 6d 59 be
       0.25882852 0.0026049728 0.049933583 -0.21233363
000230 db 61 34 be 0f 22 34 3e 8f 81 55 be 5d 2f 4e bc
       -0.17615454 0.17591117 -0.20850204 -0.0125845345
000240 c4 12 18 be 04 68 08 bf 58 1f b7 3e 41 e5 36 be
       -0.14850909 -0.53283715 0.357661 -0.17860891
000250 0f 98 65 be 5a e9 4e 3e 59 b9 f4 bc 20 6b cb bd
       -0.22421287 0.20206204 -0.029873537 -0.09932542
000260 bb f8 2e 3e 32 71 12 be 3a 63 a8 3d bc 94 15 3e
       0.1708707 -0.14300993 0.08222051 0.14607519
000270 c6 58 ff 3d 27 0f 15 3e c2 b7 31 3e 86 af 46 3e
       0.12468104 0.14556561 0.17355254 0.19402894
000280 96 da 7f 3d 1e 55 74 3e 68 6a 98 be be 1a 59 3e
       0.06246432 0.23860595 -0.29768682 0.21201608
000290 76 fe 94 bd 1e ba c3 3c 0d b3 99 bd 51 17 bd 3b
       -0.07275097 0.023892459 -0.07504854 0.005770602
0002a0 bf d6 d2 3b e4 5c 25 be 94 fb a5 3e 7a bc 28 be
       0.006434291 -0.16148716 0.324185 -0.16478148
0002b0 e8 19 8f be f8 24 9e 3c 1f e5 9d bd 0f 55 ca 3d
       -0.27949452 0.019304737 -0.07709717 0.09879505
0002c0 f1 4e b2 3e 7f a4 90 be 15 04 8f 3d b3 6c 9b be
       0.34825853 -0.282505 0.069832005 -0.30356368
0002d0 5c ad 42 be d2 55 0a 3e 59 d4 0a be 0f fb ea be
       -0.19011444 0.135093 -0.13557567 -0.45894668
0002e0 29 a3 a4 3e 15 3a 20 3e 7c 7b e8 3d 06 62 84 3e
       0.3215573 0.15647157 0.11351678 0.25856036
0002f0 f5 b0 b6 be b3 d8 08 be 7e 64 bc be 3c 81 0d be
       -0.35681883 -0.13363914 -0.3679542 -0.1381883
000300 a6 41 2a be ac 8e d0 bd 6b 71 9e 3d e1 6e e1 be
       -0.16626605 -0.101834625 0.077364765 -0.44029906
000310 1d a2 3a 3e e2 07 b8 3d ad fd 49 3e f8 9a 1e 3e
       0.18225904 0.089858785 0.19725676 0.15488803
000320 67 d3 6f bd 3b ff 76 be c2 2b 08 3e 0e d0 2f be
       -0.05855122 -0.241208 0.13297942 -0.1716921
000330 a5 46 b5 3e 05 38 d4 bd bf d2 c1 3d 1f f3 80 3e
       0.3540546 -0.103622474 0.09464025 0.25185487
000340 8a 48 a0 be f7 bd 70 bc de c7 a3 3d c8 a7 81 be
       -0.31305343 -0.014693729 0.07997106 -0.2532332
000350 82 53 ca bd 0f 58 02 3e a1 1e dd 3e 2d 5e 3f 3e
       -0.09879209 0.12728904 0.4318743 0.18688269
000360 b9 d1 68 be 47 37 af 3d ff e7 4b 3e ec 4a ab 3e
       -0.22736253 0.08555465 0.19912718 0.33455598
000370 a8 bb 91 3d 16 5f 1c be 82 e5 a6 bd 84 9d be be
       0.07115871 -0.15270647 -0.08149244 -0.3722955
000380 55 1c 21 be 04 e8 8e be 2f 12 f3 3a ad 44 4f bc
       -0.15733464 -0.2791139 0.0018544848 -0.012650651
000390 a9 9e 01 be 4e 25 26 be b4 7d 08 bd 0d 2a a4 be
       -0.1265818 -0.16225168 -0.033323005 -0.32063332
0003a0 26 71 a9 be d0 e3 dd bd 56 c3 4f 3d 81 62 58 3e
       -0.33094138 -0.108344674 0.050723396 0.21131326
0003b0 7e 6e da bd 53 59 6d 3d c1 af 93 bd 3c a1 e2 bd
       -0.10665606 0.057946514 -0.07211257 -0.11065909
0003c0 0b a2 58 3e 3a 3c 9c bc 3f c2 18 be f7 10 10 3f
       0.21155564 -0.019071687 -0.14917849 0.56275886
0003d0 64 9d 1d bf 48 c4 f0 bd b6 e0 7c bd 4d 7f fe bc
       -0.61568284 -0.11756188 -0.06173774 -0.031066561
0003e0 7c 71 e9 3e 12 79 10 3e 95 4e 1c be 25 89 3f bd
       0.45594394 0.14108685 -0.15264352 -0.04676165
0003f0 13 ec 31 3e 0a 50 c4 be 6f f3 82 3d 88 58 ee 3e
       0.17375211 -0.38342315 0.063940875 0.4655192

k_emb_layer.weight f4 [683, 50]
000000 16 22 7d bf 1e 00 0b bf dd 7d e5 bd a6 1a 0d 3e
       -0.98880136 -0.54297054 -0.11205647 0.13779697
000010 4b 21 46 3f 12 a0 9f be 60 13 07 bf 50 4f b3 bf
       0.7739455 -0.3117681 -0.5276394 -1.4008579
000020 bf 22 b3 3f b0 5b 1a 40 60 85 4f bf ea 62 8e bf
       1.3994979 2.4118462 -0.8106289 -1.1123936
000030 8e 8b 4f 3f e6 c1 02 c0 e3 ff 49 3f 85 b6 91 3e
       0.8107232 -2.0430846 0.7890608 0.28459564
000040 99 c7 c3 3d 62 3a 2f bf 60 b6 92 3f b3 ba 98 bf
       0.095595546 -0.6844846 1.1461906 -1.1931976
000050 d4 61 73 3f 4d 9e e6 bc 96 72 47 3f f9 04 79 3f
       0.9507115 -0.028151656 0.7790922 0.9727321
000060 40 02 5c bf a9 88 3b be 19 d0 95 3f 24 48 ca 3e
       -0.85940933 -0.1831385 1.1704131 0.39508164
000070 d7 3c 62 3f 07 3d d1 3f d2 d9 54 bf 01 46 9f bf
       0.88374084 1.6346749 -0.8314487 -1.2443238
000080 c1 79 68 be bc ff b4 3f a1 c6 8c bf ff 9c b0 bf
       -0.22702695 1.4140544 -1.0998117 -1.3797911
000090 74 ec 96 bf 6b dc df 3e e4 51 21 40 f2 69 d9 bf
       -1.179091 0.43722853 2.5206232 -1.6985457
0000a0 91 ce 73 3f a1 98 53 bf 27 1f 6e bf 74 16 72 bf
       0.9523707 -0.8265477 -0.93016285 -0.9456551
0000b0 a8 cb 07 3f 8c 61 7a 3e 79 b7 42 bd a4 9c dd bf
       0.5304513 0.24451274 -0.047538254 -1.7313428
0000c0 e1 73 c8 3f 79 5b ac 3f d6 27 df 3e f6 99 97 3f
       1.5660363 1.3465415 0.4358508 1.184386
0000d0 77 c1 3f 3e dc 70 21 3e 21 70 40 bf 71 e5 32 3f
       0.18726145 0.15765709 -0.75171095 0.6988135
0000e0 42 06 d4 bf 49 5e 03 c0 c0 c0 01 be d3 2c 8a bf
       -1.656441 -2.0526297 -0.12671185 -1.0794929
0000f0 99 e9 1b bf f2 02 0e bf ab 13 f8 bf e9 84 77 be
       -0.60903317 -0.55473244 -1.9381002 -0.24171795
000100 61 45 04 bf 74 b7 fb bf 39 f5 cc 3f b5 fe 54 be
       -0.51668364 -1.966536 1.6012336 -0.20800288
000110 67 1a 2e be e9 dc 9e 3f 6d 87 9a 3f 35 9c 4e be
       -0.17002259 1.2411166 1.2072579 -0.20176776
000120 38 5c 84 bf ab 98 86 bf 8a 24 ae bf 87 85 a9 bc
       -1.0340643 -1.051534 -1.3604901 -0.020693554
000130 03 7a b7 be aa 22 01 bf 31 36 d7 bf 58 2b d9 be
       -0.35835275 -0.5044352 -1.6813413 -0.4241588
000140 8c 5f fb 3f d6 dc 89 3f 88 19 41 bf c0 66 eb bd
       1.9638534 1.0770519 -0.7542958 -0.114942074
000150 3d 0c 8d 3f 6c b1 ae 3f 7a 4f fa 3e 52 d0 f8 3e
       1.101936 1.3647895 0.4888876 0.48596436
000160 9b 1b 89 bf 97 48 97 bf 9f 32 a8 3e 9c ba 2c be
       -1.071155 -1.1819028 0.3285112 -0.16868061
000170 9d 03 19 c0 1b 1f f0 3d e1 81 83 3d b2 55 c2 3e
       -2.3908455 0.11724683 0.06421257 0.37956005
000180 bf c1 c4 bf a9 af 5e be 93 04 de 3e 84 00 28 3f
       -1.5371627 -0.21746697 0.43362865 0.65625787
000190 b9 aa 8c bf bd 9e ab bf 80 ef 7d bf 12 11 9c bf
       -1.09896 -1.3407818 -0.99193573 -1.219271
0001a0 22 cc f1 be 82 54 65 3f cb 64 d2 bd cc a0 cc 3f
       -0.47226053 0.89582074 -0.10273131 1.5986571
0001b0 9e c9 05 bf eb 42 af 3f 06 eb 35 bf 48 cf 15 3f
       -0.5226077 1.3692297 -0.7106174 0.5851941
0001c0 ca f1 7f bf 4f f2 69 bf db 3e 93 bf 2c d8 26 c0
       -0.99978316 -0.9138536 -1.1503557 -2.606944
0001d0 61 aa f3 bf f8 be 45 bf 67 20 d5 3f 7b b5 84 3f
       -1.903637 -0.7724452 1.6650513 1.0367883
0001e0 04 52 c7 3f 10 2c 1e bf 8f 2b e1 bf 41 27 52 3e
       1.5571904 -0.61785984 -1.7591418 0.20522787
0001f0 31 44 77 be ea 0c 9b bf b7 40 02 bf ba d8 b1 3e
       -0.24147107 -1.2113316 -0.50879997 0.34735662
000200 26 a6 e6 3e 3e 6a a7 bf 04 89 8d 3e 72 3b c2 3e
       0.45048636 -1.3079298 0.27643597 0.37935978
000210 a2 92 ca 3f fc f8 e6 bf 3e 72 35 bf c9 03 16 3e
       1.5825999 -1.8044734 -0.70877445 0.14649881
000220 85 56 79 bf a1 cb 0d bf e9 98 e2 be c0 39 86 be
       -0.97397643 -0.5538884 -0.44257286 -0.26215935
000230 22 24 90 bf 76 61 55 bb cb 75 df 3f 8d 85 28 3d
       -1.1261027 -0.0032559312 1.7457823 0.04114299
000240 21 82 fb bd 25 ab 20 bf e6 40 0d c0 ce ca 77 3f
       -0.122806795 -0.62761146 -2.207086 0.9679383
000250 dc 38 c2 3f 7e 7e 40 bf 00 3e a6 be 21 7e 77 3f
       1.5173602 -0.7519301 -0.32469177 0.9667683
000260 63 d5 20 bf d5 35 a8 bf 76 3c 2f bf 9e be 55 3e
       -0.628256 -1.3141428 -0.6845163 0.20873496
000270 f1 f3 13 c0 48 17 1e c0 9b 95 d0 3e a0 42 50 3e
       -2.311764 -2.470171 0.4073914 0.20337915
000280 d4 df ea 3e 0e 9f 4c bf b5 a0 d0 bf 34 69 80 bf
       0.45873892 -0.799302 -1.6299044 -1.0032105
000290 b1 2d 04 3f 2a 22 87 bf 76 b2 52 3f bf be a5 3e
       0.5163222 -1.0557301 0.8230356 0.3237209
0002a0 69 4e a1 bf 47 51 13 bf e7 2b 11 bf 1d af 87 3f
       -1.2602054 -0.57545894 -0.56707615 1.0600315
0002b0 35 15 9f bd c3 28 84 bf c0 75 3f 3f dc 59 10 3e
       -0.07767717 -1.032494 0.7478905 0.14096779
0002c0 30 f4 90 bf 78 0a 9f bf 22 ef 17 3d 13 9b ac 3f
       -1.132452 -1.242507 0.03709329 1.3484825
0002d0 d8 34 55 3e 63 52 d3 be 1e 35 94 3d ea 28 d7 bf
       0.2082094 -0.41273794 0.07236694 -1.6809361
0002e0 60 b0 0d 3e b6 1a ba 3f 6e 86 92 bf f7 29 18 bf
       0.13836813 1.4539402 -1.1447275 -0.59439033
0002f0 92 94 a4 3e 47 56 12 bf 5b 09 a0 3f fc f8 8d bf
       0.321446 -0.571629 1.2502855 -1.1091609
000300 85 5b 91 3d 10 83 a1 3d 7e 15 8e 3f 94 54 be bf
       0.07097534 0.07886326 1.1100309 -1.4869561
000310 03 bb 0a 3f 92 d3 94 bf a0 4d c3 bc 21 ab 25 3f
       0.5419161 -1.1627066 -0.023840725 0.64714247
000320 7f 58 67 bf 09 8a 88 c0 7b 10 c0 3f 73 9f 2b 3e
       -0.9036941 -4.26685 1.500503 0.16760044
000330 46 0c 8a bf 1e ad e6 3d 78 d4 30 3e ad 50 b7 3d
       -1.0784996 0.11263488 0.1726855 0.089509346
000340 51 51 2c bd 18 ba 87 bf d9 cc ee 3f 7e f9 2f bf
       -0.042069737 -1.0603666 1.8656265 -0.6874007
000350 35 49 51 bf 5e d1 04 40 02 a8 14 3e 83 51 c7 bd
       -0.8175233 2.0752788 0.14517215 -0.09732344
000360 b3 42 45 3f ae 51 97 bf 1b e0 d5 be de bc 9a 3e
       0.770549 -1.1821802 -0.4177254 0.3022222
000370 01 29 67 3e d2 5f eb bf 41 93 a3 bf c0 78 b0 be
       0.22574235 -1.8388617 -1.2779313 -0.34467125
000380 d6 81 e5 3e 31 85 43 bf 57 8b 11 bf f4 cf f4 bf
       0.4482562 -0.7637511 -0.5685324 -1.9125962
000390 f6 85 c4 bd c9 8e 05 be eb 37 63 3f 21 95 5b bf
       -0.095958635 -0.1304275 0.887572 -0.8577443
0003a0 bb fa 86 bf 1e 68 19 bf f9 17 35 bf 97 d4 37 3e
       -1.0545267 -0.59924495 -0.70739704 0.1795219
0003b0 76 bf 24 3f 6b b6 ac 3f 24 96 06 3f 3f 07 d5 bf
       0.64354646 1.349317 0.52572846 -1.6642836
0003c0 94 97 fc be 4d 69 43 bf ff 34 f6 be 71 f3 6a 3f
       -0.49334395 -0.7633255 -0.48087308 0.9177771
0003d0 5b 43 23 3f 74 4d 2a 3f 2f b9 d8 bf 0b f5 1e 40
       0.6377465 0.66524434 -1.6931514 2.4837062
0003e0 41 4b 71 bf df 28 26 3e 72 b0 d4 3e 0a 6e ac 3d
       -0.94255453 0.16226529 0.41540867 0.08419426
0003f0 9a 49 92 bf 9c 3a 01 3f be 50 9a 3f 57 06 83 3e
       -1.1428711 0.50480056 1.205589 0.25590774

v_emb_layer.weight f4 [1366, 50]
000000 10 72 78 3f 19 03 75 3f 9f 7b b3 be b4 e6 8e 3e
       0.97049046 0.9570785 -0.35055253 0.27910388
000010 6e 41 69 be e3 2c 93 3e e0 49 32 3f 8a f3 8c 3e
       -0.22778866 0.28745183 0.69643974 0.27529556
000020 da cc f6 be 11 46 63 3f fd 73 82 3f 1d 0e e8 3e
       -0.48203164 0.8877879 1.0191647 0.45323268
000030 3e 04 11 bf eb 54 35 3e fb 1a 3a 3e a5 35 97 3f
       -0.566471 0.17708175 0.18174355 1.1813246
000040 cd db 31 3f dc c1 96 3f a7 f5 9e be 4a 6d c8 bf
       0.69476014 1.1777911 -0.31046793 -1.5658352
000050 b0 14 9d 3f 74 e5 ae bd c4 b0 5f 3f e6 5e e8 bd
       1.2271938 -0.085398585 0.873791 -0.113462254
000060 66 82 79 3f 6e a8 49 bf 08 2c c9 bf a5 59 0f be
       0.974646 -0.7877263 -1.5716562 -0.1399904
000070 a9 7e b8 3e 63 d6 aa bf 55 f2 bc 3e 67 96 dd 3d
       0.36034134 -1.3346676 0.36903635 0.108197026
000080 e1 ab bf 3f 50 28 e5 3f a9 90 29 bf 78 cc 0c c0
       1.4974328 1.7902927 -0.6623636 -2.1999798
000090 0f 7d 53 be fc 64 8b bf c8 a1 0b bf ee 9d 5c bf
       -0.20653175 -1.0890193 -0.54543734 -0.8617848
0000a0 11 ff 02 bf 0d d1 47 bf 2c a6 ad be 04 53 f1 bf
       -0.5117045 -0.7805336 -0.33915842 -1.8853459
0000b0 48 be 8a 3f 96 92 5e be 63 07 2e 3f d2 8b 22 3f
       1.0839319 -0.21735606 0.6798002 0.634946
0000c0 3f 9d 82 3f 07 be 38 3f 71 f9 7b 3f d5 56 3a bf
       1.0204238 0.7216496 0.9842749 -0.72788745
0000d0 1d d7 c4 3b 5f 81 09 bf d2 9c c3 bd d9 ac 95 3f
       0.006007089 -0.5371303 -0.095513955 1.1693374
0000e0 21 fc 73 3f dc 33 d1 bd 3a 0b 05 bf 19 6f 20 be
       0.95306593 -0.102149695 -0.51970255 -0.1566738
0000f0 fa 9e 16 3f 6a 8f 2b 3f 3b 7c 7a 3f c0 c0 ff 3f
       0.5883633 0.6701571 0.9784581 1.9980698
000100 dd 8b 63 3f 89 d4 b9 bf 22 6f 86 bf 50 af f2 3e
       0.8888529 -1.4517986 -1.0502665 0.47399378
000110 57 82 11 c0 86 01 75 3f 43 2c d5 be 18 4e b0 3e
       -2.2735803 0.9570545 -0.41635332 0.3443458
000120 61 46 b5 3e 54 82 b9 3f ba 2d e0 bf 83 85 96 3d
       0.35405257 1.4492898 -1.7513955 0.07349684
000130 2d 71 1c 3f 81 a4 9e bf 25 5a 5a 3f 96 ac dd be
       0.6111019 -1.2393953 0.852938 -0.43295735
000140 12 01 7c bf 14 74 76 bf e0 3f dc bf e3 10 73 3e
       -0.98439133 -0.9627087 -1.7206993 0.2373691
000150 18 1f c8 bd be da 13 c0 be fe 71 3d 8b 27 24 40
       -0.09771556 -2.310226 0.05908083 2.5649135
000160 6d a0 6c bf 37 ed 8f 3e 69 7c 8a 3f 98 96 f3 bf
       -0.9243229 0.28110668 1.0819217 -1.9030333
000170 e8 13 d3 3e ad 9a 2e 40 bf 42 fa bf 54 47 90 3e
       0.41226125 2.7281907 -1.9551619 0.2817942
000180 23 f6 07 3e dc 90 32 3f 79 3e 73 3e 7a 3f 6e be
       0.13277487 0.6975229 0.237543 -0.23266402
000190 88 ee 0a 3e 39 fe 74 bf c1 95 b4 bf 15 69 13 3f
       0.13567555 -0.95700413 -1.4108201 0.5758222
0001a0 0d f5 c7 be fc a9 2c 3f 55 bc fd 3f 10 b6 71 bf
       -0.39054146 0.67446876 1.9823099 -0.9441843
0001b0 bc 40 9e 3d 25 41 e9 3e 88 0f aa 3f 67 3c dc 3e
       0.07727191 0.45557514 1.328599 0.43014833
0001c0 9d cf 9f be 29 3c 4e 3e 10 be 9a 3e e3 e2 11 3f
       -0.31213084 0.20140137 0.3022313 0.56986827
0001d0 d7 9e be 3f 99 55 16 c0 73 0e 7b 3f 6c b6 11 bf
       1.4892224 -2.3489745 0.9806892 -0.5691898
0001e0 d5 44 07 c0 1d 6a 2f bf 65 02 de 3e 4c a1 1d bd
       -2.1135762 -0.6852129 0.43361202 -0.038483903
0001f0 e2 8b d8 bf f4 3f b7 3f 68 34 17 3d ff da 59 bf
       -1.6917689 1.4316392 0.036915213 -0.85099787
000200 3e 66 db be 36 ab 83 bf 59 eb 30 3f f9 77 98 bf
       -0.42851442 -1.0286624 0.6910911 -1.1911613
000210 aa f8 3d bf 5b af 46 3e 2e 72 b4 3f b9 b0 ec be
       -0.74207556 0.1940283 1.4097345 -0.4622858
000220 37 19 ba 3e 1c 93 06 bf 84 41 a1 3e a6 79 96 3f
       0.36347362 -0.5256822 0.31495297 1.1755874
000230 6a 40 7a 3f 86 d4 0c be 44 64 f1 3f dc 9f 1b bf
       0.9775454 -0.13752946 1.8858724 -0.607908
000240 16 78 9b be 21 b9 9b bf a0 50 80 bf 1d 96 db bf
       -0.30365056 -1.2165872 -1.0024605 -1.7155186
000250 2c 41 6a 3f ff 6a f1 3e 91 ce 82 bd f6 62 95 bf
       0.91505694 0.47151944 -0.06387056 -1.1670825
000260 b8 55 13 3f b0 17 2c 3f 41 00 10 c0 0a e6 94 3f
       0.5755267 0.67223644 -2.2500155 1.1632702
000270 09 bc 62 3f d3 fd 10 c0 64 a5 b9 bf 99 8e 7f be
       0.8856817 -2.2654922 -1.4503598 -0.2495674
000280 58 76 f8 3f e0 29 ba 3c f1 14 04 bf 3a d2 87 3f
       1.9411116 0.022725046 -0.51594454 1.0611031
000290 9c 26 d1 3e 52 c8 1e 3f fa 81 11 bf 35 76 fb bf
       0.4084977 0.62024415 -0.56838953 -1.9645449
0002a0 77 95 7f 3f 68 54 c4 bf 98 22 1f 40 8f 86 25 3f
       0.9983744 -1.5338259 2.4864864 0.64658445
0002b0 cd 06 a5 be 13 ec e8 be 20 ae 67 bf 89 63 5c bf
       -0.3223175 -0.4549261 -0.9050007 -0.8608938
0002c0 78 5e 80 bf 10 37 2e 3e e0 7f 44 3d 1d ee f3 be
       -1.002883 0.17013192 0.047973514 -0.47642604
0002d0 b9 3f 12 3e 23 d1 94 bd 17 a8 6c bf 36 5d 2b 3f
       0.14282121 -0.07266452 -0.92443985 0.66939104
0002e0 65 cc 30 bf fd a5 88 3f 46 2d e0 3e cc e2 fa 3e
       -0.6906188 1.0675656 0.4378454 0.49001157
0002f0 a9 89 4d bf cc cb 6a bf 57 5f a7 bf 2f 74 02 bf
       -0.8028818 -0.9171722 -1.307597 -0.5095853
000300 42 64 0e bf e0 0e 47 bf d3 b6 36 3e 4e f9 af 3f
       -0.5562173 -0.7775707 0.1784318 1.3747957
000310 6f 08 4e 3f 9f c1 03 bf 39 19 96 bf 7b 2d b2 3f
       0.8048162 -0.5146732 -1.1726447 1.392013
000320 74 7b 04 40 49 0c 0b 3e 1c 5b c4 3f 70 45 30 be
       2.070035 0.13578905 1.5340304 -0.17213988
000330 ad 09 dd bf 63 2d b1 bf ab e9 97 be b1 72 cf be
       -1.7268578 -1.3841976 -0.29670462 -0.4051719
000340 ca 07 9a 3f c2 ec 48 3f 81 ae d1 be 8f c2 cc be
       1.2033627 0.78486264 -0.40953448 -0.39992186
000350 74 e1 e7 be 8e 59 24 bf 9f fe c0 bd f5 b5 8c 3e
       -0.45289195 -0.6419915 -0.09423565 0.27482572
000360 af 35 21 40 2a 45 a1 bf 64 fc 36 3f 51 10 ac bf
       2.5189016 -1.2599232 0.7147887 -1.3442479
000370 94 3c 8f be 07 8b c4 be 68 ab 4f bf 8c 66 3c c0
       -0.27975905 -0.3838732 -0.8112092 -2.943759
000380 fe b5 6c bf d9 6d 10 be 53 33 14 3f 20 6c e5 3f
       -0.924652 -0.14104404 0.57890815 1.7923622
000390 7b f5 b1 bf 1b 4c 47 bd b8 41 43 3e 02 57 60 3f
       -1.390304 -0.048656564 0.19068038 0.87632763
0003a0 f6 82 27 bf 81 6a 02 40 a7 61 b8 3e 01 7e 6c 3e
       -0.65434206 2.0377505 0.36012003 0.23094942
0003b0 de aa fe 3d 43 ff 1c bf a1 a9 2d be bd 2b 0d 3f
       0.12434934 -0.61327 -0.1695924 0.55144864
0003c0 5a 6f d8 3f d2 27 82 bf 5d f7 8f bf 65 81 9b 3f
       1.6908982 -1.0168402 -1.1247364 1.2148863
0003d0 37 64 61 3f 10 f1 a5 3f 39 b9 e8 3f f1 9b a6 bf
       0.8804354 1.2964191 1.8181525 -1.301634
0003e0 2e 55 c3 3f 16 95 cc 3e 55 f0 05 40 f7 b1 cb be
       1.526037 0.39957494 2.0927937 -0.39784214
0003f0 2b cd c8 bf dd a4 75 bf ad 8a ba 3e f2 9e 24 3f
       -1.5687612 -0.95954686 0.36433926 0.6430503

f_layer.weight f4 [50, 100]
000000 14 3a cc bc 87 b1 14 bd 2c 27 d3 3d c9 9c 2b be
       -0.024930038 -0.036302116 0.10310206 -0.16759028
000010 24 f3 f3 3d ad 7d ae 3d df bf e8 3d 35 8e b9 bd
       0.1191161 0.085200645 0.113647215 -0.09060327
000020 a7 61 fb bc 15 94 a1 bc 31 be c8 3d 94 43 5d bd
       -0.030686213 -0.019723931 0.09801901 -0.054019526
000030 3e e9 61 bc 43 5a 13 3e 33 e1 06 3e eb 61 37 be
       -0.013788519 0.14389901 0.13171844 -0.17908446
000040 09 c9 0a be 2a 42 ea 3d d1 a3 25 3e 18 76 15 bd
       -0.13553251 0.11438401 0.16175772 -0.036489576
000050 83 ce 0b 3e 5c 0c e2 3d b8 3a 02 be 6a 0b a0 bd
       0.13652997 0.110375136 -0.12717712 -0.07814677
000060 48 0a 9c bd bf 7e 17 be 86 07 f6 3c 82 80 9f bc
       -0.076191485 -0.14794444 0.030032884 -0.019470457
000070 c3 36 e5 3c ec 4e 01 be bd 07 ac bd b2 23 0b be
       0.027980214 -0.12627763 -0.083999135 -0.13587835
000080 7a 0c 07 bd f5 1c f2 bd 3e 48 ea 3d 89 c8 35 bc
       -0.032970883 -0.11821929 0.1143956 -0.011095175
000090 aa 05 23 3e e9 aa 07 3e 26 ec 6a bc 5c c0 a0 3c
       0.1592013 0.13248791 -0.014338529 0.019622974
0000a0 c4 16 a8 bc ed e7 5b 3c 17 08 d9 bc a5 ce 3d bb
       -0.020518668 0.013421995 -0.026493115 -0.002896228
0000b0 b9 f2 95 bd 6c 32 7f 3c 3e e3 2e 3e 3c 89 98 bb
       -0.07321686 0.015575986 0.17078874 -0.0046550315
0000c0 4c c7 10 3e ef af 54 bd b5 e0 31 bd d8 c4 3f 3d
       0.14138526 -0.051925596 -0.043427188 0.046818584
0000d0 c9 38 76 bd 1c 38 90 bb f4 3b 9c bb 35 77 7d bd
       -0.06011275 -0.00440122 -0.004767889 -0.061881263
0000e0 87 ef 51 3d 95 69 f3 3d c7 1b 4c bc 06 d8 e4 bc
       0.05125382 0.118853725 -0.0124577945 -0.02793504
0000f0 b4 3c 9c bd 54 22 d8 bd d2 08 e7 3d f1 13 26 3d
       -0.07628766 -0.105534226 0.11280979 0.04054636
000100 1b d1 81 bd 59 79 b1 3d aa 31 98 bd 3e c8 26 3d
       -0.06338712 0.08665723 -0.07431348 0.04071831
000110 f7 d0 79 3d 5c 1a 29 bd 0e 13 55 bc 50 63 44 3d
       0.0609903 -0.041284904 -0.013005031 0.047946274
000120 8d 66 4a 3d 91 65 ab 3d 04 a8 75 3d 21 bc 48 bd
       0.049414206 0.08368982 0.059974685 -0.04900754
000130 f9 24 01 bd 69 3e b7 3d 24 27 f9 3c 4c 6c 9c bd
       -0.0315294 0.08947451 0.030414172 -0.076378435
000140 21 d9 57 3d b0 79 35 3d c9 a9 03 bd 56 27 d9 bc
       0.052697305 0.044305503 -0.03214434 -0.026508015
000150 25 e2 67 bd 3d 37 bb bd c0 0e 63 3d b3 97 ca 3d
       -0.056612153 -0.09141395 0.05543399 0.098922156
000160 7a 11 6f 3c 28 ce bf 3d 4b 5d 19 3b 18 cc 91 bc
       0.014591569 0.09365493 0.0023401554 -0.017797515
000170 b8 8d 87 bd b8 1b 98 bd 46 8a 9d 3d 84 36 4b 3d
       -0.066188276 -0.07427162 0.07692389 0.049612537
000180 c9 38 0e bc fd 61 5a bd 18 f2 9f 3c 7e b3 10 3d
       -0.008680531 -0.053316105 0.019524619 0.035327427
000190 0c 9d a0 ba f4 06 0a 3e 22 04 a7 39 75 84 d1 3d
       -0.0012253835 0.13479215 0.000318558 0.10230342
0001a0 d1 7b c0 3c 50 c0 d3 bd 8a 4b 53 3c 71 bd f2 3d
       0.02349654 -0.10339415 0.012896428 0.11852539
0001b0 ff 22 37 3e 83 c8 ec bd 54 6a cb bd 5b f9 b4 3d
       0.17884444 -0.11561682 -0.0993239 0.08836623
0001c0 94 be 23 3e bd 64 c7 bd 82 7f 1d be 0f 34 bd 3d
       0.15990669 -0.09736011 -0.15380672 0.09238445
0001d0 b5 53 a1 3b dc b5 b1 bb a2 e6 ca bd 3f b6 88 3d
       0.0049233087 -0.0054232907 -0.09907271 0.06675386
0001e0 fd c1 80 bd 54 15 ab bd 70 9d e6 3d c5 35 fb 3d
       -0.06287 -0.083536774 0.112604976 0.12266115
0001f0 0a e6 a5 3d 5d cf 14 3e 91 43 04 bd 67 81 b8 3d
       0.08100517 0.14532228 -0.032291 0.090090565
000200 b4 76 11 3e 35 34 8a 3d 74 96 fe 3d b1 af 21 3e
       0.14205438 0.06748239 0.124310404 0.15789677
000210 2e fd 0a bd 21 b5 c6 3c 3e 25 a0 bd e0 22 b2 bd
       -0.033932857 0.02425629 -0.078196034 -0.08698058
000220 5b 5e 29 be be 6f cf bd 99 76 0a 3e 01 0c ce 3d
       -0.165399 -0.10128735 0.13521804 0.10060883
000230 3f 53 1c 3d 12 43 14 be 21 d6 ea 3d 9a 39 f7 bd
       0.038165327 -0.1447871 0.11466623 -0.120715335
000240 69 79 d3 3c a0 42 f3 3d e2 05 0e be ab c7 d1 3d
       0.025814729 0.11877942 -0.13869432 0.10243162
000250 2e 1c 74 bd 53 23 c5 3b c6 74 8a 3d aa 0d de bb
       -0.059597187 0.006016174 0.06760554 -0.006776531
000260 1e 66 16 bb 31 a8 7f 3d 66 af c3 3d 02 65 ef 3d
       -0.002294905 0.06241626 0.09554939 0.116891876
000270 64 a4 e1 bd 5d 93 1e 3d b3 96 b1 bb 14 66 e9 bc
       -0.11017683 0.038714755 -0.005419576 -0.028491057
000280 8b 9d 92 3d 1d 93 c6 3d a5 7d b0 3d d9 10 c7 3c
       0.07158955 0.096960284 0.08617715 0.024300026
000290 0d b2 b4 3b 51 d8 8d 3c 56 3c c4 bc ad 9d 9a bb
       0.0055143894 0.017315062 -0.023954552 -0.0047185034
0002a0 99 18 ce bd af 81 f4 3c 3e 2e 8f bd 60 e0 65 bd
       -0.100632854 0.029846994 -0.06991242 -0.056122184
0002b0 5c 2e 31 bc 45 96 07 3d cf 93 22 3d 3a 5e 65 3c
       -0.010814276 0.033102293 0.039691743 0.013999516
0002c0 46 f6 51 3d b9 f4 1c be 93 38 64 bd da 27 24 bd
       0.051260255 -0.1532773 -0.055718016 -0.040077068
0002d0 34 92 a0 bd 20 69 2b 3d 19 fe 69 3d 55 05 d7 bd
       -0.07840386 0.041848302 0.057127092 -0.10499064
0002e0 0c a3 78 bc ec 98 2b 3d ea 66 07 bd 8f 13 c2 3c
       -0.015175592 0.041893885 -0.03305713 0.023690967
0002f0 4b d1 e5 bd 1c eb 12 3d 23 74 45 3c 5b 5c 18 be
       -0.1122156 0.03586875 0.012051615 -0.14878981
000300 a9 70 0a 3d 41 2c 99 bd 13 ca ec bc 03 08 39 bb
       0.033798847 -0.07479144 -0.02890495 -0.0028233535
000310 b5 1a 78 bd 12 b3 d2 bd 5a 3e 28 3d c5 56 56 bc
       -0.060572345 -0.10288061 0.041075088 -0.013082211
000320 e4 66 10 3e 14 3d 3e bd 90 fb cf 3d a4 a7 c8 bc
       0.1410175 -0.046444967 0.101554036 -0.024494
000330 4e ed 9f 3d 73 da 00 3e af 05 29 bd 67 c0 54 3b
       0.07808934 0.12583332 -0.041265186 0.0032463314
000340 17 06 1f bd 76 31 1a bd 72 a9 9c bd 28 42 b1 bd
       -0.038824167 -0.037644826 -0.07649507 -0.086551964
000350 a6 88 ba bd 60 4e 77 bd 7c 99 03 bd 34 30 5a bb
       -0.09108095 -0.06037748 -0.032128796 -0.0033292891
000360 fa 92 86 bd 97 2b 83 3c 27 d0 3e 3e b7 af 35 bd
       -0.06571002 0.016011996 0.18634091 -0.044357028
000370 bf 99 27 3e 51 bd 03 3d 14 03 a4 bd d4 cf 50 bb
       0.16367243 0.032162968 -0.080083996 -0.0031862156
000380 e9 bc d1 bd 9c ae 28 be 7e 9e 0a 3e 35 37 2f 3c
       -0.1024111 -0.16472858 0.13537022 0.010694315
000390 a5 3c 02 bd 79 3b b2 bd a3 48 79 3c 5f fb d5 bd
       -0.031796116 -0.0870275 0.015215072 -0.10448336
0003a0 31 0f c1 bc 0a 48 4c bd b3 51 2b 3d a1 df 9b bc
       -0.023566814 -0.04987339 0.04182596 -0.019027533
0003b0 18 34 ea 3d 2c 25 36 3e af 4a ae bd 6f 63 ca bd
       0.11435717 0.17787617 -0.085103385 -0.09882247
0003c0 55 65 d6 bd 2c 65 16 bd 14 0d be bc b3 74 54 3d
       -0.10468546 -0.03671758 -0.023199596 0.051869106
0003d0 68 e6 39 bc f2 07 cf bd 63 d2 3e 3e 3d ad 67 b9
       -0.011346437 -0.10108937 0.18634944 -0.00022094413
0003e0 7e 9b 18 3c d1 4e 0e 3d 20 34 b1 bd 31 6c 89 3d
       0.009314416 0.034743134 -0.0865252 0.06710089
0003f0 1f fe cb 3d d6 cd 82 3c 89 dd fc bb 2d 6a 92 bd
       0.09960579 0.01596729 -0.0077168387 -0.07149158

f_layer.bias f4 [50]
000000 69 8d 74 bc 96 21 da bd f0 db f4 3b a7 ed af 3d
       -0.014926293 -0.10650937 0.0074725077 0.085902505
000010 98 4d b6 3d 77 31 77 bc b9 c3 28 bd b1 7d ee 3c
       0.089015186 -0.015087477 -0.04120228 0.029112669
000020 ca 96 a1 bd 50 fe e6 3a 9a 3a 73 bc 5b d3 15 3d
       -0.07890089 0.0017623398 -0.014845515 0.036578517
000030 a0 72 25 3e 9f 6a 54 3d f6 a3 02 3e 59 8c 23 be
       0.16157007 0.051859494 0.12757859 -0.15971507
000040 fb 6f 1a 3d 9a a2 59 bd 43 db ef bc 32 a6 49 bd
       0.03770445 -0.053133585 -0.029279357 -0.04923076
000050 ac c1 cf bc 45 64 91 bc 30 80 c0 3b 45 99 8d bd
       -0.025360905 -0.017748008 0.005874656 -0.069139995
000060 cd cc 37 bd 66 bb ca bc c5 4e 37 bc 6a 50 aa 3c
       -0.044873048 -0.024747562 -0.011188214 0.020790298
000070 92 63 dd 3d 1d d2 c5 bd 92 33 d8 bd c2 48 7d 3c
       0.10810007 -0.096592166 -0.10556711 0.015459241
000080 1c e3 fd 3b aa 0e 99 3c 90 f1 f4 bd 4e 83 ff bd
       0.007748021 0.01868375 -0.11960137 -0.12476216
000090 d9 b9 f1 bc 5b c8 88 bd 8d 8f f5 3c 59 3d 04 be
       -0.029507564 -0.0667884 0.029975677 -0.12914027
0000a0 b0 ff 48 bd f8 cf 6c 3d e5 8f 13 3d e7 30 c6 bd
       -0.049071968 0.057815522 0.0360259 -0.09677296
0000b0 a1 cd 1f be 86 ea 5e bc c4 f9 16 3e f5 12 42 bd
       -0.15605785 -0.013605719 0.14743716 -0.04738136
0000c0 7a 75 23 3d 33 e6 04 bd
       0.039906956 -0.032446098

p_layer.weight f4 [1, 50]
000000 d6 73 d4 3d d4 b0 d2 bd 1c 3a aa 3d fc 6b 2c 3e
       0.103736565 -0.102876335 0.08311865 0.16838068
000010 8a c2 8b 3d c8 00 cd 3c d9 89 6b 3d 49 9f 33 bd
       0.06824215 0.025024787 0.05750451 -0.043853078
000020 cd 0d 9f bd ca cd 8f 3d 26 2d 30 3e 71 dd f1 3d
       -0.07766304 0.07021673 0.17204723 0.11809815
000030 1b d4 64 3d fb 8a 94 3d 5a 2f f1 3d e0 da cb bd
       0.055866342 0.07253071 0.1177661 -0.099538565
000040 b1 bf be bd 99 16 25 be a1 b9 81 3c 97 32 8a bd
       -0.09313906 -0.16121902 0.015835585 -0.067479305
000050 53 d7 17 3d 91 23 0b be 76 db e8 bd a4 8e 40 bd
       0.037070584 -0.13587786 -0.11369984 -0.047011033
000060 8f 2f 52 3d af c0 28 be 8b 26 20 be a7 46 27 3e
       0.051314887 -0.16479753 -0.15639703 0.16335545
000070 23 46 b7 3d 82 66 bd bd 10 44 e7 bd 64 ec b4 3d
       0.089489244 -0.092480674 -0.11292279 0.088341504
000080 ee 35 c2 3d 7e 5b a4 3d ff 0e 94 bd d5 5a a7 bd
       0.094829425 0.08025263 -0.07229423 -0.08171622
000090 ac 1b 06 be a2 fc d9 bd 73 01 71 3d a1 b6 12 be
       -0.13096493 -0.10643889 0.058839273 -0.1432748
0000a0 96 4e 05 be 0d aa eb 3d f2 92 48 3e 08 0f 06 be
       -0.1301826 0.11507044 0.19587305 -0.13091671
0000b0 69 c9 80 bd 9e 8e 01 3d a3 21 91 3d 6e 3f 0c be
       -0.06288416 0.03163015 0.07086494 -0.13696072
0000c0 4c d1 93 3d 4d 62 58 3d
       0.072176546 0.052828122

e_layer.weight f4 [50, 50]
000000 7c 3d 50 3d 77 98 3e 3e 1c 89 d8 3d b0 e4 d0 bd
       0.050839886 0.18612848 0.105730265 -0.10199869
000010 f7 54 2d be c1 5e 06 bd 0b 96 72 3d ba ef 8e bc
       -0.16926943 -0.032805208 0.059225123 -0.017448295
000020 36 d2 ae 3c f3 d6 22 bd 57 59 1b 3d 20 a3 a5 bd
       0.02134047 -0.039755773 0.037926998 -0.08087754
000030 4e 69 e3 3d 5d 24 d4 bd 16 99 7a 3b 8f 99 79 bd
       0.1110407 -0.10358498 0.003823822 -0.06093746
000040 4b 02 13 3e 20 9b d7 3d 9e 97 aa 3d d2 a4 9e 3d
       0.14356343 0.105276346 0.083297 0.07746281
000050 a5 c3 1c bd 5a da 89 bc d7 26 d2 bd dd d7 97 bb
       -0.03827252 -0.016827751 -0.10261314 -0.004633887
000060 e5 86 40 3e f6 da de 3c e9 1f c7 bc a8 57 66 3d
       0.18801458 0.027204018 -0.024307208 0.05623594
000070 db ec 31 3c d1 50 d7 3d eb 42 6a 3e 21 c3 9a 3d
       0.010859693 0.105134614 0.2287709 0.07556749
000080 e9 5b 8d bc 19 bd 3f 3c 4a 58 be bd b7 dd 6a bd
       -0.01725574 0.011702799 -0.092941836 -0.05734035
000090 dc 17 94 bc 1a 0d fe bc 46 ef e7 3d 46 bb 6e 3d
       -0.018077783 -0.031012107 0.11324935 0.058284067
0000a0 42 f3 2b be ab 2b fa 3d b3 70 e3 bd 26 79 37 3e
       -0.16792014 0.1221536 -0.1110548 0.17917308
0000b0 98 15 f3 3d 42 e3 a4 bd 55 59 54 3d 53 58 17 3c
       0.11869353 -0.080511585 0.051843006 0.009237367
0000c0 5d 0e bc 3c c6 e7 3a 3d 1a 6a 44 be 82 dd c9 bd
       0.022956068 0.045631193 -0.191811 -0.098567024
0000d0 3d 9f 08 be d7 23 09 3e 8d 02 9f 3d 68 3f eb 3b
       -0.13341995 0.13392578 0.077641584 0.0071791895
0000e0 68 fc 0a 3d 2a ac 06 be a6 c3 03 be a4 b4 68 3d
       0.03393212 -0.13151613 -0.12867603 0.056812897
0000f0 48 02 7b 3c c1 0b 55 3d 38 fa f3 3d cd ff 1d 3e
       0.015320368 0.052013163 0.1191296 0.15429612
000100 fb 11 02 3e c2 9d 03 bc c5 8f 71 3d a0 3f b3 bc
       0.12702172 -0.008033218 0.058975 -0.021880925
000110 6c 18 bd 3b be ae 23 3e 31 bd 85 bd 73 3a 1d be
       0.0057707336 0.15984628 -0.06530226 -0.15354328
000120 65 3a 51 be 8a 07 11 3e 95 39 08 3e a6 db 0b 3e
       -0.20432432 0.14163032 0.13303216 0.13658008
000130 cc 8e c1 bc 83 7f 03 be c6 bf c5 3d 07 0c 7f bd
       -0.023627661 -0.1284161 0.096557185 -0.06226733
000140 c4 03 2c 3d 87 e2 af bd b0 c7 ce ba d9 b4 b9 bd
       0.04199578 -0.085881285 -0.0015776064 -0.09067697
000150 d3 9a 28 bd 52 8a 37 3e 2d 62 e3 bd 35 02 c0 3c
       -0.041163277 0.17923859 -0.1110271 0.023438552
000160 03 8c 05 3d 4a 3d 7a bd 2e d8 0a be 3d 21 8e bd
       0.03260423 -0.061093606 -0.13559029 -0.069399334
000170 23 6b 7d bd 12 0b 22 ba 29 c2 bd bd 2f 8f 1f 3e
       -0.06186975 -0.0006181459 -0.09265549 0.15581964
000180 e1 4f cb 3d c4 92 0b 3e b8 f2 fc bd 3f 8d 11 3c
       0.09927345 0.13630205 -0.123509824 0.008883773
000190 ef a6 df 3d ad 7a e5 3b 9c 8c b3 3d ec 33 34 3e
       0.10920512 0.0070031495 0.087670535 0.17597932
0001a0 dc b8 76 bd 69 ed fa bd f7 2a 0e be 33 38 3b 3d
       -0.06023489 -0.12252314 -0.13883577 0.045707893
0001b0 57 26 6f bb 88 e8 c3 3c c5 12 ca bc 9c 2b 3b 3d
       -0.0036491358 0.02391459 -0.024667153 0.045695886
0001c0 f9 0c 8f bd 7b 52 a0 bd 8e 8b 81 bc c2 2d 78 bc
       -0.06984896 -0.07828232 -0.015813615 -0.015147628
0001d0 9e 68 71 bd 52 02 41 3e b1 82 9b 3d 0c 85 c9 bd
       -0.05893766 0.18848541 0.07593287 -0.0983983
0001e0 a9 98 53 be 04 0c 5c 3b d1 fd 5b 3d 70 c0 4f bc
       -0.20663704 0.0033576498 0.053708855 -0.012680158
0001f0 07 14 e0 3d ee 81 95 3d aa bb 81 bc ba ae b1 3d
       0.1094132 0.07300173 -0.015836556 0.086759046
000200 70 c3 ee 3d f8 2d a7 bd 4c 64 b0 bd 99 2c 0b 3e
       0.116583705 -0.08163065 -0.0861288 0.13591231
000210 64 c8 61 3c 39 6f 4e 3d 2a 99 83 3d d2 1d eb ba
       0.013780687 0.05039904 0.06425698 -0.0017937964
000220 a1 f7 dc bd f7 c5 98 3d da e7 0d bd b0 b5 a1 3d
       -0.10789419 0.07459634 -0.03464494 0.07895982
000230 bc aa 1c be 22 a3 0b 3e 07 52 10 be ac d4 f6 bb
       -0.15299505 0.13636449 -0.14093791 -0.0075326767
000240 3c 05 43 3e 84 3d 26 be 47 37 5d 3d f0 49 25 3e
       0.19044966 -0.16234404 0.054007795 0.16141486
000250 40 4c 2e 3e 77 2f 61 bd a1 d4 17 be de 94 84 be
       0.17021275 -0.054976907 -0.14827205 -0.25894827
000260 b2 d1 79 3d 91 5c 72 3d 9c 84 8c 3d 96 75 30 3e
       0.060990997 0.05917031 0.06861231 0.17232355
000270 51 98 34 bd fd bb 9d 3d fc eb f9 bd e4 77 16 be
       -0.044090573 0.077018715 -0.122032136 -0.14694172
000280 a4 27 38 3e dd e3 7b 3e 03 81 5c bd 49 8e a1 bd
       0.17983872 0.24598642 -0.053833973 -0.07888467
000290 02 8b ec 3c c2 33 35 3e ac 3a 68 3d 3b 14 78 bd
       0.028874878 0.17695525 0.05669658 -0.06056617
0002a0 08 db 1f bd f5 9b 06 3e 0b 72 30 bc 18 d3 83 3d
       -0.039027244 0.1314543 -0.010769377 0.06436747
0002b0 0e cf b0 3d 69 cc 5b 3a 53 c1 34 be 43 2a d8 bc
       0.086332425 0.00083846465 -0.17651872 -0.02638734
0002c0 a5 3e 29 be 8f 52 bc 3d c9 d4 ca bd 01 14 73 3c
       -0.16527803 0.09195434 -0.09903867 0.014836312
0002d0 e2 77 61 bd 11 62 81 bd 39 13 5d be 39 3c 4d 3c
       -0.05504597 -0.06317533 -0.21589364 0.012526565
0002e0 fa 2c 85 bd f8 1c f3 3d 9f ac 87 3d 6f 60 5f be
       -0.06502719 0.1187076 0.06624722 -0.2181413
0002f0 84 2d 80 be b3 23 c7 bd b6 c7 eb 3d 22 67 c9 bd
       -0.25034726 -0.09723606 0.11512701 -0.09834124
000300 b8 73 5a 3e 51 ac 5b 3c 72 d1 ef bd 4e dd 88 3d
       0.21333206 0.013407783 -0.117098704 0.066828355
000310 9f 56 95 bd d8 34 36 bd b1 07 58 be 8e 1f 1e 3e
       -0.07291912 -0.04448399 -0.21096684 0.15441725
000320 d4 8d e5 3d 0e bc 4c bd 55 86 08 bb 38 7a 82 3d
       0.11208692 -0.04998403 -0.0020832021 0.063709676
000330 bb 52 30 3d 6e 8c 6f 3e 84 45 f1 bd 0c a4 40 3e
       0.043047648 0.23393413 -0.11780837 0.18812579
000340 d2 71 a9 3d d1 e6 96 3d 20 8b 4b 3d 9b 2d 45 3e
       0.082736626 0.073682435 0.049693227 0.19255678
000350 c0 a3 39 be 34 2b 11 3e 82 d9 c5 3d 8b 35 2d 3d
       -0.18128872 0.14176637 0.09660627 0.04228739
000360 b2 eb e8 3c 3f 05 c2 3d 01 80 ef bd 60 7d 00 3e
       0.0284327 0.09473657 -0.11694337 0.12547827
000370 53 75 18 bd fa d0 1d 3e 81 68 4b 3d d4 bc 04 3e
       -0.037221264 0.1541175 0.04966021 0.12962657
000380 3d 39 0f 3e 34 a0 89 bb 33 d2 44 bd 21 20 4d be
       0.13986678 -0.004200006 -0.048052024 -0.20031787
000390 cc 1b 08 bd cb 72 1b bd 4c f1 4c 3d e1 5f 99 3d
       -0.033229634 -0.037951272 0.050034806 0.074889906
0003a0 7a ea 70 3d 2b 59 36 3e a0 3c 14 bb ab 70 9b bd
       0.058817364 0.17807452 -0.0022619143 -0.07589849
0003b0 7e 41 39 be 8e 58 a4 3d 5a 7d 50 be a2 c4 b8 3d
       -0.1809139 0.08024703 -0.20360318 0.0902188
0003c0 c4 a0 83 bd 47 68 71 bd c6 94 af 3d f1 2b f9 bd
       -0.06427148 -0.058937337 0.08573298 -0.12166584
0003d0 c7 91 19 bd eb 0c 1f bd 26 af e0 3d dc 38 b7 bd
       -0.03749254 -0.03883068 0.10970907 -0.08946392
0003e0 1f 91 1f be 72 7d 77 bd c2 ea 6b bd 40 f5 0f be
       -0.15582703 -0.06042237 -0.05759693 -0.14058399
0003f0 50 49 bc bd 75 32 ee bc 30 a1 1d 3e fc 00 7c bd
       -0.09193671 -0.029076794 0.1539352 -0.061524376

e_layer.bias f4 [50]
000000 6d a3 56 3d 03 cc b7 bd b4 04 45 be d8 f3 18 3d
       0.05240195 -0.08974459 -0.19240075 0.037341923
000010 0a 76 11 3d c7 69 c5 bd 4e 17 2b 3d 34 e3 27 be
       0.03551296 -0.09639316 0.041770272 -0.16395265
000020 86 59 c7 bd 12 a9 0a be b9 8d d8 bb 21 70 03 bd
       -0.09733872 -0.13541058 -0.0066086915 -0.032089356
000030 29 70 f2 bd 2d a2 4b 3e 50 fc 92 3d 64 ab cf 3d
       -0.11837799 0.19886084 0.07177031 0.10140112
000040 58 a8 e3 bc 52 09 44 be ae a7 89 3d 6f f0 af 3d
       -0.027790233 -0.1914418 0.067214355 0.08590781
000050 01 95 97 bd 40 7e 3b be 27 51 05 be 06 12 f5 3b
       -0.07401467 -0.1830988 -0.13019238 0.007478955
000060 bc 99 81 3e 80 01 ac 3d c9 23 8b bd ea 11 02 3e
       0.25312603 0.083987236 -0.06793935 0.12702146
000070 4c 45 c4 bd 98 0e d0 bc ab 74 8e bd 16 ab 21 be
       -0.0958353 -0.025397584 -0.069558464 -0.1578792
000080 ea 26 33 bd c1 4b 8a 3d b0 42 8e bd 4f a8 4e bd
       -0.043738283 0.0675273 -0.069463134 -0.05045348
000090 6a 36 44 be 67 47 07 3e 53 98 8a bd 4f ed 4a be
       -0.19161382 0.13210832 -0.06767335 -0.19817089
0000a0 46 c1 fa bc f7 64 cb 3c 91 b5 68 bd ac 8b 13 be
       -0.030609738 0.024828417 -0.05681378 -0.1440875
0000b0 3d 11 69 be 22 b2 84 bd e4 7e b3 bc a1 9c 6c bd
       -0.22760482 -0.06479289 -0.021911092 -0.05776656
0000c0 4d d1 9f bd 4e be 1c be
       -0.07803593 -0.1530697
