ckpts/dkt/alg06/model.ckpt (torch, 904287 bytes, 7 tensors)

interaction_emb.weight f4 [962, 100]
00000000: caaf a0bf fa74 99bf a796 b7be 2543 9abf
00000010: 08ed 083f dc60 3e3f 4163 e6bf fe22 89bf
00000020: 71a6 fb3f ad8b 50be 1f92 52bd e301 4ebf
00000030: 4298 8b3f 8631 af3f 417e 313d adaf 83bd
00000040: d6f6 373f 4ae7 263f 67a0 09bf e896 c53f
00000050: 3d32 a9bf d2b2 143f 9b7d 6c3f 3629 803f
00000060: f5ba 553f bd92 513e c4a4 ecbd cec3 083f
00000070: 6a69 6e3d 0537 8dbf ec58 e33f cd5a 2f3e
00000080: aa87 14bf 0a67 8abe 2590 b13e 0501 8e3e
00000090: a3ef 9b3e 4a80 7e3e a25c 2fbf 009c 30bf
000000a0: a088 ddbf 6b78 f1bf cb5e 92bf 52f5 613d
000000b0: 1d6d 973f b8c0 92bd 7317 423f 64e0 a33e
000000c0: 2d31 823f c426 35bd de9a 99bf 1a7f cb3c
000000d0: a900 01c0 2028 5a3e 868d 8fbf 80ee 44bf
000000e0: b04e 3140 b518 76bf e893 993f 3def 2bbf
000000f0: d518 653e f8ad db3f 1937 18c0 b2f4 a43f
00000100: 659f 3bbf 5b61 303e e291 a2bf 50e7 073f
00000110: 8c2d 533f 3014 053e db33 fc3e 145c d23c
00000120: 9e21 ca3f e1db 993f e0fd 72bf c48f 37be
00000130: 42c3 1dbf 9957 103f 7cd9 fe3d 3e3e df3f
00000140: 33d7 2b3e ff56 37bd 0bcf 67bf 00cf 7abf
00000150: 2d38 a1bd c3fc 173f 020c 813f 7c9e 0f3f
00000160: 9b72 8dbf 6215 c43d fae4 e93e e92f e63f
00000170: 4e2e 93bf 5d38 8e3e 9041 3fbd 86da c83d
00000180: 2c61 54bf db71 a43f 8050 7c3d ed97 d4be
00000190: 5475 883f 0ee3 683f 7148 993f 3956 9e3f
000001a0: 713f a9be e6e1 1c40 37fc f3be a744 a33f
000001b0: 826a 973f caa2 95be 283f e3bf e89b 11bf
000001c0: 7cc4 293f 14c2 4c3f 444f 4ebf 78e2 31be
000001d0: 29b0 fa3f b87c 483f a163 85be 4705 46bf
000001e0: 8a9c 0140 9452 523c cb4b 83be 6a0e c33e
000001f0: 0834 7a3e a455 20be b354 31be 86f0 aa3f
00000200: 818c a0be 4580 91bf 1f0f b73f c37a e93e
00000210: df5a da3e 9d29 42be 9d0c 03bf 35fe 80bd
00000220: 3485 acbf 8ebb b73e 4480 8bbc 89ee 1bbe
00000230: 86af 403f ed29 4cbf 0015 3b3f 5ff2 113f
00000240: 26c2 b4be 6588 05c0 e24e 0c40 d6ca 28bf
00000250: 14ff 21bf 6908 9a3f a359 5ebe 274e c0be
00000260: 0ec5 b93f b9ab 36bf 213e 61bd 7061 d1bd
00000270: 7486 60bf 17ba 233f cf37 a03c 0b8b 3d3f
00000280: d91a 71bf 74fe 6d3f bc49 d6be 4a06 aabe
00000290: eee7 8f3f 81bc 933f 14a3 40be 839c 32be
000002a0: 0d1d 61bf 4d7a f63d 1276 de3e b795 06bf
000002b0: 9322 15bd 1aa1 cc3f a1c9 d23f a8dc 653e
000002c0: 73ee 39be 6080 98bf 0c5c babe 01ed 493f
000002d0: 6193 4b3f f748 99bf 91b5 a03e e508 5c3f
000002e0: 9e7f 243f 5a8a 95bf 6b72 d73f 1c36 63bf
000002f0: 0be0 333f 24c9 413f 5aaa 7bbf febc 9ebf
00000300: 462f 883e 5bdb 55bf 9c24 2440 0d25 15bf
00000310: 1aec 6fbd 2760 753f 9dba fd3e 7f2c ca3e
00000320: a13b c33f d39b 0b3f c3de 403f d94f 093f
00000330: f9fd d6be 081c a0bd 3b4b bbbf a973 c9be
00000340: 33c0 cdbf f847 aabf a26b 553f 4903 51bf
00000350: 88cd 30bd ae3f 77bf 01ad be3e 4394 23bf
00000360: 5b12 893f 494d b2be 7603 b8bc a342 18bf
00000370: 7dd1 3cbf bdb3 1ebf f28c e9be 4d5d e6bf
00000380: a2db 023f b040 e93f 411c 033f 4bb0 3440
00000390: 60e0 77bf 7690 0dc0 cbfd 453f 05fa 80bf
000003a0: d34e aabb b860 a53f a36d 63bf 6ea2 9ebc
000003b0: c4c5 103f 5799 03bf 0d04 573f a4b8 593e
000003c0: 42f2 013f df39 c03e 16ef 1c40 fa6a f33f
000003d0: 6ac4 103f 0afc b63e 9ad7 ca3f dbf7 053f
000003e0: 66d1 e7be 5315 93bf 1c59 0240 27a3 72be
000003f0: 8904 d43d 3953 c43e de2f f63d f89a d2bf
-1.2553647 -1.1988823 -0.35857126 -1.2051741 0.5348668 0.74366546 -1.799904 -1.0713804
1.9660169 -0.20365782 -0.051408883 -0.8047163 1.090584 1.3686988 0.043333296 -0.06429992
0.71861017 0.6519667 -0.5376038 1.5436678 -1.3218457 0.5808536 0.9237916 1.0012577
0.834884 0.20466132 -0.11554864 0.53423774 0.058206 -1.1032416 1.7761512 0.17124481
-0.58019507 -0.27031738 0.34680286 0.27735153 0.30456266 0.24853626 -0.6850072 -0.6898804
-1.730732 -1.8864874 -1.1435179 0.055165596 1.1830174 -0.071656644 0.7581703 0.32007134
1.0171257 -0.044226423 -1.2000387 0.02484088 -2.0156653 0.21304369 -1.1215065 -0.7692642
2.7704277 -0.9613145 1.1998262 -0.67161924 0.22372754 1.7162466 -2.378363 1.2887175
-0.7329009 0.17224638 -1.270077 0.5308733 0.82491374 0.12995982 0.49258313 0.025678672
1.5791509 1.2020227 -0.9491863 -0.17925936 -0.61626065 0.56383663 0.124438256 1.744087
0.1678131 -0.0447607 -0.905503 -0.97972107 -0.07872043 0.5937006 1.008179 0.561012
-1.10506 0.09574391 0.45682508 1.7983371 -1.1498506 0.27777377 -0.046693385 0.09807305
-0.8296077 1.2847246 0.06160021 -0.4152216 1.0660806 0.9097146 1.1975232 1.2370063
-0.33056214 2.4512877 -0.47653362 1.2755326 1.1829379 -0.2922576 -1.7753649 -0.5687852
0.66315436 0.7998364 -0.805897 -0.17371547 1.958501 0.78315306 -0.26052573 -0.773518
2.0251794 0.012837071 -0.25643763 0.38096935 0.24433911 -0.1565767 -0.17317466 1.3354652
-0.31357196 -1.136727 1.430149 0.45601472 0.42647454 -0.18961187 -0.5119112 -0.06298486
-1.347815 0.3588528 -0.017028935 -0.15227713 0.7526783 -0.79751474 0.7307892 0.57010454
-0.35304374 -2.0864499 2.1923146 -0.65934503 -0.63279843 1.2033817 -0.21713881 -0.37559626
1.4513261 -0.7135578 -0.05499089 -0.10223663 -0.8770516 0.63955826 0.019557862 0.7404029
-0.9418159 0.9296639 -0.4185313 -0.33207923 1.1242654 1.1541902 -0.1881221 -0.17442517
-0.8793495 0.12035046 0.43449455 -0.52572197 -0.036409926 1.5986664 1.6467782 0.22447455
-0.18157367 -1.1914177 -0.3639835 0.78877264 0.7952176 -1.1975392 0.31388524 0.8595107
0.6425723 -1.1682847 1.6831793 -0.8875444 0.7026374 0.7569754 -0.9830681 -1.2401426
0.26598567 -0.83537835 2.5647345 -0.5825966 -0.058574773 0.9584984 0.49556437 0.39487073
1.5252572 0.54534644 0.7533991 0.5363746 -0.4199064 -0.078178465 -1.4632334 -0.39346054
-1.607428 -1.3303213 0.8336736 -0.8164564 -0.04316476 -0.9658154 0.37241367 -0.63898104
1.0708727 -0.3482459 -0.022462588 -0.5947668 -0.73757154 -0.6199301 -0.45615345 -1.7997223
0.51116383 1.8222866 0.5121499 2.82326 -0.96826744 -2.2119422 0.7734038 -1.00763
-0.005197385 1.2920141 -0.8883917 -0.019364562 0.56551766 -0.51405853 0.83990556 0.21261841
0.5076028 0.37544152 2.4520926 1.9017022 0.56549704 0.35739166 1.5847046 0.5233132
-0.45276946 -1.1490883 2.0366888 -0.2369505 0.103524275 0.38344744 0.12020849 -1.6453543

lstm_layer.weight_ih_l0 f4 [400, 100]
00000000: bd98 0fbd 33e5 603d b8d8 b5bc 2c17 c7bd
00000010: 8387 b9bd bcd7 193d adab 46bd e800 123d
00000020: 820e 15bd 946e 0dbd 6ec0 b53b 6dd8 01be
00000030: 30c9 0cbe 29de 613d 5078 8a3d abd4 79bd
00000040: a29e edbd 8369 e5bd 7605 89bc 27fe 02bd
00000050: 1769 8b3d c461 3f3c f061 363c 73cd 793c
00000060: 2a5f c3bc 7642 66bd 0164 733d 3ce8 b63d
00000070: 84bc 833d e41d 4b3c a350 653d 5884 683c
00000080: b924 c03d e64f 61bd 4be3 1cbd 9fcc 163e
00000090: 7e01 173d dc24 42bd ba3b be3c f801 af3c
000000a0: cf15 523e c4ec 43bd c537 9a3c 3a6f b2ba
000000b0: 1f77 a2bd b4e1 cebd 6ccd a53d 213b 26bd
000000c0: 73f4 393d 656b 3a3b 00a2 09be ac9b d33d
000000d0: e138 cb3d fb87 663d 54c7 d03d 458d 09bd
000000e0: 74ee c33b 943c f2bc 5870 4b3d ffe8 923d
000000f0: 330c 35bd 09d9 a3bd 95bc acbd 9edf 423d
00000100: 4c4e 5cbd a373 c8bc b226 973d d66b aebb
00000110: fee2 f2b8 1945 4fbd 912f 4a3d 7842 693d
00000120: da49 71bd a14d 0c3d f531 473d 22f4 42bc
00000130: 5c85 673d 481e 923b c2d6 ddbc d831 04bc
00000140: b9ee e83d a389 dcbd ab2b 0bbd 87e4 aa3d
00000150: d4c9 313d 093d 5ebd 8316 133d 9961 ebbd
00000160: 6baa b3bc a6f8 173d b2c7 b6bd 9e7b 1b3e
00000170: 5287 e2bd f069 7d3d 4473 5cbd 2084 d83d
00000180: 6667 813d 6eff bd3d 9026 443d 59de 44be
00000190: f689 03bc 4a61 e8bd bb99 e43d f83c eebc
000001a0: 7546 f93c 1bfd 843d ef2b d6bd d7ca 513c
000001b0: d472 5ebc 3fcb 303d 4529 cc3c f131 1fbd
000001c0: 7398 a23d b739 21bd 8e8c 28bc 8c5c 9cbc
000001d0: 505d 46bd ea56 68bd ea69 30bc 5009 1abd
000001e0: 31a7 523c 03a3 453d e2d1 153c c2af 81bd
000001f0: c296 1d3c 6f5d aabb 4e2b a93d eae4 2abe
00000200: bbe7 06bd fe06 35bd 34b6 1d3d ed88 00be
00000210: 8a86 f73d 7b14 153e cb6a 213d e812 0ebd
00000220: 8a21 a5bd 9925 d13d a69b 55bb 0f5b 3dbd
00000230: 3294 4b3d a554 e6bd 7474 09bc 6273 dc3b
00000240: 95c8 173c 5e7d 2b3d f930 12be dea9 9dbb
00000250: a35e 01be c427 a43d 2295 72bd 3a2b 5f3a
00000260: 3b1e a13d efce 823d 354b 79bd 9799 cdbd
00000270: 745f 993d a5e1 613d e3ea 923c 7e91 6a3d
00000280: 6bce a73d cedf 7dbd 3dfd 00bd 0ae3 83bd
00000290: ee22 c1bc b448 33bc f842 4a3d 15e5 86bc
000002a0: 251e 70bc 3e4e 01bd 6683 093e 272e 37bd
000002b0: 0636 13bd 23c7 183d 9865 a438 f745 5c3d
000002c0: 7066 753d 6dce 003d 7f62 5cbd 53f2 373d
000002d0: 85f0 33bd ee0e a0bd 3a57 fb3c acbd e2bd
000002e0: 061f 67bc 381b 07be 6d76 03bd 1fa5 a9bd
000002f0: 4832 7e3d 091f 933b 60cb 8a3d 036e aabd
00000300: 184a 083c 3c10 693d 87f6 0b3e a2da d8bd
00000310: d30e 113c 1dca a13c b271 a3bc 69fa 46bd
00000320: 11ba c9ba 35e5 143c 9875 053c e6f2 18bd
00000330: d834 9abd 09d1 ae3d 38ac 703c 5ff9 913d
00000340: 85ec 1d3d d935 533d 4ba4 6dbd 1b13 9f3d
00000350: 7932 f3bc 63f6 fd3d 647c 1c3a 1bf6 1a3e
00000360: edd0 86bd 2234 6c3d 6c9e 0b3e e578 9a3d
00000370: c316 1f3e 6294 6b3d 55f1 dfbd 03eb 9e3d
00000380: e5c2 a53d a5d3 793d 52bb 833d 4a09 3abc
00000390: 9fe0 b83d e999 213d a0ca 8a3d 2ead da3b
000003a0: 5088 eabd 806f f13c 34c7 b2bd 5822 c9bd
000003b0: 6b65 f3bd 5c29 99bc b71f a4bd 5028 83bc
000003c0: adef ab3d ba6d 1c3d 5319 e3bd b559 12bc
000003d0: a358 f33d 48f9 05bd a418 3a3d 50af 7bbd
000003e0: 4fd8 e3bd d853 753d 098d 5ebd 5ce4 233d
000003f0: be04 0fbc 29be 233c 8753 00bd 75b2 273d
-0.035057772 0.05490608 -0.022198066 -0.097212166 -0.0905905 0.037559256 -0.048503567 0.035645396
-0.03639079 -0.034529284 0.005546621 -0.12680216 -0.13748622 0.05514351 0.06761229 -0.06099383
-0.116025224 -0.112017654 -0.016726237 -0.03198066 0.06807154 0.011681024 0.011131749 0.015246737
-0.023849089 -0.056215726 0.059421543 0.08931014 0.06432441 0.012397263 0.055985104 0.014191709
0.09382004 -0.055007838 -0.0383027 0.14726494 0.036866657 -0.047398433 0.02322184 0.021363243
0.20516132 -0.04783322 0.018825421 -0.001361347 -0.07932877 -0.10101643 0.08095822 -0.040583733
0.04539914 0.002844536 -0.13440704 0.103324264 0.09922958 0.056282025 0.10194269 -0.03358199
0.0059793536 -0.029569902 0.049667686 0.07173347 -0.044201087 -0.080003805 -0.08434407 0.04757654
-0.053785607 -0.024469202 0.073804274 -0.0053229136 -0.0001158174 -0.050603006 0.04936177 0.056948155
-0.05890832 0.03425372 0.048631627 -0.011899026 0.056523666 0.004459176 -0.027079944 -0.008068524
0.11373658 -0.107684396 -0.033977192 0.083443694 0.04340537 -0.054257426 0.03591014 -0.11493225
-0.021931848 0.037102364 -0.089248076 0.15183875 -0.110609666 0.061868608 -0.053820863 0.10572076
0.0631855 0.09277235 0.04788834 -0.19225444 -0.008028498 -0.113466814 0.11162134 -0.029081807
0.030429104 0.064935885 -0.104575984 0.012804708 -0.013577182 0.04316258 0.024922023 -0.038865987
0.07939234 -0.03936168 -0.010287417 -0.019087099 -0.048428833 -0.056723513 -0.010767439 -0.037606537
0.012857244 0.048251163 0.009144278 -0.06332351 0.009618463 -0.0051991264 0.08260213 -0.16688886
-0.03293584 -0.04419612 0.03850384 -0.12552233 0.12086208 0.14558594 0.039408486 -0.034686
-0.08063038 0.10212249 -0.0032593994 -0.04622942 0.049701877 -0.112466134 -0.008389581 0.006727622
0.009264131 0.041867606 -0.14276494 -0.0048115095 -0.12633757 0.08015397 -0.059224255 0.0008513216
0.07867094 0.06387126 -0.06086274 -0.100390606 0.07488909 0.055146832 0.017934268 0.05726766
0.08193668 -0.061981015 -0.031491507 -0.06439789 -0.023576226 -0.010942627 0.049380273 -0.016466657
-0.0146556245 -0.03156876 0.13429031 -0.04472175 -0.035940193 0.037299287 7.839053e-05 0.05377766
0.059912145 0.031446863 -0.05380487 0.044908833 -0.04393055 -0.078153476 0.030681241 -0.11071333
-0.014106518 -0.13193977 -0.03209536 -0.082834475 0.06205967 0.0044897837 0.06777072 -0.08321764
0.008318447 0.056900248 0.13668261 -0.10588576 0.008853632 0.019749695 -0.019951675 -0.048578653
-0.0015390535 0.00908785 0.008145712 -0.03734102 -0.075296104 0.08535964 0.014689498 0.07127642
0.03855564 0.051565025 -0.05801801 0.07767316 -0.029687153 0.1240051 0.00059694634 0.15132944
-0.06582818 0.057666905 0.13634652 0.0754259 0.15536027 0.057514556 -0.10934702 0.07759669
0.08093814 0.060992856 0.06432213 -0.011354754 0.09027218 0.03945342 0.06776929 0.0066734767
-0.11451781 0.029472113 -0.08729401 -0.09821004 -0.11884578 -0.01869648 -0.080138616 -0.016010433
0.08395324 0.03819058 -0.110888146 -0.008932521 0.118821405 -0.032708436 0.045433655 -0.061446488
-0.11125242 0.059894413 -0.05433372 0.040012702 -0.008729158 0.009994068 -0.031329658 0.040941674

lstm_layer.weight_hh_l0 f4 [400, 100]
00000000: d294 193c 908c 79bc 9b1d 3e3d a942 dcbd
00000010: f0af 2bbc ef9b 4e3d e0fd cbbd 8813 fa3d
00000020: 5d34 c43c b164 0d3e 40cf 7b3d 0604 1f3d
00000030: 4d43 023d b580 d9bd 76a3 89bd bb88 f93c
00000040: 0867 18bb c725 3d3e 9eb5 1bbe 2644 803a
00000050: f608 1bbd 0e07 163e 6be5 c3bc 005d e03d
00000060: 2fae bb3d a75f e63d 0460 27be 8aed 363e
00000070: 35ac 0b3c 6a6f 5f3c 1977 0fbe a451 8fbd
00000080: f33f a23d 3aaf c43c 1363 023c 1514 363d
00000090: accb 683d 3ede 3cbe ac36 463d 01e2 8db9
000000a0: ffce 1ebd 7cb2 a53c 3298 a83d 024d b43d
000000b0: 4ab6 94bc e623 67bc 5021 ba3d cc24 cdbd
000000c0: 0b12 00be dd49 373d 4867 4ebe 008b 123d
000000d0: a7e7 b53c 0e0b e3bd 7965 2cbd a37f 0a3c
000000e0: 29a7 93bc 046f 25be a8fe 09bd fc73 123a
000000f0: e728 c7bd d7f9 593d 4f4a c3bd 2a60 2cbd
00000100: b865 60bc 9423 3fbd 4bb3 87bd f0d5 03be
00000110: 4bd9 40be 1919 813d 00a8 11bd 45d2 be3d
00000120: 8428 dbbd 64a9 f23c 3f64 f7bc 4803 da3d
00000130: 7372 7cbd 7637 1fba 9133 3a3d e29d ddbd
00000140: ab75 3ebd bd7b 7ebd 842d e9bd be86 92bd
00000150: 4140 00bd 4fd7 0fbe e5bd f03d b502 01bd
00000160: b1f2 713c 57b7 d9bc e056 b0bd e8f0 803d
00000170: f298 28bd 4bbd 8abb b1f1 273d 6374 b93c
00000180: 9d4b 56bd 6503 7bbd 6ee8 8fbd a2f0 833d
00000190: 5af6 3ebd 20c2 a63d 033b bd3d e5d6 a03c
000001a0: 37cd cd3d b654 36bb 17d1 8d3d 045b ed3c
000001b0: 5a2e 7bbd b172 8c3d 51a8 53bd e4dc 42bd
000001c0: dd2d 6f3c 5c6b 453d af5d 7a3c 9fb9 f8bc
000001d0: 22fa 7fbc a2c8 b3bb b9c5 92bc 00c1 ed3b
000001e0: dcf3 a53d 78cc f83d 57bf abbd 6c1d a33d
000001f0: 06b2 333c 03f7 8d3c 547a b4bd f9ae 133e
00000200: 2ddb adbd 9192 683d 0837 7c3d 8219 28be
00000210: 5b03 a53d 5ddc 96bd 603e 08be f25b f9bc
00000220: c790 153d 1cf3 bdbd f088 513d b258 1e3a
00000230: 47b3 2e3d 9622 c8bd fb85 cbbb 362e c73c
00000240: af01 133d 4647 12bd a1fc ba3c 12bb 03be
00000250: f9cb c6bd a6d5 0ebe 33fe 31be 7d3e 28bd
00000260: ea53 97bd 4feb a0bb ea32 13be 3467 06be
00000270: 96de 2ebd f548 7a3d 2788 90bd 927d 84bc
00000280: ea3f 0fbe 2366 aebb dc2a f13d fd0b 10be
00000290: e0fa c73d 0a19 9b3d 8b1e 563d 2d19 17bd
000002a0: d65d 8e3c ae58 3fbc 1f03 6a3d c807 27bc
000002b0: ade1 0abe 33ef 59bc a2e1 693d e35d 9abd
000002c0: 1886 7cbd 1717 c63d 6e74 c33c 14e2 e4bd
000002d0: 059c e53d 0335 a8bc a1d1 20bc 4778 7d3d
000002e0: 599b c6bd 62b4 583c acbb 6cbd 064c 90bd
000002f0: 5ae3 90bd 0989 283e fc2a 66bc 9c25 84bb
00000300: 01a1 49bd 3697 81bd 61e2 23be 29e5 22be
00000310: 656b 67bd 170a 7f3d f5d7 cabc b50d 85bd
00000320: 7f88 183e b3a4 60bd 310a 72bd a4a3 06bd
00000330: f715 e33d 94f6 26bd 0a6c 4b3c c220 d1bc
00000340: 0b97 a4bd 7d22 15bc 41fa 7f3d 262d 183d
00000350: f54e 8cbd 71f4 02be cc4b 5cbd 72ed 3fbd
00000360: 2d61 98bd 3170 39bd 6e24 a2bc e248 7dba
00000370: 4f11 a1bd f533 97bd a59e 85bc 4307 24bd
00000380: bcb2 b73c c43e bc3d 0ecd b9bc 2e6a 9dbd
00000390: 9c77 e0bd e0ad f73d 379f 40bd dd41 98bd
000003a0: 8b32 593e 3c5d 2abe 94a0 94bd 2e8f 0abe
000003b0: c35c 963d a463 ee3b 5049 19be 77d8 a8bd
000003c0: 4c9b f03d 0c37 f73d 073e 9fbc 77d0 6d3d
000003d0: 2ef0 0bbe 3153 71bd 6f31 623d ffec 143e
000003e0: 016a b0bd f0e3 d13d c8f7 b6bd 9298 0f3d
000003f0: 2287 86bd 2c98 56bd a35c 883d 6759 d93d
0.00937386 -0.015231267 0.046414953 -0.10754902 -0.0104789585 0.05044168 -0.09960532 0.122107565
0.02395075 0.13807942 0.061476946 0.038822196 0.031802464 -0.10620252 -0.06720631 0.030460706
-0.002325477 0.18471442 -0.15206 0.0009785935 -0.037850343 0.14651129 -0.023913106 0.10955238
0.09164082 0.11248713 -0.16345221 0.17864051 0.008524944 0.013637403 -0.14010276 -0.069979936
0.079223536 0.024009336 0.007958191 0.044452745 0.05683486 -0.18444154 0.048391983 -0.00027062002
-0.038771626 0.02022671 0.08232154 0.088037506 -0.018153328 -0.01410768 0.09088385 -0.10016784
-0.12506883 0.044748176 -0.20156586 0.035777092 0.022205187 -0.11086093 -0.04208896 0.0084532825
-0.018024044 -0.1615563 -0.033690125 0.0005586741 -0.097245984 0.05321678 -0.095356576 -0.042083897
-0.013696127 -0.04666479 -0.06625994 -0.1287458 -0.1883289 0.06303615 -0.035560608 0.093174495
-0.10701087 0.029621787 -0.030199168 0.10645157 -0.061632585 -0.0006073633 0.045459334 -0.108211294
-0.046498936 -0.062129725 -0.113856345 -0.07154606 -0.031311277 -0.14046977 0.117549695 -0.031496722
0.014767335 -0.026576681 -0.0861032 0.06295949 -0.041161485 -0.0042339913 0.04100198 0.022638505
-0.052318204 -0.061282534 -0.07026754 0.064423814 -0.046621658 0.08142495 0.09239771 0.01963372
0.10048907 -0.0027821488 0.06924646 0.028974064 -0.0613235 0.06857813 -0.05167419 -0.04757394
0.014598337 0.04819809 0.015281125 -0.030361949 -0.015623601 -0.005486564 -0.017916547 0.0072556734
0.08103153 0.12148374 -0.083861046 0.07964596 0.010967737 0.017329698 -0.08812395 0.14422216
-0.0848907 0.0567804 0.06157592 -0.1641598 0.08057281 -0.0736625 -0.13305044 -0.03043935
0.036515024 -0.09274885 0.051155984 0.00060404383 0.04265144 -0.09772222 -0.00621104 0.024314027
0.035890277 -0.035712503 0.022825541 -0.1286433 -0.097068734 -0.13948688 -0.17382126 -0.04107522
-0.07389052 -0.0049108635 -0.14374891 -0.13125306 -0.042692743 0.061104733 -0.07057219 -0.016173158
-0.13989225 -0.0053222342 0.11775753 -0.14067073 0.097646475 0.07573135 0.05227522 -0.036889244
0.017378729 -0.011678858 0.057131883 -0.010194726 -0.13562651 -0.013301658 0.057099946 -0.07537439
-0.06165132 0.09672373 0.023859229 -0.111759335 0.11211399 -0.02053309 -0.009815604 0.061882284
-0.09697599 0.0132266 -0.057796165 -0.0704575 -0.07074614 0.16458525 -0.014048334 -0.0040328037
-0.04922581 -0.06327669 -0.16004325 -0.1590773 -0.056498904 0.06226548 -0.02476118 -0.06496755
0.14895819 -0.05484457 -0.05909175 -0.032870904 0.11088174 -0.0407625 0.012415895 -0.025528315
-0.08036622 -0.009102461 0.06249452 0.037152432 -0.06850997 -0.1278856 -0.053783223 -0.046857305
-0.0744041 -0.04527301 -0.019792762 -0.00096620445 -0.078646295 -0.07382957 -0.016311 -0.040045988
0.022424094 0.09191659 -0.022680786 -0.07686268 -0.10960314 0.12093711 -0.04702684 -0.074344374
0.21210687 -0.16637129 -0.0725719 -0.13531181 0.07341912 0.0072750617 -0.14969373 -0.082444124
0.117483705 0.12071046 -0.019438757 0.058060136 -0.1366584 -0.058917228 0.055222925 0.14543532
-0.08613969 0.10248554 -0.08933979 0.03505761 -0.06568743 -0.052391216 0.06658294 0.10612755

lstm_layer.bias_ih_l0 f4 [400]
00000000: b310 603d 4d29 193d 96c9 1d3e 0209 ec3c
00000010: 5dc5 1a3e 14f2 f63c c440 2d3c 6e78 0f3e
00000020: 2903 3a3e d16d 893c 386d 1b3e 6ca4 903d
00000030: d9f3 2a3e 0d2c a73c 4c74 e73d f70b bb3d
00000040: 5ad3 023e e71c 453d 9c5f ff3b 5bbc 073d
00000050: c8d1 8b3d 2da8 9d3d 2271 373e 8965 f83d
00000060: 8532 3c3e da22 c53d 7766 c73d d477 113e
00000070: a163 273e c068 ef3d 9fc2 053e 2cdc 1d3e
00000080: 6165 e83d 513a 513d 93c2 c53d 5dff edbc
00000090: df13 a33d c9b5 463d ef27 c93d f3f6 353c
000000a0: 7dd2 c13d 8650 fd3d 5e30 1b3e 2eda 04bc
000000b0: e54c 1b3e b06f ae3d 3a70 61bd d3f8 873d
000000c0: a0b4 4c3d e8da fb3c 1f64 d4bb 9ebd 033e
000000d0: 7c39 963d d0db 0b3e 92f7 dc3d 2f21 5d3b
000000e0: c02e 62bc fb72 983d 22fa f23d f39a d53d
000000f0: 4974 0f3e 99c2 173d 5d46 053e 78d5 b63b
00000100: 54e0 a73d 992e 9e3d f1f1 0c3e 7969 313e
00000110: 55d3 153e ce60 b13c ecec f33c 32cc 273e
00000120: bbf0 f43d cabb 313c 3756 a03d bdb9 1a3d
00000130: a703 ceb7 9554 6c3d 5064 893d 6046 8dbc
00000140: ea6c 043e 6c61 7c3d 8b63 0a3e c59f 813c
00000150: 1da8 173e 92f8 a33d 8f67 113e 8b7e 8e3d
00000160: 5941 ac3d 0a04 dd3d d964 483e d77f ad3d
00000170: 4df6 0f3d 5464 a23d fb10 023d 1942 223e
00000180: 41eb b23d a2ec 993d c384 9a3d 63d3 153e
00000190: 17d2 c9bb 83bd cd3c 1e26 f73d 0ec7 acbb
000001a0: e76f a53d be76 8a3d 5047 bf3d 0181 c43d
000001b0: ab5e aa3d 3539 1e3e 74b5 9d3d 264c 643d
000001c0: 782b da3d ff74 343e 34a6 353c fa41 c83d
000001d0: 5934 3f3e 0738 d93d ad5c fe3c 5a08 123d
000001e0: e0d5 2abb caaa 823d 255d 23bc d49f f03d
000001f0: 48ee b03d 62bb cf3c e5b7 bc3d b3dd 273b
00000200: 61bb b33b 06d5 d83d 9933 263e f15d 6b3d
00000210: 3969 413d 937c 933d f1eb ec3d 8abc 0a3e
00000220: c5fa 7fbd 0565 8abb 46ac 61bc ee46 793d
00000230: 0011 133e 1351 f23b 71b7 0b3d ca53 b73d
00000240: 88e9 ef3d 829a ff3d 7588 023e 66f6 3fbd
00000250: 1fdd 833d 261e 263e 54cf 043e 1f9b 143e
00000260: af0a f23b 87ff b33d 24d9 933d 8ac8 223e
00000270: 5bb0 e43d c480 80bd e1ee be3b 6869 803d
00000280: ce63 e03b 4a76 153e 779b 0f3e 26f3 6d3d
00000290: 250f c93b 4a11 f53d b5c3 44bc 7da4 9c3c
000002a0: 9db2 233e 00c1 54bc f89f 053e a63d a3bb
000002b0: f588 973d 6a98 e83d 59c2 ebbc 0716 df3d
000002c0: 275a b83d d893 35bd 602e 173e 32dc 6d3d
000002d0: 8c24 2abd 828a 08bd 0dae 043d 962a d83d
000002e0: 4c99 74bd 52c0 ab3d df8f d13d 3449 4abb
000002f0: 0405 9c3d ba76 c33a 4547 2a3e f51d 313e
00000300: 70ce fa3d cb6e 823d 1c3c 4abc 8259 4c3d
00000310: 79d7 a43d 2a7a c33d 437e 233b a7be b43d
00000320: a2d8 0a3c 1a69 b73d 8dcb 543d e79c c63c
00000330: eb8f 1f3e 06e6 87bd 04ac 05bd 15c6 033e
00000340: 4096 16be 37a9 b53d 0994 ba3d 2bb1 07bc
00000350: edcb 2dbe 8934 b93d 89f4 1dbe 7bff 81bd
00000360: db31 e1bb a458 a1bd f39c 24be b865 143d
00000370: 7f0b 45bd eb6e 203e ea92 ecbd 9fbe 1b3e
00000380: fb43 1e3e 8fa3 1dbe bd52 27be 38fa 7639
00000390: f8e5 f9bc 266f c2bc 7dbd b63d 84f4 12be
000003a0: 306c b13d c55f 6f3d 694d c4bd a349 e1bd
000003b0: c25d bbbc b176 963b 469f b7bd 06f2 97bc
000003c0: 2f11 a5bd 81bb 273d e80d 45bc 02f5 f4bc
000003d0: 4827 cc3c 9f2f 8a3d d51b 50bc e540 2b3c
000003e0: 789d f93c 29c6 fabd ad30 50bd 586f 17be
000003f0: 4a27 1fbd 33ad 65bd 004b b9bd 25f3 8c3d
0.054703426 0.037392903 0.1540893 0.028812889 0.1511435 0.030144729 0.010574523 0.14010784
0.18165268 0.016775997 0.15178382 0.07062611 0.16694583 0.020406747 0.11301479 0.091331415
0.12775937 0.048123267 0.00779338 0.033138614 0.06827122 0.076980926 0.1791425 0.12128741
0.18378647 0.09625788 0.097363405 0.14205867 0.16346599 0.11689901 0.13062523 0.1541602
0.113474615 0.051081005 0.09656253 -0.02905243 0.079627745 0.048513208 0.0982207 0.011106241
0.094639756 0.12368874 0.1515517 -0.008108659 0.15166052 0.085173965 -0.05503867 0.06639256
0.049976945 0.030744031 -0.006481662 0.12865302 0.07335183 0.1365807 0.10789408 0.0033741703
-0.013805091 0.07443806 0.11864115 0.10429945 0.14009203 0.037050817 0.13015123 0.0055796467
0.08197084 0.077237315 0.13764168 0.17325391 0.14631398 0.021652605 0.02977606 0.16386488
0.11959978 0.010847995 0.07828944 0.03777479 -2.4558814e-05 0.05769785 0.06708586 -0.017245471
0.12932172 0.061616346 0.13514535 0.015823254 0.14810224 0.080063954 0.1419966 0.0695773
0.084109016 0.10791786 0.1956972 0.08471649 0.035147 0.07929292 0.031754475 0.15845527
0.08736277 0.07515837 0.075448535 0.14631419 -0.006159078 0.02511478 0.12067817 -0.0052727526
0.08077984 0.067609295 0.09339774 0.09594918 0.08318838 0.1545151 0.07700625 0.055736683
0.10652822 0.17622755 0.011086989 0.09778209 0.18672313 0.106063895 0.03105005 0.035652496
-0.002606742 0.06380232 -0.009970938 0.11749235 0.086391985 0.025357906 0.092147626 0.002561432
0.005484984 0.10587506 0.1623062 0.057462636 0.04721949 0.07201495 0.1156844 0.13548484
-0.06249501 -0.0042234682 -0.013773983 0.06085866 0.14361954 0.0073949187 0.03411049 0.08951528
0.117144644 0.12480642 0.12747367 -0.046865843 0.0643866 0.16222438 0.12969714 0.14512299
0.0073865275 0.08788972 0.07219151 0.15896812 0.1116645 -0.0627456 0.0058268164 0.06270105
0.006847835 0.14595905 0.14024149 0.058093213 0.0061358386 0.11966188 -0.012009551 0.019121403
0.15986104 -0.012985468 0.13049304 -0.0049817143 0.07399169 0.11357196 -0.028779196 0.10892873
0.0900157 -0.044330448 0.14763784 0.058071323 -0.04153876 -0.033335216 0.03239255 0.105549976
-0.059716508 0.083862916 0.10232519 -0.0030866386 0.07618144 0.0014912703 0.1662875 0.17296584
0.12246406 0.06368788 -0.012343433 0.04989005 0.08048911 0.09544785 0.0024947084 0.088254265
0.008474501 0.089555934 0.051951934 0.024244739 0.15582244 -0.0663567 -0.03263475 0.12868531
-0.14705753 0.08870166 0.09110267 -0.008281986 -0.16972323 0.090432234 -0.15425314 -0.06347557
-0.0068723983 -0.07878235 -0.16075496 0.03622982 -0.048106667 0.15667312 -0.11551459 0.15209435
0.1545562 -0.15394424 -0.16340156 0.00023553602 -0.030505165 -0.02373464 0.08922861 -0.14351088
0.08663213 0.058440942 -0.09585077 -0.11000373 -0.022871856 0.004591786 -0.08965926 -0.018548023
-0.08059918 0.040950302 -0.012027241 -0.029901985 0.024921075 0.06747364 -0.012701948 0.010452484
0.030470595 -0.12244827 -0.05082767 -0.14788568 -0.03885583 -0.05607338 -0.09047508 0.06882314

lstm_layer.bias_hh_l0 f4 [400]
00000000: 3226 683d 53d9 0a3e a596 d13d 52cb 163d
00000010: b84c 053c c9a1 923d 5d38 0bbd 0ca0 c93c
00000020: 95bb be3d e1ac 09bb 9dc3 8b3d 5a93 113e
00000030: 0566 6ebc f96d 953d 4a66 c43d a9d1 7a3d
00000040: 43b1 ee3d aad1 013e 04ba 1d3e 105e a03d
00000050: b387 273e 2cea e2bb c49e 9e3d ec4d c13c
00000060: ff64 d83d 9b7d dc3c e1bb d53d a36c 163e
00000070: cfee 363e be38 2d3e d9d4 e23d adcc 383e
00000080: 454a fe3d 6409 803d e858 313e fffa 273c
00000090: 8669 af3d 37ce 943d c5e7 253e 9155 793d
000000a0: b4ec 383e 1e01 6b3d 7d46 083e 6620 44bc
000000b0: 37f2 fe3d 6c7c bf3d fc5f b43d 240e 1abd
000000c0: 6663 9f3d 0b64 b93d 0e27 1e3e 59cc c13d
000000d0: ec4e 663d 0ae0 173e dadc a63c a611 86bd
000000e0: 85ae 0f3e d96e 983d 65bb e43d d631 e03d
000000f0: 4e0f c53d e532 873c 62ca 5a3c 8e24 843d
00000100: 7769 65bc 534d 68bc 3f28 e03d 669a 213e
00000110: 35e7 e43d e0f1 c83d 70f8 013e a5aa e73d
00000120: 0b58 9a3d a651 383a 7022 1cbb 1e4a 283e
00000130: f276 48bc ea19 6a3c 3fb6 393d 9f94 c6bc
00000140: 0d05 f53d 0a80 1d3d 9fb9 003e 6c2c 543d
00000150: 56c1 0b3e 0572 193e ebcc 0a3e 7c1f a83d
00000160: 9518 2dbd 45e7 833d d5e0 033e 51b3 123e
00000170: 00c2 613d 1210 753d 01b9 dc3d 8f89 113e
00000180: 4b8c e5b9 3f3b 8e3d b3f8 1e3e 4c8a b83d
00000190: 93d1 143e de24 823d 2215 2c3e 98f5 aabc
000001a0: 63a2 b43c ba33 953d 20bb 6abd 217d 003e
000001b0: 7200 12bd 627d 03bd 8c88 bc3d 0844 0a3e
000001c0: 93d8 d53d e0ca 1d3d 3956 c03d ba4c dab9
000001d0: 1cae b03d 47ef f93c 7b4c 173d c467 623d
000001e0: 54f8 cc3b 0561 083e f4cc b93c ab38 373d
000001f0: e7ff 213e dc13 1f3e a223 96bb e6ca 0f3e
00000200: 2e5a 7a3c 6cf4 c13d 8514 073e 60a0 593d
00000210: 3ac8 61bd 6d5b af3d 5303 363d 06be e73b
00000220: ad71 733d bc29 a73b 1806 053e 7918 643d
00000230: 279b d43c 9c4f 183e 2288 083e 8ca5 b13d
00000240: c7df 8f3d 7502 c73d b301 4ebc 4223 913d
00000250: 026a ef3d 4b7f 6a3d f937 e63c f4c7 a13d
00000260: 5e72 273d 33d5 8d3d 2616 8d3d e120 013e
00000270: fff7 573d d170 35bd c9d8 043d 869e 50bd
00000280: 3816 133e cc2a 113e d2ce 113e 3503 37bc
00000290: 7610 1cbb dc76 673d ae3d 153c 7caa e53d
000002a0: 046c c73d ed25 53bd ec0e 633c 05bf 4f3d
000002b0: 7563 c73d 8817 0c3c 46e2 393c cc35 f43d
000002c0: 9c7e 883d 513d 003e 4f34 053e 90b7 933d
000002d0: 4396 353c 4112 54bb 0b75 36bb 2a0d e23d
000002e0: ab07 5cbd bfca 163e 288d 063e 9b96 0c3e
000002f0: 7e04 363d 6803 603d 6995 4bbc 796a 003e
00000300: fab4 ac3d 94e0 ae3d c455 e0bc e317 b83d
00000310: f628 d6ba c26b ae3d 3280 2dbd a0b3 513d
00000320: b9cd 843b db68 b9bc 8a8f 35bd 95ce 533d
00000330: ec9f 933d f7d6 b7bd 12c9 cabc d406 103e
00000340: ec4a 09be d2bf c83d a9ce 083d c713 f7bd
00000350: a5b2 27bd e29f 36bc 8135 5ebd 50d0 813d
00000360: c586 a4bb 0426 00bd b200 38be ebb4 9b3c
00000370: afa4 843d d0bf e73d bf1e 84bd 7621 c33d
00000380: 6db7 b73d 1e1f 94bd e36b 58bd cee3 3c3d
00000390: e5d2 4cbd 238e 753d 19be e5bb 506c 01be
000003a0: a83d c83d 3133 f33b 877c 92bd a5ba 14bd
000003b0: c331 33ba 2505 24bc 21f3 ffbd d857 eeba
000003c0: 4b88 e6bc 1baa 0dbe 2450 c23d 8aa7 9bbd
000003d0: 7615 e0bd b10b 113e aaee b13b bf95 453d
000003e0: a92f d03c eaa8 a8bd 5fbd 4bbd b207 a3bd
000003f0: 9710 423d c3eb aebd 1d01 75bd da43 9dbd
0.05667705 0.13559465 0.10233811 0.036814995 0.008135967 0.07159764 -0.0339893 0.02461245
0.09313122 -0.0021007585 0.0682442 0.14216366 -0.014550691 0.07296366 0.095898226 0.061235104
0.11654904 0.12677637 0.1540299 0.07830441 0.16360359 -0.006924888 0.07745126 0.023596726
0.105661385 0.026915362 0.10436226 0.14689879 0.17864536 0.16916177 0.11075754 0.18046828
0.124165095 0.06251791 0.17319071 0.010252713 0.08565049 0.07265895 0.16201694 0.060872618
0.18059045 0.057374112 0.13308139 -0.011970615 0.124485426 0.093499035 0.0880737 -0.03761114
0.077826306 0.09052285 0.15444586 0.09462804 0.05622761 0.14831558 0.020368982 -0.06546335
0.14031418 0.074430175 0.11168555 0.109470055 0.0962206 0.01650376 0.013353916 0.06452285
-0.014002196 -0.014178592 0.10945176 0.15781555 0.11176912 0.09811759 0.12692428 0.11311845
0.07536324 0.00070312095 -0.0023824237 0.16434523 -0.01223539 0.014288405 0.04533982 -0.02424079
0.11963854 0.038452186 0.12570809 0.051800177 0.1364797 0.14984901 0.13554733 0.0820913
-0.04225977 0.064405955 0.12878735 0.14326216 0.055116653 0.05982978 0.10777474 0.1421263
-0.0004378281 0.06944894 0.15524559 0.09010753 0.14533071 0.06354688 0.16804937 -0.020869061
0.022050088 0.07285257 -0.057307363 0.12547733 -0.035644956 -0.032101996 0.09205732 0.13502514
0.10441699 0.038523555 0.09391446 -0.00041637366 0.08626959 0.030509604 0.03693817 0.05527474
0.006255189 0.1331826 0.022680737 0.044731777 0.15820275 0.1553492 -0.0045818845 0.14042243
0.01528029 0.09470448 0.13191421 0.05313146 -0.05512259 0.0856236 0.044436764 0.007072213
0.05943458 0.0051014107 0.12990606 0.0556874 0.025952889 0.14874119 0.1333318 0.08674154
0.07025104 0.097172655 -0.012573647 0.07086803 0.11690141 0.057250302 0.028102862 0.07899466
0.040880553 0.0692543 0.0688899 0.12610199 0.052726742 -0.044297043 0.032433305 -0.05093243
0.14363945 0.14176482 0.14239052 -0.011170198 -0.0023813522 0.056509838 0.009108944 0.11214158
0.09737399 -0.05154984 0.013858538 0.05071928 0.09735767 0.008550532 0.011345452 0.119243234
0.06664774 0.1252339 0.13008235 0.07212746 0.0110831885 -0.0032359513 -0.002784076 0.11037667
-0.05371825 0.14725779 0.13139784 0.13729326 0.044437878 0.05469075 -0.012425759 0.12540616
0.08432956 0.08538929 -0.027384646 0.08988931 -0.0016339112 0.08516647 -0.042358585 0.051196694
0.0040528444 -0.022633007 -0.044326343 0.051710684 0.07208237 -0.08976548 -0.02475408 0.14065105
-0.13407487 0.09802212 0.03340021 -0.12064319 -0.040941853 -0.0111465175 -0.054250244 0.063385606
-0.0050209486 -0.031286255 -0.17969015 0.019007167 0.064767234 0.11315882 -0.06451177 0.095278665
0.089705326 -0.07232498 -0.052837264 0.04611569 -0.050005812 0.059950005 -0.007011187 -0.12638974
0.09777385 0.007421874 -0.07152658 -0.03631081 -0.0006835723 -0.010010992 -0.12497545 -0.0018184138
-0.028141161 -0.13834421 0.09487942 -0.07600315 -0.10941593 0.14164616 0.0054300623 0.048238512
0.025413351 -0.08235343 -0.049741145 -0.07960452 0.047379103 -0.08541062 -0.059815515 -0.07678957

out_layer.weight f4 [481, 100]
00000000: 3d92 d43c b1e4 88bd 8b13 4bbd d44f 6cbd
00000010: b119 2c3d 42d3 9ebd 8d5e 7dbd afba c43d
00000020: 9162 e23c b5e3 ac3d 6b2b f53c 3edb af3c
00000030: 1347 3cbe af2f 21ba a4dc ccbd b07d 103e
00000040: 2bc5 c9bc b1f1 c53a cd34 14be 7a93 323e
00000050: 9527 19be 3df2 c53d 3386 ecbd de41 2f3e
00000060: 6b17 243d 46ce 80bc 6c46 01be 4df4 42bc
00000070: aea6 6d3c e952 d9bd 8aec 51bd 5b94 39be
00000080: 92ac 833d 8c35 9d3d 2e37 e1bc b060 70bd
00000090: e674 2b3c 7045 c1bd 34d3 5cbd 8b94 3bbd
000000a0: 6214 4e3d 8d0a 0ebe 6a13 fd3d 7760 dcbd
000000b0: 6c98 e53d fb41 ef3d c2ae 15bd 6cab 803d
000000c0: 8955 293d 3afe dbbd 0283 bfbd e757 df3b
000000d0: 7f65 9b3c 05c0 ebbc e15e bd3c 651f 983d
000000e0: e712 843d 5843 893c 568b a0bc e352 2b3e
000000f0: b694 863c 6709 e63d 4931 2bbd 10ba 1cbe
00000100: 401d b33d 65a6 133d c066 92bd be59 29bd
00000110: 4493 0abe 8f38 5ebd 6b6c 9b3d 91de 0c3b
00000120: d74f 46bd 1cf1 92bd 8125 8dbd 149c e7bd
00000130: 5108 f73c 892d c73d a5f7 1f3e 491b d13a
00000140: 455a 243e 6af4 583d ba9b 0bbd 86f5 893d
00000150: af36 29b9 21f3 66bd 9ebf 8d3d 902d fcbd
00000160: 4c4a 383e a13b 9b3a b67a f5bc dd31 7abd
00000170: 3a2b fe3c f290 4f3c 5d95 26be cc87 13be
00000180: 2ec8 da3d 0678 2b3d 3dd4 303e ac49 883c
00000190: 6649 2fbd 3736 c3bd 94d3 96bd 33c5 05be
000001a0: 5010 bb3d 0917 bcbd fc1e 813b 9da5 a9bc
000001b0: fde3 0dbe 1bc5 873d 90ad 87b7 e1cc 24bd
000001c0: d42b eebd dc59 7ebd 010c 8ebd 63cb e43d
000001d0: ba26 1fbe fea7 9d3c c1da 093d 077c 05bd
000001e0: c149 dd3d 9cf5 63bd 2f4b 573d 1e8f 8f3c
000001f0: fe1c 9c3b d335 f53c bfc1 2cbe 5c1f f6bd
00000200: 9a34 6aba 9834 553c 8fc4 98bc 5cf0 a9bd
00000210: a723 fc3c 18c2 17bc d337 9bbd 733f 0bbd
00000220: 19bb 243e 0359 c33c 9bca 14be fe75 b83c
00000230: d670 2f3c 0677 acbc 448c dc3d 142d 963d
00000240: ff2b e3bd 21ab 4d3c 8622 283e 0e03 1f3d
00000250: 1533 1b3e 8c27 91bd fdc4 54bd 91db a5bd
00000260: 18b4 8e3d c25f 2bbc 7202 22be eab6 4e3d
00000270: 4d86 ca3c cd5d 013b 6e3d b0bd 8927 153c
00000280: 2568 dabd f28a 203c b537 debd 513b c6bc
00000290: a810 283c 6095 43bc f5b8 1fbe e6d5 403d
000002a0: 6e9c eabd 8c8a dabd f5aa 073e 302f 47bd
000002b0: ed64 1bbe 7cce 2b3d 1f3e 02be 614b c2bd
000002c0: 8504 423d 4f29 cebd f1d1 903d fc24 e4bd
000002d0: 3c8a 2e3e 65a3 883d 3a28 e3bc 275d b63d
000002e0: dfd0 01be d66f a7bc 6aa5 143e 0588 9ebc
000002f0: 0cde 893d e009 35bd bbec e8bc f106 f2bd
00000300: f3b7 8f3d 2046 413c b997 e6bd 1b35 27bd
00000310: 7c69 cc3d 6c45 b7bd 6541 883d feb3 85bd
00000320: e826 38bd 4350 143e f169 a0bc 6f28 abbd
00000330: 4e80 1d3d f93f e13c 024c 793d 2a4c b13c
00000340: 5261 2e3d 472b 8d3c 7257 91bc cf25 b23c
00000350: 53f8 72bd 44ab d73d 6fdd e43c e33f 67bc
00000360: 9fa3 2b3e bae9 b2bd 22ac f9bc 5b7d 01be
00000370: 5a8f 86bd 85ba 193d a9db c4bc c4a6 a53d
00000380: 4560 0cbd 1107 77bd 40f9 903c 4d08 f5bc
00000390: 64eb a53d ab3b ffbd 0885 a9bd 6c3b 483e
000003a0: 6448 cfbc 954f 493d 1d92 dfbd beef 253d
000003b0: 4f56 423d 6e89 0cbe 1bd6 86bd 8ef4 aabc
000003c0: 1d1d e9bd 0d84 f83c f558 033e d6b6 37bd
000003d0: 22a9 35bd f7fe f23d e36e b33c 6c18 d73c
000003e0: cb1c 373d bede 4b3d 4371 0abe c39e 03be
000003f0: 1630 80bd 6cff 183e a569 06bd 587b 7e3d
0.025948638 -0.066842444 -0.049579185 -0.057693318 0.04201669 -0.07755138 -0.06185775 0.096059196
0.02763489 0.08441869 0.02992793 0.021466848 -0.18386488 -0.0006148768 -0.10003021 0.14110446
-0.02463015 0.0015101937 -0.14473267 0.1743907 -0.14956506 0.09665344 -0.11549034 0.1711497
0.040061396 -0.015723359 -0.1262452 -0.011899066 0.014505072 -0.10611517 -0.05125097 -0.18123
0.064293995 0.07676229 -0.027492132 -0.05868596 0.0104648825 -0.09437072 -0.053912356 -0.04579596
0.050312407 -0.13871212 0.123572186 -0.10760587 0.11210713 0.11682507 -0.036543615 0.06282696
0.04134134 -0.10741849 -0.0935116 0.0068158987 0.018969296 -0.028778085 0.02311653 0.07427863
0.06448918 0.016755745 -0.01959769 0.16730838 0.016428333 0.11232262 -0.04179505 -0.15305352
0.08745813 0.036047358 -0.07148504 -0.04134535 -0.1353274 -0.054253157 0.075890385 0.0021494965
-0.048415985 -0.07174894 -0.06891919 -0.113090664 0.030155333 0.09725482 0.15621813 0.0015953566
0.1605006 0.052967466 -0.03408406 0.06736283 -0.00016137467 -0.05638421 0.06921314 -0.12313378
0.17997092 0.0011843332 -0.02996574 -0.06108271 0.031026471 0.012668835 -0.16267915 -0.14407271
0.106827125 0.04186251 0.17268462 0.016636692 -0.042794608 -0.09531825 -0.07364574 -0.13063507
0.09133971 -0.09184081 0.003940461 -0.020708853 -0.13856502 0.06629392 -1.6174075e-05 -0.04023445
-0.11629453 -0.062097415 -0.06935883 0.111716054 -0.15542117 0.019245144 0.033655886 -0.032588985
0.10805083 -0.055654153 0.052561935 0.017524298 0.0047641983 0.029932892 -0.16870783 -0.120177
-0.000893423 0.013013028 -0.018648414 -0.08297798 0.03077872 -0.009262584 -0.07579007 -0.033996057
0.16086997 0.023846155 -0.14530413 0.0225172 0.0107080545 -0.021052849 0.10768941 0.07332817
-0.11092376 0.012553007 0.1641942 0.038821273 0.15156205 -0.07087621 -0.051945675 -0.080985196
0.06967944 -0.010459842 -0.15821245 0.05046741 0.024722243 0.0019739748 -0.08605467 0.009103664
-0.10664395 0.009798752 -0.10850469 -0.024198206 0.010257877 -0.011937469 -0.155979 0.04707899
-0.11455618 -0.10670957 0.13248809 -0.048628986 -0.15175219 0.041944966 -0.1271901 -0.09487034
0.04736759 -0.10066473 0.07071293 -0.11139867 0.1704492 0.0667179 -0.027729142 0.08904486
-0.12677334 -0.02043907 0.14516225 -0.019351969 0.06731805 -0.04419887 -0.028433194 -0.1181773
0.070175074 0.011796504 -0.112594076 -0.04082213 0.09981057 -0.08948788 0.06653098 -0.065284714
-0.04495898 0.14483742 -0.019581767 -0.083573215 0.03845244 0.027496325 0.060863502 0.021642763
0.04257328 0.01723255 -0.017741892 0.021746544 -0.05931885 0.10530713 0.027937619 -0.014114353
0.16761635 -0.08735986 -0.030477587 -0.12645476 -0.06570311 0.037531395 -0.024030523 0.08088449
-0.034271497 -0.060309473 0.017696977 -0.029911185 0.08101538 -0.12462553 -0.08277327 0.19553918
-0.025303073 0.04914816 -0.10916541 0.04051184 0.04744559 -0.137243 -0.06583806 -0.020868566
-0.11382506 0.030336404 0.12826903 -0.0448521 -0.04435075 0.11865037 0.02190346 0.026256762
0.044705193 0.04977297 -0.13519768 -0.12853532 -0.06259172 0.14941186 -0.032815594 0.06212935

out_layer.bias f4 [481]
00000000: fbc2 8e3d c311 b4bc ce9f 173d 8cb4 6f3d
00000010: c7f5 0e3e 0aa7 153d 7f3e dd3b 9e8f 27bd
00000020: 1679 55bd 9baf 1dbd 62c0 b13d 4e5e 393b
00000030: 2c1c de3b 8281 54bd 8d74 c53d 8187 dcbc
00000040: 6ec4 373d 10ec bd3c 8d26 64bd bec1 173d
00000050: d66a d53d 6d0b fcbc a660 523d 8e80 e5bc
00000060: 627a 023d 7144 df3d 3357 94bc 8c20 8fbc
00000070: 7066 933c 3644 c6bc 0f04 5c3d 4dd8 723b
00000080: ee47 913d 53c4 ba3d 3e62 233e 0644 a53d
00000090: 3bfa e53c 695e f23d 78ef 2b3b 8ddf 6e3d
000000a0: b242 d73d 6841 083c 5ea6 f2bc 8d44 e9b9
000000b0: 2445 07bc 505c 203d 4a02 9d3d 8f55 a93c
000000c0: 1130 a33d 0c38 5abc 44fa a23c 5517 50bd
000000d0: 666e f53d 2978 9b3d d67c 2fbb b146 fdbc
000000e0: 1eea 413b 3078 233e fb88 a53d 1ce8 703d
000000f0: 681c fa3d f77b 9e3c 5ab2 32bd 3026 0cbd
00000100: 6220 cabd efdb 8c3d 7d0b 933d 89a6 dd3d
00000110: e9e8 143e c8eb d43d 475b e13c 74b3 203d
00000120: 3966 b63c 739f db3b bd63 8fbd 0f43 873b
00000130: 389c 813d b387 7a3d 1b4a 3d3b 1fb7 ac3c
00000140: aed7 193d 2dce ae3d 605b d23c 1947 e63c
00000150: 9596 5cbd b060 b13d 6ea9 223c 0b3b 3d3d
00000160: f6c8 8c3d 0ac6 683c 1223 093e 37b8 943d
00000170: 047a dabc 0214 25bd 66a1 393d 8c16 73bd
00000180: 50f0 53bc 8647 a23d 3ca5 3c3d b679 4fbd
00000190: 96ba 953d 8762 1f3d 0dea 923d bd77 4c3d
000001a0: e476 c23d cabb 333d 838c 123e 8ee5 cd3d
000001b0: a8d8 19bb b484 d63d 515d 913c ea27 083e
000001c0: bd72 e13d e230 aa3d 773a 8e3c 401f 583c
000001d0: ff0b 293d 33c0 d53d 0db5 073d 5239 1ebd
000001e0: 790a c23c 22b0 033e a462 aa3d 7cf8 d9bd
000001f0: 28ae e23d 1e26 8fbc 1ea8 c13d 46b0 0f3d
00000200: e850 463d 69fa b23d 32d0 11bc 3240 2f3a
00000210: 9d86 92bc ec79 73bb 6169 84bd 0833 9cb9
00000220: 377a 023d d9c8 da3d 6d77 713d f666 163e
00000230: bb66 c8bc 30ec 283c 67c6 0fbd e805 163e
00000240: 19b0 c03d 35f1 df3c 0691 c13a 8ec9 663d
00000250: 81d7 223e 3e5c 113e 57ce 5fbb 5891 9c3c
00000260: 4f75 0e3d d4cc f53c 7fc7 57bd 591f 333d
00000270: ba4e da3d c239 5cbd fbaa 2fbc 1acf e63d
00000280: eb96 173e 38fe 683d 8216 a63d 92e5 e03c
00000290: ca9c babc a5eb ef3d ea59 edbb 7e05 d93c
000002a0: efa6 903c cec4 a73d 6e90 cb3c a81a 93bc
000002b0: b448 343d 643f 153d 80d4 9a3d 0f15 343d
000002c0: c9e8 223d b76c 4f3d 0f85 ef3d 932d 143a
000002d0: d741 253d 8f66 eb3d 62bb 993d 9018 fa3d
000002e0: de90 98bd 4708 f8bb 4aa1 8c3d 5a17 d53d
000002f0: 0bc0 0cbd 6fd4 d43d fd9f 1d3e 3c65 f8bc
00000300: fe3f efbc 2b90 053e 1dd2 233e d6ae 013d
00000310: 1c07 073d 8389 3ebd 8aa9 85bc d477 5f3d
00000320: 9b74 9f3d 2a2e e03d be54 7a3c f42f d23c
00000330: 8866 1a3d d9dd f63c 3a15 14b9 ab6a ba3d
00000340: 23f9 043e 9608 ee3d ebd9 c43d c165 f93d
00000350: 0aea f03b ae89 3dbc 2e5f 053e e0f9 3d3c
00000360: 290b a63d eff5 8d3d 66e7 15bd 622e e13d
00000370: be09 5e3d 1f04 903d c39e b23c 9950 ac3d
00000380: 757e 9a3d 2285 6b3d ba93 94bc c7d8 d63d
00000390: 4f93 70bc a0b8 69bd f789 303c df88 653d
000003a0: 57b4 50bd 15f5 ce3d 10d1 bc3a 536b acbd
000003b0: ccd5 c9bd 3007 f9ba 3543 1fbd 2eb3 143e
000003c0: a643 13bd 6e0a ae3d f3e6 69bb eada 22bd
000003d0: 8bd4 4ebd 2234 953d 68e2 df3d ec09 ddbc
000003e0: 3ca1 47bc 45d6 5b3d 4114 8c3d 370d 023e
000003f0: 7b82 2e3d 9ab9 f4bc 3553 45bd 899c 033e
0.06970783 -0.021981126 0.037017636 0.058521792 0.13960944 0.036536254 0.006751835 -0.04090845
-0.05211743 -0.03849755 0.08679272 0.002828497 0.0067782607 -0.05188132 0.09641371 -0.026920082
0.044865064 0.023183852 -0.055700827 0.03705 0.10420768 -0.030767167 0.051361702 -0.028015401
0.031854995 0.10901726 -0.018107986 -0.017471574 0.017993182 -0.024202447 0.053714808 0.0037055195
0.070937976 0.09119477 0.15955445 0.08069615 0.02807342 0.118344136 0.0026235264 0.058318663
0.10510768 0.008316375 -0.029620346 -0.00044492297 -0.0082562305 0.039150536 0.07666452 0.02067068
0.07968152 -0.013319027 0.019894727 -0.0508035 0.119839475 0.07591278 -0.002677729 -0.030917497
0.0029589008 0.15963817 0.080827676 0.058815107 0.12212449 0.01934622 -0.04362712 -0.034216106
-0.09869458 0.068778865 0.071799256 0.1082278 0.14541973 0.10396534 0.027509345 0.03923364
0.02226554 0.0067023574 -0.070014454 0.004127867 0.063286245 0.06116457 0.0028883282 0.021083413
0.037559204 0.08535419 0.025678337 0.028110074 -0.053854544 0.0866102 0.0099280905 0.046198886
0.06874268 0.014207372 0.13392285 0.07261699 -0.02666951 -0.040302284 0.045319937 -0.059347674
-0.012935713 0.07923798 0.046056017 -0.050653182 0.07310979 0.038912322 0.07173548 0.04991888
0.09495333 0.04388026 0.14311413 0.1005355 -0.0023475084 0.1047453 0.017744692 0.13296476
0.11008213 0.08310105 0.017361863 0.013191044 0.041271206 0.1043705 0.033131648 -0.038628884
0.023686634 0.12860158 0.083195955 -0.10643098 0.11068374 -0.01747423 0.09455894 0.035080217
0.048417002 0.08739168 -0.008899735 0.0006685286 -0.017886454 -0.0037151529 -0.06465412 -0.0002979266
0.031854834 0.1068284 0.058951784 0.14687714 -0.024463048 0.010310218 -0.03510132 0.1465069
0.09408588 0.027336696 0.0014767952 0.05634456 0.1590252 0.14195344 -0.0034150088 0.019112274
0.034779843 0.030004896 -0.05268049 0.043731067 0.10659547 -0.05376602 -0.010721917 0.1126997
0.14803664 0.056883067 0.08109762 0.027453218 -0.022779841 0.117148675 -0.0072433846 0.026491877
0.017657725 0.081918344 0.024849143 -0.017957047 0.044014648 0.036437407 0.075600624 0.043965396
0.039772782 0.050640788 0.11695301 0.0005652543 0.040345993 0.11494171 0.075064436 0.12211716
-0.07449506 -0.007569346 0.06866701 0.104048446 -0.034362834 0.10392081 0.15393062 -0.03032171
-0.029205319 0.13043277 0.1599812 0.031660877 0.032965764 -0.04651786 -0.016316194 0.054557636
0.077859126 0.10946305 0.015278993 0.025657631 0.037695438 0.030135082 -0.00014122287 0.091023766
0.12985663 0.116227314 0.09611877 0.12177611 0.0073521184 -0.01156847 0.1302459 0.011595219
0.081075974 0.06931674 -0.036597632 0.10995175 0.05420851 0.07032036 0.02180422 0.0841381
0.07543651 0.057500012 -0.018136848 0.10490566 -0.014683559 -0.057060838 0.010775081 0.056038734
-0.050953235 0.101053394 0.0014405567 -0.08418908 -0.09855232 -0.0018999334 -0.038882453 0.14521477
-0.035953186 0.08498083 -0.0035690635 -0.039759554 -0.050495666 0.07285334 0.109318554 -0.02698227
-0.012184437 0.05367114 0.068398006 0.12700354 0.042604905 -0.029873658 -0.048175056 0.12852682
