ckpts/dkvmn/alg05/model.ckpt (torch, 291329 bytes, 11 tensors)

Mk f4 [20, 50]
000000 79 0c 3f 3e 40 f7 c0 bd 85 21 94 be bb 75 50 3e
       0.18657102 -0.09422159 -0.28931823 0.2035741
000010 2a a5 83 3c db a6 9b 3c 41 91 ca bd af c3 c7 3c
       0.016069967 0.019000461 -0.09890986 0.024385301
000020 b3 90 62 3d b0 f5 53 3e 5b 0d 17 bf 4b 09 24 be
       0.055313777 0.20699191 -0.59004754 -0.1601917
000030 6f 40 d7 3d 8d 57 52 3e 8a 15 35 be e9 12 49 bf
       0.105103366 0.2054121 -0.17683998 -0.7854448
000040 27 27 aa bd b4 d2 89 3d 33 92 2f 3e d4 aa 64 be
       -0.08308249 0.067296416 0.17145614 -0.22330791
000050 e4 c8 95 be 8c 68 d6 3c 29 b5 63 be f5 0d 75 3e
       -0.2925483 0.026172899 -0.22237076 0.23931105
000060 3d fc 5e bd 8f 25 2a bd 30 cb 09 3f 8d 34 2e 3e
       -0.054439772 -0.041539725 0.53825665 0.17012234
000070 a4 11 24 3e 0f a8 4a be 4f 90 48 3e e4 a0 7a be
       0.16022354 -0.19790672 0.195863 -0.24475437
000080 65 1d 7e be d7 5a e1 bd c1 16 31 bd cf 0f ae be
       -0.248159 -0.110036545 -0.04323459 -0.33996436
000090 a8 b0 0f 3e 58 72 d1 be 14 63 65 3e 0e 74 c7 be
       0.14032233 -0.4090755 0.22401077 -0.3895573
0000a0 d6 58 97 be 61 78 91 be 87 b4 e8 3e 3a 50 d2 be
       -0.29559964 -0.28412154 0.4545023 -0.41076833
0000b0 b3 35 8e ba b3 37 99 3d 58 5a dd bc d6 ca 30 3e
       -0.0010849744 0.07481327 -0.027020618 0.17264876
0000c0 25 77 87 be 66 35 08 bd 17 03 d8 be 9c 32 09 3e
       -0.26458088 -0.03325405 -0.42189857 0.13398212
0000d0 b9 6a 17 3e 78 bf cb 3c 44 1b fa 3c 0f dd ab 3d
       0.14786805 0.024871573 0.03053058 0.08391773
0000e0 8b c9 f8 3d d9 5e 6f 3e 4d d9 84 be 66 f2 16 bd
       0.12147816 0.23376025 -0.25947037 -0.036852263
0000f0 73 fb a8 3d 10 c4 92 be b5 51 e8 3e 0a 70 6b be
       0.08251085 -0.2866521 0.45374838 -0.22991958
000100 c0 58 8d be de e9 0b bd b3 91 4c 3d 25 77 e8 bd
       -0.27606773 -0.03415858 0.049943637 -0.1135085
000110 41 ac b0 bd 40 f3 d5 3b 71 3b ae 3e ac 08 55 be
       -0.08626605 0.006529242 0.34029725 -0.2080409
000120 15 6b 98 be bc d9 45 3e 5c 2b 85 bd 5d 5c 7d 3e
       -0.29769197 0.1932134 -0.06502411 0.24742265
000130 78 e7 7b 3e 69 4f af be 83 a6 69 3e 0d 06 63 3e
       0.24600017 -0.34240273 0.22817425 0.22170277
000140 05 2f 77 be f4 14 22 3e a8 63 38 be c0 5a 14 be
       -0.2413903 0.15828305 -0.18006766 -0.14487743
000150 35 13 f8 bd bd 3a 75 3d d1 b0 51 3b e1 28 44 3b
       -0.121130385 0.05987047 0.003199626 0.0029931592
000160 f9 07 09 3d 31 13 9d 3e 0c 21 d6 be 25 1a 93 bd
       0.03345487 0.30678704 -0.41822088 -0.07182721
000170 06 27 a4 be 74 f1 ea bc a0 e4 e1 3d c5 9a e2 3b
       -0.32061023 -0.028679587 0.11029935 0.0069154226
000180 11 a7 0f 3e 82 56 6e be 29 70 ab 3d 6b 69 35 3e
       0.14028575 -0.23275188 0.08371002 0.17715995
000190 4c d3 8f be b8 16 13 3e fb f3 5c 3e 20 b6 15 3e
       -0.28090894 0.14364135 0.21577446 0.14620256
0001a0 50 b0 9a bd 68 bf 0c bf 62 c2 18 be 2a 53 4d 3c
       -0.0755316 -0.5497956 -0.14917901 0.012532035
0001b0 26 1d 19 bc 0d 27 cd be 1b bd af 3e 91 74 28 bf
       -0.009345328 -0.40068856 0.34323964 -0.65802866
0001c0 65 0c 91 3e 72 77 95 be fe 8e 0b 3f eb 97 42 be
       0.2832977 -0.29192692 0.54515064 -0.19003265
0001d0 f9 36 9d 3c 7f 80 34 3e c9 1c d9 bc fe 04 51 be
       0.019191252 0.17627142 -0.026502984 -0.2041206
0001e0 f4 37 83 3e a8 8e 14 3e e4 b8 9a 3e d2 98 a1 be
       0.25628626 0.14507544 0.30219185 -0.31561905
0001f0 85 81 fb 3c ce 1c cb be ff 1c 33 3e 6f 4e 69 bd
       0.030701408 -0.39670414 0.1749153 -0.056959566
000200 e0 99 91 3d 21 14 8e ba 47 bc 43 be 57 fd 78 3e
       0.071094275 -0.0010839739 -0.19114791 0.24315391
000210 7f b8 69 be 56 4e ae 3c 31 d0 00 3f 56 8c 84 be
       -0.22824286 0.021277588 0.50317675 -0.25888318
000220 25 49 84 3e b5 5a d3 3d 3a 2e 8e bc 5d 2e 0c 3e
       0.25837055 0.10320035 -0.017356027 0.13689561
000230 30 75 50 3f 6f 7a 42 3d 0b 67 2a be d0 3c 6e be
       0.81428814 0.047480043 -0.1664087 -0.23265386
000240 33 12 83 3d f3 d7 71 3d e5 b6 81 3e 94 18 41 3f
       0.063999556 0.059043836 0.2533485 0.7542813
000250 a3 52 a3 be 1c 0b 35 3d 8d af a6 3e fe 25 98 3e
       -0.31898984 0.044200048 0.3255581 0.29716486
000260 00 68 4c 3e 1d 68 ea be 58 91 94 3d b5 b4 ad 3e
       0.19961548 -0.45782557 0.072542846 0.3392693
000270 db 4c 75 3d 6f fd 42 bd 1f 58 3b 3a f9 cf e9 3d
       0.05988775 -0.047604974 0.0007146615 0.11416621
000280 e7 a1 54 be 79 41 e6 be 06 34 af 3e ab 43 f5 3d
       -0.20764886 -0.44971827 0.34219378 0.11975797
000290 30 21 b4 be 1e f9 9b be 55 94 01 be 55 dd 3c be
       -0.3518157 -0.304635 -0.1265424 -0.18443806
0002a0 21 b4 a4 bd 2d 1c 7e 3e 20 55 df be df 21 d1 be
       -0.08042169 0.24815436 -0.43619633 -0.40846154
0002b0 4a 57 ba 3e 48 68 3e bd 45 b2 db be 0b 90 1a 3e
       0.3639472 -0.04648617 -0.42909446 0.1509401
0002c0 49 93 05 3f e2 1f a3 bd a7 41 cd be ea 14 2e 3e
       0.52177864 -0.079650655 -0.4008915 0.17000166
0002d0 2d e0 b3 3d a2 a6 44 3e 3e d0 40 3f 2f 77 ba be
       0.087829925 0.1920419 0.7531775 -0.36419055
0002e0 55 9b 69 3d a6 41 4c 3d 43 5e 24 bd 45 31 34 3e
       0.0570329 0.049867295 -0.040128957 0.1759692
0002f0 8b 34 17 be 59 77 b2 3d 07 5f 57 3d cc 4a 0f 3e
       -0.14766137 0.0871417 0.05258086 0.13993376
000300 29 0d 2b 3b 9a 81 d2 3e b4 64 fc bd 50 b2 4f 3e
       0.0026100373 0.41114503 -0.12323895 0.20282865
000310 46 b2 52 3f 55 e3 15 be 32 e1 81 3e 15 f6 4b bf
       0.82303274 -0.14637502 0.25367123 -0.79672366
000320 f8 99 1b be 0c 85 ec 3e 51 38 0a 3e 38 4e c0 be
       -0.15195453 0.46195257 0.13498046 -0.37559676
000330 40 58 b4 3d 08 80 d4 3e 81 14 42 3d b6 b7 51 be
       0.08805895 0.4150393 0.047382835 -0.20480236
000340 5d 67 88 3c 8d 36 d4 3c fa 7f 95 3e f4 67 4f 3e
       0.01665085 0.025904918 0.291992 0.20254499
000350 bf 20 0a 3d 51 8e af be b7 ef d2 bc 56 84 f1 bd
       0.033722635 -0.34288266 -0.02574907 -0.11792819
000360 ff 62 47 3e bd 81 01 3e f8 a5 bd bd ac 81 50 3d
       0.19471358 0.12647147 -0.09260172 0.050904915
000370 24 99 19 bd 25 2d f5 bd 4a 0a e4 be a4 51 02 bf
       -0.037499562 -0.11971501 -0.445391 -0.50905824
000380 e7 ee 32 be 59 44 63 be 98 90 69 3e ca ec 78 3e
       -0.17473947 -0.22194041 0.22809064 0.24309078
000390 28 12 d6 3e 37 6d b3 3c 53 e9 c1 3e 78 03 cb 3e
       0.41810727 0.021902664 0.37873325 0.39651084
0003a0 c9 58 2a 3c c1 8c d2 bd 4d cd f8 3d ec 1d 43 bd
       0.010397145 -0.10280753 0.12148533 -0.047635958
0003b0 34 09 3a bd a4 0f 1d 3e ed ff 01 be c3 3b 2b be
       -0.045418933 0.15337998 -0.12695284 -0.16722016
0003c0 93 32 56 be 07 4b 55 3e 01 ae c6 3d f1 96 29 bc
       -0.2091773 0.20829402 0.09701157 -0.010350929
0003d0 2b a2 bd 3d 4f aa bf be f0 84 99 3d f8 1c 8e be
       0.09259447 -0.37434623 0.07496059 -0.27756476
0003e0 f6 cd d4 3d 24 cf 17 bd 31 6a dc 3d 27 59 88 be
       0.103908464 -0.03706278 0.10762442 -0.26630518
0003f0 ae 9e b3 3e 0d 7f 33 3e 19 62 0d 3f 10 77 6e 3d
       0.35082 0.17528935 0.5522781 0.058219016

Mv0 f4 [20, 50]
000000 19 98 b9 bd 51 cd 15 bf 46 39 36 bd 4d 4e 1c be
       -0.090622135 -0.5851641 -0.044488214 -0.15264244
000010 1e 09 9c bd 5a 17 2a 3e dd bc 8e 3d b2 fe 45 bd
       -0.076189265 0.1661047 0.069696166 -0.0483386
000020 1b ec e4 be de 88 e8 3d 22 a7 f2 bd 75 82 2d 3e
       -0.44711384 0.1135423 -0.11848284 0.16944297
000030 15 2e 48 be ec 41 55 bd 07 8b e5 bd c8 f8 98 3e
       -0.19548829 -0.05206482 -0.11208158 0.29877305
000040 95 4c 66 ba 35 bd 2a bd b6 ab 1b bd 57 ff 12 bf
       -0.00087852153 -0.041684348 -0.038005553 -0.5742087
000050 61 62 32 be c0 37 79 be aa 89 96 be e6 e5 1a 3e
       -0.17420341 -0.24337673 -0.29401904 0.15126762
000060 2d 45 4a be 98 28 0d 3e 3c d4 48 bd 6f 3e 58 3d
       -0.19752951 0.13785017 -0.049030527 0.052793916
000070 fd ac 70 bd 89 b6 cc be d0 85 99 3d fd 0b be be
       -0.058758724 -0.39983013 0.07496226 -0.3711852
000080 55 ee 94 bd 9c a2 4c be ad 61 8d 3e 33 79 40 be
       -0.07272021 -0.19983906 0.27613583 -0.18796234
000090 47 f7 ce bc 4b 02 fe be 36 3f 8b bd 9a 7c 77 be
       -0.025264395 -0.49611124 -0.06799166 -0.24168625
0000a0 53 0a ad be 25 d3 4b bd 0b e8 01 3f 4e 56 7d 3e
       -0.3379694 -0.04976191 0.50744694 0.24739954
0000b0 7f 50 b3 3a 15 fa 5b 3d c4 38 03 3e a1 b8 f3 be
       0.0013680606 0.053705294 0.12814623 -0.47601798
0000c0 de 8a 9c 3e 2a 2d ba bd 36 70 2f 3e fe c7 98 be
       0.30574697 -0.090906456 0.17132649 -0.29840082
0000d0 59 e8 57 be 81 c1 9c 3e fa 1f 08 be f2 2f 4b 3d
       -0.21084727 0.30616382 -0.13293448 0.04960627
0000e0 ff 1d 66 be 7b 61 1c 3f fd d7 9a 3d 57 b8 7d 3e
       -0.2247238 0.61086243 0.07560728 0.24777351
0000f0 7b d4 3f be 8c 41 3f be 02 98 54 3e 62 54 2d be
       -0.18733399 -0.18677348 0.20761111 -0.1692672
000100 bc 6d 19 bf ce 6f ac bc a0 e5 1b bf fa 9a fd 3c
       -0.59933066 -0.021049406 -0.60897255 0.030957688
000110 0f b4 ea 3d 53 c5 bc be 1b 9e 50 be d7 e0 46 3e
       0.11460125 -0.36869296 -0.20372812 0.19421707
000120 5f 7f cd be 78 21 63 bc df 28 1f 3c cf 6c 18 3e
       -0.4013624 -0.01386296 0.009714334 0.14885257
000130 46 88 80 be 6e 41 76 3d dd aa ee 3e 8c 95 8c be
       -0.25103968 0.060120992 0.46614733 -0.27457845
000140 27 db a9 be 0c 5e 88 be 3c 1d ec 3e 16 e1 95 be
       -0.33175012 -0.26634252 0.46116054 -0.2927329
000150 f0 34 a0 3e b0 f2 ea 3d ae 57 0c bd 50 0c 55 be
       0.31290388 0.1147207 -0.034263305 -0.20805478
000160 cb 02 ac 3d e4 fe 3e 3e 39 52 55 3e a2 07 c9 be
       0.0839897 0.1865192 0.20832147 -0.39263636
000170 c0 33 82 3e b5 65 46 3e 51 27 77 3c 6b 0b da 3e
       0.25430107 0.19374736 0.015085057 0.42586836
000180 d1 0f 40 3e 63 6f be bc 08 9b 2d be b7 ef 3e bd
       0.18756033 -0.023246473 -0.16953671 -0.04661533
000190 8d 46 32 3c f4 a8 e9 3e eb a0 bd 3e 2c 68 01 bf
       0.010881078 0.45636714 0.37036833 -0.5054958
0001a0 07 4f 07 3f cc 24 09 3e c8 39 6e bd ba 2e bb be
       0.5285496 0.13392943 -0.058160573 -0.36559087
0001b0 ae e9 a8 be 0e ac 3f be d0 d0 9e bb 99 2b b9 3d
       -0.32990783 -0.18717977 -0.0048466697 0.09041519
0001c0 90 7f 01 bc 76 71 4f 3e e7 fb e4 bd 0f c7 99 3d
       -0.007903948 0.20258126 -0.11180859 0.075086705
0001d0 96 86 c8 bd f5 5f e6 3e 14 8c a6 be 95 5f 78 bd
       -0.09791295 0.44995084 -0.32528746 -0.06063803
0001e0 0c c8 50 3e 18 76 17 bc 12 21 41 3d 07 ea 10 be
       0.20388812 -0.009244464 0.04715068 -0.14151774
0001f0 fd 0b e1 3c a7 2d f0 be 0b 72 8f 3d f0 ad 95 3e
       0.027471537 -0.4690983 0.07004174 0.29234266
000200 f7 d5 3e be c6 9c 33 be 05 e5 73 be 04 58 2e bd
       -0.18636309 -0.17540273 -0.23817833 -0.042564407
000210 5f 51 0f 3e d2 86 cf 3e 3b 9f 84 bd cb 36 aa 3d
       0.13995884 0.40532547 -0.06475683 0.08311232
000220 d1 b0 74 bb 37 49 68 bd da c8 67 be 77 f7 57 be
       -0.0037336836 -0.056710448 -0.22635213 -0.21090494
000230 74 63 83 be 16 2a e5 bb ac 0e 76 be 60 51 64 be
       -0.25661814 -0.0069935424 -0.24029034 -0.22296667
000240 73 20 c9 3e 1d 3e 02 bf 1b 99 af 3d d5 62 21 be
       0.3928257 -0.5087603 0.085741244 -0.15760358
000250 51 1a ca 3d 0e 21 0f bf 0e 7a 93 bd aa b0 5c bd
       0.09868301 -0.5590981 -0.072010145 -0.053879417
000260 89 f3 e0 be 4c eb aa bd bf 46 2d 3e f7 97 46 be
       -0.43935803 -0.083456606 0.16921519 -0.19393907
000270 3e 82 16 bf df b4 5b bd 76 67 05 3e 09 d4 71 bd
       -0.58792484 -0.05363929 0.13027748 -0.059040103
000280 91 08 e7 3e 61 de bf bd b1 e5 ce 3e 64 34 eb bd
       0.45123723 -0.09368587 0.40409616 -0.11484602
000290 30 93 15 3e 20 8a 7c 3d ce aa a7 be 46 74 79 be
       0.14606929 0.061655164 -0.327475 -0.24360761
0002a0 b3 dc b6 bd 74 11 12 bf c0 cb 80 be b8 69 08 3e
       -0.08928814 -0.5705788 -0.2515545 0.13321579
0002b0 0b a0 f6 be b4 84 15 bd 21 98 82 be 46 e4 86 3e
       -0.48168978 -0.03650351 -0.2550669 0.26346034
0002c0 a7 63 91 bd cf f6 b9 3d 82 89 43 3e 65 17 84 be
       -0.07099085 0.09080278 0.19095424 -0.257991
0002d0 30 75 af be b6 a3 82 3e 68 0b 01 3e 68 af ce be
       -0.34269094 0.25515527 0.12602007 -0.403682
0002e0 70 a4 24 bd a1 a2 2c 3d 1c 8a be 3d c1 f7 a5 be
       -0.040195882 0.042147283 0.09303686 -0.32415584
0002f0 e0 2e 92 bc 86 37 00 be 54 72 72 bd 31 78 e5 3d
       -0.017844617 -0.1252118 -0.059191063 0.11204565
000300 50 93 2d 3e e2 12 74 3e 4a f2 e6 bd af f9 14 3d
       0.16950727 0.23835328 -0.11276682 0.03637093
000310 22 51 3c 3e b5 c8 4d 3d 04 d8 56 be 5b a6 88 3e
       0.18390325 0.050240237 -0.20980841 0.2668942
000320 c4 34 62 bd d5 44 11 be b3 ce d4 3d e0 b3 8c bd
       -0.055226102 -0.14186414 0.10390987 -0.06870246
000330 54 b5 aa 3e de 9b 5a 3e a3 53 8d 3e 7e d7 87 3e
       0.33341467 0.21348521 0.27602872 0.26531595
000340 cf 22 07 be fb 07 d3 3e 9d 2d 52 3e 9c 29 cc be
       -0.13196872 0.41217026 0.20525213 -0.39875495
000350 54 55 a2 be dd 4f 26 bd 60 fe a4 be 1b 4b 91 3e
       -0.31705725 -0.040603507 -0.32225323 0.28377613
000360 1c 83 6d bc 8c 29 00 3f f4 11 47 3d fa 91 b9 3c
       -0.014496591 0.50063396 0.048601106 0.022652615
000370 f7 f8 ff 3d 9e 4e c5 be 08 7a a0 bd a1 de 3d be
       0.12498658 -0.38536543 -0.078357756 -0.18541957
000380 4f 45 d5 3e 2a 37 42 be 37 a6 af be ae 25 29 3d
       0.4165444 -0.18966356 -0.343065 0.0412957
000390 da a7 aa be 54 1e 8a 3e aa 43 f1 3e b1 68 0b be
       -0.33331186 0.26976264 0.47121936 -0.13614155
0003a0 99 9e 1a 3f 9d 3b 8e be 45 fa a5 bd e5 fa 3b 3e
       0.6039825 -0.27779856 -0.08104376 0.18357427
0003b0 96 cd 09 be 1c e0 cf bc 6b 70 15 3e fa b7 12 be
       -0.13457331 -0.025375418 0.14593665 -0.14327994
0003c0 d3 86 5f bd da f1 4a 3e 93 d3 81 be 87 de f5 3c
       -0.054571938 0.19818822 -0.2535673 0.030013336
0003d0 80 88 a8 3e 38 28 10 be 52 a1 6c 3e 2e c5 b6 bc
       0.3291664 -0.14077842 0.23108414 -0.02231082
0003e0 29 5b 22 3f f7 36 22 bd d8 01 6c 3e c8 9c f1 3d
       0.6342035 -0.0396032 0.23047578 0.11797482
0003f0 41 1f a1 3e 11 bb 43 be c1 2e 89 3d 4d cf cf 3d
       0.31469157 -0.19114329 0.06698371 0.10146961

k_emb_layer.weight f4 [398, 50]
000000 c3 64 2f bf 8b a9 45 bf 20 38 df bf c8 a7 f9 3f
       -0.68513125 -0.7721183 -1.7439003 1.9504328
000010 ef b2 c8 be 82 e3 e8 bd 6a c2 c3 bf ed e0 9a bf
       -0.39199015 -0.11371519 -1.5293705 -1.2099892
000020 92 81 b0 bf 4e 8c 36 3f a6 94 df bf 7f 94 63 3e
       -1.3789542 0.7130784 -1.7467239 0.22224616
000030 a4 d1 dd 3e 19 00 9b 3e fb 13 c0 3d f7 bc a9 3f
       0.43324006 0.30273512 0.09378811 1.3260792
000040 87 c4 54 3f 72 3a ca bf f0 4b 7d bf 1b 8e d7 be
       0.83112377 -1.5799086 -0.98943996 -0.42100605
000050 36 f8 b8 bd c3 f1 7b 3f 49 74 e5 bf 1b 22 bb bf
       -0.090317175 0.98415774 -1.7926112 -1.4619783
000060 7f b8 9d 3e 87 0f 32 3f b2 1d 37 bf 1f d3 8b be
       0.30804822 0.6955494 -0.71529686 -0.2730951
000070 f7 58 20 bf b4 24 a5 bc 2f 47 12 3d 50 54 9a be
       -0.6263575 -0.020159103 0.035712417 -0.3014245
000080 1d 13 2c bf be bd 62 3f 39 ea a4 be f4 ee 86 be
       -0.67216665 0.88570774 -0.32209948 -0.26354182
000090 84 0c c7 3f 81 ec 72 be a4 e1 94 3f a3 f2 90 3f
       1.5550694 -0.23723032 1.163136 1.1324047
0000a0 6d bb 98 bf f6 b3 95 bd 53 0c 57 3f ff 08 39 bf
       -1.1932198 -0.073097154 0.8400318 -0.7227935
0000b0 5d 4d 4a 40 75 5c bf 3f 62 d1 ae 3e d8 fb 3f 3f
       3.1609719 1.4950091 0.3414412 0.7499366
0000c0 be 11 05 c0 e6 37 08 c0 28 b4 30 3f eb bc 7f 3e
       -2.079208 -2.1284118 0.69024897 0.2497441
0000d0 c5 06 81 bf 50 7a 63 3f 41 a0 d0 bf ac ff bd bf
       -1.0080191 0.8885851 -1.6298906 -1.484365
0000e0 c9 32 66 3f 39 b3 5c c0 70 cc db 3f b7 3a a0 bf
       0.8992124 -3.448439 1.7171764 -1.2517918
0000f0 2f 79 84 3d ec a2 be 3f 6f 20 22 3e ed b3 70 3f
       0.064684264 1.489347 0.15832685 0.94024545
000100 93 00 ff 3f 3e 3c f7 be 0d 85 3d 3f 63 6e 89 3f
       1.992205 -0.4828815 0.74031144 1.0736812
000110 31 79 35 3f 55 fb fa 3e be e0 b0 bf aa ef 86 3e
       0.7088805 0.49019876 -1.3818586 0.26354724
000120 00 fc 56 40 bf 9f 47 3f ef a9 d9 3d 89 7d 88 3e
       3.3591309 0.7797813 0.106281154 0.26658276
000130 f3 1b c8 3f 1d c8 91 be 7e 56 24 bf a2 46 d4 3f
       1.563353 -0.28472987 -0.64194477 1.6584055
000140 54 80 2e 40 8b d7 d5 bf c1 0f 5c 3f 9c 12 52 3e
       2.7265825 -1.6706403 0.8596154 0.20514911
000150 fc f4 1c bd 28 ca 68 3f dc e8 36 be 19 fb 90 bf
       -0.038319573 0.90933466 -0.17862266 -1.1326629
000160 d9 5a 1e be 36 bf c1 3f 05 e1 5b 3f c7 12 df be
       -0.15464343 1.5136478 0.8589023 -0.43569013
000170 3c f1 de 3f fd 94 1f 3f 90 c1 2a c0 71 a3 18 c0
       1.7417369 0.62336713 -2.668064 -2.3849757
000180 76 02 ea be ef 14 c2 be ad d5 8b 3d e2 84 8a be
       -0.45705003 -0.37906596 0.06827865 -0.27054507
000190 40 db 2a 3f 18 19 8b bf 62 75 b9 3f d1 f2 5b bf
       0.667408 -1.0867033 1.4488947 -0.85917383
0001a0 d5 cd b0 3f eb c8 00 3c e4 7a 1b bf d8 cb 04 bf
       1.3812815 0.007860403 -0.6073439 -0.5187354
0001b0 70 49 9b bd c0 72 8f 3d b6 3f 09 40 97 5e 32 3f
       -0.075823665 0.07004309 2.1445136 0.6967558
0001c0 ec 1c b9 3e ae 19 e6 3f 49 5d ec 3e 1d 2e 96 3d
       0.36154878 1.7976587 0.4616492 0.07333014
0001d0 41 1a 2f bf bd 2b 8b 3f 79 c0 99 3f 28 23 ac bf
       -0.68399435 1.0872723 1.2011863 -1.3448229
0001e0 aa 9c 7c bd 26 d8 2c 3f 97 5a 15 bf bf 9d f1 3d
       -0.061672844 0.67517316 -0.58341354 0.11797666
0001f0 11 01 93 3f f8 5c 70 3f da 06 92 bf 85 86 34 3e
       1.14847 0.9389186 -1.1408341 0.1762944
000200 97 fe fc 3e e8 2f b3 3d 63 37 26 bc 4c 44 81 3f
       0.49412987 0.08749372 -0.010145041 1.0098968
000210 bf ae 63 3f 2e f4 4d bf 89 6e 10 bf ef 28 85 bf
       0.88938516 -0.80450714 -0.56418663 -1.0403117
000220 ee ca 80 3e ff 66 ce be de c6 00 bf 18 84 bb bf
       0.25154823 -0.40312955 -0.5030345 -1.4649687
000230 01 f1 c7 bf a5 c1 c3 3d 65 66 a0 be 80 d4 f8 3e
       -1.5620424 0.09558419 -0.3132812 0.48599625
000240 af 53 46 3d bb 96 1a 3f 0d 41 93 bf 92 f4 7a 3d
       0.04841965 0.60386246 -1.1504227 0.061268397
000250 3e bf 11 be c4 d8 1a 3f 48 30 07 3f d5 c2 51 bf
       -0.1423311 0.6048701 0.52808046 -0.81937915
000260 c3 18 d5 3d 8c 43 8b be da 57 d8 bf 0b 76 af be
       0.104051135 -0.27199972 -1.690181 -0.34269747
000270 c7 90 8f 3f 47 ab d0 3f d4 c3 84 3e dd e1 bd 3f
       1.1216058 1.630227 0.25930655 1.4834553
000280 cc be 47 be 5e 6f cd be 8e 73 62 bf ab 4d 0e 40
       -0.19506377 -0.4012403 -0.8845757 2.2234905
000290 9f 84 9a bf 59 1b a5 bf eb 4f 3b 3f 97 19 b7 bd
       -1.2071723 -1.2898971 0.7316882 -0.08940428
0002a0 4e 05 e8 bc 82 45 8a be 15 78 8f 3e 2e e0 c8 3f
       -0.028322842 -0.27006155 0.28021303 1.5693414
0002b0 f9 fe 8b 3f 54 d2 1b 3f 46 af 10 bf f2 18 cf be
       1.0937186 0.6086781 -0.56517446 -0.4044872
0002c0 25 0c 2e 3f cf 0a c2 3e e6 16 68 bf 72 a4 e5 bf
       0.6798728 0.3789887 -0.9065994 -1.794081
0002d0 ab 59 42 3f e1 c9 36 be 2c ba d4 bb 8e 96 53 3f
       0.7591807 -0.17850448 -0.00649192 0.82651603
0002e0 71 d9 c6 3f f2 31 72 bf 8d 68 22 c0 ae fb 3d c0
       1.5535108 -0.9460746 -2.5376313 -2.9684863
0002f0 da 2d da bf 72 2e 37 3f f7 8e fd be 22 9d 1f 3f
       -1.7045243 0.71555245 -0.49523136 0.6234914
000300 84 81 43 3f 31 88 d5 3f 44 5d 17 3c 55 6f b2 be
       0.763695 1.6682187 0.009238545 -0.34850565
000310 db ed 12 40 1c d6 0f bf 4f 5b a7 3f d2 b0 b0 bf
       2.2957675 -0.5618608 1.307474 -1.3803961
000320 1b 14 c7 be 01 15 0d 3e 4f ce 08 c0 17 8e 98 bf
       -0.38882527 0.13777544 -2.137592 -1.1918362
000330 38 19 bf be 75 23 dc 3e b6 00 97 3f 20 f1 ff be
       -0.37323928 0.42995802 1.1797092 -0.4998865
000340 7d ae 7f bf 52 ec 9e bf 8b 51 e0 bf 3d cd 61 bf
       -0.99875623 -1.2415869 -1.7524885 -0.88203794
000350 4b c1 91 be 8d 30 b7 3f ed fd 90 be 10 d9 af bf
       -0.28467783 1.4311692 -0.2831873 -1.3738117
000360 c8 7c 1f bf 49 2d 08 3f 7a 89 82 3d 11 d9 a2 be
       -0.62299776 0.531941 0.06373878 -0.31806234
000370 78 1f 93 3e 0a eb 25 3e 02 87 e1 bf 89 cb 34 be
       0.28734946 0.16202942 -1.7619326 -0.17655768
000380 f1 73 01 c0 5d 80 8c bf b0 d1 6e 3e d2 4d 49 3f
       -2.0227015 -1.0976673 0.23322177 0.7863437
000390 6d 34 ba be 2a 31 d7 3f c0 d6 c2 3f 6b 39 a1 bf
       -0.36368123 1.6811879 1.5221786 -1.2595648
0003a0 9c 93 d5 bf 49 4b 3c 3d e8 eb 67 be 4a 70 2c bf
       -1.6685672 0.045970235 -0.22648585 -0.6735884
0003b0 8e f4 16 bf 8d d9 61 bf 76 04 e5 bf 55 58 d6 be
       -0.5896691 -0.8822258 -1.7891986 -0.41864267
0003c0 2a cd d9 bf f4 e1 64 3e 92 50 3a 3f 46 75 09 3f
       -1.7015736 0.2235182 0.7277919 0.5369457
0003d0 f8 2b c9 3f cd 75 4d 3e cf 22 5b 3e d3 e7 ec 3f
       1.5716543 0.20064469 0.21399997 1.8508247
0003e0 8c 86 77 3f b8 d0 17 40 ca a5 bf 3e b9 a7 93 be
       0.9668968 2.3721142 0.37431175 -0.288389
0003f0 fa 1b 46 3f 00 92 5c be 94 72 00 bf e6 bc 8b bf
       0.7738644 -0.2154007 -0.5017483 -1.0917022

v_emb_layer.weight f4 [796, 50]
000000 1b 00 53 bd fd d5 a4 3d 15 c4 5e 3f 02 8f 66 bf
       -0.051513772 0.080486275 0.8701795 -0.9006196
000010 5d 28 de 3e f3 ea fb 3e 29 a4 bd 3e 9c 74 a3 3e
       0.4339017 0.4920269 0.37039307 0.31924903
000020 66 f2 1a 3f 6a 86 09 bf 80 69 9f 3f 52 f1 1d 3e
       0.6052612 -0.53720725 1.2454071 0.15424088
000030 1c 7e b7 3e 2a 99 6a bf 90 db 3d 3f ca 1f 17 3f
       0.358384 -0.9163996 0.7416315 0.5903288
000040 05 68 3e be 71 75 24 3f 31 0b db 3e 70 29 4a 3f
       -0.18594368 0.642417 0.42781976 0.7896948
000050 47 fd 3a bf 28 ff 5a bf 43 c4 2c 3f a0 89 2a 3f
       -0.7304272 -0.8554559 0.6748697 0.6661625
000060 65 73 2c 3d 04 15 92 bf af 70 46 bf c0 b2 39 bf
       0.042102236 -1.1412663 -0.7751569 -0.72538376
000070 54 7a c1 3e 9d 0b e4 bf 30 d8 2f bf de c0 c2 3e
       0.3778864 -1.7816044 -0.6868925 0.3803777
000080 63 9c 1f c0 90 2c d8 be 21 a8 96 3f a7 85 59 3f
       -2.49392 -0.42221498 1.1770059 0.8496956
000090 32 eb b2 be de 4b 0a bf f5 47 8c bf 33 e9 84 bf
       -0.34945065 -0.54022014 -1.095946 -1.0383667
0000a0 89 81 88 bf 0a 50 a6 bf 78 0e 07 3f d7 e1 6f 3f
       -1.0664531 -1.2993176 0.5275645 0.9370398
0000b0 e8 47 51 3e f2 89 1d bd da 13 c1 3d f0 dc c9 be
       0.20437586 -0.038461633 0.094276145 -0.39426374
0000c0 d8 20 42 bf 81 d3 f3 3f bb dd 0d bf dc 6b 09 40
       -0.75831366 1.9048921 -0.5541646 2.1472082
0000d0 4b 0c d2 bd 34 c7 a2 be af ee f0 3e 1a af 16 c0
       -0.10256251 -0.31792605 0.470571 -2.3544374
0000e0 b5 76 a0 bf 73 e2 58 3f c4 d8 85 3f 07 86 58 bd
       -1.2536227 0.84720534 1.0456777 -0.052862193
0000f0 d7 19 80 be 1f 53 45 3e 94 a4 6f 3e 3e 1f cf 3d
       -0.25019714 0.1926999 0.23402625 0.10113381
000100 eb 9b a1 bd 1a fc 37 bf 28 85 90 bf 7a 50 90 bf
       -0.07891067 -0.7186905 -1.1290636 -1.127456
000110 2e 5f 2d 3e 0e f9 b6 bf 0e 05 98 be c7 d5 3d 3e
       0.1693084 -1.4294755 -0.29691356 0.18538581
000120 33 74 17 3e 17 b3 07 bf 04 dc f7 be d9 94 ab 3f
       0.1479042 -0.53007644 -0.48410046 1.34048
000130 f4 2d 7f 3f 2f de c7 bf 5b 74 86 bf e4 f5 2e bf
       0.99679494 -1.561468 -1.0504259 -0.6834395
000140 24 14 38 c0 a7 fd 72 3f d7 fd 7b bf dc 5e 3c bf
       -2.8762293 0.9491829 -0.98434204 -0.73582244
000150 c9 a1 0e bf ed a5 f7 bd 7f 96 62 bf 8a 41 b6 bf
       -0.55715615 -0.12092195 -0.8851089 -1.4238751
000160 d8 40 22 3f 69 1e 80 3d 23 d0 5c bf da 5f 7e be
       0.63380194 0.062558 -0.8625509 -0.24841252
000170 2e 6c c1 3e 64 b8 ff be b0 5e 6f 3f ed 1a c3 bd
       0.37777847 -0.49945366 0.93503857 -0.0952662
000180 39 be 1a be 9d af 16 bf b8 80 c9 3e 3b 17 64 be
       -0.15111627 -0.58861715 0.39356017 -0.22274487
000190 35 10 a3 3f 38 97 f3 3e 25 fe 14 bf bd 2c 5b 3f
       1.2739321 0.47576308 -0.58200294 0.8561514
0001a0 ca b9 07 c0 66 8b 0e 3b d7 36 e7 be 3b 02 d0 3e
       -2.1207147 0.0021750568 -0.45159027 0.40626702
0001b0 03 09 c5 3e dd 9d 2a 40 0e b9 3f 3f 99 28 66 3f
       0.38483438 2.6658852 0.74891746 0.899057
0001c0 74 f6 35 bf 46 fe 3d be 56 09 42 bc cb af d7 be
       -0.7107918 -0.18554029 -0.011843046 -0.42126307
0001d0 3d cc bf bf 6f b2 d5 bf f5 06 13 c0 dc e8 82 bf
       -1.4984204 -1.6695079 -2.2972996 -1.0227313
0001e0 ea b1 f1 3e 01 18 e0 bd d0 7a 08 40 37 df 81 3f
       0.4720605 -0.109420784 2.1324959 1.0146245
0001f0 81 74 1d 3e 2f 4c 99 3f cc c1 36 3f ec 90 2c be
       0.15376474 1.1976374 0.7138946 -0.16852158
000200 87 a6 09 bd 36 42 e4 3f 0c e9 9c 3f 6c 7f 37 3e
       -0.03360608 1.7832706 1.225862 0.17919701
000210 83 47 08 3f 32 ed d8 be 47 d5 81 bf 6e 45 b2 3e
       0.5323412 -0.42368466 -1.0143212 0.34818596
000220 79 ed b3 bf 56 c6 03 40 26 84 1a be e9 74 a0 bf
       -1.4056846 2.0589805 -0.15089473 -1.2535678
000230 37 0d 6c bf 0a 59 74 3f ce 0f da 3f 31 cf 96 be
       -0.92207664 0.9544836 1.7036073 -0.2945495
000240 a3 5a a4 3e 82 82 f3 3f 07 6b d7 bf fd c1 fe 3f
       0.321004 1.9024203 -1.6829537 1.990295
000250 92 52 f5 3f 89 e8 35 bf 68 2e 19 3e ab 38 45 bf
       1.9165823 -0.71057945 0.14959109 -0.77039593
000260 57 5f 3f bf 44 23 26 bf 50 6e 88 bf 81 0b ca 3d
       -0.7475485 -0.6489756 -1.0658665 0.098654754
000270 15 3b c9 3e c2 fe 9f 3f 95 3b 19 3e f4 d9 af be
       0.3930289 1.2499621 0.14964135 -0.34345973
000280 d9 2e a6 3f f1 45 12 c0 e7 cb 01 bf 07 87 07 bf
       1.2983047 -2.285519 -0.50701755 -0.5294041
000290 ff b5 28 bf 75 ba 41 bf fe f3 99 3e bd b7 0f 40
       -0.65902704 -0.75675136 0.30068964 2.2455895
0002a0 46 da 37 3f 32 45 bf bf ba 72 92 bf 07 e3 15 c0
       0.71817434 -1.4942992 -1.1441262 -2.3419816
0002b0 30 15 9a 3e 65 f1 96 3e 7e 97 32 bf 0f c2 4f 3d
       0.3009429 0.29481044 -0.6976241 0.050722178
0002c0 f2 52 df 3f 14 11 0b 3e 29 f7 9b be b5 c9 ed bf
       1.7447188 0.13580734 -0.30462006 -1.8577181
0002d0 86 e6 b9 bf f9 cf 3e 3f 4b e8 8a 3f 92 e8 64 be
       -1.4523475 0.7453609 1.085214 -0.22354344
0002e0 24 6d 9d 3e 65 70 7b bf b3 4d e3 be b3 0f 61 be
       0.3074733 -0.98218375 -0.44395217 -0.21978645
0002f0 e4 bd e3 3e 07 5d 8b be 82 0f fc 3d 4b f4 d5 be
       0.44480813 -0.27219412 0.123076454 -0.41787943
000300 d2 29 a0 bf ed bf 0d 40 be 24 0f c0 11 59 05 bf
       -1.2512763 2.2148392 -2.2366176 -0.5208903
000310 14 62 2e c0 fa cf 99 3f d8 1a e0 3f 96 00 8a bf
       -2.7247362 1.2016594 1.7508192 -1.0781429
000320 6f d1 b7 bf 25 9c 82 3f 9d 6a a8 bf 5e 55 be bf
       -1.4360789 1.0203902 -1.3157536 -1.4869802
000330 e2 54 34 be 6c 96 22 3e 3f ef c2 bc 19 c7 3d 3d
       -0.17610505 0.15877694 -0.023795722 0.046332452
000340 4a 9c e6 3d 4a f8 05 40 ad 44 e7 3e 6d a7 c0 bf
       0.112602785 2.0932794 0.45169583 -1.5051094
000350 bc 66 38 be 1d ee 05 c0 b2 84 49 bf 65 f3 04 3f
       -0.1800794 -2.0926583 -0.787181 0.5193389
000360 3b 4e a0 bf 1e e2 6b bf 7a be 68 3f 38 b9 8b 3f
       -1.2523874 -0.921419 0.90915644 1.0915899
000370 72 5e b2 3e af 62 89 3f 6b 8c 7b bf a5 3b 06 3f
       0.3483768 1.0733241 -0.98261136 0.5243476
000380 21 4b c6 3f 43 97 ea be 02 9e 68 3f 52 81 83 be
       1.5491678 -0.4581853 0.908661 -0.256846
000390 00 5a 03 be 3e 0f 9d 3f a1 32 f3 bd 48 e4 32 bd
       -0.12827301 1.2270277 -0.11874891 -0.043674737
0003a0 c7 a8 f3 bf 8d 1e 45 bd 6b de 37 3f c6 9a 93 3f
       -1.9035882 -0.04812484 0.7182376 1.1531608
0003b0 91 8e ea bf 10 6b b0 bf 72 ef 2f 3f 70 25 ea 3e
       -1.8324758 -1.3782673 0.6872474 0.45731688
0003c0 42 c8 89 3f af c9 ec 3f 6e 2a de 3e 2d ad ca bf
       1.0764239 1.8499049 0.43391746 -1.5834099
0003d0 cb 3d ac 3e 2d 07 14 bf 4d 1d 6e 3d 5c 19 99 3d
       0.33640894 -0.5782345 0.058133412 0.0747554
0003e0 ba c6 d0 be f1 56 94 bd 44 28 37 3f 60 ad b9 bf
       -0.40776616 -0.07243145 0.71545815 -1.4506035
0003f0 60 a8 b3 3f 4b 4a 84 3f 52 78 e8 bf a7 7a be bf
       1.4035759 1.0335172 -1.8161719 -1.488118

f_layer.weight f4 [50, 100]
000000 d1 2c c9 bd 44 8b c9 3d 71 b3 06 be b2 1e a7 3c
       -0.09823001 0.09841016 -0.13154389 0.020400379
000010 01 01 aa 3d 5e 49 16 bd fd 39 42 3c 5e b0 74 bc
       0.08300973 -0.036691062 0.011854646 -0.014934627
000020 19 3d 3e 3e c0 f3 e4 3c 9a 12 2a 3d 8f cf 4c be
       0.18577994 0.02794826 0.041521646 -0.20001052
000030 b3 21 e9 bc 16 9e 9a 3d f8 1b ea bd e1 c7 6d be
       -0.028458452 0.07549684 -0.11431116 -0.23220779
000040 08 17 55 bd 48 87 2f 3d 83 64 fc 3d f1 e4 7f bd
       -0.052023917 0.042853624 0.123238586 -0.062474195
000050 46 5a 3c bd f9 c2 4d 3e 0e 31 f8 bb 45 3d c5 3d
       -0.04598453 0.20093907 -0.007574207 0.09630827
000060 21 bb 62 3d fc 12 9b bd e9 e9 d5 bc 8e 11 d0 3d
       0.05535424 -0.0757198 -0.026112514 0.10159598
000070 30 a5 c0 3d 8f c3 14 be 65 c3 13 be 18 09 95 bd
       0.09406507 -0.14527725 -0.14430006 -0.07277125
000080 1b 2c 2c bd c7 fe df 3c b0 95 fc bc aa 8d b9 3c
       -0.04203425 0.027343167 -0.030833095 0.022650559
000090 05 3d ce bd 75 fa 85 3c 84 e3 74 bb 5a 82 1b 3e
       -0.10070232 0.016354779 -0.0037367055 0.15186444
0000a0 53 44 a2 3d 8a 7f ed bc 22 27 ca 3c 09 90 a3 3c
       0.07923188 -0.02899148 0.024676863 0.019966142
0000b0 bf d4 17 3e 45 e1 cf 3d 9c 2b 9f 3d 49 ed 96 bd
       0.1482725 0.10150389 0.0777199 -0.07369477
0000c0 1c b9 14 bd 96 66 5d 3d 48 a2 68 bc 82 31 15 bd
       -0.036309347 0.05405291 -0.014198847 -0.036424167
0000d0 5b 5d db 3d 19 7e fc 3d 48 11 8d bd 6c 2a 45 3d
       0.107111655 0.12328739 -0.06888062 0.04813616
0000e0 b0 39 2f bd ad 4e b0 bd db 56 92 3d 7a ba 13 be
       -0.042779624 -0.08608756 0.071454726 -0.14426604
0000f0 b5 e7 8c bc ed bd 9d 3d 34 0a b9 3d 2e b1 9f bd
       -0.01720033 0.07702241 0.09035149 -0.07797466
000100 fc 8f f2 bb 3a c7 fc bd 46 bb ea 3d 8b e9 06 bd
       -0.007402418 -0.12342687 0.11461501 -0.032937568
000110 e3 d0 44 bd 77 95 81 3d 2a f8 07 be 41 7d 98 3d
       -0.048050772 0.06327336 -0.13278261 0.07445765
000120 2a ce bc 3d 74 55 06 be e4 f1 56 3e f6 6d bf 3c
       0.0921901 -0.13118535 0.20990711 0.023367863
000130 c5 d7 a3 bd 48 23 ec 3d 22 77 00 3d fe b9 0d bd
       -0.08000139 0.11530167 0.031363614 -0.034601204
000140 44 91 83 3d b1 5d 9e 3d f3 fd cf 3d 67 7d 78 3d
       0.064241916 0.07732714 0.10155859 0.060666468
000150 5d 7f 56 3b 93 f3 02 be b0 6f dd 3b af cd 3b bd
       0.0032729723 -0.12788229 0.006757699 -0.045850452
000160 ac 87 e0 3c 8c 29 e0 3d c6 94 e6 bd 7a 2a 03 bd
       0.027408443 0.109454244 -0.11258845 -0.03202293
000170 d5 18 08 3e 66 94 4c 3d 4f d4 83 3d e2 79 f1 bd
       0.13290723 0.04994621 0.06436979 -0.117908254
000180 07 22 ea 3d 4f 98 b5 3c dd ba e7 3d 7e 2b c1 3d
       0.114322715 0.022167353 0.11314938 0.094321236
000190 06 c1 a2 3c e9 20 02 3e d3 05 38 3e 9c fe 8f 3c
       0.019867431 0.12707867 0.17970972 0.017577462
0001a0 ac 7c e0 3d 4f d4 23 3e 7a d3 94 3d 22 f2 da 3d
       0.10961279 0.15998958 0.072668985 0.106907144
0001b0 e7 6d e5 3d c4 83 9a bc 27 6c 7b bd db 89 8e 3c
       0.11202603 -0.018861659 -0.06138244 0.017399719
0001c0 76 a8 6c 3d 8b ca 6e 3e a9 9a 8a 3d 92 fa 8b 3e
       0.057777844 0.23319452 0.0676778 0.27339607
0001d0 9e 9a 64 3e c8 8b 73 3d 45 12 be bd 8f 3f cf bd
       0.22324607 0.059459478 -0.092808284 -0.10119545
0001e0 83 cd 07 bd 63 55 18 be b4 c5 ec 3d 8c 0b 44 3d
       -0.033154976 -0.14876322 0.115611464 0.047862574
0001f0 ea 4e 80 3d 78 22 ca 3d 5b 60 09 3e a1 28 de 3d
       0.06265052 0.09869856 0.13415663 0.10847593
000200 12 6c 30 3d 09 ad dc 3c 12 d6 06 bd c0 7a 5c 3e
       0.043071814 0.026937978 -0.032918997 0.215312
000210 71 f0 26 bd f4 0f d8 3d 5c a8 82 bd fc e7 e0 bd
       -0.040756647 0.10549918 -0.06379768 -0.109817475
000220 46 34 67 3d 54 0f 19 3e 5a 9c 99 be 59 e9 cf bd
       0.056446336 0.14947253 -0.300021 -0.101519294
000230 e0 11 ce bd 28 12 1d bd 81 25 3e bc 72 77 51 3c
       -0.10062003 -0.038347393 -0.011605621 0.012784826
000240 f4 c5 a6 bd 36 c1 81 bc 81 e4 05 be 9f 3e 2b 3e
       -0.08143225 -0.0158392 -0.13075449 0.16723107
000250 b5 b6 f8 3d 98 e8 84 bd 82 ca b6 bd c5 1f bc 3c
       0.121442236 -0.06489676 -0.08925344 0.022964368
000260 80 a0 04 be f1 b5 7c 3c c9 71 e2 3d 93 79 07 3e
       -0.12951851 0.015424238 0.11056859 0.1322997
000270 b3 57 1a 3e 6e 68 e2 3d 5c 22 c8 3d 56 38 f8 bc
       0.15072517 0.11055075 0.097721785 -0.0303003
000280 e6 2d 5e 3e 91 68 2c be 47 69 05 bd dd dc dd 3d
       0.21697196 -0.16836764 -0.032571103 0.10833142
000290 b8 a4 e7 bd b9 15 5b 3d dd 79 7b bd a7 97 3c bd
       -0.113107145 0.053487513 -0.061395515 -0.046043064
0002a0 35 8a 11 be b5 80 af 3d 55 e0 06 bb 69 20 25 be
       -0.14212878 0.08569471 -0.002058049 -0.16125645
0002b0 95 e3 ad 3c 9c 2d 2c 3c 4d 23 e9 bd 34 c0 20 3e
       0.021226684 0.010508921 -0.11383686 0.1569832
0002c0 56 56 3f bc 07 87 aa 3d 20 b4 aa 3d e1 ad 30 bd
       -0.011678299 0.08326536 0.08335137 -0.043134574
0002d0 2c 68 56 bd a1 0b b4 bc f7 b6 6b bb 7c c7 01 be
       -0.05234544 -0.021978201 -0.003596721 -0.12673753
0002e0 1c 72 2f 3d 93 2a c8 3c b0 f6 6d bd 84 f6 83 bd
       0.042833433 0.024434363 -0.058096588 -0.064435035
0002f0 b2 72 db bd 4b 69 8e bd 71 88 a4 3c 29 d7 66 bd
       -0.10715236 -0.06953677 0.020084592 -0.056357536
000300 8c 3d cc bd bd 79 0d be 5b 59 f7 bd 23 ee 2b bc
       -0.09972677 -0.1381597 -0.1207759 -0.010493788
000310 50 5d 69 3a 73 2d 0d be 63 64 c7 3b f7 3d c4 3d
       0.0008902149 -0.13786869 0.006084965 0.09582131
000320 4a fe b7 bd c5 0f e1 bb da 28 dc bc ff 63 be 3d
       -0.08984049 -0.006868335 -0.026874948 0.092964165
000330 4a ca 61 be 32 05 0a be 29 a4 98 bc 46 b1 3b bc
       -0.22049823 -0.13478544 -0.018632965 -0.0114558395
000340 09 d8 55 3e ae 96 aa 3d 12 b6 45 3e 8f d2 34 be
       0.20883192 0.08329521 0.19307736 -0.17658447
000350 3d f6 06 bd a0 58 70 be 03 91 26 be c1 2a 84 be
       -0.032949675 -0.23471308 -0.16266255 -0.2581387
000360 5a 79 1d 3d 56 22 6f bd 20 a6 47 3e ce 28 2a 3d
       0.038445808 -0.058382355 0.19496965 0.04154282
000370 cf e4 87 3d b9 0e a2 bc 48 16 ee bc bb 6e b1 bc
       0.06635439 -0.019782411 -0.029063359 -0.021659246
000380 f0 7f 09 bd b3 a1 9a bd 74 70 61 be cd 38 cb 3d
       -0.033569276 -0.07550373 -0.22015554 0.09922943
000390 f9 f9 35 bd 0b 54 93 3d b3 29 0a bd 78 2e 08 bc
       -0.044427846 0.07193764 -0.033731174 -0.00831186
0003a0 17 85 b4 3d de d5 e0 bd 1f 11 5d 3d ad e9 f7 3d
       0.088144474 -0.10978292 0.053971406 0.12105117
0003b0 85 9c a1 bc a9 20 0a be b5 eb 5c 3e 65 56 dd 3c
       -0.019727955 -0.13489021 0.2157429 0.027018735
0003c0 26 f4 16 3e 08 7b 28 3d 26 b9 3b be 2f fc 3a 3d
       0.14741573 0.041132957 -0.18332347 0.045650657
0003d0 90 26 43 3e f6 57 80 bc ba 35 3f 3e ec 91 dd 3d
       0.19057679 -0.015666943 0.18672839 0.10818848
0003e0 5e 75 b9 3d 1f b7 82 3d 9d f0 f9 bd 5d 4e bb bd
       0.09055589 0.06382584 -0.122040965 -0.09145806
0003f0 81 25 7f 3e 33 76 7d 3d 94 f3 2c 3b f3 38 6b bd
       0.2491665 0.0618803 0.00263903 -0.057427358

f_layer.bias f4 [50]
000000 f6 5b 74 3d 93 e2 3a bc 6b 5a 1b 3d 53 64 6a 3d
       0.059658013 -0.011406559 0.037928026 0.057224583
000010 1d 7f 37 bd 90 c2 75 bd 58 e3 1b 3d b0 a0 69 bd
       -0.04479896 -0.060000002 0.03805861 -0.05703801
000020 64 e4 3a bd a9 6e ce bd 97 3d 79 bd 08 19 f0 3c
       -0.045627967 -0.100797005 -0.060849752 0.02930881
000030 92 df 6b bd 35 45 a6 3d 9d ca dd 3d 7e a5 0c 3d
       -0.05758626 0.08118669 0.10829661 0.034337513
000040 ef bb ec 3c ec 6e c5 3d 57 0c cd bc c0 4d 1a 3d
       0.028898207 0.09640297 -0.025030298 0.037671804
000050 25 b8 c8 bc 67 c5 ab 3d 58 63 e0 bd 24 c5 8b 3d
       -0.02450187 0.08387261 -0.10956448 0.06824711
000060 96 9f d1 bd ce 68 a2 bc 55 d9 c1 bc a5 8b ef 3d
       -0.10235517 -0.019825365 -0.023663202 0.11696557
000070 aa 5b 83 bc 24 b7 69 3d a4 78 e5 3b 3a fc ab bd
       -0.01603492 0.057059422 0.007002907 -0.08397718
000080 44 51 a8 bc 97 53 a6 3b dc 1d 01 3e 07 0c 34 bd
       -0.020546563 0.0050758827 0.12609047 -0.043956783
000090 2e 94 06 bd 8e 2c 79 bd 4a 93 93 bd b8 a0 4b bd
       -0.03285616 -0.060833506 -0.072058275 -0.04971382
0000a0 d6 02 11 bd 3d 28 6f bd 0e ca 63 3d e4 3f ca bd
       -0.035403095 -0.058387984 0.055612616 -0.098754674
0000b0 f2 32 a2 bd cf af 7e 3d 0b aa a7 bd 35 94 7b 3c
       -0.07919873 0.062179383 -0.0818673 0.0153551595
0000c0 88 77 8f 3b 17 fe dd bc
       0.004378263 -0.027098699

p_layer.weight f4 [1, 50]
000000 aa 33 0c 3e 2b 6c 27 be 4b b5 21 3e 75 b0 2f 3e
       0.13691583 -0.16349857 0.15791814 0.17157157
000010 d7 8b 96 3e 27 e2 04 3e 5e 3a 60 3e 42 bc a6 3e
       0.29403564 0.12976895 0.21897265 0.32565504
000020 f2 84 75 3e ee 38 f9 bd 83 c2 65 be f5 56 10 3e
       0.23976496 -0.121690616 -0.22437482 0.14095671
000030 0e 35 51 3e 79 09 12 3e 2b 79 3b 3e f0 34 90 3e
       0.20430395 0.14261426 0.1830794 0.28165388
000040 b3 29 38 3e 3a 64 44 be 5e 65 79 3e a8 e8 64 3e
       0.17984657 -0.19178858 0.24355075 0.22354376
000050 c5 87 5a be bd 3a 65 3e 77 33 6a be 99 02 23 3e
       -0.21340854 0.22385688 -0.22871195 0.1591896
000060 a1 f5 32 be e9 9f f4 3d 22 0c 90 3e a9 b1 0c 3e
       -0.17476512 0.11944563 0.28134257 0.13739647
000070 0e 3b 82 be 3b f9 47 be 59 d5 3f 3e 43 c5 0c be
       -0.2543568 -0.19528668 0.1873373 -0.13747124
000080 e8 e1 5a 3e f6 b6 12 3e b5 19 01 3f f2 68 77 3e
       0.21375239 0.14327607 0.5042985 0.24161127
000090 55 89 28 be b9 21 30 3e cc ed 86 be 16 11 14 be
       -0.16458638 0.17200364 -0.263533 -0.14459643
0000a0 08 35 82 be 4d 5c 4e be 8b c8 fd 3d 9b ed 83 be
       -0.25431085 -0.20152397 0.12391766 -0.25767216
0000b0 42 1a 71 3e 7b dc 12 3e d0 55 fe bd ef 4b cf 3d
       0.23545173 0.14341919 -0.12418711 0.10121905
0000c0 23 d5 3b be 6c 11 27 be
       -0.18343024 -0.1631524

e_layer.weight f4 [50, 50]
000000 fa a4 2a be f7 63 8b be 7b ef 24 3e 1b f8 df bd
       -0.16664496 -0.27224705 0.1610698 -0.10935994
000010 35 a7 25 be 57 d7 81 be 6a 91 97 bd e3 79 c9 3d
       -0.16177066 -0.25359604 -0.074007824 0.09837701
000020 e2 89 4c 3e 9e 64 8b 3d 5d fb 27 be fe e6 0a 3d
       0.19974473 0.068063006 -0.16404481 0.033911698
000030 4d 2c 3b 3e 57 68 11 be 2d 80 10 3e 2d 66 60 3e
       0.18278618 -0.14199959 0.14111395 0.21913977
000040 d1 8d 04 be be cf 13 be cf 3e 38 3e f5 3e b9 bd
       -0.12944724 -0.14434716 0.1799271 -0.09045211
000050 3e 82 e2 bc 06 b1 5c be 0c 89 69 bd d5 3d ee 3c
       -0.027649995 -0.21551904 -0.057015464 0.029082218
000060 0c 09 0f be b6 79 29 3e 3b 46 02 be 9f 7e dc 3d
       -0.13968295 0.16550335 -0.12722103 0.107663386
000070 56 ed 49 3c 2e 92 80 3d 7f e2 d7 3d 5f b8 13 be
       0.012324652 0.062778816 0.105412476 -0.144258
000080 23 6c 11 3d e1 fa 28 3e b5 34 99 bc a3 f5 69 3c
       0.035503518 0.16501953 -0.01870189 0.014279756
000090 5b fd 68 3d a2 b6 19 bd 73 d8 b5 3c 29 d5 2b 3d
       0.056882244 -0.037527688 0.022197938 0.041951332
0000a0 28 f6 27 bd 40 e3 71 be 32 35 c5 3d 9b d6 50 3e
       -0.041006237 -0.23621845 0.09629287 0.20394365
0000b0 6f 32 1e be 53 f9 a8 bd 63 be e2 bd 48 35 ea bd
       -0.15448926 -0.0825068 -0.1107147 -0.11435944
0000c0 c4 df ee bd 24 c2 a8 bd 0d 9c ae 3d 27 de 0e be
       -0.11663774 -0.082401544 0.08525858 -0.13951932
0000d0 d7 59 92 be f0 96 20 be d2 de 63 3d ed 1f 45 3e
       -0.28584167 -0.15682578 0.05563242 0.1925046
0000e0 f7 f0 46 3e b6 c4 b2 be 53 61 99 3d 76 ba 05 b8
       0.19427858 -0.34915704 0.07489266 -3.1883326e-05
0000f0 c2 77 07 be 67 c6 1b be 90 40 a6 3e 48 3a 31 be
       -0.13229278 -0.15212403 0.32471132 -0.17307389
000100 03 2c 85 be 8a ba f4 bd b6 b7 ab 3d 6a 0f 0d 3e
       -0.2601014 -0.11949642 0.083846495 0.13775411
000110 f0 e3 2b 3c 6c f8 0d be 4b 05 9a bd 37 8a e5 be
       0.010491356 -0.13864297 -0.07520541 -0.44832012
000120 6b 5a de 3e 1b 75 d0 3d 2a b6 75 be 5f e4 29 3c
       0.43428358 0.10178586 -0.23995271 0.010369389
000130 ee d9 39 3d d1 15 a0 3c cf 64 7c 3c d9 0d 46 be
       0.04537385 0.019541653 0.015404894 -0.1934122
000140 47 08 3a be 92 8e 0c 3e 25 40 2d bd f9 85 8b be
       -0.1816722 0.13726261 -0.0422975 -0.2725065
000150 b7 92 4b ba 3f 37 90 3c 55 f9 f1 bc f8 d6 57 3d
       -0.00077656977 0.017604468 -0.029537836 0.052695245
000160 84 dc 1e 3e 0e 4e ef bd 57 fa ba bd 3a 02 30 bd
       0.15513808 -0.116848096 -0.0912978 -0.042970873
000170 bf f0 88 3e c8 02 4f 3e b4 71 7e 3e bf 73 87 be
       0.26746175 0.20215905 0.24848062 -0.26455495
000180 d6 f4 36 3b cd de 17 bd 3a 13 a5 bd 02 e6 17 3f
       0.002791693 -0.037077714 -0.08060308 0.5933534
000190 08 5d 25 3d b5 83 16 3e b2 78 86 be 92 05 7d be
       0.040371925 0.1469868 -0.26263958 -0.24709156
0001a0 92 2f df 3d 22 82 34 bd 8a d1 10 bd 38 8c 4a 3d
       0.10897745 -0.044069417 -0.035356082 0.04945013
0001b0 a2 b3 cc bd a1 c5 ff 3c 34 0e e1 3e 53 35 4a be
       -0.099952 0.031222166 0.4395615 -0.19746904
0001c0 61 e3 e2 bd 0d 71 3e 3e d8 91 97 3d 84 68 75 bd
       -0.11078525 0.18597813 0.07400864 -0.059914127
0001d0 d8 ac ab bc 31 d6 86 3e 71 ae a0 bd 1a 2a 15 3e
       -0.020956442 0.2633529 -0.07845772 0.14566842
0001e0 8b 49 02 3e 0b 00 26 bd 20 0f 9f 3e 60 b8 aa bd
       0.12723367 -0.040527385 0.31066227 -0.08335948
0001f0 f4 91 58 3d 3f d2 9a bc 72 26 de 3e a1 ec e7 be
       0.052873567 -0.018899081 0.43388706 -0.4529772
000200 24 79 d1 be e8 f9 ca bd b6 1a e3 bd 58 c0 f7 bb
       -0.40912735 -0.09910947 -0.11089079 -0.007560771
000210 61 6f 4a bd 05 57 91 3e 3b 98 5e 3c 14 d8 66 3e
       -0.049422625 0.28386703 0.013586099 0.22543365
000220 f2 09 ae 3d a8 3b 0f 3e 0c 64 de bc e2 a5 12 bd
       0.08497991 0.13987601 -0.027147315 -0.03580273
000230 f2 ba d6 bd 56 bd fe bd cb eb 9b bd 89 56 ab bc
       -0.10484876 -0.12438457 -0.07613333 -0.020915287
000240 30 02 ce 3e b5 8f 8b 3e af e0 09 3e 54 7e 99 bd
       0.40236044 0.27258077 0.13464616 -0.07494798
000250 f7 bc 5c bd a2 c8 05 3f bb 3d 67 be 4a f6 62 be
       -0.05389115 0.52259266 -0.22582142 -0.22164264
000260 56 15 9a be 3b 52 eb 3d 99 9e e3 3d 38 0c 04 bd
       -0.30094403 0.114902936 0.111142345 -0.032238215
000270 d1 ea ed bd bf 03 73 bd 46 da 1a be f4 b3 74 3d
       -0.11617053 -0.059329744 -0.15122327 0.05974193
000280 1b a8 bf be 7e ad 26 be ba a5 e5 3e 29 3c 38 3e
       -0.37432942 -0.1627712 0.44853002 0.179917
000290 68 94 ac 3d 07 f8 2c bd 05 a0 ad be 98 49 af bd
       0.08426744 -0.042228725 -0.33911148 -0.08558959
0002a0 0b 74 06 3f b4 63 2f be eb ed 5b 3e 5f e8 ab 3e
       0.5252082 -0.17127877 0.21477477 0.33575723
0002b0 45 cf 0f 3e 5a c4 13 be 7a cd e4 bd 61 7b fc 3d
       0.14043911 -0.14430371 -0.11172004 0.1232822
0002c0 8a 65 55 be 96 f3 bc 3e 06 54 3f bd 30 01 90 3e
       -0.20839515 0.3690459 -0.04671099 0.28125906
0002d0 23 b3 86 3e 38 72 26 3d 90 ec 00 be 88 63 93 bc
       0.26308545 0.04063627 -0.12590241 -0.017991796
0002e0 c2 d2 f0 39 e7 f6 ac be b5 c8 90 3e 5f 56 4a bd
       0.00045933394 -0.33782122 0.28278127 -0.049398776
0002f0 6b 39 b4 bd 3e c9 6e be 26 ea fe bb 27 66 41 be
       -0.08800014 -0.23318955 -0.0077793775 -0.18886624
000300 59 7f 27 3e 1d 6f f7 bd fd 3b 44 3d b3 de 51 3d
       0.16357173 -0.1208174 0.04790877 0.051237773
000310 03 44 a1 3e 79 fc 8b bc f8 05 62 3e b9 14 df 3d
       0.314972 -0.017088162 0.2207259 0.108926244
000320 2f 3c 03 3e c6 d0 61 be cd c7 8f 3c b6 d6 25 3e
       0.12815927 -0.22052297 0.017551327 0.16195187
000330 28 6c 8f 3c cb ff 71 be 04 fc d6 bd e9 6e 9c 3d
       0.017507628 -0.23632734 -0.10497287 0.07638342
000340 f2 e5 35 3d bb 66 ac 3e 4e c2 d9 be a2 f3 bf be
       0.044408746 0.33672127 -0.42531055 -0.37490565
000350 84 e8 bf 3e 77 5c 31 3d 73 ea 1a bd b9 8a 7f 3e
       0.37482083 0.043301072 -0.037821244 0.24955262
000360 00 ec dd 3c 88 f0 d9 3c 2c 65 0e 3e ba e8 04 3e
       0.027090073 0.026603952 0.13905782 0.12979403
000370 d3 e1 91 3e 67 fc 8c 3d e1 64 e3 3d 42 bf 4b be
       0.28492603 0.068840794 0.111032255 -0.19897178
000380 ba d0 15 be 6a e6 17 3e 24 db a3 bd f4 c5 f0 bd
       -0.14630404 0.1483399 -0.08000782 -0.117565066
000390 6b 54 f8 bd 97 b1 ab 3e 62 33 ad bb 53 82 99 3e
       -0.121254764 0.33533928 -0.0052856663 0.29982242
0003a0 44 26 45 3d d9 55 dc 3d 96 c4 9f 3e 7d 9a 9e 3e
       0.048132196 0.10758562 0.3120467 0.3097724
0003b0 0c 7e 67 3e 30 6c 94 bd f0 ca 24 3e 23 f2 74 be
       0.22606677 -0.07247198 0.1609304 -0.23920493
0003c0 d0 bb d2 3d d5 d1 82 be 34 60 ba bb 74 6c 44 3d
       0.10289729 -0.25550714 -0.005687738 0.04795499
0003d0 23 10 5b 3d 7a 9c 06 3e 3d 82 d0 3d ef 53 18 3e
       0.053482186 0.13145629 0.10181091 0.14875768
0003e0 db 86 da bc 2c 20 60 be 70 0c bf 3d bc 9a 92 bd
       -0.026675632 -0.21887273 0.09328544 -0.071584195
0003f0 ea 9e ea 3d f3 03 d1 be 26 f4 25 3e e8 fc 10 3e
       0.11456092 -0.40823326 0.16206416 0.14158976

e_layer.bias f4 [50]
000000 fe a3 e1 3c 24 2e e7 3d 62 61 a8 3e 8d 39 d8 3c
       0.027544018 0.112880975 0.32886797 0.02639463
000010 5b 50 f2 be a9 a0 93 bd a3 d2 37 be 0d eb 26 3e
       -0.4732693 -0.07208378 -0.17951445 0.16300602
000020 60 17 df bd 80 d2 13 bc 9a d5 b9 bd e1 1e e8 3d
       -0.1089313 -0.009022355 -0.090739444 0.11334015
000030 bd b4 0f bd 4e 30 c5 3d d2 ef 55 3e a6 1c 3a be
       -0.035084475 0.09628354 0.20892265 -0.18174991
000040 79 07 78 3c 7a 2e e5 3d 6c 0b 31 be 9a e4 ea 3c
       0.0151385 0.11190505 -0.17289513 0.028673459
000050 31 e7 7f 3e df d7 2b 3e 43 9c 93 3e 1c 99 46 bc
       0.24990536 0.16781567 0.28830156 -0.012121465
000060 a3 6a 00 bd d1 89 c3 bd f3 81 22 be 6c 55 d4 bd
       -0.031351697 -0.09547771 -0.15869884 -0.103678554
000070 ec ad b1 3c b7 53 00 3e a2 7a c0 bd f2 01 10 3e
       0.021689378 0.12531935 -0.0939839 0.14063242
000080 a4 ea 1c be 69 dd d3 bd 8a 9f 65 3d ae b6 1d be
       -0.15323883 -0.10344965 0.05606035 -0.15401718
000090 53 e8 37 3e 2a 96 69 be cf ea d4 be c7 8e ea 3c
       0.17959718 -0.2281119 -0.41585395 0.028632535
0000a0 c5 ae d1 bd f3 46 5a 3d 1d 4d e6 3e 66 30 af bc
       -0.10238413 0.05329032 0.44980708 -0.021385383
0000b0 ce bf b3 bd ef da 8a bc 84 4a 2b be 6b 38 8f be
       -0.08776818 -0.016950099 -0.16727644 -0.2797273
0000c0 96 7a 72 be 0e be 6e bd
       -0.23679575 -0.05828672
