ckpts/dkvmn/alg06/model.ckpt (torch, 341185 bytes, 11 tensors)

Mk f4 [20, 50]
0	0x3edcca9b	0.43123326
1	0xbed7269d	-0.42021647
2	0xbea89cf0	-0.32932234
3	0x3e95af59	0.29235342
4	0x3eaf6a14	0.3426062
5	0x3cb5d40c	0.022195838
6	0x3f0152e9	0.50517136
7	0xbf05eb4b	-0.52312154
8	0xbee09293	-0.43861827
9	0x3ee6deaf	0.4509177
10	0xbe104132	-0.1408737
11	0xbde6342a	-0.11240418
12	0xbd9f26b2	-0.077710524
13	0xbeb77a0f	-0.3583531
14	0x3e936deb	0.28794798
15	0x3e4cd1fb	0.20001976
16	0x3efda5ac	0.4954046
17	0x3ee6d802	0.45086676
18	0x3d9c065d	0.07618401
19	0xbe80cd36	-0.25156564
20	0x3cd6e4c6	0.026232135
21	0xbeea0db2	-0.45713574
22	0x3d61ab35	0.055094916
23	0xbda164e5	-0.07880572
24	0xbe0ff519	-0.14058341
25	0x3d518c04	0.05115892
26	0x3e91e740	0.28496742
27	0x3f20f04c	0.62866664
28	0xbd1573de	-0.036487453
29	0xbe3bfc8c	-0.18358058
30	0xbf1609b7	-0.58608574
31	0x3e05dae3	0.1307178
32	0xbdeab12f	-0.11459576
33	0x3d5a5c17	0.05331048
34	0xbd8928fd	-0.06697271
35	0xbdc05ab6	-0.09392302
36	0x3e62a4a6	0.22133121
37	0x3d776e3e	0.06040787
38	0xbeb799d8	-0.3585956
39	0xbd72dfaa	-0.059295334
40	0xbd3b5862	-0.045738585
41	0xbdfd4ccd	-0.12368164
42	0xbe4aade7	-0.19792901
43	0xbe2cfc52	-0.16893128
44	0xbddc3488	-0.10752207
45	0x3d985cb8	0.0743956
46	0x3ee27bcd	0.44235078
47	0xbe055782	-0.13021663
48	0x3f1310d0	0.5744753
49	0x3e4c36ec	0.19942826
50	0x3d8b355f	0.06797289
51	0xbd1b8142	-0.037965067
52	0x3cc45917	0.023968263
53	0x3ef49067	0.4776642
54	0xbf045f67	-0.5170807
55	0x3ea39c85	0.31955352
56	0x3f04d30c	0.5188453
57	0xbedcd507	-0.43131277
58	0x3e422b4c	0.18961829
59	0x3e35919f	0.17731331
60	0xbe51c215	-0.20484193
61	0x3ee2fd66	0.44333953
62	0xbdaf3a54	-0.08556047
63	0x3e88f699	0.2675064
64	0xbd403822	-0.046928532
65	0x3da26a04	0.07930377
66	0x3d5222fd	0.0513029
67	0x3e0b66fc	0.13613504
68	0x3e12d40e	0.14338705
69	0x3cc64c23	0.024206227
70	0x3ed83421	0.4222727
71	0xbd6257f7	-0.05525967
72	0xbf13da93	-0.5775539
73	0xbc0de845	-0.008661334
74	0x3e3e0431	0.18556286
75	0x3eb22297	0.34792015
76	0xbcf7450e	-0.030184295
77	0x3dc78d39	0.09743733
78	0x3ec9053f	0.39261815
79	0x3e4ef28a	0.20209709
80	0x3d1df1e0	0.038560748
81	0x3ed451a7	0.41468546
82	0x3e40ebab	0.188399
83	0xbe521fd1	-0.2051995
84	0xbd08e99e	-0.03342592
85	0xbf0ddf41	-0.55418783
86	0xbd908424	-0.07056454
87	0xbe961810	-0.29315233
88	0x3ea22806	0.3167116
89	0x3d835745	0.0641313
90	0xbc16788a	-0.009184012
91	0x3e9ea86f	0.3098788
92	0xbda2c3ca	-0.079475
93	0xbcdaca21	-0.02670771
94	0x3e9b322e	0.30311722
95	0xbdb39a1a	-0.08769627
96	0xbd219203	-0.03944589
97	0x3e176923	0.147862
98	0xbe11b857	-0.14230476
99	0xbe368b9b	-0.17826693
100	0xbe306df2	-0.17229441
101	0xbec94bb7	-0.39315578
102	0xbf070e72	-0.52756417
103	0x3d2cafb5	0.042159755
104	0xbd326521	-0.043553475
105	0x3ef2b250	0.47401667
106	0x3e988eb5	0.29796377
107	0x3e519e40	0.20470524
108	0x3d4cf404	0.0500374
109	0xbdfc98ca	-0.1233383
110	0xbdd351e1	-0.103183515
111	0xbeb09f89	-0.34496716
112	0x3e37c304	0.17945486
113	0x3c500579	0.012696617
114	0x3c04a091	0.008094923
115	0xba5fd1c6	-0.00085380336
116	0xbe39f4ae	-0.18159744
117	0x3dfcbc1e	0.12340568
118	0xbe64215e	-0.22278354
119	0xbe8c4c2b	-0.27401862
120	0xbd5ab288	-0.053392917
121	0x3daa10f7	0.08304017
122	0x3dd4232f	0.10358273
123	0xbe75391d	-0.23947568
124	0x3cb5feb5	0.02221618
125	0xbdd20676	-0.102551386
126	0xbeb6d1ab	-0.3570684
127	0x3da3d509	0.079996176
128	0x3eb0d603	0.34538278
129	0x3e875b40	0.26436806
130	0x3eb8fc76	0.36130112
131	0xbdf929ae	-0.12166153
132	0xbe3e87f1	-0.18606545
133	0x3e9f9492	0.31168038
134	0xbd1939ca	-0.037408628
135	0xbd3a7347	-0.045520093
136	0x3d73a559	0.05948386
137	0xbd5026c7	-0.05081823
138	0x3ecc049f	0.39847276
139	0xbe6cf725	-0.23141153
140	0x3e24ed23	0.16106085
141	0xbd05b98c	-0.032647654
142	0x3e6f11e4	0.23346668
143	0x3e7d9014	0.24761993
144	0x3df2162d	0.11820636
145	0x3da17c3b	0.07885023
146	0xbdb36953	-0.087603234
147	0xbd8a70f4	-0.06759825
148	0xbe8f3bbc	-0.2797526
149	0xbeb44094	-0.3520552
150	0xbf0cf794	-0.55065274
151	0x3e13c116	0.14429125
152	0x3dfc4bdc	0.123191565
153	0xbf05ea1b	-0.5231034
154	0xbf324af0	-0.69645596
155	0xbda857f7	-0.08219903
156	0x3dcb8e41	0.09939242
157	0x3d4705f7	0.048589673
158	0x3dc9559d	0.098307826
159	0xbeb494ec	-0.35269868
160	0xbec47803	-0.38372812
161	0xbe498ae7	-0.19681893
162	0xbd3b5c67	-0.04574242
163	0xbeda288f	-0.4260907
164	0xbe1d279c	-0.15347141
165	0x3e3dfd2c	0.18553609
166	0x3f12a12f	0.57277197
167	0xbeb5d99e	-0.3551759
168	0x3ef98d8f	0.48740813
169	0x3e723fac	0.23657101
170	0x3e4d6524	0.20058113
171	0xbf0e4e8b	-0.555886
172	0x3d5805f1	0.05274004
173	0x3ebb4c3c	0.365816
174	0x3eb6fe53	0.3574091
175	0xbed4b481	-0.41543964
176	0x3d91aa5e	0.07112573
177	0x3c7b2171	0.015327797
178	0xbd874d7d	-0.066065766
179	0xbe74eb3e	-0.23917863
180	0x3ef49d88	0.47776437
181	0xbde9f4e9	-0.11423666
182	0x3ed5c545	0.41752067
183	0xbde93534	-0.11387101
184	0xbd79c785	-0.060981292
185	0x3e2262cf	0.15858005
186	0xbdad941f	-0.084755175
187	0x3e14ca28	0.14530241
188	0x3e95839f	0.2920198
189	0xbc6abd97	-0.014327428
190	0x3ee66789	0.45000866
191	0xbe816e4c	-0.25279462
192	0x3e6e078c	0.23245066
193	0xbe688e6b	-0.22710578
194	0x3d76c7e1	0.060249213
195	0xbe83dea7	-0.25755808
196	0xbf08bdd1	-0.53414637
197	0x3e7aae8a	0.24480644
198	0x3d922c6b	0.07137378
199	0xbe8faaaf	-0.2805991
200	0x3d8c6ed7	0.068570785
201	0x3ea0a070	0.31372404
202	0x3e465898	0.19369733
203	0x3e07db25	0.13267191
204	0x3d6cb022	0.05778516
205	0x3e04675b	0.12930052
206	0x3e946026	0.28979605
207	0x3d641964	0.055688277
208	0x3d907bd0	0.07054865
209	0xbe5c7f0b	-0.21532838
210	0x3e64f92a	0.22360674
211	0xbe862988	-0.2620356
212	0x3e52b582	0.20577052
213	0x3e71bb87	0.23606692
214	0x3e7929cd	0.24332352
215	0xbe5dc901	-0.21658708
216	0xbd1e656a	-0.038670935
217	0xbe0f6921	-0.14004947
218	0xbec4e46f	-0.3845553
219	0xbe48267c	-0.1954593
220	0xbe83a4cc	-0.25711668
221	0xbdcb164b	-0.099163614
222	0x3c9837e0	0.01858133
223	0x3cd40788	0.025882497
224	0xbe7e771c	-0.24850124
225	0xbee956ef	-0.45574138
226	0x3e1e2b10	0.15446115
227	0xbd90d822	-0.07072474
228	0xbec57d34	-0.38572085
229	0x3f29a7dc	0.6627176
230	0xbdffb780	-0.12486172
231	0xbe0aa99f	-0.13541268
232	0x3f00f66a	0.50376
233	0xbee8e398	-0.4548614
234	0x3f438650	0.7637682
235	0xbdbc834e	-0.09204732
236	0xbe6e9a23	-0.23300986
237	0x3e0725b7	0.13197981
238	0x3ec6df63	0.38842306
239	0xbe36eedc	-0.17864555
240	0x3f0e0ce4	0.5548842
241	0xbb9e1697	-0.0048244703
242	0xbe91c236	-0.28468484
243	0x3ed55fd1	0.41674665
244	0x3d2c6e16	0.042097174
245	0x3e54a97e	0.20767781
246	0xbed5bb79	-0.41744593
247	0xbdeb8867	-0.11500626
248	0x3ee7eee7	0.45299456
249	0xbe50f89d	-0.20407338
250	0x3ea75503	0.32682046
251	0x3eb9a555	0.3625895
252	0xbdb77ef7	-0.089597635
253	0xbe4b4f45	-0.19854458
254	0xbe23884a	-0.15969959
255	0xbd171bf5	-0.036891896

Mv0 f4 [20, 50]
0	0xbe52e4c2	-0.20595077
1	0xbb3c8975	-0.0028768454
2	0xbe6667a8	-0.22500479
3	0x3e172451	0.14759947
4	0xbe32aed0	-0.17449498
5	0xbedbd65e	-0.42936987
6	0x3e7918d6	0.2432588
7	0xbe30b1bd	-0.17255302
8	0xbdc9376a	-0.098250225
9	0x3dbaf77d	0.09129236
10	0x3eaef21b	0.34169087
11	0xbe908b47	-0.2823126
12	0x3eba729f	0.36415574
13	0x3e09078a	0.13381782
14	0x3dbb610d	0.0914937
15	0xbea07bd9	-0.31344488
16	0x3d04c34c	0.032412812
17	0xbd7ea023	-0.062164437
18	0xbc4b70ba	-0.012417013
19	0x3d07086f	0.032967027
20	0x3e5cbd25	0.21556528
21	0xbce725f8	-0.028216347
22	0xbe452d4e	-0.19255564
23	0x3ed56e66	0.4168579
24	0x3e8f1826	0.2794811
25	0xbeb3c68b	-0.35112414
26	0x3d740095	0.059570868
27	0xbef0266a	-0.46904308
28	0xbf1c2582	-0.6099473
29	0x3e8adbe4	0.27120888
30	0x3eb91feb	0.36157164
31	0xbeb85df0	-0.3600917
32	0x3d055075	0.032547433
33	0xbdf48365	-0.11939124
34	0x3e383e6f	0.17992567
35	0xb9eee9d9	-0.00045569128
36	0xbe67e0c1	-0.2264433
37	0x3ebef4e2	0.37296206
38	0xbe0e8839	-0.13919152
39	0x3b878eb7	0.004136886
40	0xbdc2d6b1	-0.095136054
41	0x3d4dba93	0.05022676
42	0xbf293b55	-0.6610616
43	0xbedb6e6d	-0.42857686
44	0xbc231356	-0.0099533405
45	0xbb5e04dc	-0.0033877408
46	0x3ed07793	0.40716228
47	0x3ee0fdda	0.43943673
48	0xbddea388	-0.10871035
49	0x3f8346b0	1.0255947
50	0x3dadb0da	0.084809974
51	0x3cadb8fa	0.021206368
52	0xbe1a0132	-0.15039518
53	0xbe9d59c7	-0.30732557
54	0xbe63ff6b	-0.22265403
55	0xbe5963d2	-0.21229485
56	0x3dbdc283	0.09265616
57	0xbe40648a	-0.18788353
58	0xbd57ec07	-0.052715328
59	0x3ed2ad3d	0.41147795
60	0xbdb3ff5d	-0.08788941
61	0x3eb66801	0.35626224
62	0x3e3bfe70	0.18358779
63	0x3d1c53e6	0.03816595
64	0xbe548c88	-0.20756733
65	0xbe2aea57	-0.16690956
66	0x3e8a7482	0.27042013
67	0xbe8a9ec4	-0.27074254
68	0xbdb89b08	-0.09013945
69	0xbe7b6bdc	-0.24552864
70	0xbdd9279f	-0.1060326
71	0xbe7c22d3	-0.2462266
72	0xbd7f6888	-0.06235555
73	0x3dab142f	0.08353459
74	0x3c36c85e	0.01115617
75	0x3e16bc11	0.14720179
76	0x3ca1716e	0.019707408
77	0xbceee7b4	-0.029163219
78	0x3e29384f	0.16525386
79	0x3d8826d1	0.06648029
80	0x3eaa6e29	0.3328717
81	0x3c4b2c46	0.012400692
82	0xbe21da7c	-0.15806001
83	0xbd7b0f69	-0.061293993
84	0x3ec6ee18	0.38853526
85	0xbef60e8a	-0.48057967
86	0x3e798b78	0.2436961
87	0x3e0da795	0.13833459
88	0x3c612c53	0.013743478
89	0x3f0440f1	0.5166159
90	0xbe887d42	-0.26658064
91	0xbd76096e	-0.060067587
92	0x3e683509	0.22676481
93	0x3eff5b8b	0.4987453
94	0xbdc343b2	-0.09534396
95	0xbf0453ee	-0.51690567
96	0x3edf4bce	0.43612522
97	0x3d9e6323	0.077337526
98	0x3f010de8	0.50411844
99	0xbe239720	-0.15975618
100	0x3d2d4a5a	0.042307235
101	0x3cf883b5	0.03033624
102	0xbe869d41	-0.2629185
103	0x3dfb6952	0.12275948
104	0xbeb869ac	-0.3601812
105	0x3e019ccf	0.12657474
106	0x3ccdf6fc	0.025142185
107	0xbe18e3b7	-0.14930616
108	0xbe5c6a52	-0.21524933
109	0x3e4f82fb	0.20264809
110	0x3dac203b	0.08404585
111	0x3de993a7	0.114051156
112	0x3e48923a	0.19587031
113	0x3d3f9199	0.046769712
114	0x3dbcb2be	0.0921378
115	0x3b83a429	0.004017372
116	0xbd3005e2	-0.04297436
117	0xbf0f3180	-0.55934906
118	0x3ebc941c	0.36831748
119	0xbf1b4bf2	-0.6066276
120	0xbeaac8e3	-0.3335639
121	0xbd43bd68	-0.047788054
122	0xbe8e066a	-0.2773927
123	0x3e092282	0.1339207
124	0x3ea28ab4	0.31746447
125	0x3e89914b	0.26868662
126	0xbee4cafe	-0.4468612
127	0xbd9b5834	-0.07585183
128	0x3e405aa0	0.1878457
129	0xbf0bed8b	-0.54659337
130	0xbdb6bd30	-0.089228034
131	0x3d5a8af3	0.05335517
132	0x3bfbd518	0.007685315
133	0xbd373bce	-0.04473477
134	0x3ebf696f	0.37385127
135	0x3ecdd27b	0.40199646
136	0xbeb0d1c6	-0.34535044
137	0x3cf10a21	0.029423775
138	0xbe2b3b8b	-0.16721933
139	0xbe62834f	-0.22120403
140	0x3ee31883	0.44354638
141	0x3e4adb85	0.19810303
142	0x3d1dd7c9	0.038535867
143	0x3e29a083	0.16565137
144	0x3e90f38f	0.2831082
145	0x3d9042ec	0.07044014
146	0xbe19b020	-0.15008593
147	0xbdb983a3	-0.09058311
148	0x3eb9f78f	0.36321685
149	0x3cd5e8e7	0.026112033
150	0x3d122387	0.035678413
151	0x3e8569b8	0.2605722
152	0x3d59c72e	0.05316847
153	0x3e1df6c5	0.15426166
154	0x3e354e38	0.1770562
155	0xbee2b6ce	-0.44280094
156	0xbd0344ec	-0.03204815
157	0xbefb9129	-0.49134186
158	0x3ebbbf5a	0.36669427
159	0xbdda3d43	-0.10656216
160	0x3ee8dbb9	0.45480135
161	0x3e84e73d	0.2595767
162	0x3c89c794	0.0168188
163	0x3eb0a394	0.344998
164	0x3e148e41	0.1450739
165	0xbe92c927	-0.28669092
166	0x3f135b56	0.5756124
167	0xbeccf5ae	-0.4003119
168	0x3e4cc607	0.19997416
169	0xbd1923ca	-0.037387647
170	0x3ec7b8b1	0.39008096
171	0x3ee74b62	0.451747
172	0xbe5fda6c	-0.21860665
173	0x3e922438	0.28543258
174	0xbe9a5714	-0.3014456
175	0x3ea1c625	0.31596485
176	0xbe555a5e	-0.20835254
177	0xbe3e4893	-0.18582372
178	0xbd4597d7	-0.04824051
179	0xbe8ccdd2	-0.27500778
180	0xbe7fcf98	-0.24981534
181	0xbeba1e3e	-0.36351198
182	0xbdc191c2	-0.09451629
183	0xbe63ad5c	-0.222341
184	0x3e76df4d	0.2410862
185	0xbe8624dc	-0.26199996
186	0x3f1aaea0	0.60422707
187	0xbd9b9949	-0.07597596
188	0xbd97d572	-0.07413758
189	0x3e1afb9a	0.15135041
190	0xbf093b63	-0.5360624
191	0x3c0929dd	0.008371797
192	0xbe98dc9c	-0.29855812
193	0xbdcbbc00	-0.099479675
194	0xbebe9c3d	-0.37228575
195	0xbe54454d	-0.20729561
196	0xbd3e4fbc	-0.04646276
197	0xbe4bb2f4	-0.19892484
198	0x3ef14eff	0.47130582
199	0x3e853706	0.26018542
200	0x3e191360	0.14948797
201	0xbe01d45e	-0.12678668
202	0xbe7fb636	-0.24971852
203	0x3e5c03b8	0.21485794
204	0xbcc66499	-0.02421789
205	0x3bca158f	0.0061671208
206	0x3c367d3b	0.011138256
207	0xb8c2602e	-9.268556e-05
208	0xbeb2d096	-0.34924763
209	0x3be455f3	0.0069682538
210	0x3efabb5b	0.48971066
211	0x3e4fecb8	0.20305145
212	0x3e663f57	0.224851
213	0xbd0fa115	-0.03506573
214	0x3e42bd66	0.19017562
215	0xbdce314d	-0.10067997
216	0x3ec05eb1	0.37572244
217	0xbe1c5efe	-0.15270612
218	0x3e59dff3	0.21276836
219	0xbd6bf241	-0.05760408
220	0x3e0450e7	0.12921487
221	0xbe267d75	-0.16258796
222	0xbdf745e6	-0.12073879
223	0x3d3ff39f	0.046863195
224	0x3d8f70db	0.07003947
225	0x3e9ea53e	0.30985445
226	0x3d56ec50	0.05247146
227	0x3dc78c79	0.0974359
228	0xbe9a8fc2	-0.30187804
229	0xbe908606	-0.28227252
230	0x3ee74537	0.45169994
231	0x3e0d4b84	0.13798338
232	0xbe21281b	-0.15737955
233	0xbd6929f0	-0.05692476
234	0x3dc54bbb	0.09633585
235	0xbe99867d	-0.2998542
236	0x3d243987	0.040093925
237	0x3e784d57	0.24248253
238	0xbe7df11e	-0.2479901
239	0x3c734c95	0.014849802
240	0x3e9a3d65	0.30124965
241	0xbd3caddc	-0.046064243
242	0x3dcc876c	0.09986767
243	0x3e0e8761	0.1391883
244	0x3e27482b	0.16336124
245	0x3b3fad63	0.0029247634
246	0xbe488dac	-0.19585294
247	0xbb5e2504	-0.0033896575
248	0xbd37b248	-0.044847757
249	0x3b92bb0b	0.0044778637
250	0x3ed157f2	0.4088741
251	0x3f03ae6b	0.51438016
252	0xbe834c83	-0.2564431
253	0xbcc31ea9	-0.02381833
254	0xbe9cb5a6	-0.30607337
255	0xbe898ff2	-0.26867634

k_emb_layer.weight f4 [481, 50]
0	0xbfe1578c	-1.7604842
1	0x3f74c8d0	0.95618916
2	0x3e475b4b	0.19468419
3	0xbebeaa79	-0.37239435
4	0x3ee7ea43	0.45295915
5	0xbf497c12	-0.7870494
6	0xbf8bece0	-1.0931664
7	0xbfa25a1f	-1.2683753
8	0x3fedc041	1.8574296
9	0xbed5ef0a	-0.41783935
10	0x3f455bfd	0.7709349
11	0xbf0c4e95	-0.54807407
12	0xbfc2746b	-1.5191778
13	0xbf0ac44a	-0.54205763
14	0x3fae61b8	1.3623571
15	0xbf10ee98	-0.56614065
16	0xbf8cffd4	-1.1015573
17	0x3ece69af	0.40315005
18	0xbf100ac1	-0.5626641
19	0x3fbad87b	1.4597315
20	0xbf95e1e8	-1.1709566
21	0xbf40966e	-0.7522954
22	0x3f9b21dc	1.2119708
23	0x3fb1b4f2	1.3883345
24	0xbedca2c6	-0.43092936
25	0xbfa19270	-1.2622814
26	0xbf893ec9	-1.0722286
27	0xbf9ad008	-1.2094736
28	0x3e621ecc	0.2208206
29	0xbf4960ee	-0.7866353
30	0xbf485883	-0.7826006
31	0xbec86ef2	-0.39147145
32	0x3f3127ff	0.69201654
33	0x3ee33924	0.44379532
34	0xbf6b066f	-0.9180669
35	0xbf52625b	-0.8218133
36	0x3ec5d335	0.386377
37	0x3f6697b9	0.9007526
38	0x3fa42efd	1.282684
39	0x3f78fc10	0.97259617
40	0x3fe2460f	1.767763
41	0xbf408798	-0.752069
42	0xbec4daba	-0.38448125
43	0xbe9ce8e7	-0.3064644
44	0xbe4f6b5b	-0.20255797
45	0xbf1d23d5	-0.613828
46	0xbd69ac46	-0.05704906
47	0x400ffed7	2.2499292
48	0x3f94eb86	1.1634376
49	0x3e5e9427	0.21736203
50	0xbeaf9456	-0.3429286
51	0x3d8a2d5e	0.06746934
52	0x3f04470b	0.516709
53	0xbf14144e	-0.5784348
54	0xbfabc2fb	-1.3418878
55	0xbf03f11a	-0.51539767
56	0xbee5a017	-0.448487
57	0xbf08b7e2	-0.5340558
58	0x3fd62ce6	1.6732452
59	0xbfcee8e4	-1.6164823
60	0x3efefe19	0.49803236
61	0x3e69971a	0.22811547
62	0xbebfc433	-0.37454376
63	0x3e19a92f	0.15005945
64	0x3fee42c4	1.8614125
65	0xbefdd7c0	-0.49578667
66	0xbed7f05f	-0.42175576
67	0xbf8130de	-1.0093038
68	0xbf238969	-0.63881546
69	0xbf8d8fbb	-1.1059488
70	0xbb9017ff	-0.004397392
71	0x3e00cee8	0.12578928
72	0xbeb9ebbd	-0.36312667
73	0xbf2e6c66	-0.6813415
74	0xbe01bf32	-0.12670591
75	0x3f8d8c46	1.1058433
76	0x4012c6d5	2.2933857
77	0x3f87aec1	1.0600206
78	0xbc8b1288	-0.01697661
79	0xbf048e52	-0.51779664
80	0x3e19dcf9	0.150257
81	0xbf227673	-0.6346199
82	0x3f30525c	0.6887567
83	0xbf857aa5	-1.0428053
84	0xbfb1f226	-1.3902023
85	0x3fb97d0c	1.4491286
86	0x3f96bb9e	1.1776006
87	0xbe505e6a	-0.20348516
88	0xbf4858d1	-0.78260523
89	0x3fe2c306	1.7715766
90	0x3faade6a	1.3349125
91	0xbfa33a54	-1.2752175
92	0x4011d061	2.2783434
93	0xc039b12e	-2.9014392
94	0x3fa120bf	1.2588118
95	0xc008d3b0	-2.1379204
96	0x3f10f650	0.56625843
97	0x3fba3902	1.4548647
98	0xbf48a68f	-0.7837915
99	0xbf0e00d4	-0.55470014
100	0x3d289275	0.041155297
101	0xbc4d66c2	-0.012536706
102	0xbd2ec2d4	-0.04266627
103	0xbfe16ad8	-1.7610731
104	0x3f8b1d72	1.0868361
105	0x3fb11bbd	1.383659
106	0xbdc214eb	-0.09476646
107	0xbddc633d	-0.10761116
108	0x3f3713bf	0.71514505
109	0xbdff38ce	-0.124620065
110	0xbfa58846	-1.2932212
111	0xbea1b578	-0.31583762
112	0x3df2341a	0.11826344
113	0xbd1fbd2b	-0.038998764
114	0xbf7632d2	-0.96171296
115	0xbf0d9908	-0.5531163
116	0xbedeea4c	-0.4353813
117	0x3f64dee7	0.8940262
118	0xbe208936	-0.15677342
119	0xbf3c3dab	-0.735316
120	0x3f224afd	0.63395673
121	0x3fbe5356	1.4869182
122	0xbf2c0528	-0.6719537
123	0xbf9204e4	-1.1407743
124	0xbf860be6	-1.0472381
125	0xbf93cc30	-1.1546688
126	0x3dc20402	0.09473421
127	0xbf75602a	-0.9584986
128	0xbfcd38f6	-1.6033008
129	0xbfd430bc	-1.6577373
130	0xbf161c75	-0.5863717
131	0xbf84e05b	-1.0380968
132	0xbf90bf32	-1.1308348
133	0x3e0a3f34	0.13500673
134	0x3fb8893a	1.4416878
135	0x3fa21b81	1.2664644
136	0xbf948465	-1.1602904
137	0x3e4d6e9f	0.2006173
138	0xbf817a22	-1.0115397
139	0xbf70ac32	-0.9401275
140	0xbfbd3514	-1.4781823
141	0x3dc2cb67	0.09511452
142	0x3f7ec51c	0.99519515
143	0xbffea155	-1.9892985
144	0x3f8aff5a	1.0859177
145	0x3ea14e05	0.31504837
146	0xbf7d1b36	-0.98869646
147	0x3fd1a607	1.6378793
148	0xbddf4ef4	-0.10903731
149	0xbfbb1f83	-1.4618992
150	0x3f0a64f5	0.540603
151	0x3e9ae9ca	0.30256492
152	0xbfa7a2fc	-1.3096614
153	0x4003c52a	2.058909
154	0x3ffdf408	1.9840097
155	0x3f0138ea	0.5047747
156	0xbf25c9ce	-0.64761055
157	0xbfb479ad	-1.4099633
158	0x3fbf9a91	1.4969045
159	0x3ff0b5c6	1.8805473
160	0x3ecf510e	0.40491527
161	0x3f9d6c77	1.2298726
162	0xbfe4cdf2	-1.787535
163	0xbf232d73	-0.63741225
164	0x3feef8bd	1.8669659
165	0xbe8553d8	-0.2604053
166	0xbeda0aa8	-0.42586255
167	0x3f73c501	0.9522248
168	0x3f843340	1.032814
169	0x3f89acc5	1.075585
170	0xbf64f95a	-0.8944298
171	0xbfe2e950	-1.7727451
172	0xbf06ecb4	-0.5270493
173	0x3e0694c5	0.13142689
174	0xbf3117a7	-0.69176716
175	0xbb34ecdc	-0.0027607
176	0x3fab3e67	1.3378419
177	0x3f1034c6	0.56330526
178	0x3f32c395	0.69829684
179	0xc01e87e8	-2.477045
180	0xbfa04be2	-1.2523158
181	0xbe7cc82a	-0.24685732
182	0xbfc17e64	-1.5116696
183	0x3fb03bf7	1.37683
184	0xbeed5381	-0.4635277
185	0x3f7dfc16	0.9921278
186	0x3e40bf04	0.18822867
187	0x3f57c7ee	0.84289443
188	0x3ed342db	0.41261944
189	0x3eff609e	0.498784
190	0x3e41cde3	0.18926196
191	0x3f280546	0.65633047
192	0x3ea4c2ed	0.32179967
193	0xbea63133	-0.3245941
194	0xbe0c2de8	-0.13689387
195	0x3e25d153	0.16193132
196	0x3f1e3564	0.6180022
197	0xbfc9a40f	-1.5753192
198	0x3f36bc20	0.71380806
199	0x3ff71da9	1.9305927
200	0xbfa6532a	-1.299413
201	0x3efeb2a2	0.4974566
202	0x3d8c9d6a	0.06865962
203	0xbe847d98	-0.2587707
204	0x3ff6937c	1.9263759
205	0x3f35e5c1	0.710537
206	0x3f882ea3	1.0639232
207	0x3dd45e10	0.103695035
208	0x3f39f252	0.72635376
209	0x3f2b75e2	0.6697675
210	0xbbb32f81	-0.0054683094
211	0x3f12945d	0.57257634
212	0xbf7d04b2	-0.9883529
213	0xc00bc2e6	-2.1837707
214	0x3f9c919d	1.2231938
215	0xbfcab226	-1.5835617
216	0x3f15cff8	0.5852046
217	0x3fd17b68	1.6365786
218	0x3f01e2c4	0.5073664
219	0xbf9ea000	-1.2392578
220	0xbf89bfa0	-1.0761604
221	0xbeee312c	-0.4652189
222	0x3f9bf6c6	1.2184684
223	0xbf113f47	-0.5673718
224	0xbfe73fe9	-1.8066379
225	0x3ee6e39a	0.4509552
226	0x3f87d33e	1.0611341
227	0xbfae13a3	-1.3599743
228	0x3f4a7265	0.790808
229	0xbf9fa6ad	-1.247274
230	0xbf967b0d	-1.1756302
231	0x3d637577	0.055531945
232	0xbf761418	-0.9612441
233	0x3fab180c	1.3366714
234	0xbf22e461	-0.6362973
235	0x3f058016	0.5214857
236	0x3fcb2e38	1.587348
237	0x3fbe811c	1.4883151
238	0x3f0d7788	0.55260515
239	0xbc9c5f23	-0.019088333
240	0x3fa16c5f	1.2611197
241	0xbfb2f373	-1.3980545
242	0x3f142967	0.57875675
243	0xbff5f74a	-1.9216092
244	0xbfcd57e1	-1.6042444
245	0xbf9cc66f	-1.2248057
246	0xc00746a1	-2.1136858
247	0x3e83e06b	0.25757155
248	0xbf34f08b	-0.7067954
249	0x3f1264a4	0.57184815
250	0xbee48866	-0.44635314
251	0xbe35a126	-0.17737255
252	0x3f09e0ae	0.5385846
253	0x3dc9073e	0.098158345
254	0x3f9f125a	1.2427475
255	0x3ec925fe	0.39286798

v_emb_layer.weight f4 [962, 50]
0	0xbf82df06	-1.0224311
1	0xbf8e6572	-1.1124709
2	0xbe4272fe	-0.18989179
3	0x3e8041ce	0.25050205
4	0x3f82e816	1.0227077
5	0x3f61fb70	0.8827429
6	0x3f662327	0.8989739
7	0x3eac1b2d	0.33614483
8	0xbe5494b7	-0.20759855
9	0x3e459dc9	0.19298472
10	0xbe898a0c	-0.26863134
11	0xbf5becf1	-0.8590842
12	0xbea1c957	-0.31598923
13	0xbe818952	-0.2530008
14	0xbd96e9f1	-0.073688395
15	0x3f1178eb	0.5682513
16	0xbe474eb6	-0.1946362
17	0x3fac5dcc	1.3466125
18	0x3fc4b62b	1.5368093
19	0xbfac016b	-1.3437933
20	0xbea12bb3	-0.31478652
21	0xbf6d5440	-0.9270668
22	0x3f1fa8b9	0.62366825
23	0x3ef84ba7	0.48495218
24	0x3f9cfca8	1.2264605
25	0x3f87259d	1.0558354
26	0x3fb3bcf0	1.4042034
27	0xbf3bbadb	-0.73331994
28	0xbeefe95a	-0.4685772
29	0x3ee6e529	0.4509671
30	0x3f1143b8	0.56743956
31	0x3dc379d8	0.09544724
32	0x3e6c85d5	0.23097928
33	0x3f8ae0be	1.0849836
34	0x3faf31aa	1.3687031
35	0xbf573472	-0.840644
36	0xbe3ecb8e	-0.18632337
37	0xbf570436	-0.839908
38	0x3e887ee1	0.266593
39	0xbee0a292	-0.4387403
40	0x3fa21e55	1.2665507
41	0x3f04f816	0.5194105
42	0x3e92b55a	0.28653985
43	0x3e87f982	0.26557547
44	0xbf7d9a83	-0.9906389
45	0x3f9b6670	1.2140636
46	0xbef9bb84	-0.48775876
47	0xbfb4ce6e	-1.4125497
48	0x3f207b21	0.6268788
49	0xbc878b01	-0.016545774
50	0x3da2bc75	0.079461016
51	0xbf9ea185	-1.2393042
52	0xbf2c6160	-0.6733608
53	0xbf8c3a26	-1.0955245
54	0x3edbfc41	0.42965892
55	0x3f7c8107	0.9863438
56	0x3fab97cc	1.34057
57	0x3f9178fe	1.1365049
58	0xbf44549a	-0.7669159
59	0x3fa2f2cc	1.2730346
60	0xbde9b238	-0.11410946
61	0x3fd15d21	1.6356546
62	0x3e9247ae	0.28570312
63	0xbe8caa36	-0.2747361
64	0xbf318e36	-0.6935762
65	0xbffe0e3e	-1.9848096
66	0xbff17431	-1.8863584
67	0x3fb36305	1.4014593
68	0x3e260b1f	0.1621518
69	0x3f6fb7b8	0.9363971
70	0x3eda90ea	0.42688686
71	0x3e5c184d	0.21493645
72	0x3f149caf	0.5805158
73	0xbf1aff47	-0.6054577
74	0x3ddba958	0.10725659
75	0xbfa7c725	-1.3107649
76	0xbf60ebdd	-0.878599
77	0xbfee2fe6	-1.8608367
78	0x3e8b5a66	0.27217406
79	0xbfa2aa7d	-1.2708279
80	0xbe987fd8	-0.29785037
81	0x3ea1c3c4	0.3159467
82	0xbd55ecfd	-0.052227963
83	0x3fc180f4	1.5117478
84	0xbfcacc26	-1.5843551
85	0xbef43a48	-0.47700715
86	0x3dee6dbc	0.11642024
87	0xbe4a695f	-0.19766758
88	0xbe1f70d3	-0.15570383
89	0xbf6ece0e	-0.93283165
90	0xbfdf7380	-1.7457123
91	0xbf44d3db	-0.76885766
92	0x3ed79512	0.4210592
93	0x3f344b4a	0.7042738
94	0xbefa58de	-0.48895925
95	0xbdfcedd9	-0.12350053
96	0x3cc1a757	0.023639364
97	0x3e820200	0.2539215
98	0x3e00e95d	0.12589021
99	0x3ea4914c	0.32142103
100	0x3ec3a6a0	0.38213062
101	0xc030edbf	-2.7645109
102	0x3fb0df48	1.381814
103	0x3f0dcf35	0.553943
104	0x4005c363	2.0900505
105	0x3f686df4	0.90792775
106	0x3e8c0a80	0.2735176
107	0xbf953cd7	-1.1659192
108	0xbf73bbbf	-0.9520835
109	0xbb84c296	-0.0040515168
110	0x3f703648	0.93832827
111	0xbe651ffa	-0.2237548
112	0xbf599ac9	-0.8500181
113	0xbf62d0bf	-0.8859977
114	0x3f20f8a2	0.62879384
115	0xbe5ef8b4	-0.2177456
116	0xbe26a3d8	-0.16273439
117	0x3fb2da5e	1.397289
118	0xbdfcd3f7	-0.123451166
119	0xbef8cd66	-0.48594207
120	0xc005a343	-2.0880897
121	0xbe81f75b	-0.2538403
122	0xbf1d23d0	-0.6138277
123	0x3f4e8973	0.8067848
124	0x3f3cb5a5	0.7371467
125	0xbf2f1a4c	-0.683995
126	0xbe000a9d	-0.12504049
127	0xbf0187d9	-0.5059791
128	0xbddd76a7	-0.10813647
129	0x3e26d138	0.16290748
130	0xbeea0461	-0.45706466
131	0xbfa83ebf	-1.3144149
132	0xbfecab81	-1.8489839
133	0xbf68b394	-0.90899014
134	0x3ea82511	0.3284078
135	0xbe67e8a9	-0.22647347
136	0xc01683e1	-2.3517992
137	0xbf922891	-1.141863
138	0xbf373e49	-0.71579415
139	0x40083211	2.1280558
140	0x3ea976de	0.330985
141	0xbf089938	-0.53358793
142	0xbf4ece19	-0.8078323
143	0x3e91d85f	0.2848539
144	0x3f254090	0.6455164
145	0x3ee6dab4	0.45088732
146	0x3f1c6a1b	0.61099404
147	0xbf91e9ff	-1.1399535
148	0xbf6d4bcb	-0.92693776
149	0xbfbec1c0	-1.4902878
150	0xbf534e28	-0.8254113
151	0xbe08a562	-0.13344339
152	0x3f3528d7	0.7076544
153	0xbee6d9d1	-0.45088056
154	0x3eda856f	0.42679927
155	0xbed160fe	-0.40894312
156	0xbe9d42b7	-0.30714962
157	0x3f012fe8	0.50463724
158	0x3f14a479	0.58063465
159	0x3fcb2eb9	1.5873634
160	0x3e35ca2b	0.17752902
161	0x3f0541f8	0.52053785
162	0x3ec590a8	0.38586926
163	0xbf9e2a85	-1.2356726
164	0x3eaf6486	0.3425638
165	0x3f5ecbde	0.87029827
166	0xbe6cb9ad	-0.23117705
167	0xbec664d9	-0.38748816
168	0x3f51acfc	0.8190458
169	0x3f94ebef	1.1634501
170	0x3f0c37e3	0.54772776
171	0xbf7d6844	-0.9898722
172	0xbd2cbe8f	-0.04217392
173	0xbee3c956	-0.44489545
174	0xbf3d3850	-0.7391405
175	0x3f7e706b	0.99390286
176	0x3e2228de	0.15835902
177	0xbfaee9a8	-1.3665056
178	0x3fb963d9	1.4483596
179	0xbfc41cbb	-1.5321268
180	0xbe88e316	-0.26735753
181	0x3f5ff97b	0.8749005
182	0x3f04ba0e	0.51846397
183	0x3f7c9c93	0.98676413
184	0x4010f60d	2.2650177
185	0xbf23686d	-0.63831216
186	0x3f6811e7	0.90652317
187	0x3ff8bb59	1.9432174
188	0xbf9a8647	-1.2072228
189	0x3d9f1d6c	0.07769284
190	0xc008020c	-2.125125
191	0x3ecda9a4	0.40168488
192	0xbedf5d5f	-0.43625924
193	0x3fa0b710	1.2555866
194	0xbfd3d4ec	-1.6549354
195	0x3eb60c4e	0.35556263
196	0xbf90c231	-1.1309263
197	0x3f500b3f	0.8126716
198	0xbe1b943e	-0.15193269
199	0x3fa76fd4	1.3081002
200	0x3d0ec67f	0.03485727
201	0x3ff1df9f	1.8896369
202	0x3f61dffb	0.8823239
203	0xbefab719	-0.48967817
204	0xc000a9a7	-2.0103548
205	0x400c9a73	2.1969268
206	0xbfb12085	-1.3838049
207	0x3e80a404	0.25125134
208	0x3d80e3d5	0.062934555
209	0xbedacaf1	-0.42732957
210	0x3f0c982b	0.5491969
211	0xbf82fb9d	-1.0233036
212	0xbf3a3b32	-0.72746575
213	0x3edc49c3	0.43025026
214	0xbf36d068	-0.7141175
215	0x3f0fe8c0	0.56214523
216	0x3ee08a2b	0.43855414
217	0xbe44dbc7	-0.19224463
218	0xbf8f5ca6	-1.1200149
219	0xbf446475	-0.76715785
220	0x3f2a11ce	0.6643342
221	0x3f4fb7aa	0.81139624
222	0xbe85eb73	-0.26156196
223	0xbf629c68	-0.88519907
224	0x3f1c5dde	0.6108073
225	0x3e2f4d69	0.17119373
226	0xbf51c064	-0.8193419
227	0x3f217bf5	0.6307977
228	0x3f10d2b7	0.56571525
229	0x3e1b45b1	0.15163304
230	0xbf2f6fb7	-0.6852984
231	0x3f72327c	0.94608283
232	0xbf08fb64	-0.5350859
233	0xbe8b7cf6	-0.27243775
234	0x3ff910bd	1.9458233
235	0xbfa4025a	-1.2813218
236	0x3f953109	1.1655589
237	0xbf2fa2d8	-0.68607855
238	0x3f81521a	1.010318
239	0x3db105f4	0.086437136
240	0x3d7ef777	0.06224772
241	0x3cb56fb6	0.022147994
242	0xc01bb8e1	-2.433159
243	0x3e48eb9f	0.19621132
244	0x3f8d64c3	1.1046375
245	0x3e8594f0	0.26090193
246	0x3e95bea2	0.29247004
247	0xbe448f3e	-0.19195268
248	0x3e3e9c60	0.1861434
249	0x3f055ee9	0.52097946
250	0x3ef29034	0.47375643
251	0x3f5a45ae	0.8526257
252	0xbfb00629	-1.375188
253	0x3f108642	0.5645486
254	0x3cf70e15	0.030158082
255	0x3f54dda9	0.83150727

f_layer.weight f4 [50, 100]
0	0xbd0931ff	-0.033494946
1	0xbd3e2103	-0.0464182
2	0xbe29378c	-0.16525096
3	0x3cd0a1d3	0.025467789
4	0x3d5dc3a2	0.054141648
5	0xbe20e31e	-0.15711638
6	0xbd783db9	-0.06060574
7	0x3d8d28f9	0.068925805
8	0xbdb8cb46	-0.09023146
9	0x3e38d1d2	0.1804879
10	0x3e2268b9	0.15860261
11	0x3d8222b4	0.06354275
12	0x3e01eb2f	0.12687372
13	0x3d01ba71	0.031671945
14	0x3dd56908	0.10420424
15	0xbd23db73	-0.040004205
16	0x3ea5e5eb	0.32401976
17	0xbe12b3e9	-0.14326443
18	0x3d314820	0.043281674
19	0xbd17ed56	-0.037091576
20	0xbd1f7442	-0.03892923
21	0x3d8050bc	0.06265399
22	0xbcc4a36b	-0.024003705
23	0x3c735571	0.014851914
24	0x3e14d58a	0.14534584
25	0x3e50fb53	0.20408373
26	0xbc6b8aad	-0.014376325
27	0xbe072ac3	-0.13199906
28	0x3ceb7cea	0.028746087
29	0xbda0a5ee	-0.078441486
30	0x3bd955c7	0.00663254
31	0x3c8439be	0.016140815
32	0xbdc3eaa1	-0.09566236
33	0xbcfe9495	-0.031076709
34	0x3dc4a3c7	0.096015505
35	0xbcd4af84	-0.025962599
36	0xbbc81963	-0.006106542
37	0xbde9cead	-0.114163734
38	0x3d41c42b	0.04730622
39	0x3d8dc5b7	0.06922477
40	0xbdacb5d6	-0.0843312
41	0xbd832a5b	-0.06404563
42	0xbdf66cba	-0.12032457
43	0x3e1f1e1c	0.1553883
44	0x3d8d2074	0.068909556
45	0xbd7cb949	-0.06170014
46	0xbc8f9f80	-0.01753211
47	0xbdc96665	-0.09833983
48	0x3e888ab8	0.26668334
49	0x3d245bdd	0.04012667
50	0xbc60ec3f	-0.0137282
51	0xbd8ebf17	-0.06970041
52	0xbd85390b	-0.06505021
53	0x3d7cbafa	0.061701752
54	0x3d91a158	0.07110852
55	0xbbc2ed4d	-0.0059486986
56	0x3ae3dd6b	0.0017384713
57	0xbdb0ccbc	-0.086328
58	0x3c4cc94d	0.012499166
59	0xbdfaacca	-0.12239988
60	0x3dad7474	0.08469477
61	0x3ddd32bb	0.10800692
62	0xbcaad609	-0.020854013
63	0x3c8ed5d5	0.017435947
64	0x3d971353	0.07376733
65	0xbd55094c	-0.05201082
66	0xbd156f42	-0.036483057
67	0x3d3b19fe	0.045679085
68	0x3d203aca	0.039118566
69	0x3dc5479e	0.096328005
70	0xbe449fb4	-0.19201547
71	0x3c7072f4	0.014675844
72	0x3ccbf732	0.024898145
73	0x3dd1fdd6	0.102534935
74	0xbd01cc83	-0.03168918
75	0xbe00f3ff	-0.12593077
76	0xbddb1600	-0.106975555
77	0x3d7d3fe5	0.061828513
78	0xb9f23d7b	-0.00046203643
79	0x3bd7f1bf	0.0065900977
80	0x3e0181c3	0.12647156
81	0xbe3f48ee	-0.18680164
82	0xbda9f538	-0.08298725
83	0xbb4da51d	-0.0031378933
84	0x3ca57934	0.020199396
85	0xbd447260	-0.04796064
86	0xbd3de185	-0.04635765
87	0xbd9c66f2	-0.07636823
88	0x3dbecfe2	0.09316994
89	0x3d924b9f	0.0714333
90	0xbd54208b	-0.051788848
91	0xbd63cbd9	-0.055614326
92	0x3de4fac5	0.11180643
93	0xbce57303	-0.028008943
94	0x3ca47b53	0.020078337
95	0xbe300b05	-0.17191704
96	0xbca26e54	-0.019828
97	0x3b01681c	0.0019745892
98	0xbbe0a7a2	-0.006855921
99	0x3e17e374	0.1483286
100	0xbdbe6f0b	-0.092985235
101	0x3e21a558	0.1578573
102	0xbe225e19	-0.15856208
103	0xbd6a5fee	-0.057220392
104	0x3dfcd20e	0.12344752
105	0xbe0003c3	-0.12501435
106	0xbdb0a700	-0.08625603
107	0x3bbde492	0.00579507
108	0xbc04c151	-0.008102731
109	0x3cd72282	0.026261572
110	0x3e20de85	0.15709884
111	0x3dffedfb	0.12496563
112	0xbc03f303	-0.008053544
113	0x3ccdc3d4	0.025117792
114	0x3da7f732	0.08201446
115	0xbd921e17	-0.071346454
116	0xbd62c123	-0.05535997
117	0x3c99d04a	0.018776078
118	0x3deeaa26	0.11653547
119	0x39e0537e	0.00042786816
120	0x3d22ba29	0.039728317
121	0xbd75a9b0	-0.05997628
122	0xbd853856	-0.06504886
123	0x3e8f668f	0.28007933
124	0x3bfb63f7	0.007671829
125	0xbd5d5b8a	-0.054042377
126	0x3d034b32	0.032054134
127	0xbccf0eb9	-0.025275575
128	0xbd0ebe31	-0.03484935
129	0xbe2c4896	-0.16824564
130	0x3e36e6d4	0.17861491
131	0xbccedba7	-0.025251223
132	0xbc810352	-0.015748654
133	0xbe409f26	-0.1881071
134	0x3e47e19f	0.19519661
135	0x3d177974	0.03698106
136	0x3dd8a307	0.1057797
137	0x3e43a23f	0.1910486
138	0xbdfa8ed8	-0.122342765
139	0xbdeecb9c	-0.11659929
140	0xbbce0c67	-0.0062880996
141	0xbe00633c	-0.12537855
142	0xbe9720ef	-0.29517314
143	0xbd220990	-0.0395599
144	0x3e3af361	0.18256904
145	0xbd0de9e0	-0.03464687
146	0x3d222220	0.039583325
147	0x3d743f45	0.05963065
148	0x3d6a27dd	0.057166923
149	0x3e3c760a	0.18404403
150	0xbb37846f	-0.002800252
151	0x3e061383	0.1309338
152	0x3d0d90ea	0.03456203
153	0x3b4be830	0.0031113736
154	0xbdc1903b	-0.09451338
155	0x3dd91ea5	0.10601548
156	0x3b410493	0.002945219
157	0x3de98508	0.11402327
158	0xbcc94e67	-0.024573518
159	0x3dbb8548	0.09156281
160	0x3d0a2aee	0.033732347
161	0x3da014e1	0.07816482
162	0xbe0113a1	-0.12605144
163	0xbdb4001c	-0.08789083
164	0x3e1092d6	0.14118513
165	0xbd52403f	-0.0513308
166	0x3bbc64a0	0.0057493
167	0xbda4db14	-0.08049598
168	0xbbcd33d8	-0.006262284
169	0x3c09b255	0.008404334
170	0xbb9fa181	-0.0048715477
171	0xbdb9f1d8	-0.09079331
172	0xbe078633	-0.13234787
173	0x3da4c17d	0.080447175
174	0xbe303afd	-0.17210002
175	0x3d81de29	0.06341202
176	0x3d08bbe7	0.033382323
177	0xbe05014a	-0.12988773
178	0x3e21dfbf	0.15808009
179	0x3c83a472	0.016069625
180	0x3e0fd224	0.14045006
181	0x3df9e4a4	0.12201813
182	0xbd8ce71c	-0.06880018
183	0x3e3e27c6	0.1856986
184	0x3dcafd8d	0.09911642
185	0x3d86ddd2	0.065852776
186	0xbcefe6be	-0.029284831
187	0xbda86ad0	-0.08223498
188	0xbdc62f6f	-0.09677016
189	0x3d2259ad	0.039636303
190	0x3c22a3d1	0.009926752
191	0xbd13368d	-0.035940696
192	0x3ba23ea8	0.004951317
193	0xbbc0424a	-0.0058672773
194	0xbd315902	-0.043297775
195	0xbe1a3e0f	-0.15062736
196	0x3da8a4ff	0.082345955
197	0x3d3613b3	0.04445238
198	0x3da2ed17	0.079553775
199	0x3da0a69e	0.0784428
200	0xbe91676b	-0.28399214
201	0x3e0dbf32	0.13842466
202	0x3e028125	0.12744577
203	0x3ce70699	0.028201388
204	0xbde592ce	-0.112096414
205	0xbe4dcc38	-0.20097435
206	0xbd6203d4	-0.055179432
207	0xbdefa0fd	-0.11700628
208	0xbe2e078e	-0.1699507
209	0xbd9102c9	-0.07080609
210	0x3d2ca164	0.0421461
211	0x3d3050b4	0.043045714
212	0x3d8ede04	0.0697594
213	0x3df96c31	0.12178839
214	0xbcba409b	-0.022735884
215	0xbde6bb5a	-0.11266203
216	0x3e17b5ab	0.14815395
217	0xbd5ca71a	-0.053870298
218	0x3d597754	0.053092316
219	0xbcc63b05	-0.024198065
220	0xbd815e2a	-0.063167885
221	0xbe56285b	-0.20913832
222	0xbd30c3b9	-0.043155406
223	0x3e054fee	0.13018772
224	0x3b3fa7fb	0.0029244411
225	0x3d8fe168	0.07025415
226	0xbdc0c9bb	-0.09413477
227	0xbe8bc02b	-0.2729505
228	0xbe25a4d7	-0.16176163
229	0xbc6defd1	-0.014522509
230	0x3cac6d06	0.02104808
231	0xbdba7d88	-0.091059744
232	0xbe1b45e9	-0.15163387
233	0x3e165fc9	0.14684977
234	0xbe83b546	-0.25724238
235	0x3e1d2953	0.15347795
236	0xbdf4a3ad	-0.11945281
237	0x3e222c24	0.15837151
238	0xbe117c78	-0.14207637
239	0xbc6ff71e	-0.01464632
240	0x3d233aba	0.039850928
241	0xbdf81904	-0.12114146
242	0xbe1a921e	-0.15094802
243	0x3d5b252f	0.053502258
244	0x3cb3fe7d	0.021971935
245	0xbcd8c452	-0.0264608
246	0xbc5dd884	-0.013540391
247	0xbe43f6d0	-0.1913712
248	0xbd456666	-0.048193358
249	0xbbd48543	-0.0064856126
250	0xbe0587d3	-0.13040094
251	0xbcefb7f2	-0.029262517
252	0x3d9cfed3	0.07665791
253	0x3cc9ed03	0.024649149
254	0x3da23732	0.07920684
255	0xbd78ea98	-0.0607706

f_layer.bias f4 [50]
0	0x3bcbf98c	0.0062248167
1	0xbc572536	-0.01313143
2	0x3d50ee5d	0.05100857
3	0xbc3a234a	-0.011360953
4	0x3e018699	0.12649001
5	0xbd31e133	-0.043427657
6	0xbdc4b4f8	-0.096048295
7	0xbd5b7d0e	-0.05358606
8	0xbc6f2d77	-0.014598242
9	0xbd825f5a	-0.06365843
10	0x3d84ec88	0.06490427
11	0xbd76a58c	-0.06021647
12	0xbd25eb8d	-0.04050784
13	0xbdb7864c	-0.08961162
14	0x3db979b4	0.09056416
15	0x3db44858	0.08802861
16	0x3d1df47e	0.038563244
17	0x3ca9e70c	0.020740055
18	0x3cb851b4	0.022499897
19	0xbd0779a8	-0.033075005
20	0xbdbd89c2	-0.09254791
21	0x3cee4976	0.029087763
22	0x3cbb4b91	0.022863181
23	0x3bfd9c9f	0.007739618
24	0xbd2ae1b5	-0.041719157
25	0x3d43fae9	0.04784671
26	0x3e02047e	0.12697026
27	0xbbf77e80	-0.007552922
28	0x3d9d8ae4	0.07692507
29	0x3da70dfc	0.08156964
30	0xbc4f8d16	-0.012667915
31	0xbd11b99b	-0.035577398
32	0xbdf6f316	-0.12058084
33	0x3c2fb99e	0.010725407
34	0x3bd6be01	0.006553412
35	0x3bdadc1f	0.0066790725
36	0xbd962be3	-0.073325895
37	0xbdaa183e	-0.08305405
38	0x3ce62ef7	0.028098566
39	0x3d72b3bf	0.05925345
40	0x3dbc656d	0.09199033
41	0xbdf27975	-0.11839572
42	0x3c359dab	0.011084954
43	0x3d18dbc0	0.037318945
44	0xbb9373f3	-0.004499906
45	0x3d8067cb	0.06269797
46	0xbc405018	-0.011737846
47	0x3d96572e	0.07340847
48	0xbdfc580d	-0.12321482
49	0xbceb85e4	-0.028750367

p_layer.weight f4 [1, 50]
0	0x3dcea40d	0.10089884
1	0x3e27900e	0.16363546
2	0x3e60bc55	0.21946843
3	0x3e02a925	0.12759836
4	0x3e43c622	0.1911855
5	0xbe72353d	-0.23653121
6	0xbe1cf4f4	-0.15327817
7	0x3dffd039	0.12490887
8	0x3e8e119b	0.27747807
9	0xbdf34cda	-0.11879893
10	0x3e4ba24e	0.19886133
11	0x3dae0029	0.08496124
12	0x3d638e25	0.05555548
13	0x3dcb2095	0.09918324
14	0xbee5e6dd	-0.44902697
15	0x3e9a3878	0.30121207
16	0x3e3752c0	0.1790266
17	0xbe76bc7d	-0.2409534
18	0x3e60407f	0.21899603
19	0x3e2bd2b0	0.1677959
20	0xbe21f359	-0.15815486
21	0x3e6b6222	0.22986653
22	0xbdf7d1c9	-0.1210056
23	0xbe20fa6a	-0.15720525
24	0x3e454574	0.19264776
25	0xbe379e70	-0.17931533
26	0x3e4f3471	0.20234849
27	0x3e27494a	0.16336551
28	0x3e42b4f9	0.19014348
29	0x3e7b819b	0.2456116
30	0x3e469121	0.193913
31	0x3e493656	0.19649634
32	0xbe461143	-0.19342522
33	0x3e1579b9	0.14597215
34	0x3e13b95a	0.14426175
35	0x3dff554c	0.12467441
36	0x3e4679a5	0.19382341
37	0xbdd8536f	-0.10562789
38	0x3e187666	0.14888915
39	0x3e2814a1	0.1641412
40	0x3e2cf0d1	0.16888739
41	0xbe2a52ac	-0.166331
42	0x3e54e25b	0.20789473
43	0xbdcb7e96	-0.09936254
44	0x3d5fd8b4	0.054650024
45	0x3e5f9056	0.21832404
46	0xbe5844ef	-0.21120046
47	0xbe3f323d	-0.18671508
48	0xbe361996	-0.17783198
49	0x3e1293af	0.1431415

e_layer.weight f4 [50, 50]
0	0x3ebd2481	0.36941913
1	0xbd91c9ae	-0.071185455
2	0xbdf18d77	-0.117945604
3	0xbb62d6a9	-0.003461281
4	0x3e1d3fdd	0.15356393
5	0xbcd90312	-0.026490722
6	0x3e22010c	0.15820712
7	0xbe8af0e3	-0.27136907
8	0x3d98554d	0.07438145
9	0x3e573948	0.21017945
10	0xbe8fb592	-0.28068215
11	0xbe9970fd	-0.29969016
12	0x3e6da5a0	0.23207712
13	0xbe568328	-0.2094847
14	0xbde61369	-0.11234171
15	0x3ca0758b	0.019587299
16	0x3e3ae50f	0.18251441
17	0xbe19b20c	-0.15009326
18	0xbde4502d	-0.11148105
19	0x3e2f57b6	0.17123303
20	0x3d5ba880	0.05362749
21	0xbd4f0350	-0.05054027
22	0xbddf36ef	-0.108991496
23	0x3e45defa	0.1932334
24	0x3dff800d	0.124755956
25	0x3d20f4a8	0.039295822
26	0xbdce8d45	-0.10085539
27	0x3d78b589	0.06072
28	0x3ced8edd	0.028998787
29	0x3cbf0a16	0.023320239
30	0xbd98c358	-0.07459134
31	0xbea76f82	-0.3270226
32	0xbe6f618a	-0.23377052
33	0x3a886f4c	0.0010409146
34	0x3e625f4d	0.22106667
35	0xbdc41353	-0.09573998
36	0x3c01b8b3	0.007917571
37	0xbbe1ed9c	-0.0068947803
38	0xbd4e6dcb	-0.050397675
39	0x3cd6832a	0.02618559
40	0xbdbb1032	-0.091339484
41	0xbd078e4b	-0.033094686
42	0xbcfb618a	-0.030686159
43	0xbe1bddfe	-0.15221402
44	0x3d9dfd5d	0.07714341
45	0x3d34d039	0.04414389
46	0x3e7adab6	0.24497494
47	0x3e4ca1a2	0.19983533
48	0x3e22e50e	0.1590769
49	0x3e35ae95	0.17742379
50	0x3e561cf7	0.20909487
51	0x3e122e76	0.14275536
52	0x3e108106	0.14111719
53	0xbd94f622	-0.072735086
54	0x3d1b09a7	0.037851002
55	0x3de3d34d	0.11124287
56	0xbd47c5b4	-0.04877253
57	0xbd62d0b9	-0.055374835
58	0x3e0c9c8a	0.1373159
59	0x3d536c84	0.05161716
60	0x3e5f3d58	0.21800745
61	0xbc8cba18	-0.01717858
62	0xbde33f71	-0.11096085
63	0xbe1ee253	-0.15516023
64	0x3e1dd821	0.15414478
65	0xbe372c5f	-0.1788802
66	0xbdb1474a	-0.086561754
67	0x3e14468b	0.14480035
68	0x3e04c0f4	0.12964231
69	0xbe8470ef	-0.25867411
70	0x3e8bbdb4	0.2729317
71	0x3e77f0ed	0.24213
72	0x3daa5813	0.0831758
73	0xbdd00782	-0.10157682
74	0xbdcaaefe	-0.09896658
75	0x3d2f8195	0.04284819
76	0x3dfae489	0.12250621
77	0xbd02681f	-0.03183758
78	0x3e8e2e41	0.27769664
79	0xbba5fed2	-0.0050657773
80	0x3d1ac783	0.037787925
81	0x3e697346	0.2279788
82	0x3c865915	0.0163999
83	0x3cb7411c	0.022369914
84	0xbe4bc147	-0.19897948
85	0x3d87631f	0.06610703
86	0xbc07dbee	-0.008292181
87	0xbdde3364	-0.10849646
88	0xbd3b9a8d	-0.045801688
89	0xbdb66d4e	-0.08907567
90	0xbc699101	-0.014255763
91	0x3cb9235d	0.02259987
92	0x3cfee334	0.031114198
93	0xbe544670	-0.20729995
94	0x3d9f01fb	0.077640496
95	0xbb327414	-0.0027229832
96	0x3d7011b4	0.058610633
97	0xbd54d1a1	-0.05195773
98	0xbe314d66	-0.17314681
99	0x3daaba66	0.08336334
100	0xbede070d	-0.43364754
101	0xbf0a5fbf	-0.54052347
102	0xbc3c55aa	-0.011495033
103	0x3c80ea56	0.01573674
104	0x3d1c61f9	0.03817937
105	0xbeae3a14	-0.34028685
106	0xbd0f10b7	-0.03492805
107	0xbdea0bb3	-0.11428013
108	0xbe41043f	-0.18849276
109	0x3e2b4ada	0.16727772
110	0xbd5c2f49	-0.053756032
111	0x3bd1b3e0	0.0063996166
112	0x3dab1065	0.083527364
113	0xbdeabaa1	-0.11461378
114	0x3d61f400	0.055164337
115	0x3e786ac6	0.24259481
116	0xbead9202	-0.33900458
117	0xbdfe989a	-0.1243145
118	0x3d813793	0.06309428
119	0xbe4b111e	-0.19830748
120	0x3d78786a	0.06066171
121	0xbdb5a5a2	-0.088694826
122	0xbd231ac3	-0.039820444
123	0x3e913e29	0.28367737
124	0x3e06e350	0.1317265
125	0xbee5d4d3	-0.44888934
126	0x3e8b8865	0.27252498
127	0xbd8c2f7d	-0.06844995
128	0x3e86eb2f	0.26351306
129	0xbe30792b	-0.17233722
130	0xbe10ccc3	-0.1414061
131	0x3e509f77	0.20373331
132	0x3e25c786	0.16189393
133	0xbe950329	-0.29103974
134	0x3d90af66	0.070647046
135	0x3de60c31	0.11232794
136	0xbd8ebc72	-0.06969537
137	0x3e4a8e9c	0.19780964
138	0x3cbc0f0e	0.022956397
139	0xbe00e608	-0.1258775
140	0xbe236850	-0.15957761
141	0x3e1f6713	0.15566663
142	0xbe67befe	-0.22631451
143	0xbe1bccf2	-0.15214899
144	0xbef1a90a	-0.4719928
145	0xbe03a666	-0.12856445
146	0x3de9d638	0.11417812
147	0xbde3e5b4	-0.11127797
148	0xbdcd7b5f	-0.10033297
149	0x3e10e245	0.14148815
150	0x3d9a4193	0.075320385
151	0xbe12c7b2	-0.1433399
152	0xbc8001f4	-0.015625931
153	0x3d64fbee	0.05590432
154	0xbe3743e9	-0.17897
155	0xbd69c9e4	-0.057077304
156	0xbcb3c6b0	-0.021945328
157	0xbd141c95	-0.03616007
158	0x3df06636	0.11738245
159	0xbc84ff1d	-0.016234929
160	0x38de0f95	0.00010588687
161	0x3e953d5d	0.2914838
162	0xbd93f07b	-0.072236024
163	0x3c07431c	0.008255746
164	0x3e05b4d6	0.13057265
165	0x3e679082	0.22613719
166	0xbd8e5d36	-0.06951372
167	0xbd836b57	-0.06416958
168	0xbd61edd2	-0.055158444
169	0x3dfd47d2	0.12367214
170	0x3d94349d	0.07236598
171	0x3eb54379	0.3540304
172	0xbde1dd08	-0.110284865
173	0x3e41582f	0.18881296
174	0xbea7317f	-0.3265495
175	0x3e476873	0.19473438
176	0x3d16d86a	0.036827482
177	0xbdd6aa12	-0.10481657
178	0x3da0a36d	0.07843671
179	0xbe15e4b4	-0.14638025
180	0x3da3f809	0.08006293
181	0x3db3fb4c	0.087881655
182	0x3b8ced23	0.00430073
183	0xbe85eb91	-0.26156285
184	0x3dc05e31	0.093929656
185	0x3ddb1b39	0.10698552
186	0xbdf71270	-0.120640635
187	0xbe91bed2	-0.28465897
188	0xbe33a44f	-0.17543148
189	0xbc2ce5fc	-0.010552879
190	0x3d380ec4	0.044935957
191	0x3ea90dec	0.33018434
192	0x3d7daf6a	0.061934866
193	0xbd355ca3	-0.0442778
194	0x3c4cc8ed	0.012499076
195	0xbd5e5d24	-0.054288045
196	0x3e7cc062	0.24682763
197	0x3e69cdca	0.22832409
198	0xbda9dbe4	-0.08293894
199	0x3d2a660d	0.04160123
200	0xbc240f4c	-0.010013413
201	0xbd95f139	-0.073214
202	0xbd842ff9	-0.064544626
203	0xbeaf5e48	-0.34251618
204	0xbe6e4de7	-0.23271905
205	0x3ad776e7	0.0016438634
206	0x3d0e9479	0.034809563
207	0x3e65970c	0.22420901
208	0xbd968e9e	-0.07351421
209	0x3e4ec404	0.20191962
210	0xbdac0a2a	-0.08400376
211	0x3d531f6a	0.05154363
212	0xbd713c24	-0.058895245
213	0x3e0036bb	0.12520878
214	0xbda5b3e1	-0.0809095
215	0x3de50525	0.11182622
216	0x3e84d32d	0.25942364
217	0xbe3d046b	-0.18458717
218	0xbec653d8	-0.38735843
219	0x3dcaac07	0.09896093
220	0xbe0f9b43	-0.14024071
221	0x3e902ccd	0.2815918
222	0x3e813a47	0.25239775
223	0xbd57edb5	-0.05271693
224	0x3d2855a8	0.041097313
225	0xbdb478b2	-0.08812083
226	0xbe84b270	-0.25917387
227	0x3e8de243	0.27711686
228	0x3e3f9dd8	0.18712556
229	0xbe330635	-0.17482837
230	0x3d8debbf	0.069297306
231	0x3c12ff85	0.008972053
232	0xbd4fca5d	-0.050730098
233	0x3da86216	0.082218334
234	0x3e2458bd	0.16049476
235	0x3eb0c62e	0.345262
236	0xbe260095	-0.1621116
237	0x3cc35360	0.023843467
238	0xbd3dcc69	-0.04633752
239	0x3c52bf2c	0.012862962
240	0x3b3a11f9	0.002839206
241	0xbe13b611	-0.14424922
242	0xbdae589e	-0.08512996
243	0x3e046afd	0.12931438
244	0x3e8974b0	0.26846838
245	0xbe802415	-0.25027528
246	0x3dc741a3	0.09729316
247	0xbd0b1172	-0.033952184
248	0x3eb1c206	0.3471834
249	0x3d95cb75	0.07314197
250	0xbdf08ffd	-0.117462136
251	0x3e8c1411	0.2735906
252	0x3e3bc231	0.18335797
253	0x3e13d7bd	0.14437766
254	0x3d75922b	0.05995385
255	0x3e90e505	0.28299728

e_layer.bias f4 [50]
0	0xbe52feb9	-0.20604981
1	0x3ccd4f42	0.025062207
2	0x3e9059ec	0.28193605
3	0xbd3044e6	-0.043034457
4	0x39b671aa	0.0003479843
5	0x3daa2e74	0.083096415
6	0x3cf2bbe9	0.029630618
7	0xbe875e9e	-0.26439375
8	0xbdb649b3	-0.08900776
9	0x3c7778c3	0.015104475
10	0xbe246cc8	-0.16057122
11	0xbd501638	-0.05080244
12	0xbd8ffa7e	-0.070301995
13	0xbc62bc30	-0.013838813
14	0x3d97c744	0.07411054
15	0x3dd1abbc	0.10237834
16	0xbdc382a5	-0.09546403
17	0x3e0fb7ce	0.1403496
18	0x3da539aa	0.08067639
19	0xbd47e856	-0.048805557
20	0xbcf6f392	-0.03014544
21	0xbe9ac207	-0.30226156
22	0xbe0f1dbb	-0.13976185
23	0x3dd5fd36	0.10448687
24	0xbe023fb7	-0.12719618
25	0xbde9da6d	-0.114186145
26	0x3e2830ea	0.16424909
27	0xbd90f77d	-0.07078455
28	0x3d466090	0.048431933
29	0x3e616966	0.22012863
30	0x3cde6357	0.027146978
31	0x3cada07d	0.02119469
32	0x3e9b77ee	0.30364937
33	0xbe4a630c	-0.19764346
34	0xbe8a44a9	-0.2700551
35	0xbe93c9ac	-0.288648
36	0xbe590c05	-0.21195991
37	0xbe997b89	-0.29977062
38	0x3e736b1a	0.23771325
39	0x3d6c3685	0.05766918
40	0xbd380760	-0.04492891
41	0xbe5e5c99	-0.2171501
42	0xbdb00750	-0.08595145
43	0xbda27c24	-0.07933834
44	0x3dd6bc79	0.10485167
45	0xbd5e5f3f	-0.054290053
46	0xbdc22fd3	-0.09481778
47	0xbd8874cb	-0.066629015
48	0x3c34149f	0.010991245
49	0xbd85a043	-0.06524708
