ckpts/dkt/ass15/model.ckpt (torch, 445763 bytes, 7 tensors)

interaction_emb.weight f4 [200, 100]
000000 3b 48 88 3f b2 7b 8b bf 34 64 f0 be cc e1 8d 3d
       1.0647043 -1.0897124 -0.4695145 0.06927833
000010 33 da 4d 3f 2d 0f 9c 3f 04 01 93 3f 1f 70 a6 3f
       0.8041107 1.2192131 1.1484685 1.3002967
000020 6d 5f 5d 3f a3 30 a5 3e 7e c5 49 3e b9 42 5b 3d
       0.86473733 0.3226367 0.19704244 0.05353043
000030 37 41 27 bf fc b5 de be 6a 48 31 bf 14 6d a1 3f
       -0.65333885 -0.43498218 -0.6925112 1.2611413
000040 6e cf 4a 3f 8b ac 53 3e 43 27 0f be e8 37 8e 3f
       0.7922276 0.20671289 -0.13979821 1.1110811
000050 95 3e 0e c0 c1 f1 1d 3f 4f 74 97 3e 75 36 ae 3f
       -2.2225697 0.6169701 0.29580924 1.3610369
000060 ac fc 82 3f 3e 7c b3 3d 6c cc ab 3f 78 a3 99 bf
       1.0233359 0.08763932 1.342176 -1.2003012
000070 82 4e 9c bf e1 04 85 3e 27 87 3c 3f c3 a0 df 3f
       -1.2211459 0.25980285 0.73643726 1.7470936
000080 40 16 61 3f a4 81 08 bf d8 ca e0 bf b7 80 46 bf
       0.87924576 -0.53322816 -1.7561903 -0.77540153
000090 01 9c c5 be 5f 61 03 bf 80 c2 91 bf 63 2c 63 bf
       -0.38595584 -0.5132045 -1.1387482 -0.88739604
0000a0 b2 a0 05 be fd d2 6e 3f cc 0a b1 3f 12 4b 42 3e
       -0.13049582 0.9329069 1.383142 0.1897395
0000b0 57 f4 37 bf ca b9 2f bf 2f b9 8d 3e a1 bf 41 3f
       -0.7185721 -0.68642867 0.27680346 0.7568303
0000c0 be 7d 70 3f 92 fb 2e bf 51 26 29 3f b0 57 0c bf
       0.9394187 -0.68352616 0.6607409 -0.548213
0000d0 00 60 f2 be 62 9e 1d 3f ac 60 3a bf 9c f8 2d 3e
       -0.47338867 0.615698 -0.7280376 0.16989368
0000e0 f2 b2 3b 3e 21 eb 24 be 35 1d ce 3e 6e e8 52 3e
       0.18329981 -0.1610532 0.40256658 0.20596477
0000f0 2d 0a 35 bf 0c c9 05 3f 16 cc 17 bf fe b9 c8 bf
       -0.7071865 0.522599 -0.59295785 -1.568176
000100 84 7f 1f 3f 0a 23 36 bf 30 33 18 bf a3 b7 8b 3b
       0.6230395 -0.71147215 -0.59453106 0.0042638346
000110 44 af c6 3e 07 89 e6 bf c8 17 b3 3f c9 23 35 bf
       0.38805592 -1.8010567 1.3991632 -0.7075773
000120 d1 ff c2 3f d2 d6 f6 bf 78 50 f0 bf 92 94 78 3f
       1.5234319 -1.9284308 -1.8774557 0.971017
000130 c7 f7 a0 bf fc 3e 51 3f d7 3e 4c 3f 2c 14 90 bf
       -1.2575616 0.8173673 0.79783386 -1.1256156
000140 37 29 f9 bd ec 17 a3 3f 44 36 b9 3f 92 33 f8 bf
       -0.12166064 1.2741675 1.4469686 -1.9390738
000150 98 07 3c bf 1b 87 d2 be ea 61 63 bf 28 3a 1b c0
       -0.7344909 -0.41118702 -0.8882128 -2.4254246
000160 1d 93 b1 3d fe d1 61 3f ff 60 c4 3f 24 71 4c bd
       0.08670638 0.8821105 1.5342101 -0.049912587
000170 fd 81 24 bf 80 7f 9c bd 9a 3c b1 3e 48 4b 9b be
       -0.64260846 -0.07641506 0.34616548 -0.30330873
000180 4a a4 b8 bf 11 6d 1a 3f ae 85 4e 3f 2f 22 05 3d
       -1.4425137 0.6032267 0.8067273 0.032503303
000190 de 39 73 bf d3 90 05 be a5 24 8f 3f e7 48 98 3e
       -0.95010173 -0.13043527 1.1183058 0.2974312
0001a0 18 9d 6d 3d 49 ad a5 3e 59 02 90 3e 50 6f 88 3e
       0.058011144 0.3235877 0.2812679 0.26647425
0001b0 a5 fc 12 3f a4 fa 16 3f 35 5a 33 3f 9a 7e 80 be
       0.57416755 0.589762 0.7005952 -0.2509659
0001c0 75 7a ce 3f d2 ec 98 be a8 1b a2 3f 3e 76 c0 bf
       1.6131121 -0.2986818 1.266469 -1.5036085
0001d0 0c 9e 6c bf b4 b6 59 be 2a 04 7f 3e 66 a0 05 bf
       -0.9242866 -0.21261102 0.24903932 -0.52197874
0001e0 d0 d7 44 3f b9 43 32 3f 24 f6 92 bf 0d 86 a9 3f
       0.76891804 0.69634587 -1.1481366 1.3244034
0001f0 0a c0 42 bf 57 28 da bf 25 71 f1 3e fa 23 5f bf
       -0.7607428 -1.7043561 0.47156635 -0.8716427
000200 bb d6 9b bd 13 30 85 bf 81 79 49 be a2 a3 a7 3f
       -0.07609316 -1.0405296 -0.19675256 1.3096812
000210 24 b0 3c 3f 5c e8 6b bf e6 01 29 3f 34 e0 7c bf
       0.7370627 -0.9215143 0.6601852 -0.98779607
000220 ed 12 11 c0 3a 6b 5c bf cc 4c 93 bd c0 29 71 bf
       -2.2667801 -0.86101115 -0.07192382 -0.9420433
000230 81 11 ce bf 76 3a 07 3e 60 c2 fe be 61 0e 4a 3f
       -1.6099092 0.13205895 -0.4975767 0.7892819
000240 db 33 aa be bd 11 b3 3f ad f6 36 3f 61 10 07 3e
       -0.33242688 1.3989788 0.7147015 0.13189842
000250 7a 33 a8 bf a9 cf 17 3f 68 4e 5d bd f8 85 ab be
       -1.3140709 0.5930124 -0.054029852 -0.33500648
000260 7c 2e 5a 3d 3d bb ee 3f 89 74 57 be f3 fa 39 bf
       0.053266987 1.865089 -0.21040548 -0.72648543
000270 55 b3 0a bf 55 77 e1 3c 2a e8 71 3f 16 85 f7 bd
       -0.5417989 0.027522722 0.9449488 -0.12085931
000280 cd 3e b2 3f 68 34 75 3e 7b fb 91 3f 68 c4 dc 3f
       1.3925415 0.23945773 1.1404871 1.7247438
000290 68 8a fc bf b2 e8 cb 3e 03 eb 5c 3f 31 c4 80 bf
       -1.9729738 0.3982597 0.862961 -1.0059873
0002a0 57 b7 8f 3e 99 7a b1 bf 06 3e 7b bf 66 76 9a bf
       0.28069565 -1.3865539 -0.98141515 -1.2067382
0002b0 57 9f 12 be 48 f1 33 be 77 f9 a3 3f bb 74 99 3e
       -0.14318596 -0.1757251 1.2810506 0.2997187
0002c0 f5 7c ff 3e 8d d2 67 bf 92 e0 e2 3e 9a 66 5e bd
       0.49900022 -0.9055565 0.4431196 -0.054297067
0002d0 db 6c a0 bb 82 4b 85 3f 2d fa 36 bf 70 bf 50 bf
       -0.004895789 1.0413668 -0.7147549 -0.8154211
0002e0 18 27 c9 bf 01 56 01 c0 de 8d 38 bf 54 8c f8 3e
       -1.5715055 -2.0208743 -0.7209147 0.48544562
0002f0 15 f9 af 3f 07 2b 01 bf f4 f1 05 3d 11 82 52 bf
       1.3747889 -0.5045628 0.032701448 -0.82229716
000300 2c 0c 05 3f 4e 91 30 3f 0e 48 ab bf 5c ac 82 3e
       0.519717 0.6897172 -1.3381364 0.25522125
000310 0e a9 0f 3c b1 1a 28 bf 3e ae 78 bf 31 fe 85 be
       0.008768333 -0.6566573 -0.9714087 -0.26170495
000320 d9 7b f7 be 06 7e f1 3c 2e b4 04 c0 e4 90 30 bf
       -0.48336676 0.029479038 -2.0734973 -0.68971086
000330 0e d1 b4 3f a7 f5 6f be 54 cd 8c 3d 77 dd 6a 3f
       1.4126298 -0.23433553 0.06875101 0.9174418
000340 d1 94 1c bf 18 19 48 bf 80 5e cd 3f b2 e9 57 3d
       -0.61164576 -0.7816329 1.6044464 0.052713104
000350 5b 2d d2 be 51 c6 ef 3f 79 38 a9 bf a4 42 b4 3f
       -0.41050228 1.8732396 -1.3220359 1.4082837
000360 da ad e3 3e 2b 09 64 bf d4 3b 84 be c4 71 ad be
       0.44468576 -0.8907649 -0.25826895 -0.3387586
000370 a2 b9 04 3f 4b 2d e3 bf 54 bf da bf a6 bf 1e 3f
       0.51845753 -1.7748197 -1.7089639 0.6201118
000380 e0 1c c9 3e d2 d0 d1 bf 48 1f fa 3c 9f 4f 2c 3e
       0.39279842 -1.6391852 0.030532494 0.16827248
000390 87 d6 d8 3f c8 61 dd bd 8c 0a 1a 3b 88 3d 8d be
       1.6940469 -0.10809666 0.0023504822 -0.27586007
0003a0 a8 0e 88 40 ea 6a 0c 3f 68 8c 85 be 29 41 8a bf
       4.251789 0.5485064 -0.26083684 -1.0801135
0003b0 da ec df bf c0 b7 30 bf 45 67 0d bf c4 cd 7f 3f
       -1.7494156 -0.6903038 -0.552357 0.9992335
0003c0 03 97 09 3f e3 3e c3 3f fe 59 d8 3d 74 19 34 3f
       0.5374605 1.5253567 0.1056404 0.7035134
0003d0 b2 40 ad 3f a5 48 29 3f 17 f0 e4 3f 29 bd 7a 3f
       1.3535368 0.6612647 1.788577 0.97944885
0003e0 45 14 61 3f 8e af 84 3e c8 97 2b 3f e5 a3 3d bd
       0.87921554 0.25915188 0.67028475 -0.04629888
0003f0 1b f8 17 be 4f a6 59 be 7e f4 8e bf 0b c4 9b 3f
       -0.14840738 -0.21254848 -1.1168363 1.2169203

lstm_layer.weight_ih_l0 f4 [400, 100]
000000 2f 2a 30 3d f1 72 19 bd 0f 50 26 bd f8 7e 4f bd
       0.04300898 -0.037463132 -0.040603694 -0.050658196
000010 4f 8c d7 3d 83 1b 63 bd df 30 09 3d fd 7a b0 bd
       0.105248086 -0.05544616 0.033493873 -0.08617208
000020 5c b8 e5 bd a8 ba 7b 3d 90 b0 6c 3d 4b b4 da bc
       -0.112168044 0.061457306 0.05778557 -0.026697299
000030 44 a1 b9 3d d8 6e a2 bd 9f 8f 05 3d 64 ec cc bb
       0.09063962 -0.07931298 0.03260767 -0.006253766
000040 6b c0 47 bc 6c 73 2b 3d 7d b1 ae bd 7d 75 be 3d
       -0.012191872 0.04185812 -0.08529947 0.09299753
000050 8b 81 11 bd aa 43 a5 bd fd 89 a6 bd 77 60 b0 3d
       -0.035523932 -0.080695465 -0.08131788 0.08612149
000060 ab 5a 2e bc 04 30 f5 bd de 54 06 3d 03 b4 6e 3d
       -0.010641734 -0.11972049 0.03279578 0.05827714
000070 eb 6f ee bd 48 62 c7 3d a7 de 12 3d 9e 7e c9 3d
       -0.116424404 0.097355425 0.03585687 0.098386034
000080 6d dc 81 3d 8d 9c d0 3d 71 a4 a7 3d 18 f1 00 3e
       0.06340871 0.1018611 0.081856616 0.1259197
000090 60 65 a2 bc 32 33 c6 3c b2 f4 46 bd 84 3e 3a bd
       -0.01982373 0.024194334 -0.048573203 -0.045469776
0000a0 27 a4 8c bd ab 09 4c 3c 8f 0f a5 bd 79 cd 6b 3d
       -0.06867247 0.012453477 -0.08059608 0.057569
0000b0 8d e3 c5 bd 61 18 53 3c cf 0c 3a 3d 3c 19 51 bd
       -0.096625425 0.01288423 0.04542237 -0.051049456
0000c0 8e 2d fa bd a6 d2 10 3d 5c de 56 bd da ad cf bd
       -0.1221572 0.03535714 -0.052458152 -0.101405814
0000d0 69 79 f8 3c ae 9e 9b bc c5 fc 51 bd c1 5e 87 3d
       0.03033133 -0.018996563 -0.05126645 0.0660987
0000e0 21 93 79 3b a5 55 24 bd d6 85 c7 3c 6b e5 50 bd
       0.003808208 -0.04012074 0.02435581 -0.05100004
0000f0 5b 86 b3 3d 8e 60 6d bd ba 72 0a bd ea e1 d0 bd
       0.08765861 -0.05795341 -0.033800818 -0.1019934
000100 34 c1 a3 bc f7 f5 cb bd a6 9b 47 bd 0f d6 34 bb
       -0.019989587 -0.099590234 -0.048732422 -0.002759341
000110 a7 08 70 bc 35 6b 8f 3d 6a 24 a9 3d 0c 96 a4 bc
       -0.0146505 0.0700287 0.082588986 -0.02009108
000120 45 7c c5 3d 9a 30 9a 3a 70 68 cb bd 5e 8f 27 3d
       0.09642843 0.0011763752 -0.09932029 0.04090821
000130 be d5 9a 3d fe b1 7f bc f3 ed 40 bd 84 8d 92 3d
       0.07560299 -0.0156064015 -0.047101926 0.07155898
000140 e4 6f f1 bc df 14 2b 3d 18 34 39 bd 9f 08 f3 bd
       -0.029472299 0.04176795 -0.045215696 -0.11866879
000150 4a d1 79 bc 3a cc d4 bb 75 f4 f2 3d f2 01 13 3e
       -0.015247652 -0.0064940723 0.11863033 0.14356211
000160 fe 62 0d 3e d5 96 b7 bd 3c 28 cb 3c af c5 3d 3d
       0.13807294 -0.08964316 0.024799459 0.046331104
000170 0b e0 68 3d 85 c8 dc 3c 28 35 5c bb e3 84 3c 3d
       0.05685429 0.026951084 -0.003360102 0.04602517
000180 06 23 94 bd 26 16 76 bd 28 00 bb bd 46 0e 98 3c
       -0.07233243 -0.060079716 -0.09130889 0.018561494
000190 d5 6b 03 bd cb 56 96 bd de f2 76 3d f4 44 34 3d
       -0.03208526 -0.07340773 0.06029021 0.04401107
0001a0 1c 47 23 3e bb bf b3 bd a6 f5 bf 3d fa 2d 61 bd
       0.15945095 -0.08776804 0.093730256 -0.054975487
0001b0 3d c6 80 3d 19 4b 29 3c d9 e2 95 3b fa e6 14 3d
       0.06287811 0.010332846 0.0045741615 0.03635309
0001c0 23 3e f3 3d f0 b2 14 3e b3 7c 55 3d 6f ca d1 3d
       0.11877086 0.14521384 0.052120876 0.10243689
0001d0 d6 b0 55 3d 11 a4 9e bd ce eb a0 bc f5 1a 46 3d
       0.052170597 -0.07746137 -0.01964369 0.048365552
0001e0 13 8a 9d 3b e3 90 cf 3c 67 8a 11 3d 90 04 2e bb
       0.0048077195 0.025337642 0.03553238 -0.0026553012
0001f0 0f 46 1c be 80 8b d3 bd 98 12 90 bd be 70 00 3c
       -0.152611 -0.10329342 -0.070347965 0.00783938
000200 86 7a 91 bd a5 b2 d1 3d af 45 57 3c 49 6b e8 bd
       -0.071034476 0.10239152 0.013139172 -0.11348588
000210 fb 68 24 3b ee 53 46 bd 1d 85 be bd 36 38 4d 3d
       0.0025086987 -0.048419885 -0.09302733 0.050102435
000220 06 d1 23 bc 8d 1a 4f bc be ee 2a 3d 3b 73 d1 bc
       -0.009998566 -0.012640608 0.04173159 -0.025567641
000230 d3 21 bc bd ea fd 8c 3d d7 a1 80 3b 7e 81 07 bd
       -0.09186139 0.06884368 0.003925543 -0.033082478
000240 f9 fc 84 bd f7 03 aa 3d e5 8c a8 bd d4 eb 29 3d
       -0.06493563 0.083015375 -0.082299985 0.04148467
000250 d8 b8 2d bd 69 54 f6 3c 22 a5 b8 3d 2a d9 86 3d
       -0.04241261 0.030069547 0.090158716 0.065843895
000260 35 dc 69 3d 38 81 0c be af e2 8f 3d 12 fc 83 bd
       0.05709477 -0.13721168 0.07025658 -0.06444563
000270 23 b6 f8 3d 70 7e 0a 3d ab ae 94 bc 05 b4 09 3d
       0.12144115 0.033811986 -0.018149694 0.033618946
000280 e2 56 0f bd 2b b5 c9 bd 0b f6 63 bd b4 e0 26 3d
       -0.034994967 -0.09849008 -0.055654567 0.040741637
000290 63 6c 2f bd 96 b6 4b bd 48 fb 9c bd 5e b0 81 3d
       -0.042827975 -0.049734674 -0.076651156 0.063324675
0002a0 ee bc f4 bc 00 ea 3d bd 31 fe 4f 3d cb 96 9f bd
       -0.029875245 -0.046365738 0.050779525 -0.07792433
0002b0 fb eb 22 3d aa f9 ef 3d f3 dc a5 3c ae 77 c4 bd
       0.03977583 0.117175415 0.020246958 -0.095931396
0002c0 ce fd 9e bd d4 12 2d 3d 67 75 0a 3d b8 ad 59 bd
       -0.07763253 0.042254284 0.03380337 -0.053144187
0002d0 05 f1 02 be 07 e7 98 bd 41 d7 8f 3c a4 b5 3b bd
       -0.12787254 -0.0746594 0.017558696 -0.045827523
0002e0 19 b9 26 3d e9 b3 6c 3b d6 fe 8c 3d 15 90 a8 3c
       0.040703867 0.0036117977 0.068845436 0.020576516
0002f0 a0 f7 8a bd 4b 2e e9 3c bd 16 6c bd fe 75 e6 3b
       -0.06785512 0.028464457 -0.057638872 0.0070331087
000300 3b 3f fa bd 86 9d 2b bd 5a 6e 19 bc 67 66 5a bc
       -0.122190915 -0.041898273 -0.009364689 -0.013330079
000310 b1 7e 0d bd 25 b9 69 bd 1e 21 9c 3c cf e2 83 3d
       -0.03454465 -0.057061333 0.01905876 0.06439745
000320 1b 0b d6 3d 66 29 94 bd 53 1d 02 3e 66 b2 2d bc
       0.10451337 -0.072344586 0.12706499 -0.0106016155
000330 90 0a b5 3c 76 9e b1 bc 26 1a 40 3c 7c 1d 63 bc
       0.022099763 -0.021682005 0.011724984 -0.01386201
000340 6a 66 9c 3c 64 ab 66 bd 64 54 1b bd 2a 75 3a 3c
       0.019091804 -0.056315795 -0.037922278 0.011380473
000350 a5 28 e8 3d f1 e6 b0 3d a2 7a ae 3c 77 fb 26 bd
       0.11335877 0.086377986 0.02129871 -0.04076716
000360 b0 0a 99 3d cf 66 cd 3d 5a e4 bf bd 27 d9 2e 3d
       0.074727416 0.10029375 -0.093697265 0.04268756
000370 c8 40 a8 3b 07 28 21 3d c0 8a 19 be 42 89 d1 bd
       0.0051346757 0.039344814 -0.14994335 -0.10231258
000380 bc f9 27 3c a6 33 8d bd 6a 11 0a 3c 74 09 9b bd
       0.010252412 -0.06894617 0.008427003 -0.075701624
000390 1d 83 12 bd 0f 0e b8 bc 7c 05 49 3d ed 18 2c 3b
       -0.03576957 -0.022467641 0.049077496 0.0026259974
0003a0 d2 6a 27 3d a8 c5 30 bd 6c c1 ea 3d 97 a1 ad bb
       0.040873356 -0.04315725 0.114626735 -0.005298804
0003b0 47 77 5c bc 5a 58 fd 3d 5f 88 57 bd aa 45 c3 3d
       -0.013456172 0.12370367 -0.052620288 0.09534772
0003c0 4f d4 1e bc 5f 1b 6d 3d f4 92 5f 3e d8 11 a8 bd
       -0.009694173 0.05788743 0.21833402 -0.082065284
0003d0 97 e3 23 3d cf 27 19 be ea be a3 3d 3a 3b 67 3d
       0.04001197 -0.14956592 0.07995398 0.056452967
0003e0 31 b8 13 3d 2d 44 f9 3d c7 8d 51 bd 4c 3c 73 3d
       0.03606433 0.121712066 -0.0511606 0.059383675
0003f0 da 23 f1 3d 85 21 5d 3d a4 0b bb 3c f0 e8 64 3c
       0.11774416 0.053987045 0.0228327 0.013971552

lstm_layer.weight_hh_l0 f4 [400, 100]
000000 fb fd a4 3d d0 12 02 bd 97 63 aa bc 7b b1 01 3d
       0.080562554 -0.031756222 -0.020799441 0.0316634
000010 0a ed a0 3b b1 06 81 3d 83 58 af 3d be 41 04 bc
       0.0049110698 0.063001044 0.08561804 -0.008072315
000020 f1 c6 95 bd 44 34 84 bd f1 8d 51 3d 2a 6e 4b 3b
       -0.07313336 -0.064552814 0.051160756 0.0031041005
000030 39 c0 34 3c 4f 3d 51 bd 43 6e 17 3c 2a ba 2a bc
       0.011032158 -0.05108386 0.009242597 -0.0104203615
000040 1b 75 e2 3d 01 cf 8c bd 1a b4 d0 3d d2 a0 ec bd
       0.11057492 -0.0687542 0.10190602 -0.115541115
000050 e1 21 9f bd 4e f5 cb 3d 6d ed 17 bd 4e c8 29 bd
       -0.07770134 0.099588975 -0.03709166 -0.04145079
000060 9e ca 10 3c 5e 5b c9 bb 9a 0f 14 bd 4e 68 19 3e
       0.00883737 -0.006144925 -0.03614769 0.14981195
000070 27 09 ab 3d 0d 8a 0e bd ca 53 a3 bd 18 b1 8e 3c
       0.08351355 -0.034799624 -0.07974966 0.01741843
000080 1a ab ae 3d 4a fe cf bd 4d 74 cb bd ea 95 4f bd
       0.08528729 -0.10155924 -0.09934292 -0.05068008
000090 3a 85 01 be 05 86 57 3d a1 c0 41 3c c5 4c ee ba
       -0.12648478 0.052618045 0.0118257115 -0.0018180838
0000a0 70 a4 41 3d 43 04 16 3e 91 16 d2 3c a6 5a 1a 3d
       0.04727596 0.14650063 0.025645526 0.037684105
0000b0 36 07 8e 3c 8a de d1 3b b7 d9 88 3c 04 1d fb bd
       0.017337423 0.0064047026 0.016705377 -0.12261394
0000c0 ab 32 42 3c f3 4d e7 bc 1f df dc 3d a3 4b 40 bc
       0.0118529005 -0.028235411 0.107847445 -0.011736783
0000d0 d3 9b c2 3d e9 f5 14 3d 17 0a 53 3c 08 26 84 3d
       0.09502377 0.03636733 0.012880824 0.064525664
0000e0 9c d5 cd bd 84 70 92 3d 2d e8 33 bd 28 59 c8 3d
       -0.100505084 0.07150367 -0.043922592 0.0978263
0000f0 d2 28 be bc 8c de 79 3b 70 b0 f7 bc 95 38 53 3d
       -0.023212824 0.0038127033 -0.0302355 0.051567633
000100 5a a2 69 bd ec 1a 54 3d 04 c9 57 bb 56 ab 0a 3e
       -0.057039596 0.051783487 -0.003292621 0.13541922
000110 81 bf 8d bc 26 ac b3 3d 29 68 32 bc af 98 9e 3d
       -0.01730323 0.08773069 -0.0108890915 0.07743966
000120 81 5c 1f bb d4 b5 dc 3d ce 38 95 3d 3c ea 3b bd
       -0.0024316611 0.107768685 0.07286225 -0.04587768
000130 36 d2 c6 3c 89 ac a3 bd f0 23 f1 3c 23 80 18 bd
       0.024270158 -0.07991893 0.029436082 -0.037231576
000140 cc 71 da 3d 24 ed 1f bd 4d b2 56 3d 49 54 9f 3d
       0.10666236 -0.039044514 0.052416135 0.07779748
000150 c9 39 0c be 04 60 9b bd 36 9a f0 bb 67 6a d8 bd
       -0.13693918 -0.07586673 -0.007342602 -0.1056717
000160 70 fb 22 bc 48 89 23 bd 1d b6 21 bd cf 81 f6 bc
       -0.009947643 -0.039925843 -0.039480317 -0.030091194
000170 a3 61 3d 3d e7 7f 08 3e 79 b6 2e 3d 93 5b 54 3d
       0.04623569 0.13330041 0.04265449 0.051845144
000180 61 d2 cc 3d cb 3b c3 3d ff 59 97 bd bd 88 60 3c
       0.10001064 0.09532889 -0.07390212 0.013704476
000190 3a 0c f2 3d 62 1d c9 39 a3 a6 9b 3d a9 63 ad bd
       0.11818738 0.000383596 0.07600143 -0.08466274
0001a0 35 74 cb 3d 22 a4 ab 3b 6d 94 27 3c 5a 26 9d 3d
       0.09934274 0.005238072 0.010228259 0.076733306
0001b0 90 ca b2 3d 2f b3 e7 bd 1b 14 c4 3c 03 ab 4a bd
       0.08730042 -0.113134734 0.023935368 -0.049479496
0001c0 06 cf 0c bd 25 10 cb 3d 09 8a 6d bd 48 40 30 bc
       -0.03437712 0.09915189 -0.05799297 -0.010757513
0001d0 8e 2d 45 bd da 08 05 3e 7a 24 62 3d 57 9b 89 bc
       -0.048139147 0.12991658 0.055210568 -0.016797705
0001e0 57 db be 3c ec 62 8d 3d 6e d8 91 3d e6 2d 4b bd
       0.023297949 0.069036335 0.07121359 -0.04960432
0001f0 0b 72 08 3e ee c3 a8 bd 2d 14 ad bc 35 0f 05 39
       0.13324754 -0.082404956 -0.021127785 0.00012689533
000200 b1 86 34 bd 40 a2 91 3d 14 4e 3a 3c e4 0a 58 3d
       -0.044073764 0.07111025 0.011371154 0.05274476
000210 1f 71 d1 bc 9e 66 cb bc 53 94 8b bd cd a3 43 3d
       -0.025566636 -0.024829205 -0.068154 0.047763634
000220 45 ad 2c 3b b2 65 66 3b 3d 94 3b bd a9 db dc 3c
       0.0026348394 0.003515583 -0.045795668 0.02696021
000230 2e 23 47 3d 1d 21 fa bc 0d 04 ab bd 92 ef bb 3d
       0.048617534 -0.030533368 -0.08350382 0.09176554
000240 26 0d 8f bd bb cf 4c bc 60 47 46 bc b1 8e cd bc
       -0.0698493 -0.012500699 -0.012101978 -0.025092455
000250 cc c8 dd bd e8 24 cb 3d 93 fd 07 3d 80 ea 8e 3d
       -0.108293146 0.09919149 0.03320081 0.06978321
000260 5d 41 75 bd 41 76 86 3d ab 31 9d bd 41 31 b0 bd
       -0.05987679 0.06565524 -0.07675489 -0.086031444
000270 c1 13 14 3d 77 0a d2 3c 2c 53 70 3d 81 39 9f bd
       0.03615165 0.025639756 0.05867307 -0.0777464
000280 cf dd 9d bd f2 35 20 3d a2 08 9d bd b7 07 da bb
       -0.07708322 0.039113946 -0.07667662 -0.0066537517
000290 47 dd 81 3c 48 a8 54 3c 1c 3e 74 3c 1b 6d 1a 3d
       0.015852584 0.0129795745 0.014907386 0.037701707
0002a0 04 e7 06 bd c8 5a 1c 3d 62 09 a3 3d 56 9e 42 bd
       -0.032935157 0.038172513 0.07960774 -0.047514282
0002b0 68 33 7c 3d 3a 76 03 bc 96 1e f4 3d f6 a4 4e 3b
       0.061572462 -0.008023793 0.11919896 0.003153143
0002c0 11 b3 c5 3b 2f 92 79 bc 3a c7 e6 3c 97 d0 82 39
       0.0060333093 -0.015232607 0.02817117 0.00024950944
0002d0 86 fe 81 3d 82 de a7 bc 82 48 b1 3d 43 2c 38 3d
       0.063473746 -0.020491842 0.08656408 0.044964086
0002e0 6b cf 7c bd a4 8a 6b bd ce 11 45 bd bc da f2 bc
       -0.061721247 -0.057505265 -0.048112683 -0.029645316
0002f0 56 20 94 bd 22 de 83 3b 66 3f 44 bd 9a 0e a0 bd
       -0.0723273 0.004024283 -0.047912024 -0.07815285
000300 5f 9e e4 bc da d2 be bd e7 06 2d be a0 51 b8 3d
       -0.027907548 -0.093175605 -0.16897164 0.08999944
000310 01 bf 20 bd 93 ce 73 bd 7a 03 d9 bc 3a 03 fc bd
       -0.039244656 -0.059523176 -0.026490916 -0.12305303
000320 7e f9 38 3c 65 83 c1 3d 2a b9 05 bd 18 4a 85 bd
       0.011289952 0.0944889 -0.03264729 -0.06508273
000330 6a 54 57 3d fe f7 5f 3d b4 52 41 bd 07 f5 9d 3b
       0.052570738 0.054679863 -0.047198012 0.0048204693
000340 61 9f 4e bd 16 d8 cf 3d 67 ec 59 3d b5 3c 3e 3d
       -0.050444964 0.10148637 0.053203966 0.046444613
000350 74 24 a1 3d f0 ee 53 bd 89 d9 63 3d 64 bb d4 3d
       0.07868281 -0.05174154 0.05562738 0.103873044
000360 47 11 67 bc 06 5f 83 bd a0 e5 de bd 70 90 fd 3d
       -0.01410324 -0.06414609 -0.10883641 0.12381065
000370 a4 8e c7 bd 0c f9 21 3d 93 35 6d 3d 55 c9 ae 3d
       -0.097440034 0.03954415 0.05791242 0.08534495
000380 7c 2d df 3c d9 21 1e be b2 9d 16 bc 37 45 26 3d
       0.027243368 -0.154426 -0.009192871 0.040593352
000390 58 24 9a bc d4 7c 70 3c a6 d1 69 3d e5 05 57 bc
       -0.018816158 0.014678199 0.057084702 -0.013123964
0003a0 7f 8d ac bd 5d 7e d9 bc 9b 0d 99 bc af a1 8f bc
       -0.08425426 -0.026549513 -0.018683245 -0.017533151
0003b0 3f af aa bd f7 03 51 bc 63 a4 09 3d 76 14 0c bd
       -0.08334207 -0.012757293 0.033604037 -0.0341992
0003c0 03 6e 72 bd e6 22 a9 bc 73 47 95 bc 49 bb 66 3d
       -0.059186947 -0.020646524 -0.018222546 0.056330953
0003d0 cd 5b 7d bd 54 43 9e bd e3 45 f5 bc ba 7e 37 bd
       -0.061855126 -0.077276856 -0.029940551 -0.04479859
0003e0 5d b1 3a be 74 6d 5b 3c 1a 78 b1 3d dd d9 02 3e
       -0.18231721 0.013392795 0.08665486 0.12778421
0003f0 01 db 7e bd 7c 9b 9b 3c 4c b0 91 bd 7f 13 46 be
       -0.062220577 0.01899504 -0.07113704 -0.19343375

lstm_layer.bias_ih_l0 f4 [400]
000000 b1 b3 13 3d 22 b4 cf 3d 80 3c f9 ba e3 b9 f8 3c
       0.03606004 0.101417795 -0.0019015223 0.030362075
000010 5b 6c 9f bd ce dd 8d 3d 2f f1 b7 3d 75 3f 8e 3b
       -0.07784339 0.069270715 0.08981549 0.0043410608
000020 91 30 7c 3d 40 2f 6e 3c 20 ba f6 3d df 8b 36 bd
       0.061569754 0.014537632 0.12047219 -0.044566985
000030 47 e0 2f bd 91 b6 9b 3c 99 cb c8 bc 52 9b ff 3c
       -0.042938497 0.019007953 -0.024511145 0.031201992
000040 ef bf df 3c e7 c1 07 3e a9 06 14 bd 91 90 2d 3c
       0.0273132 0.13257562 -0.036139164 0.010593549
000050 af a4 23 3e 42 16 09 3d 2b 9a ca 3c c1 27 1a bd
       0.1598079 0.033468492 0.024731716 -0.03763557
000060 ce e8 94 3d e2 0c 18 3d a8 39 3c bd 67 be ee 3d
       0.072709665 0.03712166 -0.045953423 0.1165741
000070 f7 d2 15 3e ea 02 c7 3d 6c e3 bf 3d 89 89 46 bc
       0.14631258 0.09717353 0.09369549 -0.012117752
000080 66 a9 16 bd b9 d4 0f 3d 66 1a ab 3d b6 9d ae bd
       -0.036782645 0.035114978 0.083546445 -0.08526175
000090 3e 31 d0 3c 93 37 19 bd de 97 d2 3c 22 b3 ab bc
       0.025414106 -0.037406515 0.025707182 -0.02095944
0000a0 71 a7 1a bd 61 f6 c6 3d 6e e6 d5 3d 3e 0c 44 bd
       -0.03775734 0.09714962 0.104443416 -0.047863238
0000b0 2f 5c 1c bd dd dd e7 3d 2a 26 58 bd bd 29 4d 3d
       -0.03817385 0.11321614 -0.05277077 0.050088633
0000c0 f7 a0 1b 3d 3e bc 2e bd be 05 37 3c 33 cc db 3d
       0.037995305 -0.04265999 0.011170803 0.10732307
0000d0 f9 d8 07 3e 63 14 45 3d 78 46 9e 3d 29 ee c1 3d
       0.13266362 0.048115145 0.077282846 0.094692536
0000e0 73 58 8c 3d cc 08 b9 bc 34 7b 21 bd 54 55 d2 bb
       0.06852808 -0.022587202 -0.039424136 -0.0064188633
0000f0 e7 83 fb bc 8a 36 a4 3b ab 43 e3 bd 1b 31 a0 bb
       -0.030702544 0.0050113844 -0.11096891 -0.0048886663
000100 d9 d5 ee 3d d2 c3 cf 3d 32 ee e0 3c 09 7e 0d 3e
       0.11661882 0.10144772 0.02745733 0.1381761
000110 d1 31 b2 bd 03 59 3a bd b0 a3 e4 3d 0c cb ca bc
       -0.08700908 -0.045495044 0.111640334 -0.024755023
000120 35 3b a3 3d 37 27 18 3d 72 14 74 3c d0 f5 e2 3d
       0.07970277 0.037146773 0.014897453 0.11082041
000130 77 2d 90 3d 95 cb c6 3d b5 25 34 3c b3 8f 8a 3c
       0.07039922 0.09706799 0.010995318 0.016914224
000140 45 2a 10 bb 03 6a cd 3d 63 f9 f6 3d 09 ea be 3d
       -0.002199785 0.10029986 0.120592855 0.093219824
000150 41 58 8c 3d aa 3a 00 3d 92 79 cd 3d 1a ce f9 bc
       0.068527706 0.031305946 0.10032953 -0.030493785
000160 d6 43 0e 3d b0 e6 e4 bc 0a b0 b3 3d 4f 9f 56 bd
       0.034732662 -0.027942032 0.08773811 -0.052398022
000170 df 29 f5 3c a1 a8 09 3d 37 12 b5 3b 5e 3f 03 3d
       0.029927192 0.033608083 0.005525853 0.032042854
000180 64 1e 7f bd 56 27 07 3e 96 39 f6 bc 26 41 0f bd
       -0.062284842 0.13198599 -0.030056756 -0.03497424
000190 72 ca 3c 3d 40 ca c9 3c d8 ce 14 3e b0 43 67 bc
       0.046091504 0.024632573 0.1453203 -0.014115259
0001a0 5e 2a fa 3d 69 57 c9 3d 87 08 1e 3e 46 fb 5f 3d
       0.12215112 0.09831125 0.1543294 0.054682992
0001b0 d3 99 3a 3d 03 15 21 3d 5d 42 1d bc d0 c6 18 3c
       0.045556854 0.03932668 -0.009598342 0.009324744
0001c0 06 2f 43 3d 89 08 0b 3c a4 5d c5 bc 9e 23 4c 3e
       0.047652267 0.008485922 -0.024092503 0.19935462
0001d0 d5 9d 12 3e 02 d9 71 bd 69 2a ce bd 7e fd d5 3d
       0.1431802 -0.059044845 -0.10066683 0.104487404
0001e0 61 11 e3 bc 98 ab 22 3e 80 f4 fb 3d c6 50 d9 3d
       -0.027718248 0.1588577 0.12302494 0.106111094
0001f0 5d e9 a4 3d 47 84 86 3d e8 3c 25 bd a8 b1 9f 3d
       0.08052323 0.06568199 -0.040341288 0.07797557
000200 21 01 ae 3d d0 1a 99 3d 25 fc 09 3c 67 92 06 3d
       0.08496309 0.07475817 0.008421932 0.032854464
000210 0e 35 8c 3d 3c 42 0d 3e db 2d 1b bd b9 88 ff 3c
       0.06846057 0.13794798 -0.037885528 0.031193124
000220 86 e8 44 bd a0 7a bc 3d 52 d4 c9 3d 54 39 25 3e
       -0.048073314 0.09203076 0.0985495 0.1613515
000230 c0 f6 4d 3d f4 3c 96 3c bd ff d3 3c ae b2 13 3d
       0.050284147 0.018339612 0.025878781 0.036059074
000240 3c 6e 8b 3c 89 de ca bb 22 d4 84 3d d7 08 fa 3d
       0.017020337 -0.006191079 0.064857736 0.12208717
000250 2c 22 ca 3c 81 f2 18 3e 44 24 2d 3d 6f 5e 83 3d
       0.024674498 0.14936258 0.042270914 0.06414496
000260 94 f1 10 3e cf c5 8b 3d e2 78 76 bd e3 94 37 bd
       0.14154655 0.06824838 -0.060173877 -0.044819724
000270 2a 11 ba 3d c4 ea 18 3e e3 f6 f4 3d c3 90 19 3e
       0.09085305 0.14933306 0.119611524 0.14996628
000280 17 a4 36 3d 9b d4 78 3d 66 25 f1 3d 83 eb 9e 3d
       0.044590082 0.06074963 0.11774711 0.07759764
000290 1d f6 9a bc 18 03 87 3d d9 85 03 3e fd 6d ce 3d
       -0.018916184 0.06592387 0.12844028 0.10079572
0002a0 ed f6 0d 3c 65 ef de 3d 19 17 ce 3d 35 d5 62 3d
       0.008664829 0.10885505 0.10062999 0.05537911
0002b0 c4 cd 91 3d e8 c7 05 bd 40 14 d2 bc 86 e4 03 3d
       0.07119325 -0.03266135 -0.025644422 0.03220036
0002c0 cc eb 04 bc 87 99 bc bc ba 4c 0e 3e 2d e7 87 bc
       -0.008112859 -0.023022426 0.13896456 -0.016589725
0002d0 97 8a 04 3e c8 29 c3 bc c9 8c 02 bc bc 1b f0 3b
       0.12943493 -0.023823634 -0.007968136 0.007327525
0002e0 0a 10 92 3d 89 55 83 3d 7a d1 2c 3e e1 a9 18 3e
       0.071319655 0.06412799 0.16876784 0.14908554
0002f0 0f 89 9d 3d 3e b6 f8 3d d0 12 47 3e 47 f8 05 bd
       0.076921575 0.12144135 0.1944077 -0.03270748
000300 c1 a3 93 3d a3 1a d5 3d 8d 77 a8 3d 14 0a 58 bd
       0.07208968 0.10405471 0.082259275 -0.052743986
000310 59 3c a1 3d 66 a8 0d 3e 72 fd f3 3d 0a 70 be 3d
       0.078728385 0.1383377 0.11913575 0.092987135
000320 78 d0 ad bd ce e0 86 bd f6 d8 37 bd fb ab c6 bb
       -0.08487028 -0.06585847 -0.044884644 -0.006062982
000330 d5 87 a6 bd c6 97 31 bd b5 25 be bd 7c 33 ae bd
       -0.08131377 -0.043357633 -0.09284536 -0.085059136
000340 63 c4 d7 bd 64 20 1b 3d 74 f4 48 3d 00 ca b3 bc
       -0.10535505 0.037872687 0.049061254 -0.021946907
000350 9b 2c 90 3c 96 12 34 bd 13 b3 88 bd 99 03 a0 bc
       0.017599395 -0.043963037 -0.06674781 -0.019532965
000360 ba fe 76 3c b3 1f 09 be 74 28 02 be fe c4 0f 3d
       0.01507538 -0.13390999 -0.12710744 0.035099976
000370 cf 3b 16 be 83 e7 96 3d 02 97 15 3e f5 ec 16 3e
       -0.14671253 0.07368376 0.14608386 0.1473883
000380 06 ac da bd 09 5b 26 bc 6e 8b 82 bb a1 3a 19 bc
       -0.10677342 -0.01015354 -0.0039839065 -0.009352357
000390 5f 00 b6 3d a3 ff 04 3e f8 3c 6b 3d d6 af d2 bd
       0.088867895 0.12988143 0.05743119 -0.10287444
0003a0 4b 34 63 bd 95 08 47 bd 87 07 f3 3d 31 bc 10 3c
       -0.055469792 -0.04859217 0.1186667 0.008833931
0003b0 67 95 63 bd ed 11 44 3d c2 f6 ff bd 68 dd 12 3e
       -0.055562403 0.047868658 -0.12498237 0.14342272
0003c0 ae 1e b4 3d 63 38 f0 bd 6d 92 f3 bd d0 f2 c1 3d
       0.08794914 -0.11729505 -0.11893163 0.09470141
0003d0 08 b3 a4 bc 70 16 c4 bd ef ee df bd 38 b3 ac bd
       -0.0201049 -0.09574592 -0.10934245 -0.08432621
0003e0 b0 a7 0b bd a9 9f f9 bd cc 8a be 3d 4d 2f c1 bd
       -0.034095466 -0.12188656 0.09303817 -0.0943285
0003f0 ee 47 f9 bc 88 bc 13 3d c5 f1 ba bd 60 39 7e 3d
       -0.030429807 0.03606847 -0.09128145 0.062066436

lstm_layer.bias_hh_l0 f4 [400]
000000 47 4e 4e bc 3b db ca 3b d8 a2 e8 3d de b5 cc 3d
       -0.012591905 0.006190685 0.11359185 0.09995626
000010 0b 01 5f 3d d1 01 b9 3c 56 56 a6 bc 57 53 55 bb
       0.054444354 0.022583874 -0.02030484 -0.0032550895
000020 9d ce c5 3c b2 42 da bc b7 79 ee bb 02 cc 6a 3d
       0.024146372 -0.02664313 -0.007277693 0.057323463
000030 ae 9c d6 bb 05 ca 51 3d c0 61 26 bd 07 f3 06 3e
       -0.0065494394 0.05121805 -0.040620565 0.13178645
000040 32 8e 05 3c 87 bd ca 3d bf 6e 6d 3c c1 37 10 3d
       0.008151578 0.09899431 0.014491736 0.03520942
000050 cc d7 36 3d 42 d5 a5 3d 6e 33 4e 3d b2 8b 9b 3c
       0.044639394 0.08097316 0.050342016 0.01898751
000060 bf 73 1f 3e b4 a9 5e bd e5 24 7c 3b 03 a5 88 bc
       0.15571497 -0.05436106 0.003847414 -0.016680246
000070 7d d8 c0 3d f4 b1 b2 3d da 0a 56 bc 79 be 15 3e
       0.09416292 0.08725348 -0.013064111 0.14623441
000080 a9 a7 19 3d 16 e2 8d bd 67 c6 f0 bc 1c 0b b3 bd
       0.03751341 -0.06927888 -0.02939148 -0.08742353
000090 31 7e 94 3d 41 32 77 3d 7d 81 0c bb 96 58 d2 3d
       0.072506316 0.06035066 -0.0021439486 0.10270803
0000a0 31 83 44 3d 70 60 02 3c 8a c6 69 3d 23 be 30 3b
       0.047976676 0.007957563 0.057074107 0.00269688
0000b0 48 66 d5 bc 05 ff bd 3d 42 ae f3 3d 14 70 e4 3d
       -0.026049748 0.09277157 0.118984714 0.1115419
0000c0 94 f5 3f bd a7 a4 b2 3d 64 5f ec bb c0 08 c6 3d
       -0.04686506 0.08722811 -0.00721352 0.09669638
0000d0 70 c2 cf bc e9 b3 06 3e 0b 7b 7b bd 8d 0a 43 bd
       -0.02536127 0.13154568 -0.06139664 -0.047617484
0000e0 5e ae a1 bd e9 c7 fb 3d 37 b4 65 bd 84 be 08 3a
       -0.07894586 0.12293989 -0.05608007 0.00052163773
0000f0 89 e8 71 3d aa c5 df 3d ca 90 27 3c 9c 0f 83 bc
       0.059059653 0.10926373 0.0102273915 -0.015998654
000100 f8 58 77 bd ce fc 06 3e 1e 50 1e bd 57 73 2f bd
       -0.06038758 0.13182375 -0.038650624 -0.042834606
000110 d8 90 0a 3d d2 8d c6 3d 38 00 c7 3d ae 10 f8 3c
       0.03382954 0.09695019 0.097168386 0.030281391
000120 b0 c5 94 bc 2c eb 9c 3d 1e c1 d8 3d 26 72 be bc
       -0.018160671 0.07662043 0.10583709 -0.02324779
000130 8a bb e5 bc c0 24 c2 3d 5e d5 05 bd 8a 3d d0 bc
       -0.028043527 0.09479666 -0.032674186 -0.02541997
000140 3a b8 ae 3c f8 21 0e 3e 5e a5 3f 3a 08 09 06 3e
       0.02132808 0.13880146 0.00073107134 0.13089383
000150 33 e8 ab bc b9 50 21 3c a9 af bf 3d 3d df 16 3e
       -0.020984745 0.009845906 0.093596764 0.14733596
000160 cb 07 79 3d 7b 57 cb 3d d1 f5 f6 3d c2 c7 ee 3d
       0.060798448 0.09928795 0.120586045 0.116591945
000170 f5 48 31 3c 39 c7 9d 3d e3 8e 9f bc d6 e8 ca bc
       0.010820617 0.07704014 -0.019477313 -0.024769228
000180 2a 13 93 bd 88 c6 72 3d 6e 66 8d bd 9e f1 09 3d
       -0.0718139 0.059271365 -0.069043025 0.03367769
000190 95 85 db 3d 1f d6 31 bc 67 65 3d 3d d7 63 04 bd
       0.10718838 -0.010854273 0.046239283 -0.032321777
0001a0 cd 4a 15 3d 35 f8 89 bd 62 7c 9d bc 4b 35 13 3e
       0.03644829 -0.06736795 -0.01922435 0.14375798
0001b0 7c 89 2f 3e 84 84 e5 bc e8 00 22 3e 2b 9e 1e 3e
       0.1714229 -0.02801729 0.15820658 0.15490024
0001c0 95 a2 c9 3d 8a 45 80 3d 45 13 fb 3d 3d ac 1a 3e
       0.09845463 0.062632635 0.12259535 0.15104766
0001d0 15 6e 9a 3c 32 68 0e 3d 5d 7a 65 bd 90 52 2c 3e
       0.01885132 0.034767337 -0.056024898 0.1682837
0001e0 af 47 e5 3d f6 3f 1a 3d 10 cd 8f 3b 6a d3 38 bd
       0.11195313 0.037658654 0.004388459 -0.045123495
0001f0 89 52 63 bc 6e 75 02 3e 81 bd c0 3d a7 00 17 bd
       -0.013874658 0.12740108 0.09411145 -0.036865856
000200 d7 63 8d 3d 11 de 7a 3d 94 43 98 3d aa a1 5d bd
       0.069038086 0.061246935 0.074347645 -0.054109253
000210 1f 59 a5 3d e5 72 4b 3d c4 6a 90 3c a0 f3 ac 3d
       0.08073639 0.04967012 0.017629035 0.08444905
000220 21 ec 13 3d 31 aa ca 3d 23 a8 92 3d 0d 4f c0 3d
       0.036113862 0.09895743 0.07160976 0.09390078
000230 37 51 aa 3d f0 e2 f6 3c ed 03 7c 3c c4 4b b5 3d
       0.08316272 0.03013751 0.015381795 0.08852342
000240 fe 30 b1 bd 0f 47 37 bc e2 59 2a 3d 55 e7 a9 bb
       -0.08651923 -0.011186375 0.041589625 -0.0051850476
000250 2d 2b fa 3b 17 90 ab 3d 68 6e 83 3d 5f 72 b3 bb
       0.0076345415 0.08377092 0.06417543 -0.0054762806
000260 ce 24 eb 3d 6b 08 3b 3e e9 62 1e 3c ba 88 25 bd
       0.11481629 0.1826493 0.009667137 -0.040413596
000270 62 54 e4 3d ef 4b 08 bc 38 79 be 3d 6b 80 16 3e
       0.11148907 -0.008318885 0.093004644 0.14697425
000280 00 f2 6d 3d e3 88 e3 3d 0f 8d 1e 3e 30 f9 47 3b
       0.058092117 0.111100934 0.15483497 0.0030513518
000290 5b 81 53 3d ba 3c 6b bd cc 52 2c 3c 1c d0 3c 3c
       0.051637035 -0.05743096 0.010517787 0.0115242265
0002a0 fb 34 67 3d 6d fa 5a 3d 28 0a 44 3d 76 a9 24 3e
       0.05644701 0.05346148 0.04786125 0.16080269
0002b0 14 04 57 bd ef 07 c4 3d 09 5c 04 bd ec 1d 17 3e
       -0.052494124 0.09571826 -0.032314334 0.14757508
0002c0 7c 10 f9 3d d0 57 aa 3d 31 69 b1 3d 1e de 23 bd
       0.12161347 0.0831753 0.08662642 -0.04000675
0002d0 57 28 db 3d 85 ac 8b 3d 91 cd 54 3d dd 7a c5 3d
       0.107010536 0.06820015 0.051953856 0.09642575
0002e0 1a 5a 7d 3d 01 c1 83 3c db ec 05 3e f1 9d 10 3e
       0.061853506 0.016083242 0.13078634 0.1412275
0002f0 ad 0b 08 3c 11 01 e0 3d f8 11 0c 3e d3 e5 9e bc
       0.008303565 0.109377034 0.1367873 -0.019396698
000300 91 f3 0b 3e c0 c1 85 3d d1 f8 a2 3d be 4b cc 3d
       0.13667132 0.065310955 0.07957614 0.09975384
000310 e4 c1 a5 3d 3d 4e 5f 3c 5c e9 97 3d 42 b5 a5 3d
       0.08093622 0.013629493 0.07417557 0.08091213
000320 82 71 fc bd c4 0f a5 bd b2 23 07 bd 09 33 47 bd
       -0.123263374 -0.08059648 -0.032993026 -0.048632655
000330 f0 4f a2 3d 79 4d ce 3d d0 2e 7f bc 1f d8 9e 3d
       0.07925403 0.100733705 -0.015575126 0.077560656
000340 eb 7e 05 3d 27 c1 fe 3d 1f 08 31 3c 0c 81 97 3b
       0.03259174 0.12439185 0.010805159 0.004623538
000350 99 d9 ac bd 4b 72 b5 3d 67 8b 96 bd 9f 95 c4 bd
       -0.08439941 0.0885969 -0.07350808 -0.095988505
000360 b0 75 b1 bc 8d 72 f8 bd 15 8e 1b bd 4b a3 f7 3d
       -0.021662563 -0.12131224 -0.037977297 0.120916925
000370 b2 aa b0 bd 96 de 81 3d 11 42 5c 3d 33 79 8c 3c
       -0.086263075 0.06341283 0.053773943 0.017147636
000380 7f 56 76 bc 38 39 4f 3c 36 3e 93 3d eb e7 ce 3d
       -0.015035271 0.012647919 0.071896 0.101028286
000390 38 60 89 bc 90 ec 8e 3d 93 c7 59 3c e4 7e 9e bd
       -0.016769513 0.069787145 0.013292211 -0.07739046
0003a0 1b 27 2e 3d 38 10 6b 3d 96 69 04 3e 59 36 69 bc
       0.042517763 0.057388514 0.12930903 -0.014234149
0003b0 8f 9f d5 bc 68 29 dc bd 6e 48 b8 bd d9 3e 48 3d
       -0.02607706 -0.10750085 -0.0899819 0.04888806
0003c0 7c 53 06 3e 7c a7 0f be 31 28 32 be fb c4 c0 3d
       0.13117784 -0.14028734 -0.17398144 0.09412571
0003d0 4b 1c 07 be cc d8 5b 3d 7f 9f b9 3c 35 d5 b8 3d
       -0.13194387 0.05367355 0.022659061 0.09025041
0003e0 8c f4 e7 3c 4c 76 0f bd d0 a6 4b 3d 9b aa 19 bd
       0.028314851 -0.035024926 0.04971963 -0.037516218
0003f0 5d d2 70 3d 37 a6 2f 3d 6e 3d a8 bd 5a 0f 59 3d
       0.058794368 0.042883124 -0.08214842 0.052993156

out_layer.weight f4 [100, 100]
000000 0a d1 3f 3d 1d 99 2b 3c 60 4b 9c 3d 0d 87 43 bd
       0.046830215 0.010473517 0.07631564 -0.047736216
000010 ea 6a 04 3e 8c 55 42 bd 12 4e c9 3d a0 c8 d0 3b
       0.1293141 -0.047444865 0.09829344 0.0063715726
000020 95 b4 70 3d 24 17 24 bc 2f 1e f6 3d e3 db 33 bd
       0.058765966 -0.010015283 0.12017476 -0.043910872
000030 9e 34 8e bd 09 54 f5 bd d2 d2 31 3c 5e cb 00 3d
       -0.0694363 -0.11978919 0.010853486 0.031443946
000040 2b 86 aa bd ca e8 ec bb a5 35 81 bd a2 0f 27 ba
       -0.08326372 -0.007229899 -0.0630906 -0.0006372874
000050 0d c7 5b 3e d2 db b8 3d c9 6b 5d 3d fc 2d 25 bd
       0.2146265 0.090263024 0.05405787 -0.040327057
000060 f9 02 82 3d f1 21 ab 3d d7 fe 75 bd e8 73 52 3d
       0.06348223 0.08356083 -0.060057487 0.051380068
000070 f1 83 b1 3b 47 a2 ce bd 6d 1c de 3d 70 56 81 bd
       0.00541734 -0.10089546 0.108452655 -0.06315315
000080 b1 3e bd bb 71 ca a1 3c 3b 7c d2 ba 2b 08 17 3e
       -0.0057752957 0.019749852 -0.0016058752 0.1474921
000090 21 8e 34 bd 16 62 6b 3d 36 42 9b 3c c4 5a df bd
       -0.044080857 0.05746659 0.01895247 -0.10905984
0000a0 db 42 16 3c f8 44 89 39 d2 f7 ec bd fb fd e4 bc
       0.009171213 0.00026182062 -0.115707055 -0.027953139
0000b0 9f 43 ba bd 60 59 34 bd 6f a1 82 3d 78 e7 24 bc
       -0.09094929 -0.044030547 0.06378447 -0.010064952
0000c0 ad 10 4d 3d 64 cb 9d bc de 21 0d 3d 8d e3 f6 bd
       0.05006473 -0.019262023 0.034456126 -0.120551206
0000d0 a8 a0 f0 bd 06 87 18 be 88 2d 6c bd 02 8b 56 bc
       -0.11749393 -0.14895257 -0.05766061 -0.0130946655
0000e0 da d2 16 3b 78 91 c5 3d c0 0a 27 bd 3a 8a b0 bc
       0.002301386 0.096468866 -0.040781736 -0.021550287
0000f0 0a 0f c7 3d e0 47 99 bd 9f 56 07 bd 69 41 c8 bc
       0.09719665 -0.07484412 -0.033041593 -0.024445252
000100 d1 58 e3 3b a4 d3 dc 3d 97 4e 86 3d 12 5f b4 3c
       0.006938078 0.10782555 0.065579586 0.02201799
000110 29 f2 59 3d 04 f8 93 bb d2 cf 82 3c 24 2b 01 3e
       0.053209458 -0.0045156498 0.015968237 0.12614113
000120 ef b1 d6 bb 53 4a 75 bd 0a 7a 4c bd ac 63 91 bc
       -0.006551973 -0.059885334 -0.049921073 -0.017747723
000130 9b 04 b0 bd 6e f2 09 be cc f6 60 3d c7 e5 03 be
       -0.085946284 -0.13471386 0.054922864 -0.12880622
000140 da c5 4c 3d 0d b7 9c 3c 0c a2 fc bd 24 19 08 bc
       0.049993373 0.019130254 -0.123355955 -0.008306775
000150 e9 9d 0c 3b 0c a1 1a be 5c b2 32 bd 3c 16 d0 3d
       0.0021456426 -0.15100497 -0.043627128 0.10160491
000160 de d7 14 bc dc 14 be 3b 0c e7 12 3d 2c f5 33 bd
       -0.00908467 0.0058008265 0.035864875 -0.043934986
000170 17 08 12 bd d0 a1 df 3d 47 61 f6 3d ee 42 22 bd
       -0.035652246 0.10919535 0.12030273 -0.03961461
000180 3e d7 e3 bd cd 9d 27 3d ff f6 84 bd 48 2e 97 3c
       -0.111250386 0.040921975 -0.06492423 0.018454686
000190 24 04 0a be 75 2a 85 3d d5 64 98 bc 1b a7 e5 bd
       -0.13478142 0.06502239 -0.018602768 -0.112135135
0001a0 c1 3e 88 3d a2 ef c0 3c 73 9e 30 be 5e 67 db 3b
       0.06652594 0.023551766 -0.17247944 0.006695672
0001b0 9e cb 94 bc f8 0a 96 3d 46 ff bb 3c b1 83 72 bd
       -0.018163498 0.07326311 0.022948872 -0.059207622
0001c0 fb 12 37 bc 24 6f 5a bd bd 56 3e bd fa 1a 36 bd
       -0.011173959 -0.05332865 -0.04646944 -0.04445932
0001d0 eb 65 99 bd a1 8e 84 3c bd 49 e4 bd 56 f3 50 3c
       -0.074901424 0.016181292 -0.11146877 0.012753328
0001e0 ed fe 0c 3d ff 52 6e 3c 44 26 cc ba eb c8 f5 bc
       0.034422804 0.014546155 -0.0015575369 -0.030003032
0001f0 8a 9f c5 bd 17 64 11 3e 75 4e d2 bc 20 2b 3a bc
       -0.0964957 0.14198337 -0.025672177 -0.011362821
000200 54 83 e5 bd f8 d7 17 bd ff eb bd 3d b0 c1 1d 3d
       -0.112066895 -0.0370712 0.09273528 0.038514793
000210 9b 7a a0 bd 25 7a c7 bd 82 7c 47 bd 42 e6 06 3e
       -0.07835885 -0.09740094 -0.048702724 0.13173774
000220 a6 2f e3 bc 67 b9 90 3d 7d 23 e9 3c bc 66 8c bd
       -0.027732681 0.07066613 0.028459305 -0.068555325
000230 bd c7 5b 3d 1c fb c6 bc b1 29 41 bd ac a6 92 3d
       0.053657282 -0.02428966 -0.0471589 0.071606964
000240 fc b3 22 3d 6f c2 c8 3d 25 35 77 3c 73 e1 9f bd
       0.039722428 0.0980271 0.015088354 -0.07806673
000250 2b 40 8e bd ea 57 1d bd 72 fb 0f 3d 1a 56 b6 bd
       -0.06945833 -0.03841392 0.035151906 -0.08903141
000260 ce 85 a6 bd 58 30 cc 3d 55 ce de bd 00 8d 6f bd
       -0.0813099 0.09970158 -0.108791985 -0.058484077
000270 70 f6 29 bd 54 64 db 3d 74 0f db bd 06 9a f5 ba
       -0.041494787 0.107124954 -0.10696307 -0.0018737919
000280 a4 21 85 3d 2a 42 fe 3c 9a fe 96 bd b9 d4 7e bd
       0.06500557 0.031037409 -0.0737278 -0.062214587
000290 59 19 10 bd eb a1 6c 3d 43 59 9c bd d7 df 90 3b
       -0.035180423 0.057771605 -0.07634213 0.004421215
0002a0 7c e9 38 bc 58 1e ae 3d f8 41 2b bd 0c 6b 0c 3e
       -0.011286136 0.08501881 -0.04181096 0.1371271
0002b0 cf b2 1e be 19 06 25 3d 3d 70 e5 bd 57 48 37 bd
       -0.15497898 0.04028902 -0.112030484 -0.044746723
0002c0 cb 7a 96 3d a7 85 a6 3d 67 d1 c8 3c 0d b4 22 bd
       0.0734764 0.08130961 0.024513913 -0.03972249
0002d0 0f fb 0d 3b 0d cd e8 3d 91 b8 c8 3d ef 2a cd 3d
       0.0021664535 0.11367235 0.09800828 0.100179546
0002e0 87 f1 1a 3d 6f fa 91 bd ed 04 43 3d 6c 48 c6 bc
       0.037827995 -0.071278445 0.04761212 -0.024204455
0002f0 f4 3b f3 bd 1c 0b 5b 3d 07 77 76 bd ad b6 42 bd
       -0.118766695 0.05347739 -0.060172107 -0.047537494
000300 b0 a5 09 3d 36 2a 96 3d 3c 78 b5 bd 02 e7 e4 3c
       0.033605278 0.0733227 -0.088608235 0.027942184
000310 19 8a 36 3c 4f 49 e6 3d ea 4f 04 be 8b 71 07 3d
       0.0111413235 0.11244451 -0.1292111 0.033067267
000320 60 9c 0e bd e2 16 3b bd 31 62 25 bc 89 af ac 3d
       -0.0348171 -0.04567612 -0.010094211 0.08431918
000330 0f b0 42 3d 18 4a 3f 3c bc aa 2a bd 58 ba f3 3d
       0.047531184 0.01167538 -0.04166673 0.119007766
000340 83 85 b3 3d c5 f1 dc bd 85 1f 42 bc 2b a1 c0 bc
       0.087657 -0.107883014 -0.011848335 -0.02351435
000350 97 ef 43 bd 41 21 07 bd 51 d3 05 be 3a fb c3 bd
       -0.047835913 -0.032990698 -0.13068892 -0.09569402
000360 9f e6 b5 bd 85 d8 bd bc 23 c7 55 bd 7a 6c 2c 3d
       -0.08881878 -0.023174534 -0.052191865 0.04209564
000370 46 26 c2 3d 85 4c 2a 3d 1b 64 46 bd 11 f1 24 bd
       0.09479956 0.04157688 -0.04843531 -0.04026896
000380 19 1d bd bd 87 54 00 bd 7d bd 0f bc 45 40 3b 3d
       -0.092340656 -0.03133061 -0.008773205 0.04571559
000390 e0 09 82 b9 7f 3f 3b bd 97 4e 3b bd 2d 81 d0 3b
       -0.0002480289 -0.04571485 -0.045729246 0.006363055
0003a0 49 47 0a 3d 4a 1b b1 3c 5d 80 82 bb da 33 dd 3d
       0.03375939 0.021619458 -0.0039825873 0.108009055
0003b0 ae 0e ab bd 46 25 07 be db 56 d7 bc dc dd 36 3d
       -0.08352409 -0.13197812 -0.026286533 0.044645175
0003c0 db c5 08 3d 15 a1 9f 3d 5b 2e 89 bd fc db 73 3d
       0.033391815 0.07794396 -0.06698295 0.059535965
0003d0 d5 e8 40 bd 14 c7 09 3e b7 8e 9d 3d 1b 13 c7 bc
       -0.047097046 0.13454849 0.07693236 -0.024301102
0003e0 0c 44 09 3d 82 bf 8c bc 6a 61 f9 bd 7b b6 35 3d
       0.03351216 -0.017181162 -0.121767834 0.04436348
0003f0 d4 d8 88 3d 96 f2 21 bd 30 be e1 3d b9 c9 92 3c
       0.06681982 -0.03953799 0.110226035 0.017918454

out_layer.bias f4 [100]
000000 b8 02 eb bc ad 68 93 bc 57 0f ae bc a8 73 87 3d
       -0.02868782 -0.01799425 -0.021247549 0.066138566
000010 23 4b c7 3c d8 48 2c bc 64 07 a4 3d a6 fa 21 bb
       0.02432782 -0.010515414 0.08009222 -0.0024716049
000020 57 a2 0a bc cc 1b 1a bc 12 d0 09 3d fa 90 f2 bc
       -0.008461556 -0.009406041 0.033645697 -0.029610146
000030 7a 3a f6 3c e2 f5 6f bd 16 54 ac 3d 9f 53 ce 3d
       0.03005718 -0.0585841 0.084144756 0.10074543
000040 d5 94 9b 3d 95 67 03 bd f2 82 b4 bb 81 f1 e6 3d
       0.07596747 -0.032081205 -0.005508774 0.11276532
000050 11 d3 97 3d 46 a2 9f 3d 53 0e 88 3c 61 01 f1 bc
       0.074133046 0.07794623 0.016608393 -0.029419603
000060 0b 54 2f 3d 85 5b 2f bd af 73 0c 3e d5 7c b8 3d
       0.04280476 -0.04281189 0.13716005 0.09008185
000070 47 0a 82 3d 1c ce fb ba 59 29 6b bc 99 3a 16 3d
       0.063496165 -0.0019211206 -0.01435312 0.036676977
000080 3e c9 a1 3b e6 73 e1 3d 44 3b d9 3d cc aa 86 bc
       0.00493732 0.11008434 0.10607007 -0.016438864
000090 c6 f6 cc bc fe 85 8e 3c 6f 42 f8 3d ec 31 93 bc
       -0.025020014 0.017397877 0.12122046 -0.01796814
0000a0 90 9d ac bb 58 cc 69 3d cc f1 c0 3d 39 ed 0e bc
       -0.0052678064 0.057079643 0.09421119 -0.0087235505
0000b0 38 7b 22 bd a9 66 c3 3d 9e 54 60 3d a4 07 17 3e
       -0.03966829 0.09541065 0.054768197 0.14749008
0000c0 56 c2 18 3d 39 fa 87 3d 97 e5 99 3d ee f7 8e 3d
       0.03729471 0.06639523 0.07514494 0.069808826
0000d0 0f 8c a9 bd 08 3e 19 3e 1a eb 27 3e 8c c8 fd 3c
       -0.08278667 0.1496507 0.16398278 0.030979417
0000e0 66 05 56 3d 63 33 b0 bd 21 e4 8f 3c c9 d9 62 3c
       0.052251242 -0.08603551 0.017564835 0.013845869
0000f0 cd d6 23 3d 64 ff 33 bd 0d ed c8 bc 9c 7b 8a 3d
       0.039999772 -0.04394473 -0.024527097 0.06761858
000100 3c cf 0b bd 62 a0 42 bc fc a4 fc 3c 62 4f 77 bc
       -0.03413318 -0.011879059 0.03084039 -0.01509461
000110 4c 52 dd bd 7a 94 90 3d 6f cc 9a 3d ae 7f 2b bc
       -0.108067125 0.0705957 0.07558524 -0.010467453
000120 26 09 d4 3d 0f 96 34 3e c6 18 d2 3d 7e dd 0f bc
       0.103533074 0.17635368 0.102586314 -0.008780835
000130 1d ec f4 3c 96 45 1e bc 74 1e 46 bd 10 7e e6 3c
       0.029897744 -0.009660145 -0.048368886 0.028136283
000140 16 65 e0 bc 96 a4 97 bd 84 74 ac 3b 3b dc b8 3d
       -0.027391952 -0.07404439 0.005262913 0.09026381
000150 df bf 1a bb d4 cc b7 3d b6 b9 ef 3c df 17 fc 3d
       -0.00236129 0.08974615 0.029263359 0.123092405
000160 11 9e f9 3d 14 be 69 bb fb 95 f4 3d ab 79 fd 3d
       0.12188352 -0.0035666274 0.11942669 0.12376722
000170 33 df 0c bd 8e 40 e2 bc 14 2b 7f 3d 27 94 11 bd
       -0.034392547 -0.027618673 0.062296942 -0.03554168
000180 b7 7c 3c 3d be a7 a9 3d 49 a8 f4 bd 2b dc 8a 3c
       0.046017375 0.082839474 -0.1194616 0.016950687
