ckpts/dkt/ass09/model.ckpt (torch, 651479 bytes, 9 tensors)

interaction_emb.weight f4 [298, 100]
-1.467348 0.65055716 1.3458223 0.37741938 0.56143224 1.6105568 -0.6090394 0.7337532
-1.3097624 -0.99554235 0.44084668 -1.6552099 0.5009941 1.2784488 -1.4586548 0.9688837
-0.8411823 -0.79571366 1.1282954 2.1091003 -0.043422405 -0.13048854 0.8286951 1.2493415
-1.4235936 -0.84810954 -1.3591337 -0.7272784 -0.18171309 -1.2171798 -1.1635027 -0.3250133
-0.13859597 -0.6253787 0.3417555 0.021758871 0.43645242 1.4749768 0.022582056 0.3715583
0.5480662 0.7991361 -0.054940097 -1.7754253 -0.20728646 -0.77440304 0.18117805 2.1146848
1.565143 2.5511262 -0.70918113 -0.84385836 -0.2257162 -1.3874853 0.21018754 0.0042460286
-1.1435362 0.7255028 1.5689154 -1.5595033 -0.27083197 -1.4480067 -2.7690773 1.0011013
-0.50264156 -1.2904932 -0.009032919 -2.1338327 -0.9427153 1.5410523 0.66825384 -0.69949126
0.46056592 -1.3069382 -0.22856818 0.36593336 2.4235802 -0.83293617 -0.24842727 -0.006401362
-1.9939059 -0.5734456 0.6054604 0.42478064 -1.8590461 1.2914722 -1.3205936 -1.077866
-0.3990157 -0.9588778 0.59874225 0.10118548 0.54384255 0.7917533 -1.8421507 -0.7068084
-0.933568 -0.8959661 0.06262846 -0.8134107 1.3063867 -1.1874005 -0.12326068 -0.26793563
-2.1397223 -0.63694453 0.18068238 -0.42648357 -2.1005175 -0.20365061 -1.17831 -0.2899781
-0.3226782 -0.54663444 0.28194684 -0.94545025 0.47207934 -1.1673752 -0.64649546 0.23850434
-0.19080347 -1.1312073 -0.5972881 -0.33020544 -0.7659074 -0.33433992 0.9583724 -0.49553546
0.6817658 -1.9395001 0.83874816 0.50358576 -0.993166 -0.40282133 -0.75154155 -0.6537985
1.0273951 0.38599938 0.95064646 -0.38628575 -0.6305037 1.1906916 -0.3070563 -1.1948277
-0.4435193 0.84221977 -1.9871348 -0.43776664 1.7919717 0.70469403 -0.4317382 -1.0523775
-0.950912 -0.06922236 1.1185199 -1.9667889 -1.093702 0.61212605 1.6227516 -1.3560199
0.50560975 -2.4709988 0.009061373 0.77688456 -0.03709423 -1.2442344 0.7917088 -1.0867743
-0.88148516 -0.32492352 0.59938383 0.27315068 1.7182674 0.23087114 0.9609074 -1.7152463
-0.5256114 0.19969149 1.4435092 -0.8580993 -0.724228 -1.0903797 -1.7839767 -0.6112992
0.041026533 0.66433376 0.7958399 -0.5788296 0.12772408 -0.27949244 -0.71290314 1.4057508
0.057290103 1.5195775 1.3174479 -0.714048 0.9809558 -1.166065 -0.6025688 1.0684879
0.96318144 0.6980135 -0.105229504 0.98184985 -1.083039 0.9439617 0.30767488 0.73413414
-1.408289 -1.9604924 -0.7084909 0.43267512 -2.5121088 0.05037711 -0.54081166 1.4354055
-0.15200835 -1.5167769 -1.2911657 1.1644272 -0.11864525 -0.8542375 0.078944474 0.5793754
0.11258634 -1.3107934 -0.5055369 -1.5625367 0.6336749 0.14838819 0.76017386 0.062035523
-1.266694 -0.20906244 0.4255751 1.558908 -0.54928243 2.5960932 -0.48855188 0.1749672
-0.6633509 0.33554438 -0.10561431 -1.6523511 -0.42668724 0.02339922 0.014632211 -0.9812811
0.5975858 0.31233835 0.0012010544 -1.045723 1.3061869 1.039636 -0.2308068 0.25462553
00000000: 0fd2 bbbf ea8a 263f e843 ac3f 1d3d c13e
00000010: 06ba 0f3f ba26 ce3f 02ea 1bbf 40d7 3b3f
00000020: 4ba6 a7bf dddb 7ebf a8b6 e13e ebdd d3bf
00000030: 2641 003f 36a4 a33f 33b5 babf c308 783f
00000040: b957 57bf e4b3 4bbf fc6b 903f 80fb 0640
00000050: b1db 31bd ca9e 05be 5d25 543f 6cea 9f3f
00000060: 5138 b6bf b51d 59bf 18f8 adbf eb2e 3abf
00000070: ff12 3abe 8ccc 9bbf a8ed 94bf 2568 a6be
00000080: 1aec 0dbe d218 20bf 94fa ae3e a93f b23c
00000090: b176 df3e 0acc bc3f 01fe b83c e43c be3e
000000a0: 114e 0c3f 2f94 4c3f de08 61bd 2341 e3bf
000000b0: e742 54be 473f 46bf bd86 393e ff56 0740
000000c0: 9b56 c83f a745 2340 e58c 35bf 1a07 58bf
000000d0: 2622 67be 1e99 b1bf 673b 573e 4522 8b3b
000000e0: 655f 92bf 8dba 393f 38d2 c83f ce9d c7bf
000000f0: 7daa 8abe 4958 b9bf 9038 31c0 1624 803f
00000100: 1ead 00bf e22e a5bf cffe 13bc b790 08c0
00000110: ca55 71bf 3441 c53f af12 2b3f dc11 33bf
00000120: 4ccf eb3e c049 a7bf c70d 6abe 9e5b bb3e
00000130: f01b 1b40 4e3b 55bf b863 7ebe 84c2 d1bb
00000140: 4f38 ffbf 55cd 12bf 74ff 1a3f d97c d93e
00000150: 39f5 edbf f64e a53f 3609 a9bf 83f7 89bf
00000160: c94b ccbe 0479 75bf 2c47 193f 553a cf3d
00000170: 4439 0b3f 58b0 4a3f 98cb ebbf 65f1 34bf
00000180: 50fe 6ebf 095e 65bf 5a43 803d af3b 50bf
00000190: ae37 a73f bdfc 97bf 1870 fcbd dc2e 89be
000001a0: 36f1 08c0 cc0e 23bf cd04 393e 0e5c dabe
000001b0: e16e 06c0 c989 50be ddd2 96bf 0278 94be
000001c0: 1436 a5be 3cf0 0bbf 565b 903e 0709 72bf
000001d0: 62b4 f13e 8d6c 95bf ba80 25bf 7b3a 743e
000001e0: fc61 43be 67cb 90bf dfe7 18bf b010 a9be
000001f0: 8212 44bf 9a2e abbe e557 753f d3b6 fdbe
00000200: 3488 2e3f 8a41 f8bf 33b8 563f ffea 003f
00000210: 2140 7ebf 993e cebe 0765 40bf 575f 27bf
00000220: af81 833f b6a1 c53e 915d 733f 3fc7 c5be
00000230: b168 21bf 9568 983f 7c36 9dbe 1df0 98bf
00000240: f614 e3be b79b 573f 6f5a febf f322 e0be
00000250: 545f e53f d466 343f ca0c ddbe 4eb4 86bf
00000260: f86e 73bf 74c4 8dbd a92b 8f3f bdbf fbbf
00000270: 6dfe 8bbf 4bb4 1c3f 53b6 cf3f 0f92 adbf
00000280: a46f 013f d824 1ec0 2776 143c e8e1 463f
00000290: 1ff0 17bd 1343 9fbf 6ead 4a3f 6c1b 8bbf
000002a0: 03a9 61bf 605c a6be 3871 193f 68da 8b3e
000002b0: 30f0 db3f 7c69 6c3e 07fe 753f 318d dbbf
000002c0: 788e 06bf ed7b 4c3e e9c4 b83f 65ac 5bbf
000002d0: 0267 39bf 9091 8bbf 5959 e4bf 1b7e 1cbf
000002e0: 700b 283d c711 2a3f 2abc 4b3f 2d2e 14bf
000002f0: 1aca 023e a219 8fbe d280 36bf a4ef b33f
00000300: 07a9 6a3d 8481 c23f 22a2 a83f dacb 36bf
00000310: eb1f 7b3f 9e41 95bf f341 1abf 36c4 883f
00000320: 0f93 763f 03b1 323f 9182 d7bd 835a 7b3f
00000330: 06a1 8abf 79a7 713f 9087 9d3e 37f0 3b3f
00000340: d042 b4bf 6af1 fabf a95f 35bf 9887 dd3e
00000350: 64c6 20c0 3a58 4e3d a272 0abf 5ebb b73f
00000360: 14a8 1bbe bf25 c2bf eb44 a5bf f30b 953f
00000370: 48fc f2bd 4faf 5abf a4ad a13d f251 143f
00000380: ab93 e63d 14c8 a7bf de6a 01bf 3401 c8bf
00000390: 8538 223f 13f3 173e c19a 423f f618 7e3d
000003a0: 0723 a2bf 7714 56be fbe4 d93e 4c8a c73f
000003b0: c69d 0cbf 6426 2640 7923 fabe 9a2a 333e
000003c0: 5dd1 29bf 79cc ab3e 514c d8bd 3e80 d3bf
000003d0: c076 dabe b9af bf3c f1bb 6f3c 3d35 7bbf
000003e0: 62fb 183f d0ea 9f3e b36c 9d3a 40da 85bf
000003f0: 2231 a73f cb12 853f 9e58 6cbe 475e 823e

interaction_emb_a.weight f4 [360, 100]
-0.21940081 0.7245489 0.9341926 1.432091 -1.3247415 1.4724853 0.022769667 0.08742744
1.3340217 0.6192115 0.067602254 0.7768274 -0.5097477 -0.6121606 -0.22372063 0.45447046
-0.39492184 1.2258245 0.24910402 -1.847296 0.80288094 -1.1778549 1.2720221 -0.77075976
0.94964993 1.2397044 0.59788865 -0.45309228 -1.9844006 0.20831227 -0.96626925 -0.48273602
0.87543887 -2.496606 -1.5778844 0.4979978 -0.8777063 -0.45739135 0.506378 -0.43992004
-0.43601727 0.41823772 -0.66710836 1.1257906 0.21312496 1.0309885 0.3364923 -0.20953535
-0.69381905 -0.48250318 1.2270008 -0.9052149 0.36427206 0.31729642 0.10956066 -0.42478248
-0.34140134 -2.229852 0.80715925 -0.69799924 -0.4078094 0.46203327 -1.4108956 -0.25962234
-0.6774438 -1.8008575 -0.95357573 -0.057007406 -0.77230537 -2.2915134 -0.58208734 0.5948938
-0.27473307 -0.54829 -0.50414634 -1.2507061 0.52341515 1.1217066 -0.24961899 0.22229014
0.68767947 -1.1535606 0.7254977 -2.5006058 -0.5935853 0.15705149 0.620061 0.43451363
0.0123963775 0.2508724 0.8791364 -0.13265337 0.8562125 1.6770464 0.7646885 -0.6408809
0.5029043 2.977185 1.0764782 -0.078993365 -0.6349446 -0.71672225 1.4207971 0.7401674
1.9570193 -0.46152827 -0.83784163 0.12851362 -1.2225714 -0.32116434 1.3012059 0.69879735
1.448674 0.65721583 0.098774366 0.62532794 0.069621444 0.041786823 1.4786768 -0.9396656
-0.74746233 0.52238744 0.13635246 1.155973 -0.32674327 -0.02939148 2.01901 0.69408524
0.12474522 -0.62934226 -1.1199098 0.6628106 0.57023466 -0.86091965 0.5626291 -1.3069335
0.86666524 1.0278355 0.774099 -1.0866401 0.5220619 1.1850628 0.07270143 -1.6583393
0.20786008 1.8992823 -1.8729893 -0.83126295 2.6546128 -1.2945862 -0.4233296 1.4283017
-1.8862324 0.7374013 -2.471482 0.20310262 -0.60116947 0.5405744 -0.5024691 0.941102
2.7372918 0.9349393 0.57273173 -0.30980548 1.8205327 -0.94937414 -0.08071656 1.3843092
2.2176156 0.92613333 -0.2543795 -0.13545705 1.8090065 1.8538063 0.15474185 0.41158083
-1.2981983 0.2069854 0.38400158 1.9409977 -0.02423667 -1.0426399 -0.6384821 -0.15140785
-0.17456004 -0.96912026 0.5139078 -0.31469545 0.16804501 -1.9571936 0.8485698 -0.6195795
-0.8299102 0.7231676 -0.37794027 0.15881236 -1.0413126 -0.11105882 -0.9896733 0.70595026
-0.2018707 -0.76354724 1.126185 -0.9282616 -1.9823217 1.0703433 0.68857753 1.5298889
1.1138742 0.68212384 0.6454089 -1.9602395 -0.48652732 -0.53230923 -0.054227993 -0.22157294
-0.6021649 1.6431195 -1.1612654 0.076454066 -1.3136072 1.9104308 0.09435777 0.7718425
0.87072074 -1.050638 0.5119501 0.41590047 -1.4704318 -0.027448194 0.4851909 0.6727539
-2.8031082 -0.41043755 1.016512 0.045394022 0.8790382 -0.47774646 0.5073709 1.8910646
-1.9208516 1.552564 2.3495543 -1.481039 1.3331171 1.4154052 -0.6178391 -1.9625337
-1.1086481 -0.85624135 1.0951431 -1.3184493 -0.3219885 0.4195645 1.1333913 1.3416339
00000000: 9baa 60be 097c 393f 3f27 6f3f c24e b73f
00000010: 2191 a9bf 667a bc3f 7487 ba3c 280d b33d
00000020: 39c1 aa3f a584 1e3f 0d73 8a3d 29de 463f
00000030: d37e 02bf 8fb6 1cbf 0517 65be 5ab0 e83e
00000040: 3233 cabe d1e7 9c3f 2015 7f3e 3274 ecbf
00000050: 9b89 4d3f f3c3 96bf 9fd1 a23f 8350 45bf
00000060: 421c 733f a2ae 9e3f 3b0f 193f b6fb e7be
00000070: d700 febf d04f 553e 6c5d 77bf 2d29 f7be
00000080: c31c 603f 65c8 1fc0 1ef8 c9bf 91f9 fe3e
00000090: 5cb1 60bf 332f eabe fda1 013f 333d e1be
000000a0: a83d dfbe 4123 d63e 9dc7 2abf e819 903f
000000b0: 6e3d 5a3e 6ef7 833f b848 ac3e 6f90 56be
000000c0: 209e 31bf a80a f7be 5d0e 9d3f 2abc 67bf
000000d0: de81 ba3e ad74 a23e 5761 e03d 177d d9be
000000e0: 28cc aebe e5b5 0ec0 fda1 4e3f 14b0 32bf
000000f0: 65cc d0be a08f ec3e 3a98 b4bf 38ed 84be
00000100: f56c 2dbf 8082 e6bf 8a1d 74bf 9980 69bd
00000110: ceb5 45bf 28a8 12c0 ad03 15bf f64a 183f
00000120: d0a9 8cbe bc5c 0cbf bc0f 01bf 2317 a0bf
00000130: 89fe 053f 1594 8f3f 1f9c 7fbe 07a0 633e
00000140: c30b 303f e0a7 93bf 38ba 393f ed09 20c0
00000150: 35f5 17bf 1bd2 203e 51bc 1e3f 9278 de3e
00000160: 2d1a 4b3c 5972 803e 150f 613f 49d6 07be
00000170: be30 5b3f 75a9 d63f a0c2 433f c510 24bf
00000180: 56be 003f 338a 3e40 0aca 893f 46c7 a1bd
00000190: bb8b 22bf 1c7b 37bf aedc b53f 9c7b 3d3f
000001a0: 9c7f fa3f 6f4d ecbe ca7c 56bf 1399 033e
000001b0: 387d 9cbf a76f a4be ea8d a63f 62e4 323f
000001c0: 266e b93f 4c3f 283f 374a ca3d 7e15 203f
000001d0: b095 8e3d a928 2b3d 4845 bd3f ed8d 70bf
000001e0: b159 3fbf 2fbb 053f fb9f 0b3e ecf6 933f
000001f0: e54a a7be 67c6 f0bc 7637 0140 92af 313f
00000200: 6c7a ff3d 931c 21bf 3459 8fbf f5ad 293f
00000210: e6fa 113f 3b65 5cbf 7608 103f 9949 a7bf
00000220: c6dd 5d3f 1d90 833f 5a2b 463f 0617 8bbf
00000230: d9a5 053f 23b0 973f 7de4 943d 7644 d4bf
00000240: 46d9 543e af1b f33f 1dbe efbf a6cd 54bf
00000250: 2de5 2940 00b5 a5bf a8be d8be 97d2 b63f
00000260: 1070 f1bf 55c6 3c3f c32c 1ec0 22fa 4f3e
00000270: 3ee6 19bf 1563 0a3f d1a1 00bf 10ec 703f
00000280: ca2f 2f40 2f58 6f3f 8c9e 123f d39e 9ebe
00000290: 3707 e93f 2f0a 73bf b94e a5bd 0b31 b13f
000002a0: 6aed 0d40 1317 6d3f 083e 82be 41b5 0abe
000002b0: 868d e73f 8649 ed3f a674 1e3e b9ba d23e
000002c0: 5d2b a6bf fbf3 533e db9b c43e 9d72 f83f
000002d0: fb8b c6bc 3975 85bf 9073 23bf a90a 1bbe
000002e0: debf 32be 4418 78bf 768f 033f c31f a1be
000002f0: fe13 2c3e 5285 fabf df3b 593f c39c 1ebf
00000300: ff74 54bf 8321 393f 6381 c1be b59f 223e
00000310: bb49 85bf ce72 e3bd 3b5b 7dbf 28b9 343f
00000320: 31b7 4ebe d577 43bf d526 903f 8da2 6dbf
00000330: b8bc fdbf 0201 893f 9e46 303f 66d3 c33f
00000340: 6e93 8e3f ab9f 2e3f 8539 253f 21e9 fabf
00000350: 1c1a f9be 6b45 08bf 2c1e 5ebd 04e4 62be
00000360: 7b27 1abf bd51 d23f 58a4 94bf f393 9c3d
00000370: 4824 a8bf ff88 f43f a63e c13d 7897 453f
00000380: 8ee7 5e3f 4e7b 86bf 290f 033f e8f0 d43e
00000390: 1c37 bcbf 09db e0bc f16a f83e 9939 2c3f
000003a0: 2066 33c0 df24 d2be 111d 823f 15ef 393d
000003b0: a608 613f 2f9b f4be 0fe3 013f 680e f23f
000003c0: 77de f5bf 6bba c63f 195f 1640 b092 bdbf
000003d0: 95a3 aa3f ff2b b53f b42a 1ebf 4e34 fbbf
000003e0: 2ee8 8dbf a232 5bbf a62d 8c3f f2c2 a8bf
000003f0: addb a4be 28d1 d63e f712 913f a9ba ab3f

interaction_emb_b.weight f4 [6, 100]
-0.027799504 0.7070536 1.5734543 -0.2595133 -0.77803004 1.3885543 -0.33062732 -0.22424994
-1.5125657 -0.577446 -0.7145975 0.24498032 0.7452011 -0.11521004 1.235565 0.2890485
-0.098488495 -0.23030141 -1.0487939 -0.7397176 1.7731166 0.040932067 -1.01202 -2.5516224
-0.24930087 0.6821259 0.55309266 -2.2390745 0.16553761 0.11952323 -1.4347495 -0.48752975
0.3876715 -0.9119597 -0.5102841 -0.01238682 -0.82023054 0.08932456 0.23170932 -0.1632765
-0.19325282 -0.43572062 -0.58612496 0.27408415 1.858632 0.6090263 1.9511359 -2.2060604
-0.778036 0.31407478 0.3736083 -1.0898501 0.16338038 0.95777816 -0.9969475 -1.0906098
1.1502134 -1.2703884 0.6236734 -1.022919 -0.011658345 -3.0913546 -1.2713583 0.16878858
-1.1577895 0.14840885 -0.5795848 0.6066344 0.29251325 -0.94605285 1.2565862 -1.915652
-0.9438684 -1.0121353 -0.6422507 -0.6709773 -0.7170653 0.5598949 -0.95496464 0.8050865
-1.1110479 0.1019216 -0.6351724 0.73566383 0.5690709 -0.028839238 0.6200639 -0.94117177
-0.9215151 -1.1161603 -1.0627906 -0.069896154 -0.6049941 0.42315906 -1.6899047 -0.41271803
2.481294 0.72596985 -0.6752469 -1.3368813 1.8970504 -0.19393589 0.71692383 0.056311317
-0.5013058 0.5858804 -0.9421752 0.45742476 -0.802281 0.81905097 0.10951983 0.7517666
-0.82841647 -0.81509936 -0.4421451 0.15237921 -0.5211226 0.857279 0.091465585 0.6173181
1.1524957 -2.1641226 -1.4946486 -1.1194254 0.90868926 -0.20206982 2.49849 0.6676524
-0.5873623 -1.7131475 -0.33657283 0.714812 0.3805 0.7027408 0.59772015 0.84863037
-1.2720562 0.23756231 -0.1771217 -0.98196024 -1.6781467 0.2190599 0.048729327 -0.0967356
-0.57685596 -1.3288103 2.1444082 -0.2064306 0.3072444 -0.37096006 -1.267936 -0.3489102
0.5348109 -0.46302944 -0.5584685 -0.2371835 0.18417326 -0.3695412 -0.46268833 -0.38440573
-0.21162702 2.3168275 1.0085175 -1.5280541 -0.796021 2.1642382 0.2370872 -0.8592137
-0.21938072 -1.1032181 0.5266851 0.08021808 -0.65971714 0.41789594 -2.9725773 1.7348008
1.1809283 0.29254645 -0.3163273 -0.40814087 -0.8621356 1.4674596 -0.57718474 -1.1259254
-0.71030873 -1.1964676 1.1625855 0.38113332 2.8543248 0.28336614 -0.5066389 -0.8303127
-0.41066778 1.0942137 2.80204 1.5763855 1.3051409 1.0073491 -0.95910907 -0.548842
0.8797203 1.1382517 -0.53686506 -0.89349824 0.15300463 0.65983427 0.44761086 0.454816
-0.22027335 -1.2403916 2.0510242 0.07298785 -0.56512076 -1.5254406 1.4027985 0.6567845
0.84690684 -0.08743337 1.007252 -0.11267061 -0.8205173 1.2755812 -1.0620021 1.2606415
-1.1848662 0.07830571 -0.32270962 -0.30132198 -0.56381214 -0.28152004 -1.320233 1.3291483
-0.30048057 -1.5960488 -0.45763788 0.06607932 0.67298084 -0.08097554 1.906287 -0.030857956
-0.71458036 -0.7219783 -1.3412523 -0.42632157 -0.045083392 -1.1288366 1.1325023 2.1220064
0.3709628 -0.49815142 0.24617697 -2.3757222 -0.8463662 -0.4637021 -0.078864574 1.573883
00000000: c9bb e3bc 7701 353f f366 c93f edde 84be
00000010: fa2c 47bf 26bc b13f fc47 a9be c7a1 65be
00000020: c19b c1bf 80d3 13bf ddef 36bf 1fdc 7a3e
00000030: 80c5 3e3f 3ef3 ebbd fe26 9e3f 2afe 933e
00000040: 56b4 c9bd 22d4 6bbe e13e 86bf 225e 3dbf
00000050: 7cf5 e23f 62a8 273d df89 81bf c84d 23c0
00000060: ba48 7fbe ce9f 2e3f 7b97 0d3f ff4c 0fc0
00000070: b182 293e 98c8 f43d dfa5 b7bf 809d f9be
00000080: e17c c63e 3176 69bf fba1 02bf 17f2 4abc
00000090: a1fa 51bf cbef b63d 3545 6d3e f431 27be
000000a0: 11e4 45be c616 dfbe 490c 16bf c254 8c3e
000000b0: a7e7 ed3f 26e9 1b3f d2be f93f 1830 0dc0
000000c0: 5e2d 47bf 69ce a03e 9649 bf3e 3580 8bbf
000000d0: 304d 273e f330 753f f437 7fbf 1a99 8bbf
000000e0: 313a 933f 169c a2bf 0fa9 1f3f 03ef 82bf
000000f0: a502 3fbc c1d8 45c0 debb a2bf ead6 2c3e
00000100: 7232 94bf 7df8 173e ab5f 14bf 644c 1b3f
00000110: 4cc4 953e 8530 72bf d1d7 a03f 1634 f5bf
00000120: 5ca1 71bf a68d 81bf 8b6a 24bf 2bc5 2bbf
00000130: 9791 37bf 4655 0f3f 9078 74bf 261a 4e3f
00000140: d136 8ebf 46bc d03d a99a 22bf 7754 3c3f
00000150: a1ae 113f 4440 ecbc 82bc 1e3f a2f0 70bf
00000160: 6ae8 6bbf 57de 8ebf 8609 88bf b725 8fbd
00000170: e5e0 1abf 4ea8 d83e cc4e d8bf c74f d3be
00000180: 85cd 1e40 29d9 393f fbdc 2cbf ed1e abbf
00000190: 8cd2 f23f 2197 46be 5288 373f b2a6 663d
000001a0: 9455 00bf 42fc 153f 6532 71bf 9433 ea3e
000001b0: 4a62 4dbf 53ad 513f ef4b e03d c773 403f
000001c0: 1a13 54bf 5aaa 50bf d860 e2be 4c09 1c3e
000001d0: 4a68 05bf a376 5b3f 4f52 bb3d 8f08 1e3f
000001e0: fb84 933f fc80 0ac0 a550 bfbf 5549 8fbf
000001f0: dc9f 683f 64eb 4ebe 43e7 1f40 45eb 2a3f
00000200: 605d 16bf 6b48 dbbf 4653 acbe ebfd 363f
00000210: e5d0 c23e d2e6 333f 3004 193f d73f 593f
00000220: bdd2 a2bf 8943 733e 645f 35be bf61 7bbf
00000230: 83cd d6bf 3d51 603e 6798 473d 501d c6bd
00000240: d5ac 13bf 7516 aabf fc3d 0940 8b62 53be
00000250: 234f 9d3e 7aee bdbe ba4b a2bf 5ca4 b2be
00000260: 5ee9 083f 3212 edbe cbf7 0ebf 3be0 72be
00000270: ea97 3c3e 8134 bdbe 7ce5 ecbe d4d0 c4be
00000280: c1b4 58be e746 1440 1a17 813f 4797 c3bf
00000290: 08c8 4bbf e182 0a40 fdc6 723e 6ef5 5bbf
000002a0: 57a5 60be 4036 8dbf d6d4 063f 6049 a43d
000002b0: 39e3 28bf 75f6 d53e b53e 3ec0 f40d de3f
000002c0: a928 973f a6c8 953e a7f5 a1be d7f7 d0be
000002d0: ebb4 5cbf b7d5 bb3f 61c2 13bf 531e 90bf
000002e0: cbd6 35bf da25 99bf 9acf 943f e823 c33e
000002f0: 42ad 3640 5e15 913e 16b3 01bf 608f 54bf
00000300: 0c43 d2be 320f 8c3f a054 3340 00c7 c93f
00000310: db0e a73f d1f0 803f 2c88 75bf e980 0cbf
00000320: 5935 613f 3bb2 913f fd6f 09bf 4dbc 64bf
00000330: 3fad 1c3e e6ea 283f 402d e53e a5dd e83e
00000340: 568f 61be 27c5 9ebf fb43 0340 a77a 953d
00000350: c1ab 10bf a341 c3bf e78e b33f 0723 283f
00000360: e3ce 583f 4410 b3bd a2ed 803f d9bf e6bd
00000370: 6c0d 52bf 3f46 a33f afef 87bf b35c a13f
00000380: b2a9 97bf be5e a03d 323a a5be e046 9abe
00000390: fe55 10bf 6523 90be 65fd a8bf 8821 aa3f
000003a0: 97d8 99be 544b ccbf 834f eabe 9854 873d
000003b0: 7948 2c3f 81d6 a5bd 3601 f43f d3c9 fcbc
000003c0: bdee 36bf 92d3 38bf 28ae abbf d246 dabe
000003d0: 5da9 38bd b87d 90bf d6f5 903f f4ce 0740
000003e0: d6ee bd3e b40d ffbe d115 7c3e d50b 18c0
000003f0: 75ab 58bf 5d6a edbe c083 a1bd 0075 c93f

lstm_layer.weight_ih_l0 f4 [400, 100]
0.072798364 0.088328645 0.034473043 0.0998126 0.09671508 0.070412345 0.05715311 -0.08769526
0.001859419 0.032425657 0.099637136 0.1513698 0.13376993 -0.034928903 -0.00646453 -0.1032165
-0.07018619 -0.0775258 0.027058952 -0.039171066 0.021097118 -0.07425331 0.060195334 0.016436493
-0.014688658 -0.0006610761 -0.04627291 0.0038268769 -0.028217684 0.058418136 0.02503087 0.021415768
0.09291931 0.05452636 -0.071516305 -0.05893205 -0.009640058 0.0548969 -0.019577129 -0.041643232
0.020009248 -0.02210048 -0.092584826 0.07467585 -0.10193389 0.013219958 0.074915215 -0.06661823
-0.019715428 0.102537885 -0.03016804 0.07578977 0.018204467 -0.015751706 -0.031042077 -0.046061065
-0.0042031743 -0.103257224 -0.03798752 0.054841116 0.02585263 0.07627781 0.054751817 0.031257488
0.011394852 -0.0813959 -0.045002874 -0.0041605677 0.016020754 0.016025474 0.08184018 0.006439024
-0.008474187 0.13479371 -0.13138919 -0.087252885 -0.10018046 0.055106733 -0.05107047 -0.0454507
0.10801153 -0.04547924 -0.062490012 -0.033924174 -0.11769852 -0.093769826 0.07290561 -0.043182455
0.037208885 -0.01827893 0.03742845 0.01237194 0.014047507 0.022252135 -0.088694096 0.058088116
0.002693114 0.11246521 0.0024832122 0.068759695 0.011104337 0.011122958 0.11254164 0.008043566
-0.12781481 -0.028191762 -0.10872698 0.033046234 -0.038246013 -0.054091584 -0.055501655 0.020770123
-0.057608612 -0.12398505 0.029146535 0.037778262 0.016101088 -0.063073836 0.045228235 0.06565738
0.13493681 -0.116222985 0.007531848 -0.07232469 0.042580396 0.05184004 -0.06504841 0.007900771
0.042069916 -0.092886776 0.008622684 0.12148359 -0.04389598 0.10472251 0.06991518 0.032170255
-0.16410366 0.0560069 -0.027075632 0.028089074 0.069069326 -0.02761866 0.023352385 -0.019027052
-0.018749107 -0.031051042 0.08973323 0.025034245 -0.023293743 0.02671517 0.036269706 -0.110076696
-0.028206097 0.0075070793 -0.048560064 0.09635306 -0.057001237 -0.10041366 0.105723985 -0.067351714
-0.042647716 0.02549026 0.11260222 -0.1458164 -0.024671415 -0.1027312 0.08036355 0.053915393
0.12350071 -0.030839775 0.10112978 0.027584283 -0.120843686 0.03842076 -0.0051077637 0.13493921
0.031911884 0.045792468 -0.10859667 0.08808565 -0.06772365 -0.001197258 -0.041430507 -0.062043823
-0.0039004805 0.09878313 -0.0007987267 -0.07361991 0.06284298 -0.0387388 0.08880585 -0.008102712
0.05113122 0.091814995 -0.04738656 -0.020341951 0.030993983 -0.06451229 0.10253982 -0.10564149
-0.039699864 0.06548769 0.03319196 0.055954013 0.0068266913 0.09428811 0.0022667556 -0.052762035
-0.10397041 0.08328561 0.07201547 -0.06711088 0.018126875 0.049743038 0.00847993 0.046287503
0.085627854 -0.021097751 0.034742396 -0.02717637 0.0453376 -0.14029214 0.010433094 0.026316058
0.09024345 -0.0899048 0.05864379 0.074302845 0.09778387 -0.031584024 0.025390055 0.012613814
0.031032108 -0.051966704 -0.12255515 -0.050415963 -0.027192714 -0.041942693 -0.050650433 0.09495902
0.09653967 0.0044510867 -0.05007298 0.020108746 0.05833708 0.019997155 0.07355263 0.11887451
-0.065003194 -0.04445692 -0.011195763 0.022384066 0.12145568 0.116425626 0.06684022 0.027549177
00000000: 4f17 953d a6e5 b43d 9b33 0d3d 8c6a cc3d
00000010: 8e12 c63d 5934 903d 6119 6a3d 9399 b3bd
00000020: c0b7 f33a c4d0 043d 8e0e cc3d af00 1b3e
00000030: fcfa 083e 9c11 0fbd 68d4 d3bb 2c63 d3bd
00000040: c7bd 8fbd d9c5 9ebd bcaa dd3c d771 20bd
00000050: ddd3 ac3c 1f12 98bd 628f 763d d3a5 863c
00000060: b2a8 70bc 114c 2dba aa88 3dbd 57cc 7a3b
00000070: c628 e7bc db47 6f3d 8a0d cd3c 1f70 af3c
00000080: 7b4c be3d 0857 5f3d 2477 92bd bc62 71bd
00000090: 55f1 1dbc 92db 603d 3760 a0bc 1892 2abd
000000a0: 6fea a33c 110c b5bc 1d9d bdbd a7ef 983d
000000b0: b7c2 d0bd 8698 583c 266d 993d 236f 88bd
000000c0: 4082 a1bc 62ff d13d f722 f7bc ab37 9b3d
000000d0: 8921 953c b909 81bc f44b febc 87aa 3cbd
000000e0: c8ba 89bb 8678 d3bd cd98 1bbd 14a1 603d
000000f0: e5c8 d33c 8a37 9c3d 7143 603d da07 003d
00000100: 79b1 3a3c e5b2 a6bd ef54 38bd 5f55 88bb
00000110: f53d 833c db47 833c d39b a73d 73fe d23b
00000120: 51d7 0abc 5d07 0a3e e38a 06be a4b1 b2bd
00000130: 6a2b cdbd 99b7 613d 452f 51bd 832a 3abd
00000140: 2635 dd3d 7148 3abd 87f5 7fbd 13f4 0abd
00000150: ec0b f1bd 650a c0bd 894f 953d 16e0 30bd
00000160: 5868 183d b2bd 95bc 934e 193d adb3 4a3c
00000170: 8427 663c 1c4a b63c 40a5 b5bd ceed 6d3d
00000180: f57e 303b 2954 e63d 63bd 223b e2d1 8c3d
00000190: f7ee 353c 113d 363c 3b7c e63d 29c9 033c
000001a0: e3e1 02be 69f2 e6bc 40ac debd 7d5b 073d
000001b0: daa7 1cbd 238f 5dbd b455 63bd 1b26 aa3c
000001c0: 02f7 6bbd e0eb fdbd b7c4 ee3c 61bd 1a3d
000001d0: 6ee6 833c db2c 81bd 3e41 393d 6077 863d
000001e0: e02c 0a3e 5106 eebd b8cd f63b f81e 94bd
000001f0: c868 2e3d 3956 543d 1a38 85bd 3c72 013c
00000200: 8151 2c3d 6c3b bebd 2846 0d3c 63cc f83d
00000210: 45cc 33bd c178 d63d b12f 8f3d f5c4 033d
00000220: ca0a 28be 7e67 653d b7cd ddbc 0f1b e63c
00000230: 3874 8d3d 8740 e2bc 804d bf3c 9fde 9bbc
00000240: ba97 99bc c15e febc 0ec6 b73d 9e14 cd3c
00000250: 85d2 bebc c6d9 da3c 8b8f 143d e46f e1bd
00000260: 7910 e7bc f2fd f53b ebe6 46bd c154 c53d
00000270: 217a 69bd ada5 cdbd d185 d83d b2ef 89bd
00000280: 5faf 2ebd f3d0 d03c fe9b e63d e550 15be
00000290: b51b cabc bc64 d2bd a595 a43d 63d6 5c3d
000002a0: f1ed fc3d b2a3 fcbc 211d cf3d 6ff8 e13c
000002b0: e57c f7bd 165f 1d3d 075f a7bb 812d 0a3e
000002c0: 09b6 023d e290 3b3d ee67 debd 4066 b43d
000002d0: b2b2 8abd 50ed 9cba 09b3 29bd aa21 7ebd
000002e0: 349f 7fbb cf4e ca3d a461 51ba 09c6 96bd
000002f0: d2b3 803d 93ac 1ebd d7df b53d 3dc1 04bc
00000300: f86e 513d 8009 bc3d 6918 42bd 2aa4 a6bc
00000310: 18e7 fd3c 051f 84bd 6600 d23d 915a d8bd
00000320: 539c 22bd 691e 863d 4bf4 073d 0930 653d
00000330: 70b2 df3b 201a c13d d98d 143b 011d 58bd
00000340: 70ee d4bd a591 aa3d d97c 933d 6e71 89bd
00000350: d07e 943c 5bbf 4b3d 68ef 0a3c f797 3d3d
00000360: a85d af3d 31d5 acbc 0b4e 0e3d fba0 debc
00000370: ebb3 393d bea8 0fbe 91ef 2a3c c694 d73c
00000380: 8fd1 b83d 0220 b8bd 7934 703d 172c 983d
00000390: e942 c83d 405e 01bd cefe cf3c 2caa 4e3c
000003a0: 0c37 fe3c 0adb 54bd 32fe fabd f880 4ebd
000003b0: 41c3 debc 1acc 2bbd d476 4fbd e079 c23d
000003c0: 97b6 c53d 6cda 913b 5319 4dbd 19bb a43c
000003d0: ddf2 6e3d 13d1 a33c c3a2 963d 7b74 f33d
000003e0: 6520 85bd 7618 36bd 6f6e 37bc ca5e b73c
000003f0: c1bd f83d 8f70 ee3d 86e3 883d d0ae e13c

lstm_layer.weight_hh_l0 f4 [400, 100]
-0.036540285 -0.06316097 0.04254802 -0.1588734 -0.026205346 -0.115076065 -0.005780188 -0.008887415
0.08548894 0.0818517 0.017099263 -0.010255248 -0.08673283 0.03426551 0.10553062 -0.07481392
-0.0043399613 -0.0109572215 -0.13936743 0.13674814 0.09739198 0.04798747 -0.020534595 0.011166786
-0.038471002 -0.072366856 0.0052861557 -0.054695006 0.030448869 -0.01995613 -0.08563547 0.0384233
-0.06540219 -0.08704368 -0.069336824 -0.062085062 -0.10633376 0.016429478 -0.030127741 -0.057361823
0.015890876 0.03477326 0.09093666 0.04998277 0.10662007 0.023876252 -0.0077737747 0.016062584
0.11564873 -0.023038771 -0.06311077 0.0021467996 0.07885696 0.059018746 -0.06705479 -0.02600146
0.08425055 0.091163784 -0.06996298 -0.031553913 -0.112263456 -0.07575034 0.016973274 -0.08203889
-0.07511909 0.09318202 -0.0520902 0.08433596 0.120584875 0.048443764 0.1474381 -0.19456969
-0.10008441 -0.007937338 -0.16354568 0.066238314 0.15639485 0.01172882 -2.395224e-05 -0.0762691
-0.017757323 0.10104061 0.012434515 0.043714277 0.048758145 -0.033693034 0.042013768 0.056094065
-0.05196761 0.08254581 0.024256872 0.11229976 0.0158426 0.032856975 0.13111413 0.058455545
-0.011411501 -0.068040006 0.12611616 0.05144019 0.09449187 -0.058197215 -0.006703838 0.062892854
0.033735547 0.07229899 0.08805934 -0.03488717 0.059838884 -0.10886918 -0.026019882 0.052870374
-0.005585479 0.005773716 -0.0296885 0.032900818 -0.039757956 0.06827061 -0.041917466 -0.05334656
-0.050543502 -0.0061545363 0.07421285 0.029795667 -0.047922052 -0.041229535 0.025317136 0.02809861
-0.05448476 0.0282011 -0.15704584 0.07578572 0.073691756 -0.069854766 0.031962235 -0.07154456
-0.04579651 0.11315276 -0.015757386 -0.031689055 0.09663067 0.0014776314 0.045758575 0.10631964
0.048580457 0.031693637 -0.016990818 -0.047274265 -0.043754723 0.07414959 0.06634265 -0.06398411
-0.08889771 -0.08206837 0.061551165 0.01197972 0.06391262 -0.04486244 -0.025460547 0.061827086
-0.04565394 -0.09773699 -0.020206695 -0.029198347 -0.08016243 0.037179254 0.03252811 -0.15124317
0.09666833 -0.024444295 0.048709016 -0.043172844 -0.0006282533 0.011776181 -0.032213576 0.030353557
-0.088516824 0.11836057 0.12121312 -0.18443708 -0.07075713 -0.057031292 0.017200043 0.009113239
-0.079205245 -0.05490647 -0.04645775 0.06338912 -0.04513697 0.01866111 -0.04890856 0.10097882
-0.11405817 0.079224095 0.090561375 0.029649893 -0.058712754 -0.08136398 0.106042705 0.072423324
-0.02255256 -0.05996927 -0.10679554 0.058407303 -0.042741653 0.029100787 0.049780637 0.070878826
0.030513175 0.08804143 -0.037065566 -0.1794307 0.028052747 -0.07614839 0.10830484 -0.062001187
0.14128093 0.06942649 -0.10216983 0.05692028 0.096600994 -0.057894 -0.17325634 -0.027462712
0.007893914 0.018095572 -0.045734234 0.14883539 0.063728034 0.10725259 -0.0050789374 -0.10909251
-0.1255649 0.028982814 0.044245444 0.12552996 0.09246588 0.08637462 -0.05589926 -0.056261018
0.13255148 -0.018719109 0.0037506123 0.117822476 -0.032101896 0.064660765 -0.04268124 -0.03935808
-0.045087703 0.03823113 -0.065228425 -0.021743132 -0.078945145 -0.04406127 0.097897194 -0.12993112
00000000: 44ab 15bd 8a5a 81bd d546 2e3d b5af 22be
00000010: 98ac d6bc 00ad ebbd bb67 bdbb 859c 11bc
00000020: d314 af3d dda1 a73d c113 8c3c a105 28bc
00000030: fba0 b1bd fe59 0c3d 7020 d83d 0a38 99bd
00000040: 3c36 8ebb eb85 33bc 56b6 0ebe b407 0c3e
00000050: 7275 c73d 828e 443d 2b38 a8bc e5f4 363c
00000060: c593 1dbd 1335 94bd 7d37 ad3b df07 60bd
00000070: e86f f93c 0a7b a3bc a661 afbd c061 1d3d
00000080: 95f1 85bd f543 b2bd 7700 8ebd e84c 7ebd
00000090: 84c5 d9bd 1d97 863c 74ce f6bc 3bf4 6abd
000000a0: 952d 823c 686e 0e3d 003d ba3d bcba 4c3d
000000b0: a05b da3d 2198 c33c 26bb febb ae95 833c
000000c0: 3ed9 ec3d cebb bcbc 3840 81bd 52b1 0c3b
000000d0: c27f a13d a4bd 713d 0654 89bd 0401 d5bc
000000e0: 8d8b ac3d 14b4 ba3d c048 8fbd ad3e 01bd
000000f0: 62ea e5bd ff22 9bbd 890b 8b3c 0104 a8bd
00000100: 0ad8 99bd 37d6 be3d 895c 55bd 55b8 ac3d
00000110: 34f5 f63d f86c 463d 03fa 163e 473d 47be
00000120: 0ef9 ccbd 9c0b 02bc 8578 27be f4a7 873d
00000130: f925 203e 3d2a 403c 0bed c8b7 f932 9cbd
00000140: ce77 91bc 61ee ce3d 23ba 4b3c be0d 333d
00000150: 9fb6 473d b501 0abd a116 2c3d e4c2 653d
00000160: fddb 54bd c70d a93d 59b6 c63c 6bfd e53d
00000170: 57c8 813c 0995 063d c842 063e 156f 6f3d
00000180: 4ef7 3abc 8f58 8bbd 9824 013e f3b2 523d
00000190: f484 c13d 3460 6ebd deab dbbb f8cd 803d
000001a0: 492e 0a3d 7e11 943d 7558 b43d d9e5 0ebd
000001b0: 9e19 753d cef6 debd a627 d5bc 9b8e 583d
000001c0: 6506 b7bb 7131 bd3b 4c35 f3bc 02c3 063d
000001d0: 3dd9 22bd 76d1 8b3d a6b1 2bbd ec81 5abd
000001e0: b406 4fbd feab c9bb e8fc 973d 0b16 f43c
000001f0: ea49 44bd 4de0 28bd e265 cf3c 0e2f e63c
00000200: 692b 5fbd fe05 e73c a0d0 20be 8b35 9b3d
00000210: b4eb 963d 0410 8fbd d5ea 023d f485 92bd
00000220: 1f95 3bbd a2bc e73d a215 81bc 62cc 01bd
00000230: 4de6 c53d 15ad c13a 586d 3b3d 1dbe d93d
00000240: 4dfc 463d 30d1 013d 5430 8bbc a9a2 41bd
00000250: 2738 33bd bedb 973d a8de 873d 1a0a 83bd
00000260: 0110 b6bd 7613 a8bd 131d 7c3d 9646 443c
00000270: 9fe4 823d aec1 37bd a392 d0bc 663e 7d3d
00000280: a0ff 3abd 552a c8bd 8388 a5bc 5f31 efbc
00000290: 332c a4bd 4649 183d 323c 053d 7ddf 1abe
000002a0: 0cfa c53d 673f c8bc 1b83 473d 02d6 30bd
000002b0: 5eb1 24ba e2f0 403c 62f2 03bd 06a8 f83c
000002c0: 4f48 b5bd 0767 f23d 963e f83d 13dd 3cbe
000002d0: 1de9 90bd a599 69bd 1be7 8c3c b24f 153c
000002e0: 5c36 a2bd 9be5 60bd 7b4a 3ebd 28d2 813d
000002f0: 8be1 38bd 2fdf 983c 5854 48bd fccd ce3d
00000300: 5497 e9bd 3e40 a23d 3e78 b93d 55e4 f23c
00000310: c97c 70bd 29a2 a6bd eb2c d93d ae52 943d
00000320: 25c0 b8bc 56a2 75bd 9fb7 dabd 7f3c 6f3d
00000330: df11 2fbd c664 ee3c c8e6 4b3d eb28 913d
00000340: c4f6 f93c 114f b43d 10d2 17bd aebc 37be
00000350: e0ce e53c b0f3 9bbd eece dd3d f5f4 7dbd
00000360: f3ab 103e 7a2f 8e3d 6a3e d1bd 3d25 693d
00000370: bed6 c53d 4222 6dbd 1c6a 31be 7bf9 e0bc
00000380: 7a55 013c 2a3d 943c d253 3bbd 4e68 183e
00000390: d883 823d 3fa7 db3d 376d a6bb e56b dfbd
000003a0: 1694 00be 5e6d ed3c b63a 353d ed8a 003e
000003b0: c05e bd3d 2de5 b03d 9ff6 64bd f471 66bd
000003c0: 93bb 073e d158 99bc d5cc 753b e94c f13d
000003d0: 477d 03bd dd6c 843d 86d2 2ebd f035 21bd
000003e0: e2ad 38bd 3f98 1c3d 7b96 85bd a71e b2bc
000003f0: fead a1bd 9779 34bd 537e c83d aa0c 05be

lstm_layer.bias_ih_l0 f4 [400]
0.05535356 0.049682878 -0.058079712 -0.0065690265 0.094827175 0.0207577 0.03258488 0.05595285
-0.00897737 -0.07507391 -0.0864496 -0.01616557 -0.068661876 -0.023367181 -0.036035307 -0.011723997
-0.032339364 -0.07887937 -0.079250544 -0.0016521574 0.07005129 -0.08292652 0.12341483 -0.008388257
-0.050181273 -0.070685625 0.066201806 0.10107354 0.057504453 0.10195434 -0.079685666 -0.08606233
0.085002325 0.0040265378 0.06107234 0.08444278 0.0022512458 -0.05883565 0.0006424791 0.08594462
0.008011362 -0.068444885 -0.041987296 0.009955474 0.05058757 -0.043658517 0.081988595 0.025293723
0.024554515 -0.011578123 0.07630371 -0.06617429 -0.03163706 0.0045926855 -0.009832372 0.070461676
-0.014987929 0.0086246915 0.07107375 0.07249571 -0.048459757 -0.0059395214 0.068595946 -0.02903242
0.07562366 -0.0550304 0.09586183 0.1089713 0.06066661 0.0635899 0.10094804 0.08911864
-0.05626554 -0.0034038795 0.010993868 0.09194563 -0.0068951035 0.050426934 0.0065447385 0.03837418
-0.07012364 0.021176368 -0.043365818 0.102399625 -0.038287032 -0.018618114 0.02255244 -0.08213654
0.094283976 0.09854561 0.049002662 0.006437941 0.12757456 0.00016050055 -0.116476335 0.032423507
0.06676376 0.12018765 0.12878074 -0.007045991 0.030382259 -0.08429972 0.019586124 0.14596137
-0.08568517 -0.06411301 0.08876984 -0.031366926 0.017144203 -0.08185973 -0.037073422 -0.04486445
0.00033973117 -0.047680877 -0.02775118 -0.059276022 -0.033709496 -0.065030836 -0.0141019225 -0.046584614
0.10227105 0.08109889 -0.0440473 0.06350965 -0.032327693 0.1395652 0.13190714 0.015094443
-0.058934152 0.021156525 0.09402808 -0.043290637 0.066334054 -0.017269645 0.039847545 -0.0048604896
-0.0009294865 0.087036535 -0.03306147 0.06779614 0.04046509 -0.041494884 0.06252074 0.07497708
0.031395998 -0.04007564 0.09354183 -0.02822255 0.08405516 0.11001058 0.115442224 0.029016882
0.023363337 -0.022198934 0.10019106 0.016857427 -0.07308014 0.06422049 -0.0060095172 0.011310954
0.09548631 -0.07818736 -0.07088518 0.03680472 -0.07770228 -0.08075779 0.03686963 -0.025613012
0.036613517 0.104747206 0.03279068 -0.045888696 -0.014409445 0.10262095 0.046904083 0.13626702
0.03345047 0.0045729713 -0.070939235 0.07484437 0.0016111513 -0.03625772 0.065888435 0.012840253
-0.03708444 0.07466176 0.028125027 -0.010386772 -0.07708703 0.06435479 0.055473924 0.017826628
0.07869954 -0.012092591 0.078871876 -0.07432655 0.10289356 0.10204842 -0.010946732 0.026000569
0.015153208 -0.013358122 0.006180173 -0.10602538 -0.06237296 -0.047654025 -0.043374166 0.06392141
0.0021998922 0.081168905 0.06874459 -0.020623669 -0.07299873 -0.026338864 -0.04365829 0.04434045
0.07393524 -0.074130885 -0.082163975 -0.05916273 -0.00087917957 0.049364675 -0.084865786 0.047256924
-0.07505416 -0.025387593 -0.014780055 0.0010069502 -0.052579094 0.073797874 0.014016978 0.071819626
-0.10688919 -0.018852377 0.049972497 0.018870411 0.089003205 0.048128787 -0.006082915 0.003631139
-0.052707262 0.009660584 -0.051591292 -0.07982202 0.028012227 -0.0153688565 -0.039660987 -0.013012388
0.062956 0.022969883 -0.057737526 -0.03171711 -0.072985694 -0.025662936 0.093107946 -0.014250984
00000000: 6aba 623d 4680 4b3d fee4 6dbd fd40 d7bb
00000010: c034 c23d 0d0c aa3c b977 053d d12e 653d
00000020: d215 13bc 5ac0 99bd 7d0c b1bd a86d 84bc
00000030: 999e 8cbd 886c bfbc c299 13bd 0216 40bc
00000040: 4876 04bd 828b a1bd 1c4e a2bd 348d d8ba
00000050: 0d77 8f3d 61d5 a9bd eac0 fc3d e66e 09bc
00000060: e18a 4dbd a0c3 90bd d094 873d a5ff ce3d
00000070: ca89 6b3d 70cd d03d 3d32 a3bd 7241 b0bd
00000080: b315 ae3d 0cf1 833b fd26 7a3d 56f0 ac3d
00000090: a389 133b a7fd 70bd 0b6c 283a bc03 b03d
000000a0: 1642 033c d52c 8cbd dffa 2bbd 491c 233c
000000b0: e934 4f3d 46d3 32bd a3e9 a73d c834 cf3c
000000c0: 8d26 c93c 2bb2 3dbc 1f45 9c3d 6386 87bd
000000d0: dd95 01bd 3d7e 963b f517 21bc 364e 903d
000000e0: ee8f 75bc 944e 0d3c 1d8f 913d a178 943d
000000f0: bd7d 46bd 51a0 c2bb 087c 8c3d 66d5 edbc
00000100: 94e0 9a3d 8f67 61bd 3553 c43d 582c df3d
00000110: 8d7d 783d 6c3b 823d d9bd ce3d d583 b63d
00000120: b276 66bd 9f13 5fbb a01f 343c fe4d bc3d
00000130: 52f0 e1bb 798c 4e3d 3f75 d63b 3f2e 1d3d
00000140: fc9c 8fbd 107a ad3c 5ba0 31bd e5b6 d13d
00000150: ddd2 1cbd 0485 98bc e5bf b83c 3437 a8bd
00000160: f517 c13d 48d2 c93d 04b7 483d 5df5 d23b
00000170: e8a2 023e 0a4c 2839 258b eebd 83ce 043d
00000180: 70bb 883d f124 f63d 19df 033e 0ee2 e6bb
00000190: 37e4 f83c 55a5 acbd 1473 a03c e676 153e
000001a0: b57b afbd af4d 83bd f6cc b53d 9b7a 00bd
000001b0: 0072 8c3c 13a6 a7bd 4dda 17bd c9c3 37bd
000001c0: f21d b239 064d 43bd 7156 e3bc 6acb 72bd
000001d0: f812 0abd e32e 85bd c00b 67bc 82cf 3ebd
000001e0: 7c73 d13d 2d17 a63d f16a 34bd 5911 823d
000001f0: 0b6a 04bd 2eea 0e3e aa12 073e af4e 773c
00000200: f064 71bd 7350 ad3c cb91 c03d 8651 31bd
00000210: 26da 873d 1279 8dbc 2e37 233d be44 9fbb
00000220: c8a8 73ba 3640 b23d 776b 07bd b4d8 8a3d
00000230: b9be 253d 8af6 29bd e00a 803d 958d 993d
00000240: 1799 003d 5b26 24bd dc92 bf3d fa32 e7bc
00000250: 1d25 ac3d 3a4d e13d f96c ec3d d0b4 ed3c
00000260: 7864 bf3c 8ada b5bc f830 cd3d 9618 8a3c
00000270: 0aab 95bd 0886 833d 7ceb c4bb 9451 393c
00000280: 548e c33d b220 a0bd 402c 91bd 8cc0 163d
00000290: 5f22 9fbd 5764 a5bd 9c04 173d 61d2 d1bc
000002a0: 0ef8 153d b485 d63d 854f 063d c9f5 3bbd
000002b0: 9815 6cbc ef2a d23d 7f1e 403d 9589 0b3e
000002c0: 5c03 093d ddd8 953b 9748 91bd 0148 993d
000002d0: 442d d33a fa82 14bd 84f0 863d ed5f 523c
000002e0: dbe5 17bd 44e8 983d 7566 e63c 482d 2abc
000002f0: cedf 9dbd 72cc 833d a038 633d 2609 923c
00000300: 392d a13d 0120 46bc 9487 a13d 8538 98bd
00000310: dcb9 d23d c3fe d03d ec59 33bc 25ff d43c
00000320: 2945 783c 06dc 5abc 0c83 ca3b d623 d9bd
00000330: ca7a 7fbd de30 43bd 1ca9 31bd 3ae9 823d
00000340: 112c 103b e23b a63d f7c9 8c3d f8f2 a8bc
00000350: 5c80 95bd 9ac4 d7bc 09d3 32bd 559e 353d
00000360: 5c6b 973d efd1 97bd 9645 a8bd 9e54 72bd
00000370: be78 66ba 9d32 4a3d 1dce adbd 7a90 413d
00000380: ffb5 99bd a4f9 cfbc 0b28 72bc a4fb 833a
00000390: 2d5d 57bd 5723 973d 78a7 653c 2b16 933d
000003a0: b8e8 dabd 4d70 9abc f6af 4c3d 1f96 9a3c
000003b0: 5047 b63d b122 453d 3053 c7bb 67f8 6d3b
000003c0: 92e3 57bd 6d47 1e3c 6451 53bd ba79 a3bd
000003d0: e679 e53c a8cd 7bbc 8f73 22bd e931 55bc
000003e0: 13ef 803d 562b bc3c 2f7e 6cbd cde9 01bd
000003f0: 8679 95bd 143b d2bc 61af be3d f67c 69bc

lstm_layer.bias_hh_l0 f4 [400]
-0.06299053 -0.05684685 -0.0021348794 -0.029005695 0.032897897 0.07964912 0.11553228 0.08849394
0.07735017 0.09546288 0.08401908 -0.023289403 -0.0542085 0.117248245 0.020599851 0.11585547
0.0043326584 -0.018373929 -0.019498866 0.10361751 0.001629042 -0.034058273 0.07330333 0.119728714
0.03736146 -0.05069534 0.028573899 0.08419748 -0.055715345 0.006366282 0.0560897 0.057974435
0.06026437 -0.020430302 0.06542152 0.026762849 -0.08107195 0.085163526 0.072933696 0.06454741
-0.047496885 -0.095342115 0.07944578 -0.0968883 -0.07718771 -0.046378247 0.10924329 0.07177749
-0.064144365 0.083565176 0.026717043 0.02147727 0.062719464 0.07675379 0.07174419 -0.048931565
-0.045904133 0.04606359 0.06234839 -0.022189772 0.026678342 0.115087375 0.012747781 0.047648538
0.009577156 0.042995777 0.08446802 -0.007933663 0.044755124 -0.02486208 -0.068590544 -0.042350434
-0.040285703 0.1038552 0.028464982 -0.03018189 -0.04225934 0.011660321 0.1135855 -0.02187566
-0.039474417 0.11232283 -0.015168594 -0.007703359 0.05670379 -0.08395769 -0.08319456 0.09170064
-0.018614681 0.0010383944 -0.04537503 0.08441985 0.062693074 -0.021164613 -0.0200397 0.12044053
-0.018891968 -0.042443737 0.124419086 -0.092283584 0.057322007 0.051498696 0.07035669 -0.004475822
0.081925265 -0.0124559915 -0.045120794 -0.058639526 -0.022188587 0.030246546 0.025063116 0.06418009
0.0068460796 0.102377966 0.029419975 -0.08934585 -0.038728397 -0.030199016 0.087235555 0.047884896
0.10075963 0.050273694 -0.016059147 0.12956564 0.10433304 0.045340892 0.036550865 0.061915692
-0.069762126 0.02992157 0.004570103 0.03181528 -0.06833369 0.0962056 -0.014816173 -0.042499103
0.04517475 0.04823217 0.031131143 0.031725846 0.10648513 -0.027272968 0.050017107 0.032459304
0.1093536 0.101948775 -0.026043063 -0.024763923 0.002549155 0.13196252 0.0027948252 -0.054404244
-0.022903971 -0.032749392 0.02100394 0.097430125 -0.057089627 0.04309308 -0.09499797 0.0064583234
-0.0033629814 0.033266924 0.026080765 0.022474818 0.07477762 0.084810495 -0.022486074 -0.0049849437
-0.0027289295 -0.06954268 0.080146424 0.040205944 -0.113606736 -0.035546977 0.12543167 0.10306908
-0.028186373 0.078175284 0.039844673 0.092439115 0.08168441 -0.025065748 -0.03506506 0.0122133065
0.069990836 0.1288696 -0.03673564 0.075176194 0.10951827 0.06022231 -0.0700845 0.018042892
0.08606917 -0.104209766 -0.030999174 -0.04424746 0.043268546 0.04931778 -0.07840893 0.024521096
-0.03362329 0.07323076 -0.0977625 -0.10577223 0.0758782 0.060422547 -0.05706604 0.08351788
0.086721316 0.019517338 0.015264999 0.03642657 -0.00087362365 0.09160186 0.015552286 -0.062269308
0.0430908 0.05621998 0.009156589 -0.09243459 0.047621604 0.030397156 0.06910551 -0.04483257
0.061318327 0.03839488 0.053063147 -0.0020336995 -0.064790875 0.06764944 -0.093928024 0.04535568
0.075943016 -0.083818786 0.057160385 -0.06917506 0.067358926 0.009804282 -0.0043007703 0.029973336
0.01765392 0.06972679 -0.010492323 -0.06333519 0.062279228 -0.028814858 0.056554727 -0.010908321
-0.00949108 0.018250128 -0.020549143 -0.07562411 -0.015313864 0.08039188 -0.097783454 -0.027743684
00000000: 2e01 81bd 3ed8 68bd 55e9 0bbb 5a9d edbc
00000010: f2bf 063d 141f a33d 309c ec3d 503c b53d
00000020: c469 9e3d 0b82 c33d 3212 ac3d 6bc9 bebc
00000030: bb09 5ebd d91f f03d 05c1 a83c a245 ed3d
00000040: f9f8 8d3b ec84 96bc 16bc 9fbc 6b35 d43d
00000050: 9485 d53a b080 0bbd 0e20 963d 5434 f53d
00000060: 5508 193d eba5 4fbd cf13 ea3c ba6f ac3d
00000070: c635 64bd 3e9c d03b 50be 653d 9a76 6d3d
00000080: c6d7 763d 735d a7bc b8fb 853d c33d db3c
00000090: 0d09 a6bd 376a ae3d 435e 953d 6f31 843d
000000a0: 188c 42bd ba42 c3bd 78b4 a23d 5f6d c6bd
000000b0: 9714 9ebd 1ef7 3dbd f2ba df3d 1400 933d
000000c0: 1f5e 83bd 3824 ab3d b3dd da3c 1af1 af3c
000000d0: 1073 803d 1731 9d3d 9eee 923d 776c 48bd
000000e0: f905 3cbd 2dad 3c3d 0761 7f3d 53c7 b5bc
000000f0: 8a8c da3c eeb2 eb3d 12dc 503c 1d2b 433d
00000100: 81e9 1c3c 571c 303d 92fd ac3d 32fc 01bc
00000110: 2651 373d 90ab cbbc 3379 8cbd a677 2dbd
00000120: 9f02 25bd 09b2 d43d 652f e93c 0340 f7bc
00000130: 2118 2dbd ee0a 3f3c 849f e83d 9634 b3bc
00000140: edaf 21bd 8309 e63d b285 78bc 756c fcbb
00000150: 3c42 683d 02f2 abbd e961 aabd 8ccd bb3d
00000160: d17d 98bc bc1a 883a 2bdb 39bd 50e4 ac3d
00000170: 3a65 803d 6961 adbc 4c2a a4bc 86a9 f63d
00000180: 54c3 9abc 7cd9 2dbd 6fcf fe3d 2dff bcbd
00000190: 7bca 6a3d 4cf0 523d 2b17 903d eba9 92bb
000001a0: 6fc8 a73d 3714 4cbc 95d0 38bd 0030 70bd
000001b0: d7c4 b5bc 9bc7 f73c 2a51 cd3c da70 833d
000001c0: 1455 e03b 8aab d13d 2902 f13c f5fa b6bd
000001d0: aba1 1ebd ed63 f7bc 8ea8 b23d f422 443d
000001e0: 115b ce3d caeb 4d3d 798e 83bc dbac 043e
000001f0: 90ac d53d 5fb7 393d 5cb6 153d 4f9b 7d3d
00000200: 72df 8ebd 151e f53c cdc0 953b bd50 023d
00000210: 89f2 8bbd 7107 c53d 89bf 72bc 8a13 2ebd
00000220: 2909 393d 198f 453d bd06 ff3c f6f2 013d
00000230: e014 da3d 8f6b dfbc bdde 4c3d 0cf4 043d
00000240: c8f4 df3d 85ca d03d 4358 d5bc b6dd cabc
00000250: b90f 273b 2f21 073e 6329 373b fcd6 5ebd
00000260: 1ca1 bbbc 3a24 06bd 7410 ac3c 7289 c73d
00000270: d0d6 69bd 5f82 303d 4c8e c2bd 58a0 d33b
00000280: 7765 5cbb e642 083d 54a7 d53c 1c1d b83c
00000290: 0225 993d 20b1 ad3d b734 b8bc bd58 a3bb
000002a0: d7d7 32bb 656c 8ebd cf23 a43d fdae 243d
000002b0: a6aa e8bd b599 11bd 2971 003e e215 d33d
000002c0: 1ce7 e6bc 5d1a a03d 2b34 233d b850 bd3d
000002d0: 284a a73d af56 cdbc 61a0 0fbd 521a 483c
000002e0: 5b57 8f3d 64f6 033e 1c78 16bd faf5 993d
000002f0: 1d4b e03d abab 763d 7688 8fbd b0ce 933c
00000300: 0845 b03d ee6b d5bd fbf1 fdbc d33c 35bd
00000310: 5c3a 313d 7101 4a3d dc94 a0bd 77e0 c83c
00000320: 93b8 09bd 02fa 953d b537 c8bd 1c9f d8bd
00000330: 0866 9b3d a27d 773d 14be 69bd 6c0b ab3d
00000340: f29a b13d d3e2 9f3c 0c1a 7a3c 0734 153d
00000350: e403 65ba c299 bb3d 04cf 7e3c 1a0e 7fbd
00000360: fb7f 303d ec46 663d 8505 163c 594e bdbd
00000370: df0e 433d 7503 f93c 3187 8d3d 5ba2 37bd
00000380: ed28 7b3d f343 1d3d be58 593d d147 05bb
00000390: 14b1 84bd ca8b 8a3d 565d c0bd e1c6 393d
000003a0: 0388 9b3d 2fa9 abbd 0221 6a3d a7ab 8dbd
000003b0: 7af3 893d 24a2 203c 7aed 8cbb a48a f53c
000003c0: f49e 903c ebcc 8e3d fee7 2bbc e1b5 81bd
000003d0: 8118 7f3d 230d ecbc eea5 673d d0b8 32bc
000003e0: 7a80 1bbc 4b81 953c ad56 a8bc d0e0 9abd
000003f0: 00e7 7abc 7fa4 a43d b142 c8bd b946 e3bc

out_layer.weight f4 [149, 100]
0.029120067 0.00908156 -0.056876533 0.020207753 0.040761814 0.012583364 -0.016234156 -0.026729982
-0.07118921 0.04609126 -0.0076070097 0.05198712 -0.027678262 0.0018481516 -0.022067757 -0.04681793
-0.029400608 -0.006290667 -0.046926625 0.041071758 0.081416436 -0.20706521 -0.020936772 -0.045115996
-0.06843787 0.014808896 -0.016904041 -0.009875389 -0.09817799 -0.1349128 -0.0952791 -0.005776632
0.062593035 -0.06705631 0.019607771 -0.080012776 -0.047706656 0.113134995 -0.09644718 0.011058336
-0.0035339114 -0.028858025 0.06590587 -0.07357704 0.013797169 0.024167601 0.10807069 -0.14615744
-0.047275208 0.058417678 0.12137409 -0.06390539 -0.06222872 -0.05694435 0.059664093 -0.13571411
-0.06607433 0.06145444 0.09379917 -0.0686684 -0.010395688 -0.03677716 0.0012759875 -0.1268737
-0.021886528 -0.047499165 0.16969539 0.021291291 -0.051080648 0.05697016 0.09780159 -0.08306865
0.11718757 -0.024340615 0.040163867 0.046502415 -0.122732595 0.12808515 0.112306826 -0.033760246
0.09474031 0.005684517 0.06724442 0.086017415 0.072539136 0.073174454 0.12573351 -0.059565872
-0.1116188 0.048132308 0.042909138 0.039744493 0.06220297 -0.0528149 -0.04747998 0.012142754
-0.09762574 -0.07640296 -0.047958072 0.002867725 -0.0027173539 -0.09342886 -0.0034474377 0.1185355
-0.050822835 0.07009559 -0.01699737 0.042764872 0.008631975 -0.053321384 -0.046849143 0.09751148
0.021346156 0.029108193 -0.014961784 -0.10226521 0.058715206 -0.059124596 0.01857441 -0.00020397252
0.109824 -0.047051277 -0.079684705 -0.039945543 -0.07950617 0.0057948083 0.051961277 -0.08392536
0.0786815 -0.0017429782 0.024396345 0.08571423 -0.058745526 0.05905331 -0.007934804 -0.08763266
0.05023118 0.013721527 -0.09714311 0.060234956 0.069566995 0.04885478 0.035399184 0.03422458
-0.09109335 -0.04156458 -0.012349989 -0.011547892 0.007214502 0.05983798 -0.0041820747 0.018504338
0.08112059 0.017735671 0.06415416 -0.109021805 0.057115056 -0.036009677 0.05813494 0.017535893
-0.09889533 -0.083775036 -0.06499804 0.054152917 -0.034697607 0.006416673 0.044302724 0.03701366
-0.011962162 0.01372636 -0.050884478 0.008980681 0.0071712704 -0.062543176 -0.032070126 0.102911
-0.0805813 -0.052034397 -0.0041508866 -0.067836784 -0.09893255 -0.034767132 0.12941858 -0.07668348
0.052096277 -0.11133038 -0.0681415 0.074376546 0.12015709 -0.08436629 0.015408552 -0.05452226
-0.08426105 -0.07460957 0.071910955 -0.08247421 0.051229324 0.036040325 -0.041555677 0.03241781
-0.0025475686 0.12134297 -0.031757507 0.05926703 -0.081751436 -0.104959585 -0.0037098543 -0.12625395
0.1327453 0.04731026 0.047254957 -0.058705077 -0.016258558 0.14096111 -0.024795413 -0.012380015
-0.1373074 0.08570961 -0.11659038 -0.14594394 -0.038216513 0.009848082 -0.02445704 0.055866454
0.044567607 -0.014470203 -0.0949608 -0.0046859663 -0.006891023 0.015031331 0.07220105 -0.04211721
0.1292102 0.12075939 0.003883891 0.0023170607 0.04816501 -0.12952654 0.15565301 0.087041184
0.025929162 0.008369122 0.004340362 -0.009421424 0.04122515 -0.065784134 -0.08808604 -0.07882387
-0.07446903 0.05195862 -0.079443425 0.0692829 -0.1490989 0.1422923 0.042777106 0.053634264
00000000: 358d ee3c d3ca 143c 5ef7 68bd bb8a a53c
00000010: dcf5 263d 742a 4e3c 7efd 84bc d6f8 dabc
00000020: a6cb 91bd 30ca 3c3d 3944 f9bb 72f0 543d
00000030: 86bd e2bc ad3d f23a 71c7 b4bc 28c4 3fbd
00000040: 8bd9 f0bc f121 cebb 2236 40bd dc3a 283d
00000050: a9bd a63d e708 54be 9883 abbc 8dcb 38bd
00000060: 2729 8cbd 03a1 723c 587a 8abc 62cc 21bc
00000070: 8b11 c9bd 9526 0abe b021 c3bd e749 bdbb
00000080: c730 803d d254 89bd 7aa0 a03c bddd a3bd
00000090: 0e68 43bd 52b3 e73d 1986 c5bd 062e 353c
000000a0: 3299 67bb aa67 ecbc a8f9 863d 8faf 96bd
000000b0: 850d 623c 22fb c53c 2a54 dd3d 4caa 15be
000000c0: a6a3 41bd 6047 6f3d fb92 f83d d4e0 82bd
000000d0: 8be3 7ebd 7b3e 69bd 5662 743d a4f8 0abe
000000e0: fa51 87bd a7b7 7b3d c719 c03d 05a2 8cbd
000000f0: ad52 2abc a6a3 16bd 093f a73a 2eeb 01be
00000100: 604b b3bc 7c8e 42bd a1c4 2d3e 136b ae3c
00000110: f139 51bd 8b59 693d 334c c83d e51f aabd
00000120: 0900 f03d f865 c7bc de82 243d 5179 3e3d
00000130: 3a5b fbbd c128 033e 1f01 e63d 2f48 0abd
00000140: 3507 c23d 2f45 ba3b 71b7 893d e629 b03d
00000150: 668f 943d 7ddc 953d 49c0 003e 58fb 73bd
00000160: 6698 e4bd 6226 453d 7ec1 2f3d 1fcb 223d
00000170: 8bc8 7e3d 7054 58bd 5e7a 42bd 67f2 463c
00000180: 01f0 c7bd 2879 9cbd af6f 44bd 71f0 3b3b
00000190: a215 32bb a157 bfbd 68ee 61bb bdc2 f23d
000001a0: 9b2b 50bd 478e 8f3d 123e 8bbc 382a 2f3d
000001b0: 216d 0d3c 8667 5abd e3e4 3fbd 19b4 c73d
000001c0: 22de ae3c 4e74 ee3c 4522 75bc 6c70 d1bd
000001d0: 5b7f 703d a22c 72bd 5c29 983c 75e1 55b9
000001e0: 68eb e03d d7b8 40bd bc31 a3bd f09d 23bd
000001f0: 21d4 a2bd 60e2 bd3b 59d5 543d 0fe1 abbd
00000200: c423 a13d a574 e4ba d8da c73c f18a af3d
00000210: 269f 70bd e2e1 713d fb00 02bc c178 b3bd
00000220: 36bf 4d3d 41d0 603c f8f2 c6bd eeb8 763d
00000230: 2479 8e3d f31b 483d bcfe 103d 132f 0c3d
00000240: 268f babd 9f3f 2abd 9c57 4abc 5f33 3dbc
00000250: a167 ec3b ab18 753d c909 89bb 6996 973c
00000260: 8d22 a63d 664a 913c 4263 833d d346 dfbd
00000270: 7af1 693d e27e 13bd e71e 6e3d 6fa7 8f3c
00000280: a389 cabd 3f92 abbd b11d 85bd 73cf 5d3d
00000290: 141f 0ebd f442 d23b c676 353d a39b 173d
000002a0: f2fc 43bc 87e4 603c 3e6c 50bd b523 133c
000002b0: fafc ea3b a316 80bd f75b 03bd 01c3 d23d
000002c0: cf07 a5bd 0522 55bd 2904 88bb 03ee 8abd
000002d0: 269d cabd fb67 0ebd 4e86 043e 3a0c 9dbd
000002e0: e862 553d 2f01 e4bd c58d 8bbd bb52 983d
000002f0: ec14 f63d 3cc8 acbd 2774 7c3c bc52 5fbd
00000300: 0f91 acbd e7cc 98bd 0d46 933d 3de8 a8bd
00000310: d7d5 513d 059f 133d 4936 2abd 8ac8 043d
00000320: 1cf5 26bb aa82 f83d 2914 02bd fcc1 723d
00000330: 4c6d a7bd 0df5 d6bd 0721 73bb b748 01be
00000340: 62ee 073e 67c8 413d 6a8e 413d bc74 70bd
00000350: ab30 85bc 1c58 103e c01f cbbc 8cd5 4abc
00000360: 509a 0cbe 8588 af3d f0c6 eebd 5472 15be
00000370: eb88 1cbd da59 213c 215a c8bc 39d4 643d
00000380: 868c 363d 6e14 6dbc cf7a c2bd bc8c 99bb
00000390: 17ce e1bb f945 763c 25de 933d 1883 2cbd
000003a0: ae4f 043e b350 f73d e188 7e3b d4d9 173b
000003b0: ac48 453d 9ba2 04be 8163 1f3e a642 b23d
000003c0: 6569 d43c a41e 093c 9839 8e3b 515c 1abc
000003d0: b4db 283d d5b9 86bd 7466 b4bd 696e a1bd
000003e0: 3883 98bd 90d2 543d 3cb3 a2bd 31e4 8d3d
000003f0: 62ad 18be 13b5 113e 0c37 2f3d 9aaf 5b3d
