ckpts/dkvmn/stat/model.ckpt (torch, 786539 bytes, 11 tensors)

Mk f4 [20, 50]
000000 83 7f 0d be 33 e9 c7 bd 3a 41 40 3e 40 4a 56 3e
       -0.13818173 -0.09761276 0.18774882 0.20926762
000010 da e0 ee bd 4b dd 1f 3e 49 ca de be 6f ff d1 bd
       -0.11663981 0.1561176 -0.43513706 -0.10253798
000020 b3 69 37 3e 7a 86 a7 bd 54 6d 83 be 85 32 87 be
       0.17911415 -0.08179946 -0.25669348 -0.2640573
000030 97 84 6e 3e a9 fc 8f be 55 fe 41 3d 7e 87 f0 3e
       0.23292767 -0.28122452 0.04736169 0.46978372
000040 72 4b 13 3f f7 ee 90 be 40 bc c8 3e f4 9b 98 be
       0.57536995 -0.28307316 0.39206123 -0.29806483
000050 7f eb d0 3e 8d 0f 3e 3e f2 6a 58 be fa 40 2e 3d
       0.4080467 0.1856062 -0.21134546 0.042542435
000060 75 6c 66 3c 0b 48 5c be 0b cb 8e bc 44 81 4a 3d
       0.014063944 -0.21511857 -0.017430803 0.049439684
000070 40 cf 40 3d af e2 77 3e 97 57 06 bf a6 a0 18 3e
       0.04707265 0.24207567 -0.524774 0.14905033
000080 7e 32 98 bd 0e b2 24 be 69 b1 d9 be 61 7d f4 3d
       -0.074315056 -0.16083547 -0.42518166 0.11937977
000090 9b 1e d0 3e de b3 0d be c0 c7 e6 3e 5e be 98 3d
       0.4064835 -0.13838145 0.45074272 0.07458185
0000a0 e6 22 bf be cc 2d 8e 3e d3 48 7b 3e 05 10 8e be
       -0.37331313 0.27769315 0.24539499 -0.27746597
0000b0 cc e3 60 3d b0 f7 e4 be a1 72 1b be 5b fc 96 be
       0.054904744 -0.4472022 -0.15180446 -0.29489407
0000c0 bd 05 01 be d2 9f 3e 3e 84 c3 12 3f 74 d7 b3 be
       -0.12599845 0.18615654 0.57329583 -0.35125315
0000d0 f7 49 90 be 54 e7 84 be 9b 78 87 3e ed c6 ca 3e
       -0.2818143 -0.2595774 0.26459202 0.39604893
0000e0 8d 32 05 be 7c ea 4c 3c 8d f3 a1 3e d3 51 2f 3e
       -0.13007565 0.012507077 0.31631127 0.17121057
0000f0 c5 f8 f4 bd 3b 95 24 3e e3 6e 2e 3d 6e cc 10 3e
       -0.119615115 0.16072552 0.04258622 0.14140484
000100 ab 53 a5 be f2 ff ec bd 55 e8 2a bc ef 0c 8e bd
       -0.32290396 -0.11572255 -0.010431369 -0.06936061
000110 f3 95 4b 3e 84 e9 98 bc 8c 00 86 be cc c0 f6 3e
       0.1988142 -0.018666036 -0.26172292 0.48193967
000120 56 d7 18 be 7a 58 c0 bd d8 f6 dd 3e 66 89 77 3c
       -0.14925894 -0.093918756 0.4335239 0.015108442
000130 d3 35 c4 bd 25 45 c4 3e e8 2b 47 bd c6 6f 1f be
       -0.09580579 0.38334003 -0.048625857 -0.15569982
000140 4e 5c a1 3b 9b cd aa 3d ca 39 00 be 32 3a 99 3e
       0.0049243337 0.083399974 -0.12522045 0.29927212
000150 fa 9c 9d 3e e9 66 b1 3e af ec 15 bc 0f f0 15 be
       0.30783826 0.34648827 -0.009150668 -0.14642356
000160 84 8f c4 3b 41 ce 9c 3e e9 6c d9 be ec c0 a0 3e
       0.0059985537 0.3062611 -0.42465904 0.31397188
000170 19 b4 af be 73 bc b6 be 88 fe 27 3e d8 f8 fe be
       -0.3431709 -0.3569065 0.1640569 -0.49799228
000180 6a a9 9c 3e 05 0b ed 3d ca 85 04 bf c0 51 5d be
       0.30598003 0.115743674 -0.51766646 -0.21613216
000190 8a 21 96 3d 97 5e 0e 3e 21 d9 a6 bc 43 ec e7 3e
       0.07330616 0.1390327 -0.020367207 0.4529744
0001a0 99 2a f7 be d9 fa c2 be 22 43 1e be 89 45 43 be
       -0.48274687 -0.38082007 -0.15455297 -0.19069494
0001b0 1e ae d1 be 9a 86 77 3e 92 f3 e3 3e 21 7a 63 3d
       -0.40953153 0.2417244 0.44521767 0.055536393
0001c0 24 c6 19 3d e5 13 c9 3d 4f fb 15 3f 3f 47 33 bf
       0.037542477 0.09818248 0.5858659 -0.7003059
0001d0 6e da 07 bf de a4 61 be 95 89 11 3e 85 97 de bc
       -0.5306767 -0.22035548 0.1421264 -0.02717186
0001e0 f0 a0 6d bb 96 37 c9 3c 34 5f 04 3e db 9d 80 be
       -0.0036259256 0.024562638 0.12926942 -0.25120434
0001f0 a3 f1 97 3e a4 de 1e bf e0 eb 2d be be fc 02 bf
       0.29676542 -0.6205847 -0.1698451 -0.51166904
000200 24 b4 31 3e 0d 3b 94 be b4 6c 0f 3f 1c 7a b0 bd
       0.17353874 -0.28951302 0.5602524 -0.086170405
000210 1f 3d 0d 3f cb 1a 98 3e 2f 4b 98 be 5b ca c0 3e
       0.5517139 0.2970794 -0.2974486 0.37654385
000220 c2 ba 5c be ac 71 45 bd dc 04 b8 3e 7d a3 61 bd
       -0.21555617 -0.04820411 0.35941207 -0.055087555
000230 c6 9f 85 3e 34 09 c2 3e ac 18 a1 be 13 7a aa 3e
       0.2609846 0.37897646 -0.31464136 0.3329626
000240 8d f1 ca be 23 9d 35 be 17 97 a1 bd c8 9e b1 3e
       -0.39637414 -0.17735724 -0.07890146 0.34691453
000250 9d 92 83 3e aa 75 5c be 42 ca 00 be 5c fc 89 bd
       0.25697795 -0.2152926 -0.12577155 -0.06737587
000260 20 3b 2e bc 98 49 04 3e ab ca bb bd 4b 04 52 be
       -0.010634214 0.12918699 -0.09169515 -0.2050945
000270 c3 68 89 be 66 bb 4e be 92 2a 76 3e ac 1f bf 3d
       -0.2683774 -0.20188674 0.24039677 0.09332213
000280 30 89 26 3d d3 7a 1a be ce 37 81 3e 45 ca c1 3e
       0.040658176 -0.15085916 0.25237888 0.37849632
000290 70 07 f9 bd 43 82 aa 3e a6 42 16 3e ba 3f 96 be
       -0.12159622 0.33302507 0.14673862 -0.29345495
0002a0 a1 12 7a 3d 4c 2a 1c 3f 59 ff 85 be 05 24 22 be
       0.061052922 0.6100204 -0.26171377 -0.15834053
0002b0 52 28 95 bc b5 c2 64 3e 0c e4 4a 3e 22 56 d7 3e
       -0.018207703 0.223399 0.19813555 0.42057902
0002c0 55 8c 8c be 7f 67 69 3d 58 ac ef 3e 41 71 65 3e
       -0.27450815 0.056983467 0.46811175 0.22406484
0002d0 a3 9c ee 3b 52 ef 84 be cb 3e 8b 3a a9 6b ea bd
       0.007281856 -0.25963837 0.0010623572 -0.11446316
0002e0 78 f4 f7 3d c5 66 26 3f 0b 6e 6a bc 68 21 ca 3d
       0.121071756 0.65000564 -0.014308463 0.09869653
0002f0 9a ca e7 3e 04 de 34 be 5e 47 6b be 3c c7 c8 be
       0.4527176 -0.17662817 -0.22976443 -0.39214504
000300 80 07 d9 3c 85 a0 2d 3e 3c 83 87 be 49 ac a5 be
       0.026492834 0.16955765 -0.2646731 -0.32358006
000310 e9 0d 9f 3d f5 12 da 3e 2f 9b 89 3e 27 a0 70 3e
       0.07766325 0.42592588 0.26876208 0.23498593
000320 4a 22 ae 3e 16 f7 67 3e 32 30 bf bd cf 63 d6 3c
       0.34010535 0.2265285 -0.093353644 0.02617064
000330 22 ac 25 be c3 98 23 3e 67 29 dd be 4d 3b a9 3d
       -0.16178945 0.15976243 -0.4319565 0.08263264
000340 56 4c 07 3d cb ac 1c bd 21 c3 16 3d ae a7 f4 be
       0.033031784 -0.038250726 0.036807183 -0.4778418
000350 db 42 7b bd 6b 8b 69 bd ed e4 b5 3e 42 fc b1 3d
       -0.061343055 -0.057017725 0.3552622 0.086906925
000360 df 74 73 3e a4 55 a8 be d0 c9 4e 3e df 45 b6 3b
       0.23775052 -0.3287784 0.20194173 0.0055625285
000370 a1 b1 ec 3d d5 39 5b 3e d3 40 02 3f 6d fd c4 3e
       0.115573175 0.2140878 0.50880164 0.384746
000380 9f 3a f6 3c 4b 82 36 bd 82 3a 69 bd ad a3 ac 3e
       0.03005725 -0.04455785 -0.056940563 0.33718625
000390 85 78 9f 3d e2 bd 77 be 5a 74 97 be 15 d7 05 3e
       0.07786659 -0.24193528 -0.29580957 0.13070329
0003a0 fd 2f 09 3e 5d 1b d5 3d 6b b1 c9 bd a1 c1 89 3d
       0.13397212 0.1040561 -0.09848293 0.06726385
0003b0 39 c7 cf 3e d9 27 a5 3e 8f 6a f8 3d cd c8 8c be
       0.40581682 0.32256964 0.121296994 -0.2749695
0003c0 bb 33 35 bd 6f 45 8e be 0e fb 37 3e 7f 9e 71 be
       -0.044238787 -0.2778735 0.17966864 -0.23595618
0003d0 48 e2 c7 3d c7 e3 4e 3e 39 9d c2 3c 7a cf a2 bd
       0.097599566 0.20204078 0.02375661 -0.07949729
0003e0 cb 7e 6d bd 6b ed bc 3d 1e 12 83 be 39 0b ac be
       -0.057982247 0.092249714 -0.2559976 -0.33602312
0003f0 c7 46 58 3e d8 5d 77 bd 23 03 85 3e b6 f3 2c 3e
       0.2112075 -0.06039223 0.25978956 0.16889843

Mv0 f4 [20, 50]
000000 17 24 fb 3e 31 b3 a8 bd d5 ba e2 bc c1 90 11 3d
       0.49050972 -0.08237303 -0.02767698 0.03553844
000010 1b 19 55 be 1b ac 68 3e ff 29 77 3c 99 eb e2 3d
       -0.20810358 0.22721903 0.015085696 0.11080093
000020 9e a8 8d 3e 3f f1 a0 3c 9a 81 d7 3d dc 00 eb 3b
       0.27667707 0.019646285 0.105227664 0.0071717333
000030 fe 31 d1 3e e6 1f cd be ad c2 70 be 4e d1 a3 3d
       0.40858454 -0.400634 -0.23511763 0.07998906
000040 61 5e 28 be b6 b6 4d 3e 04 7a 8f be 90 5a 45 3d
       -0.16442253 0.2008923 -0.28022778 0.04818207
000050 a0 a3 9a be 2e dd 07 be 42 65 3a 3d b9 53 bb be
       -0.3020296 -0.13267967 0.045506723 -0.36587313
000060 7b 7f 4f 3e 07 2b d6 bd 02 74 31 be e1 18 ed bd
       0.20263474 -0.104574256 -0.1732941 -0.11577011
000070 eb 4d 83 3e b7 19 b1 3e 9d 0a 0c be 8a 35 51 3e
       0.25645384 0.3458993 -0.13675924 0.2043058
000080 5e 29 2d 3c 1c 5d e3 3d 04 6f 09 bf cc e2 b6 3c
       0.010568945 0.111017436 -0.5368502 0.022324942
000090 68 a4 df bd de 03 2e be 35 83 1e be 3d 19 3c 3e
       -0.1092003 -0.16993663 -0.15479739 0.18369003
0000a0 9c 75 18 be fd 6d e4 3d d9 85 28 bd e8 f5 59 bd
       -0.14888614 0.11153791 -0.041143272 -0.05321303
0000b0 aa ba 16 3e ce e1 bf be 61 72 76 3d bc 85 a2 bd
       0.14719644 -0.37476963 0.060167674 -0.07935664
0000c0 19 da 77 be 2e 7f 8b be 85 61 e2 3d 1a a1 c8 bc
       -0.24204291 -0.27245468 0.110537566 -0.024490882
0000d0 71 f2 90 3e 5e f3 cf 3e 2e 0e 31 be aa 93 49 bd
       0.28309968 0.40615362 -0.17290565 -0.04921309
0000e0 47 37 d9 bd 1f c3 d2 bd df 51 ce bd 4b 8f 18 be
       -0.106062464 -0.10291123 -0.100742094 -0.14898412
0000f0 d9 13 c6 3d 66 f4 9e 3d f1 65 39 3e a5 49 56 be
       0.096717544 0.07761459 0.18105294 -0.2092653
000100 15 93 b9 3e fa 28 38 bd d3 cf fc 3d 59 3b f5 3d
       0.36245027 -0.044960953 0.12344327 0.1197421
000110 91 d9 8d 3d 10 c2 35 bc c5 d3 11 3e ac eb 5f 3e
       0.06926263 -0.011093631 0.1424094 0.21867245
000120 77 25 ab bd 62 cb c5 3e 99 0b 0e bd 44 35 6d 3d
       -0.08356755 0.3863173 -0.03467903 0.057912126
000130 95 f4 b5 bd d4 78 83 3d 0e f8 b6 3d 2f 8e 80 3e
       -0.08884541 0.064195305 0.089340314 0.25108477
000140 e0 25 77 be d3 59 73 3e 6e b1 1a 3f 02 49 01 3d
       -0.24135542 0.23764734 0.60426986 0.031563766
000150 f3 0e a8 be 34 4d 87 3e 22 8f 64 3e 63 3d 12 3e
       -0.32823905 0.2642609 0.22320226 0.1428123
000160 27 f6 cd be 12 7b c0 be 74 f8 c6 bc 84 5f 49 be
       -0.40226862 -0.37593895 -0.024288394 -0.19665343
000170 c7 85 c4 bd 31 50 30 bd 17 c6 dd 3e 53 94 a0 be
       -0.095958285 -0.043045226 0.43315193 -0.31363162
000180 1f 12 96 3d 44 cc 0c bb b9 b4 b4 bd c9 f5 07 3d
       0.07327675 -0.0021484056 -0.088235326 0.033193383
000190 70 a9 13 3d 1a c4 7f 3d 98 01 21 bf af 6c 9a 3d
       0.03605026 0.062442876 -0.62893057 0.07540261
0001a0 a6 a5 56 3e 26 3a fd 3c 7c b8 f5 3d 87 54 05 3e
       0.20961627 0.030911516 0.11998078 0.13020526
0001b0 c2 0f 7b bd 40 01 38 be 08 75 c0 3e 29 c2 00 3c
       -0.061294325 -0.17969227 0.37589288 0.007858791
0001c0 8d 3d 2b be 6d d4 14 3e af 02 7a 3e 1a 0e 6a be
       -0.16722699 0.14534159 0.24415086 -0.22856942
0001d0 bf a3 00 3e f4 65 b6 bd f2 bd 24 3e 4c 89 e7 bc
       0.12562464 -0.08906165 0.16088083 -0.02826371
0001e0 2b 4c 65 3b 6b c6 9c 3c 99 2f 6f be 67 71 a1 3d
       0.0034988027 0.019137582 -0.23358001 0.07882958
0001f0 8a df b2 3e 30 b5 eb bd 94 53 88 be 61 39 33 bd
       0.34936172 -0.11509168 -0.26626265 -0.043755893
000200 4b 94 80 3e af 05 7e 3d d3 95 36 be 5c e3 34 3e
       0.2511314 0.06201714 -0.17830591 0.17664856
000210 91 5c b1 3d 17 6b 9a 3e 58 0b 1c be 24 b8 46 3d
       0.08660234 0.30159828 -0.15238702 0.048515454
000220 15 bb 5c 3c 46 d1 5a be 0c 9d b0 3d 47 01 9a be
       0.013472338 -0.21368894 0.08623704 -0.300791
000230 bb f5 de 3d df d6 8e be c8 14 64 bd 46 d8 74 bd
       0.10886713 -0.2789831 -0.05568388 -0.059776567
000240 1e 8a 20 3e 85 29 41 bd d0 a2 d5 3e 06 06 7f bd
       0.15677688 -0.047158737 0.4172578 -0.062261604
000250 87 16 66 3e 30 e6 f8 3d c1 a6 e8 3c ec 74 4c be
       0.22469531 0.1215328 0.028399827 -0.19966477
000260 56 4f c5 3d 4f 14 17 3c c8 74 d7 3c 82 00 86 3e
       0.09634273 0.009221151 0.026300803 0.26172262
000270 6b 82 0f 3e bb 2b 12 3e 52 62 a0 bd d9 52 1d 3f
       0.14014594 0.14274494 -0.07831253 0.6145454
000280 97 2e 7c be 42 bb bc bd 83 6a 87 bd 1b 63 03 3e
       -0.24627148 -0.09215404 -0.066121124 0.12830774
000290 89 46 a8 3e 95 eb c5 3d 9a 45 ea 3d 96 4c 46 3d
       0.32866314 0.09664074 0.11439057 0.04841288
0002a0 78 2a b8 bc 3d 68 99 bd 16 e8 f5 bd 10 c3 a9 bd
       -0.022481188 -0.07490585 -0.120071575 -0.08289158
0002b0 3d b5 52 3e 2a e3 d1 bd b1 f3 7f 3e 24 dd e4 be
       0.2057695 -0.10248406 0.24995305 -0.44699967
0002c0 e6 c3 9b 3e a7 05 84 3e 8f 1b bd 3d 2f 53 0b be
       0.30422896 0.25785562 0.09233772 -0.13605951
0002d0 14 2c 16 be 1d fc d4 bd 18 7e 9c 3e 2c 67 84 3d
       -0.14665252 -0.10399649 0.30564952 0.06464991
0002e0 e5 56 90 3d 35 a4 a5 be 31 26 c6 3d b3 47 25 bd
       0.07047824 -0.32351843 0.09675253 -0.04035158
0002f0 a0 87 9f 3d 3a 04 05 be 43 bf 96 3e b9 e3 c7 3d
       0.0778954 -0.12989894 0.29442796 0.097602315
000300 72 f8 e0 3e 45 f0 02 3e e5 47 c4 3e 0a 40 75 bc
       0.4393955 0.12786968 0.383361 -0.014968881
000310 76 ae 5a 3e 73 16 07 3d 18 56 a9 3e cd d0 f1 bc
       0.21355614 0.032980394 0.33073497 -0.02951851
000320 ff c8 31 3e 9f 68 cf 3d 29 93 b6 3d 0d 99 c6 3e
       0.1736183 0.10127377 0.08914787 0.38788643
000330 f3 eb 99 3e 20 25 77 be 7d 95 93 bd 13 ab 86 bd
       0.30062827 -0.24135256 -0.07206247 -0.065755986
000340 ad bc 8f 3e 19 9a 91 3d e0 da 18 3e 10 6c 20 be
       0.28073636 0.0710947 0.14927244 -0.15666223
000350 12 18 ab 3d 0c fc 0e 3e 46 f9 71 be 5b 32 b2 3e
       0.083542004 0.13963336 -0.23630247 0.34804043
000360 db 18 11 3d 37 7d 53 be fc 4e 00 3f 49 3e 7f 3e
       0.035424095 -0.20653234 0.5012052 0.24926104
000370 44 12 68 3e ee d4 e5 be 6a ed d0 3e 34 b8 2d bd
       0.22663218 -0.44889015 0.40806133 -0.042411998
000380 0e 94 4f be 38 ba 05 bf b1 8a 06 bd eb 23 19 3e
       -0.20271322 -0.5223727 -0.03284711 0.14955108
000390 58 00 e9 bd 39 d2 c6 3d 51 ef e5 3d 41 b9 67 3e
       -0.11377019 0.097080655 0.112272866 0.22629263
0003a0 e2 e4 50 3e f6 69 b7 3c 63 23 3b bd 0d 16 f0 3d
       0.20399812 0.022389393 -0.045688044 0.11722956
0003b0 5e d4 e8 bd 40 5a d9 bd 0d af 02 3e ad 07 78 be
       -0.11368631 -0.10612917 0.12762089 -0.24221678
0003c0 e7 5b 67 3e 21 01 1f 3d f7 b8 82 be eb c2 8d bd
       0.22593652 0.038819436 -0.25531742 -0.06921943
0003d0 54 bd 9b bd 9c e9 87 3e 5e 91 a9 3e 9a a7 0c be
       -0.07604471 0.26545417 0.3311872 -0.1373581
0003e0 f3 2d 10 be bc f6 13 3e 17 e1 8a 3e b1 6b 6d 3e
       -0.14080028 0.1444959 0.27124855 0.23185612
0003f0 fb 27 99 be 30 de fd bd 05 73 9b bd 15 75 bf 3d
       -0.29913315 -0.123958945 -0.075902976 0.093485035

k_emb_layer.weight f4 [1223, 50]
000000 1e 82 03 40 01 de 4b bf b6 33 32 bf f1 77 c1 be
       2.0548167 -0.79635626 -0.69610155 -0.3778682
000010 c1 4d 91 bf a8 dd 18 3e ae a6 2d 3f 73 75 88 bf
       -1.1351854 0.14928305 0.6783246 -1.0660843
000020 e9 65 5b bd 5e bb 65 3f a3 3e a5 3f 13 a5 88 3f
       -0.053563986 0.89739025 1.290974 1.0675377
000030 54 b1 16 bf 08 66 94 3f 08 09 38 bf 07 3e a8 bd
       -0.5886433 1.1593637 -0.7188878 -0.08214956
000040 0f 90 4a 40 05 a3 2b 3f e8 75 7d be 3d 21 82 3f
       3.1650426 0.67045623 -0.24752009 1.0166394
000050 15 a8 c0 bf 1f d6 29 be 2c da 17 be 9c 1d 77 3e
       -1.5051295 -0.16585587 -0.1482932 0.24132389
000060 d8 b8 17 3f 0b 4e db 3c 82 9a d1 bd b9 70 96 3f
       0.59266424 0.026770612 -0.10234548 1.175315
000070 f2 3d 8d bf 4f a0 1d be 6d fc 35 40 ce 20 d5 be
       -1.1034529 -0.15393184 2.8435318 -0.4162659
000080 11 ea 99 be 8e 96 7d 3e 82 b9 95 3f 12 c2 98 3d
       -0.3006139 0.24764463 1.1697237 0.07458891
000090 d8 21 c7 bf fc eb 92 bf 3d d8 30 3e 97 04 f3 3f
       -1.5557203 -1.1478267 0.17269988 1.8985776
0000a0 5a ba a3 be 02 61 d9 bf f2 58 6e be ea fc 4d 3f
       -0.31978112 -1.698273 -0.23276117 0.8046404
0000b0 6d e8 28 bf 6b 38 2e 3f 95 37 04 40 64 8a 0e be
       -0.65979654 0.68054837 2.0658925 -0.1391998
0000c0 f1 b4 fc bf 5c 41 4d bf fb 75 ed 3e 4c ca a8 be
       -1.9742719 -0.80177855 0.46379074 -0.3296684
0000d0 ee bf 9b 3e b7 24 3c 3e ad 2f 03 c0 ca 5b d3 3f
       0.30419868 0.1837338 -2.049785 1.6512387
0000e0 6c fa 90 bf 54 f8 12 be 88 18 5d bf 06 b5 93 3f
       -1.1326423 -0.14352542 -0.86365557 1.1539619
0000f0 eb 02 85 3f 01 e5 31 3f 22 b4 39 3c 21 d9 25 3f
       1.0391515 0.6949006 0.011334451 0.6478444
000100 fd a9 f3 bf 0d 0e 7c 3e 13 af 7e 3e 14 a0 91 be
       -1.9036251 0.24614735 0.24871473 -0.28442442
000110 e2 2e a4 3f d1 04 95 3f 8a 66 4c 3f d0 45 c5 bd
       1.2826807 1.1642095 0.7984396 -0.09632456
000120 16 fa 90 bf f8 6a bd bf d0 f4 9c 3f 65 a7 77 3e
       -1.132632 -1.4798269 1.2262211 0.2418495
000130 c7 de 4c 3f 87 54 c9 be 67 3b 22 3f da 0e be bf
       0.8002743 -0.39322302 0.6337189 -1.4848282
000140 86 d7 ab be 26 31 af bf eb a0 2c 3f da 9a 3e 3e
       -0.3356287 -1.3686874 0.6743304 0.18613759
000150 6b 81 20 3e 1f 42 3c bf 04 5e 5b bc af f6 ee 3e
       0.15674369 -0.7353839 -0.013389114 0.4667258
000160 c9 4c 6b be f5 d8 73 3f 1f ad 3f 3f 11 7c 2f 3f
       -0.2297851 0.95252925 0.74873537 0.68548685
000170 ef ea ea bf 99 9b f6 be ac e0 92 3f b1 82 1b c0
       -1.8352946 -0.48165587 1.1474814 -2.4298518
000180 2c fd bd be ef 51 83 3f e5 54 21 bf bd 6a 64 bf
       -0.37107217 1.0259379 -0.63020164 -0.8922537
000190 ac 63 5a 3f bc fe 9c bd 24 4c 19 bf 9f a9 39 bf
       0.8530834 -0.07665774 -0.59881806 -0.72524446
0001a0 e6 01 a1 3f 04 9f 87 3e d1 26 d7 be 92 b2 36 bf
       1.2578704 0.26488507 -0.42021802 -0.71366227
0001b0 df c7 bb 3f 13 bd a9 be 98 36 0d bf 80 8c dd be
       1.4670371 -0.33152065 -0.5516143 -0.43271255
0001c0 72 73 21 bf 4e 5d 93 bf ac b0 ed 3d f2 cc 71 bb
       -0.6306678 -1.1512849 0.11605963 -0.0036895839
0001d0 2d 12 a5 bf a6 40 8c be 52 56 68 3f ef 60 b7 3f
       -1.2896172 -0.27393073 0.90756714 1.4326457
0001e0 df 4f a4 3f 22 60 ff 3f ed a4 a9 3f 7c 0c d1 be
       1.2836875 1.9951212 1.3253456 -0.40829837
0001f0 c3 a6 95 3f 81 28 6a 3f a5 0c 0c 3f 37 8a 94 3f
       1.1691517 0.91468054 0.54706794 1.160468
000200 d9 06 0d 3f e2 f6 70 3f bf 00 bf 3f c5 fb 9a 3f
       0.55088574 0.94126713 1.4922103 1.2108084
000210 92 e2 0c 3f 61 86 9c 3e 09 cb a0 3e 3e 84 d1 bc
       0.5503322 0.30571273 0.31404904 -0.025575753
000220 02 9d 8a be 1d 56 e8 bf 20 8d 09 bf da 2e 73 be
       -0.27072912 -1.815128 -0.53730965 -0.23748341
000230 1c 28 81 bf e6 35 a1 3f 6b ce 2e bf b4 3c 04 3f
       -1.0090365 1.2594573 -0.6828372 0.51655126
000240 5d 95 30 bf 0a c8 07 bf 91 32 da bc b8 74 a0 be
       -0.6897791 -0.5303961 -0.02663544 -0.3133905
000250 cb 5a 06 3f 2d 50 f7 bf 37 d5 19 3f 79 e7 35 bf
       0.5248229 -1.9321343 0.60090965 -0.71056324
000260 83 a4 ce be 97 99 77 3f b0 d7 51 3f d3 1e 9c bf
       -0.40359887 0.96718735 0.8196974 -1.2196907
000270 35 09 f3 3c 55 ba 38 be 69 4b 9b 3f 11 53 f6 3e
       0.029667476 -0.1803983 1.2132388 0.4811025
000280 9f 66 74 3e f4 04 8f be 03 81 04 3f 67 5a ef 3e
       0.23867272 -0.27933466 0.51759356 0.4674866
000290 df 18 98 3f e3 52 b3 3f 6d bc b3 bc 97 88 a9 bf
       1.188259 1.400967 -0.021940434 -1.3244809
0002a0 c7 ef 33 be 1f 70 39 be 97 16 69 bf 32 f1 06 40
       -0.17571937 -0.18109177 -0.91050094 2.1084714
0002b0 31 6d 34 bf ba e0 de be 6b c4 88 3e d9 0d ac 3f
       -0.7047911 -0.43530828 0.26712355 1.3441726
0002c0 7e b2 81 3f 81 3d 03 3f 44 25 ab bf f8 02 06 c0
       1.0132596 0.5126572 -1.3370748 -2.0939312
0002d0 3f 84 1d 3e ae 7b 4e bf 97 31 f8 3d 44 f7 fe 3e
       0.15382479 -0.8065747 0.121188335 0.49798024
0002e0 c4 ab bf 3f 09 67 fa 3e 6c 62 9c 3e cb de c7 bf
       1.4974294 0.48906735 0.3054384 -1.5614866
0002f0 47 27 08 bf 1b 01 98 3e b3 3a 0e c0 92 ed 05 40
       -0.5318493 0.29688343 -2.2223327 2.0926251
000300 cf 02 ba bf f5 15 1b 3f 29 82 ba 3c 3f fa f7 be
       -1.4532107 0.6058038 0.022767143 -0.4843311
000310 c1 e1 e8 be 1a 9c 59 bf 47 62 e3 be 34 94 0f bf
       -0.45484737 -0.8500382 -0.44410917 -0.56085515
000320 4e 63 83 bf b9 d3 fd 3f b1 12 24 bf 96 a6 3d be
       -1.026468 1.9830238 -0.6409102 -0.18520579
000330 9f 20 e4 3e 8e 3d da bf 19 b7 77 be db 72 1b bf
       0.44556138 -1.7050035 -0.2419094 -0.6072213
000340 21 09 11 3f fc 4a 9d 3e b1 dd 6b 3f 9c c3 16 40
       0.56654555 0.3072127 0.9213515 2.355689
000350 1f df 7d bf 66 05 8b bf c6 51 0e 40 04 a3 10 bf
       -0.9916858 -1.0861022 2.223741 -0.5649874
000360 d8 c8 61 be 43 03 48 bf 7d 82 8b bf 51 81 a6 3e
       -0.22049272 -0.78129977 -1.0899197 0.32520536
000370 1b a9 f1 3a c6 bc cd bf 05 cc 21 bf 52 c0 91 bd
       0.0018437238 -1.6073234 -0.63201934 -0.0711676
000380 8b 92 08 bf 16 2f 9e bf d8 36 3d 3f cb 3f ef 3f
       -0.53348607 -1.235812 0.7391181 1.8691343
000390 a9 3f 8f bd 4e c5 a2 3f fe 11 0d 3f ce c7 f6 3e
       -0.06994564 1.2716463 0.5510558 0.48199314
0003a0 cf 1a 08 bc e8 a4 1d be 77 96 e1 be 47 92 5a 3d
       -0.008307173 -0.15394938 -0.44060108 0.053362157
0003b0 2b 0d c1 3f a0 45 92 bf 8c 43 1d bf 24 a6 69 3f
       1.5082144 -1.1427498 -0.61431193 0.91269135
0003c0 c8 0e 51 3e e7 3f 82 3f 9a fa 7a bf fc 55 8d 3f
       0.20415795 1.0175751 -0.9803864 1.1041865
0003d0 ab 01 1d 40 c0 9a 6e 3f a9 e5 00 40 9a 36 b7 bf
       2.4532268 0.9320488 2.0140173 -1.4313538
0003e0 c3 76 8d bf a1 f1 76 bf 17 ac 8e 3f cb 53 2b bf
       -1.1051868 -0.96462446 1.1146268 -0.6692473
0003f0 01 5b ea 3e cf 17 5b be 08 08 9b be 11 e2 9e bf
       0.45772555 -0.21395801 -0.30279565 -1.241274

v_emb_layer.weight f4 [2446, 50]
000000 fe 4a 23 3e ac 25 1d bf 36 aa bd 3e 9c 2a 73 bf
       0.15946576 -0.6138561 0.37043923 -0.9498689
000010 5a c5 90 bf 75 66 8e 3b 6e ab 35 c0 bb 77 ff 3e
       -1.1310227 0.00434571 -2.8385882 0.49896035
000020 85 77 33 3f 49 b5 b0 be f0 32 6d bf e7 f0 c4 bf
       0.7010425 -0.3451331 -0.9265585 -1.5386018
000030 3c 1f a7 3f 00 8e f6 3e dc 6a 55 3e 24 2b 51 c0
       1.3056407 0.48155212 0.20841545 -3.268258
000040 1e ad ca 3f aa d4 02 3f 6d 19 9a 3e 42 d9 d7 be
       1.5834081 0.5110575 0.30097523 -0.42157942
000050 8c 65 79 be 19 62 b6 bf f4 e1 70 bf 4d 93 bb 3e
       -0.24355143 -1.4248687 -0.9409478 0.3663582
000060 34 93 14 3e c0 a0 f5 bd 51 b3 cb 3e dd b9 fd bd
       0.14509279 -0.11993551 0.39785245 -0.12388966
000070 4c e4 27 bc d6 98 39 40 5e 38 91 bf 00 85 3b bd
       -0.010247301 2.8999534 -1.1345327 -0.045781136
000080 33 46 ab 3f a8 ad 21 3e cd f3 76 3e 94 e6 9d 3e
       1.3380798 0.15788901 0.2411644 0.3083998
000090 b2 49 d5 bf dd 30 af bf 5d 76 f6 3e 16 0b c2 bc
       -1.6663115 -1.3686787 0.4813718 -0.023686927
0000a0 08 ad aa 3f 02 0a ab 3e 10 72 7b 3f 0d df 8a bd
       1.3334055 0.33406073 0.9822092 -0.06780825
0000b0 64 7a 00 be 50 4a 32 be 9f 3a cb bf fa 87 bc 3e
       -0.12546688 -0.1741116 -1.5877265 0.36822492
0000c0 de 6e 73 bf 34 f9 a3 3d 20 a6 e4 3e 19 fa c5 bd
       -0.95091045 0.08006516 0.44657993 -0.09666843
0000d0 a7 3d 24 bf 9b 4f a7 3f 3d 8b a7 3e 1b 55 d5 bf
       -0.64156574 1.3071169 0.32723418 -1.6666597
0000e0 04 5a 3a bf 2a ae 29 bf dc bb 90 3f a9 90 db bf
       -0.727936 -0.6628138 1.130733 -1.7153522
0000f0 92 f3 74 bd 53 24 d6 be 7a f8 77 3f fb fc 8b be
       -0.0598026 -0.41824588 0.9686352 -0.27341446
000100 1a 4d 3f 3f 35 e9 ba 3c af f1 ce be bd 7d 01 3d
       0.7472702 0.02281628 -0.40418765 0.031614054
000110 65 aa c8 bf 2d 84 f8 bf 44 b5 62 ba 17 5e 93 3e
       -1.5677 -1.9415337 -0.00086482265 0.28782722
000120 98 e5 07 3f e4 bb 25 3f db a8 8c 3f 8a 63 3c bf
       0.5308471 0.64739823 1.0989031 -0.73589385
000130 e0 92 b2 bf dd 87 49 3f 92 6e 99 bf 6c 8e a7 be
       -1.3951073 0.78722936 -1.1986868 -0.32725847
000140 de 94 84 bf 37 e8 88 3f a1 89 d8 3e ad 4f cc bf
       -1.0357931 1.0695866 0.42292503 -1.5961815
000150 db 08 8c bf 3d 28 9d 3f 4d af e7 bf ce b6 aa bf
       -1.0940202 1.2277905 -1.8100373 -1.3337038
000160 82 cd a2 bf 8e 61 e7 be e1 41 73 bf 37 f6 98 be
       -1.2718966 -0.45191616 -0.950224 -0.29875347
000170 fb f5 16 3e ac 0e 91 3f f3 b3 48 3b a8 71 8c be
       0.14742272 1.1332603 0.0030624836 -0.27430463
000180 ab 25 99 be 92 91 19 c0 90 93 71 3e 4e 61 1f bf
       -0.2991155 -2.39951 0.23591447 -0.6225785
000190 3f 82 39 bf 21 ef f6 3f e2 23 34 bf 40 a3 6b 3f
       -0.72464365 1.9291726 -0.7036725 0.92045975
0001a0 93 1d 21 3f 92 8b 40 be 14 36 11 bf 07 f2 15 3f
       0.6293575 -0.18803242 -0.5672314 0.5857243
0001b0 d4 3f 10 be 7a 3a 95 3e 9c 84 11 bf ca 4e b5 be
       -0.14086848 0.29146177 -0.5684297 -0.35411674
0001c0 a4 d3 ca be 0b b9 c5 bf 91 e0 91 3f a5 d8 db 3e
       -0.39614594 -1.5447096 1.1396657 0.42938724
0001d0 f4 d3 fa 3e da 8e 90 3f e4 0f 11 bf 39 76 00 bf
       0.48989832 1.1293595 -0.5666487 -0.50180393
0001e0 be 1f 7a be 08 d7 5d 3f 51 74 cb bf 4a b8 a2 3e
       -0.24426171 0.86656237 -1.5894872 0.31781226
0001f0 2d a6 9b be 2a c7 97 bf fe 65 95 bf 4e 84 ca 3f
       -0.3040022 -1.1857655 -1.167175 1.5821626
000200 ed 7b 7b 3e 69 6c b6 3e eb 3f e1 bb 1d e2 81 3e
       0.24558993 0.35629585 -0.0068740747 0.25367823
000210 f2 e3 f0 3d 86 61 fb be 53 4e 7e bd 30 6d 01 be
       0.11762227 -0.49097842 -0.062086415 -0.12639308
000220 a7 47 8b bf e5 54 84 3d fc 65 19 bf 1f ab ba bf
       -1.0881242 0.06461505 -0.5992124 -1.4583472
000230 ce 9e 49 3e f5 54 c5 3f d8 81 fe be d9 b9 d0 bf
       0.19689485 1.5416552 -0.49708438 -1.6306716
000240 fc d1 b0 3e 9c c0 a1 3e e9 6b 0b 3e ac 90 84 be
       0.34535205 0.31592262 0.13615383 -0.25891626
000250 a3 eb 90 3f e2 27 3b 3f cb e7 a9 bd ed 76 c4 3f
       1.1321911 0.7310773 -0.08296164 1.5348793
000260 7a 88 50 40 b2 6c e3 3f b4 72 03 bf d0 a7 0b 3c
       3.2583299 1.7767546 -0.513469 0.008523896
000270 4d 1e 06 3f ed 05 da 3e 6f 61 c4 3e d8 a9 60 be
       0.52389985 0.42582646 0.38355586 -0.2193979
000280 b4 c7 05 c0 8b 4b d7 bf 27 78 05 be f7 55 b8 bf
       -2.090314 -1.6819929 -0.13034116 -1.4401234
000290 22 4c 68 bf 9f 49 2a 3f 2b 22 6f 3f b9 79 cb bf
       -0.9074117 0.66518587 0.9341151 -1.5896522
0002a0 90 18 87 bf 90 0d 55 be b8 85 d3 bf c7 ac c1 bf
       -1.0554371 -0.20805955 -1.6525183 -1.5130852
0002b0 93 e9 45 bf f2 ed ac 3f 2c c8 c1 bf d7 5e b0 bc
       -0.7730953 1.3510115 -1.5139213 -0.021529598
0002c0 08 8f a5 bf ab 5c f6 be 45 48 18 bf 19 e2 1d 3f
       -1.2934275 -0.48117575 -0.59485275 0.6167312
0002d0 c2 a7 87 3f 6a 5a 2d bf 61 07 b7 3f 9b ae b8 bf
       1.0598071 -0.67716086 1.4299127 -1.4428285
0002e0 f3 de 67 bf 60 de a8 3e 7c a8 6c 3f 0b 45 ed 3e
       -0.9057457 0.3298216 0.92444587 0.46341738
0002f0 b7 ac 28 3f fa f1 7d 3f 9b 30 7a 3e 02 4b 0c 40
       0.6588854 0.9919735 0.24432604 2.192078
000300 29 ad 62 be e5 0b e1 3e 22 11 0a 3f 66 46 54 bf
       -0.22136368 0.43954387 0.5393239 -0.8291992
000310 4c 63 63 be 7a 87 1b 3e f1 32 e4 3e 1c e5 99 3f
       -0.22205848 0.15188399 0.44570115 1.2023044
000320 a3 2c 13 3e 06 33 cd 3e 09 e8 91 3c bb f6 78 3e
       0.14372496 0.4007799 0.017810838 0.2431287
000330 09 61 45 3f 79 07 9a 3d 23 8a b8 3f 39 97 44 be
       0.7710119 0.075209565 1.4417156 -0.19198312
000340 c7 c6 26 3f fd 75 b7 bf 84 ac fb 3d d7 29 84 bf
       0.6514706 -1.4332882 0.12288764 -1.0325269
000350 26 ae 91 3f 3b b7 81 3e 26 b7 ab 3e 1d 5c 1c 3f
       1.1381271 0.25335106 0.3353817 0.61078054
000360 b8 42 88 be 58 8e 96 3e 13 31 31 3f a4 38 c2 3f
       -0.26613402 0.29405475 0.69215506 1.5173535
000370 c8 b9 03 c0 8e 7a 0a 3f cf fc 83 bf 47 c1 50 be
       -2.0582142 0.54093254 -1.0311526 -0.2038623
000380 7b 52 53 3e 5d fb 16 bf 57 d3 62 bf d8 a9 1f 3b
       0.20636933 -0.589773 -0.8860373 0.002436271
000390 de 3f 5e bf 16 df 70 bf 55 2e b8 bc 70 6c 9d 3e
       -0.86816204 -0.940904 -0.02248303 0.30746794
0003a0 3c d1 d1 bf 1c cb 17 3f b4 99 c1 3d 79 c2 1e bf
       -1.6391978 0.59294295 0.09453145 -0.6201549
0003b0 0f 01 4c c0 62 65 d1 3d 67 92 2c 3f 5c c9 bb be
       -3.1875646 0.10224415 0.6741089 -0.36677063
0003c0 2b a8 1e 40 de 37 44 bf 0b 52 b9 3f 5e 1a 0c bf
       2.4790142 -0.76647747 1.4478163 -0.54727733
0003d0 ee 9a 0d 3f e2 b6 dd 3d 64 59 d7 3e 18 01 87 3d
       0.5531453 0.10825898 0.42060387 0.065920055
0003e0 27 04 1f 3e 5f 60 4a bf c6 6c a5 3e 25 89 af 3f
       0.15528928 -0.790533 0.3230955 1.3713728
0003f0 33 4b 0e bd 2e d6 b2 bf 39 75 d5 bf 28 e6 ee 3e
       -0.034739684 -1.3971612 -1.6676399 0.4665997

f_layer.weight f4 [50, 100]
000000 d1 43 f6 bd a7 8d 9d bd 87 96 08 bd c6 3f 0b be
       -0.12024654 -0.07693034 -0.03334668 -0.13598546
000010 ac d6 76 bd df 46 a9 bb 73 3f 3d 3d fd 06 bb bd
       -0.06026332 -0.005165919 0.046203088 -0.09132192
000020 20 59 34 be 57 4c 13 be 22 0c 15 bd 21 0d b0 bc
       -0.17612123 -0.1438459 -0.036388524 -0.021490635
000030 d4 16 01 be e8 01 5f bc 7a 6a 1d be e4 7b fe 3d
       -0.12606364 -0.013611294 -0.15372649 0.12425974
000040 b0 ca ae bd d0 8a 10 bd dc 89 df bc 49 aa c0 bd
       -0.08534753 -0.035288632 -0.027287416 -0.09407479
000050 ff 92 da bd 65 64 20 3d 79 93 a0 bd a9 c3 ca 3b
       -0.106725685 0.039158244 -0.07840628 0.0061878753
000060 97 73 d1 bd 18 52 bf 3d 1f 51 77 3d 80 54 d9 bd
       -0.10227125 0.0934183 0.060380097 -0.1061182
000070 af c8 0c 3d 8a 5d 0e bc 74 06 e7 3d b3 06 26 bd
       0.034371074 -0.008689294 0.11280528 -0.040533733
000080 f8 1e 07 be ac 54 1f 3d 4e 9d ab 3d 7b 70 e4 3c
       -0.13195407 0.03889911 0.08379613 0.027885666
000090 d3 7d 05 3d b9 63 51 bb c0 68 3c bd 50 b7 ba 3d
       0.0325907 -0.0031950308 -0.045998335 0.09116995
0000a0 d6 91 24 bd 70 ed d7 3c 04 e6 e1 3d 2b f5 bd 3c
       -0.040178142 0.026358336 0.110302 0.023188194
0000b0 22 63 62 3d 21 2d 55 bd 7c 69 e1 3c fa d3 5c be
       0.05527032 -0.05204499 0.02751612 -0.21565238
0000c0 19 8b b8 3d 78 cc b8 bd ad 4c d8 bc e9 85 fc 3c
       0.09010906 -0.09023374 -0.02640375 0.030825572
0000d0 06 46 a5 3d 52 55 6d 3d cf 7d 49 3e 7d 63 a2 bc
       0.080699965 0.057942696 0.19676898 -0.01982283
0000e0 d8 64 b4 bc 43 97 5c bc 92 a2 a7 3c ee 89 57 bd
       -0.022020742 -0.013463798 0.020463262 -0.052621774
0000f0 62 c6 2c be fc c7 17 3c 1f 62 d6 bd 49 84 af 3c
       -0.16872552 0.009263989 -0.10467934 0.021425383
000100 fa 64 ff bd 2e 34 00 bc ad b2 ab 3d e1 c1 f2 bd
       -0.124704316 -0.007824941 0.08383689 -0.11853386
000110 fb 1c 8c bd f9 3a 0a bd 65 d8 86 bd ea 61 8c bb
       -0.06841465 -0.033747647 -0.06584243 -0.004284133
000120 1c 15 a2 bd 94 13 9c bd 89 7a 8c bd 3a 80 8b 3d
       -0.079141825 -0.07620922 -0.06859309 0.06811567
000130 7d a6 81 bd 41 9d ef bd 33 ce 41 bd 6e 21 37 3b
       -0.06330583 -0.11699916 -0.047315788 0.002794351
000140 10 fa 0b bd 86 eb f0 bc 66 1e 8e 3d f1 2c 2a 3d
       -0.034174025 -0.029409181 0.06939392 0.041546766
000150 8a 32 36 3d 19 e9 fd bc d4 28 ea 3c 4e 10 77 3c
       0.04448179 -0.030994939 0.028583921 0.015079571
000160 92 75 ad 3d 47 b8 a7 3d dd af f4 bd c1 a4 9d bd
       0.084696904 0.08189445 -0.11947606 -0.0769744
000170 28 07 4a 3d 02 bd 1d bd 68 e5 bd 3d 84 9e fe bd
       0.04932323 -0.03851033 0.092722714 -0.12432578
000180 88 96 5d 3c f8 48 33 be fb 55 d6 3d 35 a7 82 be
       0.013524659 -0.17508304 0.10465618 -0.25518194
000190 8a 01 4d 3d d8 95 b2 3c d4 87 5e 3d 34 97 52 be
       0.050050296 0.021799967 0.054328755 -0.20565492
0001a0 c7 46 cf bc 6f 61 04 3d 49 4c f5 3d 66 17 9f bd
       -0.025302304 0.032319482 0.11977441 -0.07768135
0001b0 53 41 3e be d8 ae 84 3c fc b7 10 be 08 39 a6 bc
       -0.18579607 0.016196653 -0.14132684 -0.020290866
0001c0 d6 e3 44 3d 76 48 ad 3d 66 0e 39 be 4a a7 8a bc
       0.048068844 0.084610865 -0.18071899 -0.016925473
0001d0 b0 cb db bc 2b fb ad 3c 07 cf 6e 3d 4e d0 9c bc
       -0.026830524 0.02123793 0.058302905 -0.019142296
0001e0 cc 06 66 bd 05 bd 06 3e 97 90 f7 bd 36 70 ba bd
       -0.056158826 0.13158043 -0.12088125 -0.09103434
0001f0 14 e4 b1 bc ac cf fb 3d 0c 98 fb 3d 1d 6c 0a bd
       -0.021715201 0.1229547 0.1228486 -0.03379451
000200 86 95 af bc 58 ce 53 bd 60 6d a1 3d 92 a2 f1 bc
       -0.021433603 -0.051710457 0.0788219 -0.029496465
000210 d1 f3 5c bd 4f 2b 84 bd 1b 3d fd bb cd 37 0b 3e
       -0.05394346 -0.06453573 -0.0077282316 0.13595505
000220 3c aa 41 3d b8 3f 32 3d 72 4c 80 3d 1a a2 03 3e
       0.04728149 0.0435178 0.06264581 0.12854806
000230 53 46 52 be a1 a1 c4 3c bd 7d 5d 3d 12 a6 09 3d
       -0.20534639 0.024002852 0.05407499 0.033605643
000240 f5 06 9a 3c 20 16 e3 3d 59 04 04 be d6 e9 6d bd
       0.018802145 0.110882044 -0.12892283 -0.05808433
000250 7d 6d 34 bd 6a 0b 99 bd a6 d1 59 bd 7a 29 1f 3d
       -0.04404973 -0.0747288 -0.053178452 0.038857915
000260 ff 17 44 3d 2b 46 18 3d 19 21 cb 3d 01 28 83 3d
       0.047874447 0.037176292 0.09918422 0.064041145
000270 18 f0 7a bd d4 97 5a bd e1 36 4c 3c 91 54 d1 bd
       -0.061264127 -0.05336745 0.012464256 -0.10221208
000280 db d0 26 be bf 50 34 bd f4 5f d7 ba 78 ba e5 3d
       -0.1629061 -0.044022318 -0.0016431795 0.11217207
000290 ad 6f 84 bc 58 de 9f 3d 48 3e 0c bc cf 18 bd bd
       -0.016166532 0.078060806 -0.008559771 -0.092332475
0002a0 63 57 3b be 0c ee 41 3d 8f 13 f7 bd cd fc c3 bb
       -0.18295054 0.04734616 -0.120642774 -0.005981064
0002b0 b2 2c 9a bd c5 14 f7 bd 97 9b a5 bc d5 83 42 bd
       -0.07528056 -0.12064508 -0.020215793 -0.047489006
0002c0 ae d3 bc bd 26 a3 78 3d 9f 46 7b bd 59 24 02 3e
       -0.09220062 0.060702465 -0.061346646 0.12709178
0002d0 7a f2 f8 bd af 49 21 3e ca 8a 42 3e a6 87 02 be
       -0.12155624 0.15750764 0.18998256 -0.12747058
0002e0 4d 7a 8e 3d 45 c7 7f 3d d4 d6 94 bd b6 2f c5 3d
       0.06956921 0.062445898 -0.07267538 0.09628241
0002f0 1a b4 b8 bd 0c 88 a6 bd d2 12 18 3e 82 f5 f3 bc
       -0.09018727 -0.08131418 0.1485093 -0.029780153
000300 49 fe 19 3d 65 e5 cb 3b a6 85 ad 3d d6 e3 65 bc
       0.03759602 0.0062224143 0.08472757 -0.014031371
000310 0b ca 89 bd 4f b9 df bb f2 a8 a0 bd bd a8 40 3e
       -0.0672799 -0.0068275104 -0.07844724 0.18814369
000320 24 ea c5 bd f9 80 7e bd f5 70 3d 3d eb 9c 43 be
       -0.096637994 -0.062134717 0.046250302 -0.19102828
000330 7d a3 52 3d 3f 06 24 3e 32 2f aa 3d be 18 76 bd
       0.051425446 0.16018008 0.08309783 -0.06008219
000340 9a 0f 2d be 19 ac 8d bd 61 cb b7 bd e1 5e d2 bd
       -0.16900483 -0.06917591 -0.08974338 -0.10272003
000350 be 96 f8 3c 07 64 6f 3c 91 fa f9 bc 99 06 35 3e
       0.030345317 0.014611251 -0.030514987 0.17678298
000360 53 a9 6f bd 44 d8 96 bd 27 ee de 3d 36 b6 0b bd
       -0.05851109 -0.07365468 0.10885268 -0.034109317
000370 73 68 71 bb b0 c8 98 3d e4 7c a7 bb 6d 61 db bd
       -0.0036835938 0.07460153 -0.0051113237 -0.10711942
000380 05 b6 33 bd 0f af 29 3c 5e b0 d4 3d cc fc ff bd
       -0.04387476 0.010356679 0.10385202 -0.12499389
000390 92 ac 90 bd ec 3b 27 be 8b b3 ea 3d d5 e4 37 be
       -0.07064165 -0.16331452 0.11460026 -0.17958386
0003a0 ce 91 0f 3d 20 cb 1c be 3b 41 85 bd 0d b5 42 bd
       0.03505116 -0.15311861 -0.06506582 -0.047535945
0003b0 16 e0 fe 3a eb 69 d0 bc c9 1f 5c 3d 84 39 d7 3d
       0.0019445445 -0.02544113 0.05374125 0.10509017
0003c0 a1 b7 e2 bc 03 fc a6 ba 9a 1b d4 3d be 00 a8 3d
       -0.027675452 -0.00127399 0.10356827 0.082032666
0003d0 9e d7 ba 3d 2d 46 17 bd 17 48 e4 bc d4 27 e9 bd
       0.09123157 -0.03693216 -0.027866406 -0.1138455
0003e0 f9 bb ac 3d 64 2e d1 3b 21 8a 4b 3d d5 ed 70 3e
       0.084342904 0.006383704 0.049692277 0.23528226
0003f0 9b 06 06 bc c1 02 39 bd 4d 23 e6 bd d7 46 b3 bc
       -0.008180286 -0.045168642 -0.11237202 -0.021884365

f_layer.bias f4 [50]
000000 d3 1d ea bd a7 0b 68 3d e0 26 ad bd 28 85 d5 bd
       -0.1143147 0.056651738 -0.084546804 -0.10425788
000010 f0 5f 3a bb 4c 41 0a bd ca 56 8d bd 59 58 88 3d
       -0.002843853 -0.03375368 -0.06901319 0.06657476
000020 30 17 27 3d 59 2d f3 38 8f 97 e5 3d dc a7 cb 3c
       0.040793598 0.000115955896 0.11210548 0.024860315
000030 10 2b 5b 3d 9a 55 ce bd 98 d3 17 3d ec 33 c5 3c
       0.053507864 -0.10074921 0.037067026 0.02407261
000040 53 34 70 3d c4 f4 fc 3d af 6d 62 bd 51 41 c3 3d
       0.05864365 0.12351373 -0.055280384 0.095339425
000050 3c a0 0b 3d c2 32 b0 bd 39 92 1e 3d 18 9f 01 3c
       0.03408836 -0.08603431 0.038713668 0.007911466
000060 81 dc 9a bd 7b 2b 54 bd 13 ed 3f 3d d6 df 3b bd
       -0.07561589 -0.05179928 0.04685695 -0.045867763
000070 85 ce 02 be 79 8f 64 3d 7d 4c 84 3d f5 0d cf bb
       -0.12774093 0.05580089 0.064599015 -0.0063188025
000080 40 e3 01 bc cd b4 c7 bd 6b 68 66 3d 18 af a2 ba
       -0.007927716 -0.09751282 0.056251924 -0.0012411801
000090 f2 9d 37 bd a6 ee ef 3d d0 e1 f6 3d 0f 43 a8 bd
       -0.044828363 0.117154405 0.12054789 -0.082159154
0000a0 b7 0c 41 bd a1 7f c8 bd 60 0b 4a 3d ae b8 a9 3c
       -0.047131266 -0.09789968 0.049327254 0.020717945
0000b0 9c 2b dd bd b7 ab df bd a2 55 ee 3d 83 ef 57 bd
       -0.107993335 -0.10921424 0.11637427 -0.05271865
0000c0 4c ce 2e bd f6 98 84 bd
       -0.04267721 -0.064744875

p_layer.weight f4 [1, 50]
000000 ee e4 27 be 5f 1b 1f be 21 ce 1a be d6 e1 c2 bd
       -0.16395923 -0.15537785 -0.15117694 -0.09515731
000010 ee 9d 06 be d9 66 16 be 19 9a 29 be 72 94 fd bd
       -0.13146183 -0.14687671 -0.1656269 -0.12381829
000020 5a 61 71 be 5f 9c 4e be e4 f4 18 3e 12 0c 4f 3e
       -0.23572293 -0.20176838 0.14937168 0.20219448
000030 7c a1 35 be ca b8 e0 bd 16 96 66 be 0b 1d 61 be
       -0.17737383 -0.10972746 -0.2251819 -0.21983735
000040 58 c9 5f 3e 51 f4 09 3e 72 b2 f6 bd 9e 3f 75 3e
       0.2185415 0.13472106 -0.120457545 0.2395005
000050 17 69 4f 3e 03 a5 24 be 35 16 81 be d0 91 3e be
       0.20254932 -0.16078572 -0.25212255 -0.1861031
000060 a0 16 6e 3e ca 76 10 be 2b f3 3a 3e 27 f6 16 3e
       0.23250818 -0.14107814 0.18256824 0.14742337
000070 10 3e 0e be 15 0b 78 3e e4 9f 50 be 65 42 53 3e
       -0.13890862 0.24222977 -0.20373493 0.20630796
000080 6b 64 6d be 46 98 15 be 5e df 44 3e b0 fa 51 be
       -0.23182838 -0.14608869 0.19225833 -0.20505786
000090 d6 55 67 be 4f 99 2f 3e b0 f8 3e 3e 4d a8 65 be
       -0.22591338 0.17148326 0.18649554 -0.22427483
0000a0 39 9c 88 be ef 01 dc bd 29 d7 26 3e e8 c8 47 be
       -0.26681688 -0.10742556 0.16293015 -0.19510233
0000b0 d5 79 41 be bb 46 0c be 24 5d 25 3e 45 9d 70 3e
       -0.18894131 -0.13698857 0.16148812 0.23497494
0000c0 bb 4a 80 3e df b4 19 3e
       0.25057015 0.15010403

e_layer.weight f4 [50, 50]
000000 1a 75 02 3e af 02 2a be 3a 9b 53 3d f9 b3 ec 3d
       0.12739983 -0.16602586 0.051661707 0.115577646
000010 aa b9 24 3e fa cf df 3d 45 a0 72 bd c2 f0 01 3e
       0.1608645 0.1092834 -0.059234876 0.12689498
000020 60 fc 07 be 2f 68 12 be 29 e0 b3 be 18 8c 9a 3d
       -0.13279867 -0.14297555 -0.35131958 0.07546252
000030 ef 2a 3d 3e 82 27 21 bc b5 88 13 be fc 46 06 be
       0.18473409 -0.00983608 -0.14407618 -0.13113016
000040 7b 9b 4a bd a4 52 fc bd 15 b6 cb 3d e6 29 a0 3d
       -0.049464684 -0.1232045 0.09946839 0.078204915
000050 f8 8a 39 bd 5b c4 87 3e b2 6e 1a 3e d6 e9 42 be
       -0.045298547 0.26516995 0.1508129 -0.19034514
000060 f8 86 f8 bd 07 a5 6c 3c e7 70 ba 3d 34 2e 9b bd
       -0.12135118 0.014443642 0.09103566 -0.07577172
000070 d5 b6 59 3d 5f 64 9f bc b9 d4 72 3e cf 8f 76 bc
       0.053152878 -0.01945704 0.2371396 -0.015048935
000080 ea 00 7f 3e 72 5d 80 3e 8e e7 8f 3e 18 a0 f8 bc
       0.24902692 0.25071293 0.2810635 -0.030349776
000090 78 e0 19 3d 08 69 2c 3e 02 f9 9d bd c7 a3 67 3e
       0.037567586 0.16836941 -0.0771351 0.2262107
0000a0 35 d3 c0 3c 9f 0b 66 bd 01 87 dc 3e f4 72 7a bd
       0.023538211 -0.056163426 0.4307175 -0.061144784
0000b0 b6 fa 45 bd b7 48 22 bd 39 0f 4c bd 7c 25 de 3d
       -0.0483348 -0.039620128 -0.049819205 0.10846993
0000c0 00 9b c2 3d b1 16 b8 3c b8 d3 2d 3e 87 e2 ad 3c
       0.0950222 0.022471758 0.16975296 0.02122618
0000d0 2a 6c 5f be e0 c0 dc 3d 9b 17 3f 3d 09 5b 1f be
       -0.21818605 0.107789755 0.04665337 -0.15562071
0000e0 b7 c5 e7 3d 41 f5 5b 3e c6 b0 ce bd 8a 2f d3 bd
       0.11317008 0.21480276 -0.100923106 -0.10311802
0000f0 d1 7a f3 bd f6 25 11 3c ad 31 ac 3e 62 c7 b1 3d
       -0.1188866 0.008859148 0.3363165 0.086806074
000100 ae fb 85 be 5a b2 c6 3a b3 76 11 3d 01 74 e0 bd
       -0.2616858 0.0015159354 0.03551359 -0.10959626
000110 23 5a e6 3e 65 05 be 3e 43 ec c1 bd 1e f8 69 3e
       0.44990644 0.3711349 -0.094688915 0.22848555
000120 c3 35 4d 3e 94 03 b5 bd 21 a5 05 bd 3f fb 20 bc
       0.2004004 -0.08838573 -0.032628182 -0.009825527
000130 d0 3c 59 3e 20 f1 5a 3d da c4 4a 3d ef bd a7 3c
       0.21214604 0.05345261 0.04950414 0.02047631
000140 80 72 cc 3d 87 e4 eb bd 5f 34 0f 3e c6 31 f1 3c
       0.09982777 -0.115181975 0.13984822 0.02944268
000150 65 ab 3d 3e fc 36 c0 3c ed 5a 95 3d d1 6e b8 3d
       0.18522413 0.023463719 0.07292733 0.090055116
000160 4f 19 2f be 4d 79 69 3e e7 5f 86 3e 68 b3 86 bc
       -0.17099498 0.22800179 0.26245043 -0.01644297
000170 fd be 45 3e f3 d9 b8 3c 76 3f 69 3e 4c 35 d2 bd
       0.19311137 0.022564864 0.22778115 -0.10264072
000180 f9 65 07 3e 6d 80 98 3d ac 92 9f be be d2 2f 3e
       0.13222493 0.0744637 -0.3116659 0.17170236
000190 93 e6 93 3d 37 a3 6c 3e 0d 48 ec bc 2c c0 12 be
       0.07221713 0.23109137 -0.02884295 -0.1433112
0001a0 dc 4c 76 3d 10 a4 1b be 49 91 07 be 5a 7b 3d 3d
       0.060131893 -0.15199304 -0.13239016 0.046260215
0001b0 64 79 ba 3d 35 e6 7c 3e 3a 31 c0 be ed 1e 27 be
       0.09105185 0.24697192 -0.37537557 -0.16320391
0001c0 78 11 6c 3d 1c 6a 15 3e 4e 02 63 be e6 c1 97 3c
       0.057633847 0.14591259 -0.22168848 0.018525075
0001d0 20 2f 85 3d 95 dd d7 bd 25 99 1a 3e 9c b8 2a 3e
       0.06503129 -0.1054031 0.15097483 0.16671985
0001e0 ab dd 53 be 63 88 c6 3d a5 6c 80 3e 3a 27 94 bd
       -0.20690028 0.096939825 0.2508289 -0.072340444
0001f0 cc 15 59 3d 13 76 a9 bd 0e 14 94 3e 29 12 8f be
       0.052999303 -0.08274474 0.2892155 -0.27943543
000200 f9 ca 1e 3e cc 2c 48 3d db 77 30 be 78 b2 9b bd
       0.15507115 0.048870847 -0.17233221 -0.076023996
000210 20 c4 1f 3e 50 14 dc 3d 64 f1 f9 bd f1 a4 17 be
       0.1560216 0.10746062 -0.12204245 -0.14809014
000220 bc 03 87 bd ec 16 9a bd 41 4e e9 bd f6 06 d0 3e
       -0.06592509 -0.07523903 -0.11391879 0.4063031
000230 70 3e 0d 3e e6 2a 54 bd 5e 8b 69 3e 10 d4 45 3e
       0.1379335 -0.051798724 0.2280707 0.19319177
000240 df 09 e2 3c a3 9d 1d be 4b 49 4f 3c 7d 5c e8 3e
       0.027592598 -0.15392165 0.012651752 0.45383063
000250 79 60 39 bd 41 2f e7 3c 66 79 b3 be 7e bf 34 3e
       -0.04525802 0.028220775 -0.35053557 0.17651173
000260 59 6d 52 be bb 03 35 3d 45 39 a2 3e f1 76 81 be
       -0.20549525 0.04419301 0.31684318 -0.25286058
000270 4b 6f 5b bd 52 0a b2 3e 96 3f f9 3d 18 7b 84 bd
       -0.053572934 0.347735 0.12170331 -0.06468791
000280 f0 a8 29 be 98 b8 ba bc b4 80 dc bc 2b e4 18 3e
       -0.16568351 -0.0227931 -0.02691684 0.14930789
000290 c6 a3 9f be b0 3b 7b bd d8 74 de 3d be 8f c5 bd
       -0.31179637 -0.06133622 0.1086213 -0.09646557
0002a0 31 38 97 3b e0 c1 4d be 8d ee 12 be 68 b8 18 3d
       0.004614853 -0.20093489 -0.14348812 0.03728524
0002b0 7e 07 b0 3e 51 c2 0d 3e b4 81 ba 3d a2 8a 25 3e
       0.34380716 0.13843657 0.0910677 0.16166165
0002c0 c5 a4 67 3e b2 de 4e 3e 8c b2 27 3e 1e 94 b9 bd
       0.22621448 0.20202139 0.16376704 -0.09061454
0002d0 b3 15 92 be e9 ea 01 3d 99 02 75 3d bb 94 a8 3d
       -0.2853218 0.03171817 0.05981693 0.08231493
0002e0 7b 21 aa 3d b9 f0 7f bc c9 43 31 be c7 37 46 3e
       0.08307167 -0.015621358 -0.17311014 0.19357215
0002f0 7b 93 8a be 1a a5 93 3e 6e 24 2a 3d 52 a6 91 be
       -0.27065644 0.288369 0.04153865 -0.28447205
000300 12 b4 aa bd e7 c9 98 3e e1 b2 ae 3d f1 07 b9 3e
       -0.08335127 0.2984154 0.08530212 0.3613887
000310 a9 77 51 bb 85 7a 6f 3e ad 84 cd bb 9f f0 b0 3d
       -0.0031962192 0.23386581 -0.0062719197 0.08639645
000320 5f 2a 0a be 42 1d f0 bd 0f 72 55 3e a8 6d 12 bd
       -0.13492726 -0.117243305 0.20844291 -0.035749108
000330 2a f9 91 bc e9 9a c8 3b 27 36 70 bc 80 4f a6 3e
       -0.017819006 0.0061219824 -0.014661348 0.3248253
000340 3f 09 29 be eb 05 7c 3e 35 31 c6 be 04 a9 18 3e
       -0.16507433 0.24611633 -0.38709417 0.14908224
000350 aa 9c 05 3e d0 44 4c 3e 82 f8 2c be a3 8a 4a be
       0.13048044 0.19948125 -0.16891673 -0.19779448
000360 5a 07 09 be e7 38 94 be ec 8e c5 3d 6d e3 ae 3d
       -0.1338171 -0.28949663 0.09646401 0.08539472
000370 11 1d f0 3c 1c 86 9c 3d 7f 05 a1 3d 84 58 28 3e
       0.029310735 0.07642767 0.078623764 0.16440016
000380 2e 56 5f 3b 9a d5 db bd ee 2c bf bd f6 b2 a3 be
       0.0034078467 -0.10734101 -0.093347415 -0.31972474
000390 c6 8e dd 3d a1 ed 38 3d 5e 51 49 bb a9 7f 3e be
       0.108182475 0.045148496 -0.0030718665 -0.18603386
0003a0 77 9d b6 3e 93 f0 2a 3e f3 55 3b 3d 34 04 3d be
       0.3566701 0.16693334 0.045736264 -0.18458635
0003b0 81 0c 8e 3d 8f 68 3c 3d e6 90 ca bd 10 4b 19 bd
       0.06935979 0.045998152 -0.098909184 -0.0374251
0003c0 ea b8 53 3e 70 8d 4b 3e b8 ee f5 3c 09 12 39 3c
       0.20676008 0.19878173 0.030021057 0.011295804
0003d0 f4 d1 e1 3d 2b 51 8a bd 56 1b 3d be 66 e9 ae 3d
       0.110263735 -0.06753763 -0.18467459 0.08540611
0003e0 3d 47 c5 be e9 1c 86 3c 1a 64 6e 3c e3 af 4f 3e
       -0.38530913 0.016371207 0.014550233 0.20281939
0003f0 ab c6 0a be bd 1e d7 3d b1 9a 21 3e 70 b7 b9 3c
       -0.13552348 0.1050391 0.15781666 0.022670478

e_layer.bias f4 [50]
000000 01 9c b1 3e 53 b7 02 3f 03 8f f9 3e 0b 79 ee 3e
       0.34689334 0.5106098 0.48741922 0.46576723
000010 45 a5 a2 3e 50 6c 21 3f 10 22 72 3e 6b 31 1d 3e
       0.31766716 0.63055897 0.23645806 0.15350883
000020 e6 0d 53 3f 6e db 07 3f 0d f5 f6 bd ff b7 2f 3e
       0.8244308 0.530692 -0.120584585 0.17160033
000030 0f df 08 3f af 86 58 3e a2 e0 ab 3e 54 8b 00 3f
       0.5346536 0.21145128 0.3356982 0.502126
000040 c2 5a dd 3e 51 d5 74 3e 37 d2 07 3f 02 72 d0 3e
       0.43233305 0.23909499 0.5305514 0.4071198
000050 37 99 0c 3f 6c ec bd 3e a3 3d a9 3e 9e cb 77 3e
       0.5492129 0.37094438 0.33054838 0.24198768
000060 a9 f5 19 3f b5 9b b2 3e 6c d3 aa 3e 6e 44 18 3e
       0.6014047 0.3488442 0.33364427 0.14869854
000070 09 ff 12 3e 79 cf 02 3f a0 64 8e 3e 61 fc cc 3e
       0.143551 0.5109783 0.27811146 0.400363
000080 71 01 c0 3e 86 72 a8 3e c8 ff db 3d 2d e5 c6 3d
       0.375011 0.32899874 0.10742146 0.097116806
000090 80 29 1c 3e f9 a0 8d 3e 4b 4d d7 3e df 3f 87 3e
       0.15250206 0.27661875 0.42051157 0.26415917
0000a0 2d 7d 10 3f 7c cc 2e 3e a9 25 ab 3e 34 c1 bc 3d
       0.56441003 0.17070192 0.3342717 0.09216538
0000b0 4f 24 6a 3e 51 ca 52 3e 62 23 07 3e d5 fd 44 3f
       0.22865413 0.2058499 0.13197091 0.76949817
0000c0 48 60 ae 3a bd f1 e3 3e
       0.001330384 0.4452037
