ckpts/dkvmn/ass09/model.ckpt (torch, 215611 bytes, 13 tensors)

Mk f4 [20, 50]
0	0xbec9cf8b	-0.39416155
1	0x3ea817ed	0.32830754
2	0xbd06b820	-0.03289044
3	0x3de47c91	0.11156572
4	0x3e0a248d	0.13490506
5	0xbd952db2	-0.07284106
6	0x3e9dcfa4	0.3082248
7	0x3e0ef1e9	0.13959469
8	0xbdb1b7ff	-0.086776726
9	0xbd1f8fb6	-0.038955413
10	0x3daf5b69	0.08562357
11	0x3dbc74e4	0.092019826
12	0x3e88287b	0.26593384
13	0x3d3b224a	0.045686997
14	0xbe1669cb	-0.14688794
15	0xbeb311b8	-0.34974456
16	0xbdf80ee1	-0.12112213
17	0x3f24fba3	0.6444647
18	0x3e5f67f1	0.21816994
19	0x3d98e676	0.07465832
20	0xbdae734a	-0.085180834
21	0x3dfe2b7b	0.12410637
22	0x3e41bd60	0.18919897
23	0x3dee5694	0.11637607
24	0x3d88e23e	0.06683777
25	0x3e62801c	0.22119182
26	0xbde0eb61	-0.10982395
27	0x3ee6499c	0.44978034
28	0x3df111b1	0.117709525
29	0xbe82df97	-0.2556121
30	0xbefc8f9c	-0.49328315
31	0x3e17eba1	0.14835979
32	0x3e28a765	0.16470106
33	0xbd9f46dd	-0.07777188
34	0xbe3e7443	-0.18599038
35	0xbedb32d8	-0.42812228
36	0x3e9acdc7	0.3023512
37	0x3dbd78ed	0.092515804
38	0xbeab86d0	-0.3350129
39	0xbe4d7982	-0.20065883
40	0x3eb93d1e	0.3617944
41	0xbec3e2e6	-0.38259047
42	0xbefa61f7	-0.48902866
43	0x3e35817f	0.1772518
44	0x3dc8b48e	0.09800063
45	0xbe8c0028	-0.2734387
46	0xbe7b561a	-0.24544564
47	0xbf0b7f40	-0.54491043
48	0xbd633e8d	-0.055479575
49	0xbe2e640f	-0.17030357
50	0x3e273128	0.16327345
51	0x3e682602	0.22670749
52	0x3e3f8c92	0.18705967
53	0xbe6867d1	-0.22695853
54	0xbe78734f	-0.24262737
55	0x3ed8cdf7	0.4234464
56	0x3eda61a9	0.42652634
57	0xbee6c33d	-0.4507083
58	0x3d40471c	0.046942815
59	0xbe18ec16	-0.1493381
60	0xbc574a30	-0.013140246
61	0x3e62adfd	0.22136684
62	0xbe1c8a06	-0.15287027
63	0x3f276f05	0.6540378
64	0xbd8a63a3	-0.067572854
65	0xbceaf28d	-0.02868011
66	0x3e84a155	0.25904337
67	0xbef46911	-0.4773641
68	0xbe6c3051	-0.23065306
69	0x3d82bc11	0.06383527
70	0xbe308cd4	-0.17241222
71	0x3dd72bd1	0.10506404
72	0xbe035c66	-0.12828216
73	0xbe89c19e	-0.2690553
74	0xbc52dafe	-0.012869595
75	0xbbfd0fff	-0.007722854
76	0x3d573ae6	0.052546404
77	0x3e83ab69	0.25716713
78	0x3e9ecc45	0.3101522
79	0xbe17fd91	-0.14842822
80	0xbd967858	-0.073471725
81	0xbe2f641d	-0.17128034
82	0x3dfd9280	0.12381458
83	0x3e7d0191	0.24707629
84	0x3e3cb5a3	0.18428664
85	0xbd302923	-0.04300798
86	0x3dd60ea2	0.1045201
87	0xbf23d381	-0.63994604
88	0xbb9593b1	-0.0045647253
89	0xbd0e9273	-0.034807634
90	0xbe6c856b	-0.2309777
91	0x3db94141	0.09045649
92	0x3ec0399f	0.3754396
93	0x3e29cfde	0.16583201
94	0x3ed9f4ab	0.4256948
95	0xbe9dc233	-0.30812225
96	0x3d8ae007	0.06781011
97	0xbed90498	-0.42386317
98	0x3cda1b21	0.026624264
99	0x3ce32fe7	0.027732803
100	0x3aa06706	0.0012237735
101	0x3e89f372	0.26943547
102	0xbe98e924	-0.29865372
103	0x3cb4a5e5	0.02205176
104	0xbe67981c	-0.22616619
105	0xbe10e6c9	-0.14150538
106	0xbde153de	-0.110023245
107	0x3e9417c4	0.28924382
108	0x3b9373b0	0.004499875
109	0x3e08e471	0.13368393
110	0x3ecd763f	0.40129277
111	0x3eee253f	0.46512792
112	0x3dcf0f83	0.101103805
113	0x3dd7882c	0.105240196
114	0xbe5300fc	-0.20605844
115	0x3dcbdfb9	0.09954781
116	0x3d55da4f	0.05221015
117	0xbbeaf3a4	-0.0071701575
118	0x3e0f0cd5	0.13969739
119	0xbd0b5fb3	-0.034026813
120	0x3b283352	0.0025665355
121	0xbee5160f	-0.44743392
122	0xbe7bf254	-0.2460416
123	0xbd9d8fbe	-0.07693432
124	0x3c4de0d6	0.012565812
125	0xbe130dd2	-0.14360741
126	0x3b6137a1	0.0034365433
127	0x3e8938df	0.26801202
128	0xbd72a1d3	-0.05923636
129	0xbe842913	-0.25812587
130	0x3dbff9c9	0.093738146
131	0xbd08b11a	-0.033372022
132	0x3e55eb04	0.20890433
133	0xbeca17e6	-0.39471358
134	0x3c8d3ffe	0.017242428
135	0xbc2582dd	-0.010102001
136	0x3e75bddd	0.23998208
137	0x3e460130	0.1933639
138	0xbe945b96	-0.28976125
139	0x3dbf9410	0.093544126
140	0x3ccbf2e9	0.024896102
141	0xbd7bdf36	-0.061492167
142	0x3eaa45c9	0.33256367
143	0xbc9ac4e5	-0.018892715
144	0xbe9b2f3b	-0.3030947
145	0x3e7fbac4	0.24973589
146	0xbe439e48	-0.19103348
147	0xbdcef507	-0.10105329
148	0x3dec0e00	0.11526108
149	0x3d8ca432	0.06867255
150	0xbda2d788	-0.079512656
151	0xbd0bb545	-0.03410842
152	0x3e82ae79	0.25523737
153	0x3e3c95dc	0.18416542
154	0xbc56e32f	-0.013115688
155	0x3d155233	0.036455344
156	0xbdb971f7	-0.0905494
157	0x3def0c5b	0.116722785
158	0xbe96442b	-0.29348883
159	0xbe397d23	-0.18114142
160	0x3e82463f	0.2544422
161	0xbe39b044	-0.18133646
162	0x3a2f4795	0.0006686387
163	0x3cdf925f	0.027291475
164	0x3e2b3dd0	0.16722798
165	0xbe011e21	-0.1260915
166	0x3e9a9bbe	0.30196947
167	0x3ef3c1b1	0.47608712
168	0xbe7b97ef	-0.24569677
169	0x3ecb453c	0.3970126
170	0x3e296856	0.16543707
171	0xbd17ae60	-0.03703153
172	0x3dfce86c	0.123490185
173	0x3d63048a	0.05542425
174	0x3e9fe74f	0.31231162
175	0xbd830849	-0.06398065
176	0x3de0d3fb	0.10977932
177	0x3e9cb6b1	0.30608132
178	0x3d1fffc1	0.039062265
179	0x3e98d888	0.298527
180	0xbd01cbb5	-0.03168841
181	0x3e2255a8	0.15852988
182	0x3ddd45f8	0.10804361
183	0xbd35f2f3	-0.044421148
184	0x3dd75777	0.105147295
185	0x3cf37fab	0.029723963
186	0xbe185570	-0.14876342
187	0xbdf4e875	-0.119584
188	0xbe3a9baf	-0.18223451
189	0x3d35cc7f	0.044384476
190	0x3d95f703	0.07322504
191	0x3e765331	0.24055173
192	0x3df81034	0.121124655
193	0xbeb0556f	-0.3444018
194	0x3d7b3a13	0.06133468
195	0xbc99d599	-0.01877861
196	0xbec8eb88	-0.39242196
197	0xbe8f6fe1	-0.28015044
198	0xbed8fe9d	-0.42381755
199	0xbe3846de	-0.17995784
200	0x3e5d3ada	0.21604481
201	0xbe0bbb66	-0.13645706
202	0x3e843ad1	0.25826123
203	0xbd48ebb1	-0.049052898
204	0x3dc3cb62	0.095602766
205	0xbdce628d	-0.10077391
206	0xbd42b877	-0.0475392
207	0xbe0a4042	-0.13501075
208	0x3df60409	0.120124884
209	0xbd885299	-0.06656379
210	0x3eb12d2c	0.34604776
211	0xbe757bed	-0.23973055
212	0x3cd66923	0.02617318
213	0x3ec4ee2e	0.38462967
214	0xbe448c30	-0.19194102
215	0x3de3e4f9	0.111276574
216	0xbdfea631	-0.12434042
217	0x3de86e41	0.11349154
218	0x3d4457ad	0.047935177
219	0xbc720fe2	-0.014774295
220	0xbd96e495	-0.07367817
221	0x3f1e208d	0.6176842
222	0xbd422805	-0.047401447
223	0x3d2390d1	0.03993303
224	0x3bf6a621	0.0075271283
225	0x3e86ee9d	0.26353922
226	0xbd9799fe	-0.074024186
227	0x3e97e6d9	0.2966831
228	0xbe2a4363	-0.16627268
229	0x3e351141	0.17682363
230	0xbdc7a41b	-0.097480975
231	0xbe5f735a	-0.21821347
232	0xbddc29ec	-0.107501835
233	0xbd95a65f	-0.073071234
234	0x3d9a8c81	0.0754633
235	0xbea06e6e	-0.3133425
236	0x3ea5d96a	0.32392436
237	0xbd8be486	-0.06830697
238	0x3e1275a2	0.14302686
239	0xbd8be526	-0.06830816
240	0xbe1f9e1e	-0.1558766
241	0x3e315350	0.17316937
242	0x3dcec671	0.100964434
243	0x3d984449	0.07434899
244	0xbed6137d	-0.41811743
245	0x3da9f703	0.08299067
246	0xbe13d218	-0.14435613
247	0x3ebff0f3	0.37488517
248	0xbe4b3ee8	-0.19848216
249	0x3e19ac85	0.15007217
250	0x3ec88a52	0.3916803
251	0xbd8bd5d9	-0.068278976
252	0x3c05ac3c	0.00815874
253	0x3e93a52a	0.28836948
254	0x3e7bbcda	0.2458376
255	0xbe057a7b	-0.13035004

Mv0 f4 [20, 50]
0	0x3e76e308	0.24110043
1	0xbe9563bb	-0.2917765
2	0xbea5b917	-0.32367775
3	0xbed71192	-0.42005593
4	0xbea859fc	-0.32881153
5	0x3e0dd653	0.1385129
6	0xbe6de80a	-0.23233047
7	0xbd5c5a17	-0.053796854
8	0xbcf45ddf	-0.029829917
9	0x3eab7be8	0.3349297
10	0x3c10f94c	0.0088484995
11	0x3f21b194	0.6316159
12	0x3e434353	0.19068651
13	0x3eb1e41e	0.34744352
14	0x3e01b7de	0.12667796
15	0xbe6baef8	-0.23015964
16	0x3e9c8d62	0.30576617
17	0xbe31ed41	-0.17375661
18	0xbc63e040	-0.013908446
19	0xbed44bf6	-0.41464204
20	0x3d18cf41	0.037307028
21	0xba3f0be2	-0.00072878425
22	0x3dd9138f	0.10599434
23	0x3e314f43	0.17315392
24	0x3e5d0e8a	0.21587577
25	0xbdd446d7	-0.10365074
26	0x3dab108c	0.083527654
27	0xbd98379e	-0.07432483
28	0xbd7f694a	-0.06235627
29	0x3e008c44	0.12553507
30	0x3ea920ce	0.3303284
31	0x3e6b993f	0.23007677
32	0xbdeefdb0	-0.11669481
33	0x3e07c0c8	0.13257134
34	0xbe847a2e	-0.25874466
35	0x3e3784f9	0.17921819
36	0x3d9b3faa	0.07580502
37	0x3cc6b2b7	0.02425514
38	0x3e42acd6	0.19011244
39	0xbe1aa359	-0.15101375
40	0x3d97678d	0.073927976
41	0xbe3e37a1	-0.18575908
42	0xbe5db263	-0.2165008
43	0x3ec0334e	0.37539142
44	0x3cec8644	0.028872617
45	0x3b241fad	0.0025043294
46	0x3e092182	0.13391688
47	0x3e849fa6	0.25903052
48	0x3dd333a2	0.103125826
49	0x3dac904c	0.0842596
50	0xbdfa9f85	-0.12237457
51	0xbe5090e1	-0.20367767
52	0xbe31d616	-0.17366824
53	0x3db01e3b	0.08599516
54	0xbc63237c	-0.013863441
55	0xbd6715d3	-0.056417298
56	0x3e858b97	0.2608306
57	0xbe3f4edb	-0.18682425
58	0x3e92ceca	0.28673393
59	0x3ec829c5	0.39094368
60	0xbe383837	-0.17990194
61	0xbe92a6ab	-0.28642783
62	0xbe0433c3	-0.1291037
63	0xbe0b5b3d	-0.13609023
64	0xbe1a69d8	-0.15079439
65	0x3ef32f9b	0.47497258
66	0x3ed1d130	0.4097991
67	0xbd3ed9b1	-0.046594325
68	0x3dcb58c5	0.09929041
69	0x3ef43d84	0.47703183
70	0x3e68f643	0.22750191
71	0xbd7930fe	-0.06083774
72	0x3f0ecabc	0.557781
73	0xbe30c596	-0.17262873
74	0xbe762430	-0.24037242
75	0x3e0bd73c	0.13656324
76	0xbe0c48fd	-0.13699718
77	0x3e063a00	0.13108063
78	0x3e0d7639	0.1381463
79	0x3d9c4cfb	0.0763187
80	0xbdb1de87	-0.08685022
81	0x3ee09042	0.4386006
82	0x3e64a7cd	0.22329636
83	0xbece4cad	-0.40292874
84	0x3e50fed0	0.20409703
85	0xbddec830	-0.108780265
86	0xbea97b04	-0.33101666
87	0x3e0a6e1f	0.1351857
88	0x3e6c0c70	0.2305162
89	0xbe049092	-0.12945774
90	0xbc5bf89e	-0.013425974
91	0x3edceb20	0.43148136
92	0x3e5c57ee	0.21517918
93	0x3e3f8c7b	0.18705933
94	0x3ee13581	0.43986133
95	0x3e6fa33b	0.23402111
96	0x3d969787	0.0735312
97	0xbba0b8f6	-0.0049048616
98	0x3eb596b9	0.35466555
99	0xbe58e8fd	-0.21182628
100	0x3efeac58	0.49740863
101	0xbe2489bc	-0.16068166
102	0x3e2f02eb	0.17090957
103	0xbe8a7047	-0.27038786
104	0x3adcb0f5	0.0016837405
105	0xbf009f35	-0.5024293
106	0xbdce31ed	-0.10068116
107	0x3d87f4ae	0.06638466
108	0x3df861d9	0.12128038
109	0xbef793b3	-0.48354873
110	0x3d838014	0.06420913
111	0x3e85ecf9	0.26157358
112	0x3e3655df	0.17806195
113	0xbe9198e7	-0.28436968
114	0x3e40b784	0.18820006
115	0x3d762504	0.060093895
116	0xbe2ff132	-0.17181852
117	0xbeaa671c	-0.3328179
118	0xbe13545c	-0.1438765
119	0xbe617a1e	-0.2201924
120	0x3e98e2b7	0.2986047
121	0x3e27861c	0.16359752
122	0x3d0602b2	0.032717414
123	0x3d679370	0.05653709
124	0xbd5e01d9	-0.05420098
125	0xbe5ba2ff	-0.21448897
126	0x3d4b3965	0.049615283
127	0xbe11715a	-0.14203396
128	0x3e3116b4	0.17293817
129	0xbb56556c	-0.0032704724
130	0xbdcdd6a6	-0.100507066
131	0xbd2910c4	-0.041275755
132	0x3e97a7b9	0.2962015
133	0xbe05a070	-0.13049483
134	0xbe5229ed	-0.20523806
135	0x3ef2336e	0.47304863
136	0x3e1ead5b	0.15495817
137	0xbe0088cb	-0.12552182
138	0xbe28f1f0	-0.16498542
139	0x3d99c344	0.07507947
140	0xbdce35c4	-0.10068849
141	0x3e7f351d	0.24922605
142	0x3e71ef70	0.23626494
143	0xbe5d53b1	-0.21613957
144	0xbd85dde8	-0.06536466
145	0xbdc95eaf	-0.098325126
146	0x3df0ee03	0.11764147
147	0xbe3c0f48	-0.18365204
148	0x3eac527b	0.33656678
149	0xbe9d6d16	-0.30747288
150	0xbdf87dd7	-0.12133377
151	0xbf1ce4f1	-0.61286837
152	0x3e367856	0.17819342
153	0x3dbfd784	0.09367278
154	0xbe706d2a	-0.23479143
155	0x3ee37b4d	0.4443001
156	0xbcd1c88d	-0.025608325
157	0xbcf0482d	-0.029331291
158	0x3f0000bd	0.50001127
159	0x3e9161e7	0.28395006
160	0xbe075512	-0.13216045
161	0x3e41f5b3	0.18941383
162	0x3ad81578	0.001648589
163	0x3e6640b5	0.22485621
164	0x3ee12005	0.4396974
165	0x3e4d055e	0.20021579
166	0x3e25556f	0.16145872
167	0xbe43d4eb	-0.1912419
168	0xbe8eac59	-0.27865866
169	0xbdf5d9db	-0.12004443
170	0xbd543227	-0.05180564
171	0xbcbbd73b	-0.022929778
172	0xbd85b149	-0.06527955
173	0x3e97d827	0.296571
174	0x3e2ebbe8	0.17063868
175	0x3e2c96bb	0.16854374
176	0xbea3b597	-0.3197448
177	0x3e30c61c	0.17263073
178	0xbea0b461	-0.31387618
179	0xbdb82405	-0.08991245
180	0x3eb2ab9c	0.34896553
181	0x3d0dff7f	0.03466749
182	0x3e05e545	0.1307574
183	0xbe487aa6	-0.19578037
184	0x3dc85883	0.09782507
185	0xbe229909	-0.15878691
186	0xbe300421	-0.17189075
187	0x3f33c6eb	0.702254
188	0x3d883b51	0.06651939
189	0xbeec1272	-0.46107823
190	0x3dde1d5b	0.10845443
191	0x3e8fb8df	0.28070733
192	0x3e8c8d38	0.2745149
193	0x3d5bc07e	0.05365037
194	0x3f0c14c1	0.5471917
195	0x3e3b1739	0.18270577
196	0x3e35b111	0.17743327
197	0x3d292abc	0.04130052
198	0x3dd5a8a1	0.10432554
199	0xbdc08b76	-0.094016
200	0x3d83e633	0.064403914
201	0x3d382b66	0.044963263
202	0xbdb616ac	-0.08891043
203	0xbdcbb71a	-0.09947033
204	0xbc65170a	-0.013982544
205	0xbe20ba49	-0.15696062
206	0x3ef30b77	0.47469684
207	0x3eac8767	0.33697054
208	0xbe9279c5	-0.28608528
209	0xbed08c0a	-0.4073184
210	0x3ef0d7ee	0.4703974
211	0xbe6c4f2e	-0.2307708
212	0x3e42e4df	0.1903262
213	0xbe432953	-0.19058733
214	0xbd8e7cb7	-0.06957381
215	0x3cb4082e	0.021976557
216	0xbdd60e71	-0.10451973
217	0xbf1bcf7c	-0.6086347
218	0xbe8ba5eb	-0.27275023
219	0xbbf646fd	-0.0075157867
220	0x3e13108f	0.14361785
221	0xbdf32609	-0.11872489
222	0xbe4c579b	-0.19955294
223	0xbdf0d331	-0.117590316
224	0xbe10dc37	-0.14146505
225	0x3dc36ffb	0.09542843
226	0x3dc07739	0.0939774
227	0xbd9f0467	-0.077645116
228	0xbe8b5f34	-0.27221072
229	0xbe642297	-0.2227882
230	0x3b002a91	0.0019556622
231	0x3d9165ac	0.070994705
232	0xbe32edef	-0.17473577
233	0x3da3dfce	0.08001672
234	0xbe738dd4	-0.23784572
235	0x3e10871e	0.14114043
236	0x3e2c5891	0.1683066
237	0xbd8b4367	-0.06799965
238	0xbda0ae3f	-0.07845735
239	0xbd0ef61e	-0.034902684
240	0xbcbe560a	-0.023234386
241	0xbe9a6f87	-0.30163214
242	0xbec3e2a5	-0.38258854
243	0xbed37f7b	-0.41308197
244	0xbe2ff344	-0.17182642
245	0x3e0debd6	0.13859496
246	0xbe02818c	-0.1274473
247	0x3d29ff1f	0.041503068
248	0xbd944001	-0.0723877
249	0x3e62e5fe	0.22158048
250	0xbd90b80c	-0.07066354
251	0x3dfd1b72	0.123587504
252	0x3e91532d	0.2838377
253	0x3e62556a	0.22102895
254	0x3e701d57	0.23448692
255	0x3b42d416	0.0029728464

k_emb_layer.weight f4 [149, 50]
0	0xc016301e	-2.3466868
1	0xbffaa658	-1.9582014
2	0x4006c5c8	2.1058216
3	0x3f60ef8f	0.8786554
4	0xbf873913	-1.0564293
5	0xbf6831e2	-0.90701115
6	0xbf2a436f	-0.66509145
7	0xbf8450e0	-1.0337181
8	0xbd2ccd58	-0.04218802
9	0x3f9bd207	1.217347
10	0x3f053510	0.5203409
11	0xbf3ca0da	-0.7368294
12	0x3f709941	0.93983847
13	0xbf126cf5	-0.57197505
14	0x3f1ef3d2	0.6209079
15	0xbf7e017c	-0.99221015
16	0x3fbe7d16	1.4881923
17	0x3f8eb128	1.1147814
18	0x3fbbe444	1.4679036
19	0x3f92aec6	1.1459587
20	0x3f0b9235	0.5451997
21	0x3f131adf	0.5746288
22	0x3f856329	1.0420886
23	0xbfb56385	-1.4170996
24	0xbfa6321d	-1.2984043
25	0xbe7de5d7	-0.24794708
26	0x3e96ec5b	0.294772
27	0xbea11d23	-0.31467542
28	0x3ebc4d3d	0.36777678
29	0x3f31e1bd	0.69485074
30	0x3f94894c	1.16044
31	0xbf4da9d6	-0.80337274
32	0x3ec448e7	0.3833687
33	0x3f0b9361	0.5452176
34	0xbd350934	-0.04419823
35	0x3f34d495	0.70636874
36	0xbe9532d2	-0.29140335
37	0xbf57ab92	-0.8424617
38	0x3e5c8426	0.21534786
39	0x3f8a8880	1.0822906
40	0xc020246d	-2.5022233
41	0x3f933557	1.1500653
42	0xbf930a8d	-1.1487595
43	0x3ed3f3d9	0.41396978
44	0x3f2e5067	0.68091434
45	0xbe16079b	-0.14651339
46	0xbf4f1e34	-0.8090546
47	0xbf57774d	-0.84166414
48	0xbf5125f5	-0.8169854
49	0x3eecd447	0.46255705
50	0x3ffafd21	1.9608499
51	0x3f08773d	0.53306943
52	0x3f6015bc	0.87533164
53	0x3f5b751f	0.8572559
54	0x3e3e2be7	0.18571435
55	0x3f56b299	0.8386627
56	0xbdbf5cc6	-0.09343867
57	0x3f6905d1	0.910245
58	0x3fd1f2bf	1.6402205
59	0x3f580f73	0.84398574
60	0xbe1671aa	-0.14691797
61	0x3e127b2b	0.14304797
62	0xbd7eef70	-0.062240064
63	0x3f4324cf	0.7622804
64	0xbf872c22	-1.0560343
65	0xbf251e95	-0.6449979
66	0x402d4e1d	2.7078927
67	0xbf807289	-1.0034953
68	0xbf8e7661	-1.1129876
69	0xc023e48f	-2.560825
70	0xbdd86c7e	-0.10567568
71	0xbf9d781b	-1.2302278
72	0x3ebd93be	0.3702678
73	0xbfdccbdf	-1.7249717
74	0x3f6c180c	0.9222419
75	0xbfa20596	-1.2657955
76	0x3f357d9f	0.7089481
77	0x406496be	3.5717006
78	0x3f8c71d3	1.0972236
79	0xbeb784f8	-0.35843635
80	0x3f037f3e	0.5136603
81	0xbfcff194	-1.6245599
82	0xbf76ef71	-0.9645911
83	0xbf49cc8d	-0.78827745
84	0xbf90998a	-1.1296856
85	0x3cf54b35	0.029943088
86	0xbf39f94b	-0.72646016
87	0xbd3c95e8	-0.0460414
88	0x3f843d03	1.0331119
89	0x3ea716d1	0.32634595
90	0x3f0a2622	0.53964436
91	0x3f2fc061	0.6865292
92	0xbcd82fbc	-0.026389949
93	0x3f8c1a2c	1.0945487
94	0x3f455a5c	0.77091
95	0xbf657a84	-0.8964007
96	0x3e15220c	0.14563769
97	0x3e35ffd4	0.17773372
98	0x3f151a5e	0.5824336
99	0xbf3f87e4	-0.7481673
100	0x3f1b3604	0.60629296
101	0xbe55aa7b	-0.20865814
102	0x3ecf751e	0.4051904
103	0xbe9b636b	-0.30349287
104	0x3f995744	1.1979756
105	0xbdf3ce1c	-0.119045466
106	0xbe33cdc7	-0.17558967
107	0xbf2741e6	-0.6533493
108	0xbf788a5c	-0.9708612
109	0xbf97516d	-1.1821724
110	0x3f1b7a63	0.6073362
111	0x3f6157fd	0.88024884
112	0xbf87e4da	-1.0616715
113	0x3faf0491	1.3673269
114	0x3deff478	0.117165506
115	0x3ffc47a7	1.9709367
116	0xbf12b240	-0.5730324
117	0xbfdc4136	-1.7207401
118	0xbe752659	-0.2394041
119	0xbf1823f6	-0.5942987
120	0x3f5522ed	0.8325642
121	0xbdca3207	-0.09872823
122	0xbf17db48	-0.5931897
123	0x3f557851	0.83386713
124	0xbe4decc5	-0.20109852
125	0xc0410b11	-3.0163004
126	0x3f598c99	0.8498016
127	0x3fbc7de1	1.4725915
128	0xbe5c05b2	-0.21486548
129	0xbf07a3ba	-0.529842
130	0xbd20b9c5	-0.039239664
131	0xbef87ccd	-0.48532715
132	0xbf36416e	-0.7119359
133	0x3f173099	0.5905853
134	0xbf282e15	-0.65695316
135	0xbc8a67fc	-0.016895287
136	0xbe603528	-0.21895278
137	0x3f388c01	0.7208863
138	0xbff84171	-1.9394971
139	0xc01313ab	-2.2980754
140	0xbfec09de	-1.8440511
141	0x3f7ee0dd	0.99561864
142	0xbf021bb7	-0.5082354
143	0xc02d0e83	-2.7040107
144	0x3fe554d9	1.7916518
145	0xbf120362	-0.5703641
146	0xbf42cc89	-0.76093346
147	0xbea00ab6	-0.31258172
148	0xbe2eb811	-0.17062403
149	0x3f2a1327	0.66435474
150	0x3f5b96c3	0.8577692
151	0x3ed148c7	0.40875837
152	0x3f85a7bf	1.0441817
153	0xbfbe1784	-1.4850926
154	0x3db62855	0.088944115
155	0xbe30971d	-0.17245145
156	0x3ff7402d	1.931646
157	0x3f9e4cff	1.2367247
158	0xbf800d9c	-1.0004153
159	0xbf595639	-0.8489719
160	0xbd3a91d4	-0.04554923
161	0xbf12a2fe	-0.57279956
162	0xbf81562b	-1.0104421
163	0x3e8858a7	0.26630136
164	0x3fbdf69c	1.4840884
165	0xbe7cd254	-0.24689609
166	0xbf95d4e2	-1.1705592
167	0x3edf604c	0.43628156
168	0xbf84fe71	-1.0390149
169	0x3f18ee40	0.5973854
170	0xbe82c653	-0.25541934
171	0xbdecc315	-0.115606464
172	0xbe98727d	-0.29774848
173	0xbedd7019	-0.43249586
174	0xbf6a1309	-0.91435295
175	0xbe853811	-0.26019338
176	0xbcb1bbbe	-0.021695968
177	0xbf854436	-1.0411441
178	0xbd1e4560	-0.03864038
179	0xbf8ce115	-1.100619
180	0x3e4f590a	0.2024881
181	0x3f2380ca	0.6386839
182	0xbf4a48d6	-0.7901739
183	0x3f22eaf2	0.6363975
184	0xbfdba1e6	-1.7158782
185	0xbf063bf1	-0.52435213
186	0x3f629d3d	0.88521177
187	0xbe94c689	-0.2905772
188	0xbec152ba	-0.37758428
189	0xbf024ef1	-0.50901705
190	0x3fd2b928	1.6462755
191	0x3e49e99d	0.19718023
192	0x3f12cac9	0.57340676
193	0xbd9eb84f	-0.07749998
194	0x3f07b46b	0.5300967
195	0xbf0b5579	-0.54427296
196	0xbfab8354	-1.3399453
197	0x3dfdba69	0.123890705
198	0xbea5fc7f	-0.32419202
199	0xbfaf4b15	-1.3694788
200	0xbf47bc3b	-0.7802159
201	0x3e47f42a	0.19526735
202	0x3f8b69f5	1.089171
203	0x3f9754df	1.1822776
204	0x3e46ea72	0.19425371
205	0xbf870d8d	-1.055101
206	0x3f40449d	0.75104696
207	0x3fce9af3	1.6141037
208	0xbf1583bd	-0.5840414
209	0xbeff2b74	-0.4983784
210	0xbfb8e886	-1.444596
211	0x4003928c	2.0558195
212	0xbe96a34c	-0.2942146
213	0x3e0038a0	0.125216
214	0xbf9231d8	-1.1421461
215	0xbf99edec	-1.2025733
216	0x3f143511	0.5789347
217	0xbf15f7d4	-0.5858128
218	0xbfa148d3	-1.2600349
219	0xbf102eb1	-0.56321245
220	0x3f9954da	1.197902
221	0x3e3f26f3	0.18667202
222	0x3f7e6cac	0.9938457
223	0xbf9838dd	-1.1892353
224	0xbfa211d3	-1.266169
225	0x3f3432d6	0.7039007
226	0x3f59b7f0	0.8504629
227	0xc0008a7d	-2.0084527
228	0x3f3aee26	0.73019636
229	0x3fac3e86	1.3456581
230	0x3ee9fece	0.45702213
231	0xbee29be3	-0.44259557
232	0x3e2fc28b	0.17164056
233	0x3faeeb7d	1.3665615
234	0xbf4e8f94	-0.8068783
235	0x3f609836	0.87732255
236	0x3f98772b	1.1911367
237	0xc01a973a	-2.4154801
238	0xc00fcf49	-2.2470267
239	0x3e0c2da5	0.13689287
240	0x3fe41e63	1.7821773
241	0x3faec7c2	1.3654711
242	0x3f4986e5	0.7872146
243	0x3e905087	0.28186437
244	0x3feb9622	1.8405192
245	0x3f28cf53	0.6594135
246	0x3f36aaee	0.7135457
247	0x3f8430c8	1.0327387
248	0xbe3ccdc5	-0.1843787
249	0xbdcc6e37	-0.09981959
250	0xbdd8d7cd	-0.10588036
251	0x3fb6e894	1.4289727
252	0xbf065936	-0.52479875
253	0x3f0dbd1d	0.5536669
254	0x3f696036	0.9116243
255	0xbf8a9142	-1.0825579

v_emb_layer.weight f4 [298, 50]
0	0x3fdc8497	1.7227963
1	0xbf35b9af	-0.70986456
2	0xbe8bb8fe	-0.27289575
3	0x3e80dd42	0.25168806
4	0xbf4b9c86	-0.7953571
5	0x3fd624da	1.6729996
6	0xc0094464	-2.1447992
7	0x3d061808	0.03273776
8	0xbf127af6	-0.57218874
9	0x3fad6f2b	1.3549551
10	0x3f7a8a36	0.97867143
11	0x3f496a62	0.7867795
12	0x3fd00434	1.6251283
13	0xbec0107d	-0.3751258
14	0xbf0a3326	-0.53984296
15	0x3e80e169	0.25171974
16	0xbf59b828	-0.85046625
17	0x3fa94e71	1.3227063
18	0xbf6d4bb8	-0.9269366
19	0xbe808d57	-0.25107834
20	0xbfd19dd4	-1.637629
21	0xbc2f67dd	-0.010705915
22	0x3f792bdc	0.9733255
23	0x3f8d2365	1.1026427
24	0xbe65f251	-0.22455718
25	0x3e3352d8	0.17512071
26	0xbefd107b	-0.49426636
27	0xbf7e1310	-0.9924784
28	0x3f873b1e	1.0564916
29	0x3eda2b27	0.42611048
30	0xbec8ecb7	-0.392431
31	0x3ef196dd	0.47185412
32	0xbf17b367	-0.5925812
33	0xbde17e1d	-0.11010382
34	0x3def5239	0.116856046
35	0x3f081007	0.53149456
36	0x3fcaf085	1.5854651
37	0x3ea5cd64	0.32383263
38	0xbdebcddb	-0.11513873
39	0xbd76074b	-0.06006555
40	0xbf019d98	-0.50631094
41	0xbf2aa172	-0.66652596
42	0xbec1af59	-0.37829092
43	0xbff7f31f	-1.937107
44	0x39b39c70	0.00034258096
45	0xbf336e8a	-0.70090544
46	0xbd960023	-0.07324245
47	0x3f64c042	0.8935586
48	0x3d88532f	0.06656491
49	0xbf5dbf71	-0.8662024
50	0x3fd16d63	1.6361507
51	0xbf852782	-1.0402682
52	0xbf8112af	-1.0083827
53	0x3f851b00	1.0398865
54	0x3f94d149	1.1626369
55	0xc01b9552	-2.4309888
56	0xc0208134	-2.507886
57	0xbe089acc	-0.133403
58	0xbfb72328	-1.4307604
59	0x3f033f48	0.51268435
60	0xbf8532a6	-1.0406082
61	0xbf5ba9b3	-0.85805815
62	0x3f86449a	1.0489686
63	0x3f9e20d9	1.2353774
64	0xc00368b1	-2.0532649
65	0xbf340e7f	-0.7033462
66	0xbf2b2197	-0.6684813
67	0x3f8e7d35	1.113196
68	0xbf5d0392	-0.8633357
69	0xbfb842a1	-1.4395334
70	0x3f4465f3	0.7671806
71	0xbe1b7ec7	-0.1518508
72	0xbda4bebf	-0.080441944
73	0xbf4827b8	-0.78185606
74	0x3eabec2a	0.33578616
75	0xbed0bedd	-0.40770617
76	0x3fbd874e	1.4806917
77	0xbf132067	-0.5747132
78	0x3f1f96fb	0.6233975
79	0x3cbf8b9b	0.023381999
80	0xbfd46b72	-1.659529
81	0x3fb93736	1.4469974
82	0xbfc60822	-1.5471232
83	0xbe95a37e	-0.29226297
84	0x3fff195f	1.9929618
85	0xbff19feb	-1.8876928
86	0xbef88ff3	-0.48547325
87	0xbf4c67f9	-0.7984615
88	0xbf202bf7	-0.62567085
89	0x3fbc9f46	1.4736106
90	0xbf53f8b4	-0.82801366
91	0x3f527478	0.8220897
92	0xbd81d184	-0.0633879
93	0x3f2f9bdd	0.68597203
94	0x3f3d5a2a	0.73965704
95	0xbe3d5cf1	-0.18492486
96	0xbefe8020	-0.49707127
97	0xbf717b1d	-0.9432848
98	0x3eca352c	0.39493692
99	0x3f90753f	1.1285781
100	0xbee6df7c	-0.4509238
101	0xbf46831e	-0.7754382
102	0x3fb5b6c7	1.4196404
103	0x3eb7c6b9	0.358938
104	0x3eab7c35	0.334932
105	0x3f9fe3b7	1.2491368
106	0x3fc0379a	1.5016968
107	0x3f04e883	0.51917285
108	0xbf4688a3	-0.7755224
109	0x3f7ecfbd	0.99535733
110	0x3f9930b6	1.196799
111	0x3f03bd22	0.5146047
112	0x3ec095ce	0.37614292
113	0xbf8460d3	-1.0342048
114	0x3f2fd1ad	0.68679315
115	0x3fa404ab	1.2813925
116	0xbeb45e53	-0.35228214
117	0x3ed8d622	0.4235087
118	0xbefefb34	-0.49801028
119	0x3f80f23b	1.0073923
120	0xbf61ae18	-0.8815627
121	0x40051508	2.0794086
122	0x3ebab2da	0.36464578
123	0x3f04aecc	0.5182922
124	0x3ee13c5c	0.43991363
125	0x3fbf0701	1.4924012
126	0xbf3f4160	-0.7470913
127	0xbf839e1b	-1.0282625
128	0xbf06ad69	-0.5260835
129	0x3fcc9261	1.5982171
130	0xbfd8351f	-1.6891211
131	0xbe57880b	-0.2104799
132	0xbfd149d0	-1.6350651
133	0xbf00505d	-0.50122625
134	0xbf12a377	-0.5728068
135	0xbf9504eb	-1.1642126
136	0x3ef86df6	0.48521394
137	0xbf81de16	-1.01459
138	0xbfd39e9c	-1.6532779
139	0x3fb1ad8b	1.3881086
140	0x400824a6	2.1272368
141	0x3e08e859	0.13369884
142	0x400c938e	2.196506
143	0x3dffdea7	0.124936394
144	0xbe53b68e	-0.20675108
145	0xbf51b7f3	-0.8192131
146	0x3fbc79ca	1.4724667
147	0xbf790bcc	-0.97283626
148	0x3ff06618	1.8781157
149	0x3c78dbdc	0.015189137
150	0xbfb32052	-1.3994238
151	0xbf48a032	-0.7836944
152	0x3f857e7e	1.0429227
153	0x3fc58f39	1.5434333
154	0xbf38f023	-0.7224142
155	0xbf2656c2	-0.6497613
156	0x3f60680f	0.8765878
157	0x3edcdbef	0.43136546
158	0x3f846f78	1.0346518
159	0xbfc95447	-1.5728844
160	0xbfe1dced	-1.7645546
161	0x3f13a2c9	0.57670265
162	0x3dfaad9f	0.12240147
163	0xbca52a25	-0.020161698
164	0x3fff8f44	1.9965596
165	0xbff48037	-1.9101628
166	0xbfd14ac4	-1.6350942
167	0xbe612f26	-0.21990642
168	0x3ebe869d	0.37212077
169	0x3e811b3f	0.252161
170	0x3edc1c3b	0.42990288
171	0x3c06ed9b	0.0082353605
172	0xbe0ba9b1	-0.13638951
173	0x3ee4e245	0.4470388
174	0x3e3f2fe9	0.1867062
175	0x3fbc7cec	1.4725623
176	0x3f8c1b75	1.0945879
177	0x3f8d1283	1.1021274
178	0xbf78fa4f	-0.9725694
179	0xbe618c9a	-0.22026291
180	0xc01160d6	-2.2715354
181	0xbef344f2	-0.4751354
182	0xbf87ebec	-1.0618873
183	0x3ec4b8b9	0.38422182
184	0x3f8031b0	1.0015163
185	0xbf3300ab	-0.69922894
186	0x3f761709	0.961289
187	0x3e0c4241	0.13697149
188	0x3f9dd7b4	1.2331452
189	0x40001b6a	2.0016732
190	0xbe8ba803	-0.2727662
191	0xbef84fc3	-0.48498353
192	0xbf8a88fd	-1.0823056
193	0xc006d51e	-2.1067576
194	0xbea23d5d	-0.3168744
195	0xbe97e81b	-0.2966927
196	0xbec44a3a	-0.3833788
197	0xbfda7e53	-1.7069801
198	0xbf4b194c	-0.79335475
199	0xbebdca9d	-0.37068644
200	0x3f4863fa	0.7827755
201	0x3f97dc9a	1.1864197
202	0x3e3bd9b6	0.18344769
203	0xbfb86463	-1.4405636
204	0xbec3c1bc	-0.38233745
205	0xbf442adc	-0.766279
206	0x3e403d41	0.18773367
207	0x3e2cfb70	0.16892791
208	0x3fe96e0f	1.8236712
209	0xbf9525d5	-1.165217
210	0x3f7454d8	0.9544196
211	0xc007d6a8	-2.1224766
212	0xbf511ffa	-0.8168942
213	0xbe55e376	-0.2088755
214	0xbe9ca449	-0.3059409
215	0xbc852be7	-0.016256286
216	0x3d6ac55f	0.057317134
217	0xbf82fffe	-1.0234373
218	0x3f7d5803	0.9896242
219	0x3f04c247	0.51858944
220	0xbfc6c820	-1.5529823
221	0x3ec6178b	0.38689837
222	0x3fa5da94	1.295733
223	0xc0641a9f	-3.5641248
224	0x3e75e340	0.2401247
225	0xbf343ba0	-0.7040348
226	0x3e068e83	0.13140301
227	0xbf913b62	-1.1346247
228	0x3e015058	0.12628305
229	0xbfc5ee32	-1.5463316
230	0x3e3f5f4e	0.186887
231	0xbf2c2ae7	-0.67252964
232	0x3cbf3cdd	0.023344452
233	0xbe357d01	-0.17723466
234	0x3f39436d	0.7236851
235	0x3f902540	1.1261368
236	0xbe4cf82e	-0.20016548
237	0x3f7fdd4b	0.9994704
238	0xbe935d47	-0.28782102
239	0x3e7e9c49	0.24864306
240	0x3f842b8a	1.0325787
241	0x3f5c908f	0.8615808
242	0xbf648a2a	-0.8927332
243	0x3f140038	0.57812834
244	0x3f8100ba	1.0078347
245	0x3f6c791b	0.9237229
246	0xbfbd639b	-1.4796022
247	0xbfaef68f	-1.3668994
248	0xbf9eb20e	-1.2398088
249	0x3fe1f870	1.7653942
250	0xbfa6af0f	-1.3022174
251	0x3f4036a4	0.75083375
252	0xbf8539f9	-1.0408317
253	0x3f4d880c	0.80285716
254	0xbf3893f1	-0.7210074
255	0xbe977f1d	-0.29589167

va_emb_layer.weight f4 [360, 50]
0	0x3ee0c59e	0.4390077
1	0x3f2bdde1	0.67135435
2	0x3f66d683	0.9017107
3	0xbf861256	-1.0474346
4	0xbf9fe057	-1.2490338
5	0xbd1a680e	-0.03769689
6	0xbfb1a033	-1.3877014
7	0xbf430e5a	-0.76193774
8	0x3f084c1c	0.53241134
9	0xbfb1a102	-1.3877261
10	0xbeac1f86	-0.336178
11	0xbfaeb82d	-1.3649956
12	0x3f346e06	0.7048038
13	0x3f3f20e8	0.74659586
14	0xbe87113f	-0.26380345
15	0x3f81ced2	1.0141242
16	0x40000fa6	2.000955
17	0x400281f7	2.0391824
18	0xbed1d903	-0.4098588
19	0xbe6d89f8	-0.23197162
20	0x3e49f223	0.19721274
21	0x37b72b3b	2.183543e-05
22	0xbfb80675	-1.437697
23	0x3f2e2168	0.68019724
24	0xbdfbae2c	-0.1228908
25	0x3f3d955a	0.7405602
26	0xbfb8d989	-1.4441386
27	0xbf9a2f4b	-1.2045683
28	0x3f621d88	0.8832631
29	0x3c708872	0.014680969
30	0xbeca103f	-0.3946552
31	0xbf5271ea	-0.8220507
32	0xbe4a72f6	-0.19770417
33	0xbe1adf43	-0.1512423
34	0x3f92c041	1.1464921
35	0x3fa25757	1.2682904
36	0x40327c5c	2.7888403
37	0xbe956443	-0.29178056
38	0xbfbb2e95	-1.4623591
39	0x3cd36c94	0.02580861
40	0x401fff3d	2.4999535
41	0x3d919cd8	0.07109994
42	0xbe69dd4c	-0.22838324
43	0x3e30515d	0.17218538
44	0xbf922223	-1.1416668
45	0xbe9431d5	-0.2894427
46	0x3fa59128	1.2934923
47	0x3fb0ce40	1.3812943
48	0xbf9a2eda	-1.2045548
49	0x3f838a32	1.0276549
50	0xbdcc0381	-0.09961606
51	0xbfa3d7f6	-1.2800281
52	0x3e597e79	0.21239652
53	0x3fc87ac9	1.5662471
54	0x3ea4d429	0.32193115
55	0xbf013492	-0.5047084
56	0xbfe32299	-1.7744933
57	0xbfc57d0f	-1.542879
58	0xbe57c2cc	-0.21070403
59	0xbe5831dd	-0.21112771
60	0x3ecbdd39	0.39817217
61	0xbf9f81c5	-1.2461478
62	0x3f990d4a	1.195718
63	0x3f7f6ffb	0.99780244
64	0x3e747424	0.23872429
65	0xbfa7b663	-1.3102535
66	0xbe2fec11	-0.17179896
67	0xbec52b09	-0.38509396
68	0xbf5d9a27	-0.8656334
69	0x3ee36759	0.44414786
70	0x3f6ad7ab	0.91735333
71	0x3f54d776	0.8314127
72	0x3e0ee361	0.13953926
73	0xbf92b681	-1.1461946
74	0x3f65eab9	0.89811283
75	0xbfaab157	-1.333537
76	0x3f3d1118	0.7385421
77	0xbf51b814	-0.81921506
78	0xbf49e824	-0.78869843
79	0x3e00e5d1	0.12587668
80	0xbe999b57	-0.30001327
81	0xbc32c3b1	-0.010910914
82	0xbf81da48	-1.0144739
83	0xbd8e54ab	-0.06949743
84	0x3ef4c873	0.4780918
85	0x3fe42127	1.7822617
86	0xbeda6f8f	-0.42663237
87	0xbed2e077	-0.41186878
88	0xbf4b00a1	-0.79297835
89	0x4018bbc5	2.3864605
90	0x3edf0250	0.43556452
91	0x3d3d3e12	0.046201773
92	0x3f0f120d	0.5588692
93	0x3ed9d8fb	0.42548355
94	0xc01727b1	-2.3617976
95	0xbe3183b0	-0.17335391
96	0x3f14611a	0.57960665
97	0x3e92561d	0.28581324
98	0xbf92009f	-1.140644
99	0x3f844cdc	1.0335956
100	0x3f09c3b1	0.53814226
101	0x3eb17b31	0.346643
102	0x3d09315a	0.03349433
103	0xbfc783cc	-1.5587096
104	0xbf8a8d66	-1.0824401
105	0xc0032c52	-2.04958
106	0xbf2cf49a	-0.6756073
107	0xbfdeabbc	-1.7396159
108	0x3f86951b	1.0514253
109	0x3eaa7377	0.33291218
110	0x3e7e509e	0.2483544
111	0x3e82eedf	0.2557287
112	0xbfaac540	-1.3341446
113	0xbecfe1c0	-0.4060192
114	0x3f804ee2	1.0024073
115	0xbdc018ef	-0.09379756
116	0xbf60f998	-0.8788085
117	0xbeb6f09a	-0.3573044
118	0xbeae52c4	-0.3404752
119	0xbf62e9d3	-0.8863804
120	0xbf7fe91f	-0.9996509
121	0xbfc36022	-1.5263712
122	0x3cdfc66b	0.027316293
123	0xbfa75672	-1.3073256
124	0xbf81b05c	-1.0131946
125	0xbf43eed7	-0.76536316
126	0x3ee844ae	0.45364898
127	0xbf2348d3	-0.63782996
128	0x3fc5ed3d	1.5463024
129	0xbf12fc07	-0.57415813
130	0x3f76695e	0.9625453
131	0xbf5cdbbe	-0.862728
132	0x3faef496	1.3668392
133	0xbfcab39f	-1.5836066
134	0x3f7314e6	0.94953763
135	0x3ed28efb	0.4112471
136	0xbf0744a4	-0.5283911
137	0x3b04be95	0.0020255197
138	0x3db35edb	0.087583266
139	0xbe9441a4	-0.2895633
140	0x3e83c8c0	0.25739098
141	0x3fc1713c	1.5112681
142	0x3ec11a8a	0.3771556
143	0x3df56fa2	0.11984183
144	0xbf906421	-1.1280557
145	0xbcb0ff82	-0.02160621
146	0xbf57f3d3	-0.8435642
147	0x3f02d8d4	0.51112103
148	0x3f932372	1.1495192
149	0x3f84226f	1.0323008
150	0x3f6305e4	0.88680863
151	0xbe6b67ee	-0.22988865
152	0x3fcc3282	1.5952914
153	0x3f1f363b	0.62192124
154	0x3f12e72c	0.5738399
155	0xbf60b904	-0.8778231
156	0x3ea2430d	0.3169178
157	0x3fd14449	1.6348964
158	0x3e4d5f57	0.200559
159	0x3eef135c	0.46694458
160	0x3f8cf1ac	1.1011252
161	0xbf9e1791	-1.2350942
162	0x3ed04c76	0.40683335
163	0xbef2d011	-0.47424367
164	0x3d3f1d18	0.046658605
165	0xbfb85766	-1.4401672
166	0x3c8ff2db	0.017571857
167	0xbf078923	-0.5294363
168	0xbf94b11d	-1.1616551
169	0xbedf9af3	-0.43672904
170	0xc02c5d73	-2.6932037
171	0xbf895564	-1.0729184
172	0xbf8368c6	-1.0266349
173	0x3f7a6dc8	0.9782376
174	0x3e47e936	0.19522557
175	0xbf178753	-0.59190863
176	0xbedbd5f5	-0.42936674
177	0x3f18177d	0.5941084
178	0xbea01265	-0.31264034
179	0x3f63a389	0.8892141
180	0xbf7d98ec	-0.99061465
181	0xbb24efdc	-0.0025167381
182	0x3f858918	1.0432463
183	0x4004b247	2.0733812
184	0xbeb91f7b	-0.3615683
185	0xbf4e7e55	-0.8066152
186	0xbf5c6037	-0.8608431
187	0xbea4bd90	-0.32175875
188	0x3fccb761	1.5993463
189	0xbeda9e89	-0.42699078
190	0xbf38e69f	-0.722269
191	0x3f3cffd2	0.7382785
192	0x3d96b19a	0.073580936
193	0x3d913ff0	0.07092273
194	0xc00b8ffb	-2.1806629
195	0x4004f234	2.077283
196	0xbec3996e	-0.38202995
197	0x3f14bcd8	0.5810065
198	0xbfa4522b	-1.2837576
199	0xbe91f7bf	-0.28509328
200	0xbf8c33db	-1.0953325
201	0xbfa71239	-1.3052436
202	0xbe8624fb	-0.2620009
203	0xbfbcb60a	-1.4743054
204	0x3f0b9b83	0.5453417
205	0xbedd2bb3	-0.43197402
206	0xbf960ef7	-1.1723317
207	0xbfb2ca03	-1.3967899
208	0x3dd43343	0.1036134
209	0xbfb338a8	-1.4001665
210	0xbdf311bf	-0.11868619
211	0xbeff4113	-0.49854335
212	0x402b4aab	2.6764324
213	0xbfb0fae4	-1.3826566
214	0xbf837e95	-1.0273005
215	0x3ebd51d8	0.36976504
216	0x3c344a23	0.011004004
217	0x3eb39ead	0.35081998
218	0xbe13ffcf	-0.14453052
219	0x3eac5072	0.33655125
220	0xbf8f8414	-1.1212182
221	0x3e99bee6	0.30028456
222	0xbf1eb11f	-0.61989015
223	0xbe925668	-0.28581548
224	0xbf543abe	-0.82902133
225	0x4011b1cb	2.2764766
226	0x3f2ec85b	0.6827447
227	0x3de370d7	0.11105507
228	0x3e5df4f8	0.2167548
229	0xbed369fc	-0.41291797
230	0x3ee70c20	0.45126438
231	0xbf9df3dd	-1.2340046
232	0xbf0a6406	-0.54058874
233	0x3f8efe24	1.1171308
234	0xbe615962	-0.22006753
235	0x3e598e62	0.21245721
236	0x3ed3c94d	0.41364518
237	0xbea6ada3	-0.3255435
238	0x3fe2879c	1.7697635
239	0xbf89dc43	-1.0770344
240	0x3d20c3ae	0.039249115
241	0x3f1708a3	0.58997554
242	0xbee12f95	-0.43981615
243	0xbe30d45b	-0.17268507
244	0xbf8ec3a7	-1.1153458
245	0x3fd39c2d	1.6532036
246	0xbf12a08f	-0.5727624
247	0xbffdd132	-1.9829466
248	0x3ddb13fc	0.10697171
249	0xbe41fa99	-0.18943252
250	0x3e997b12	0.29976708
251	0xbfeaa36f	-1.8331126
252	0xbfc783fb	-1.5587152
253	0xbf2af1c9	-0.66775185
254	0xbe8efa26	-0.27925223
255	0x3ead9e3f	0.33909795

vb_emb_layer.weight f4 [6, 50]
0	0x3f9d2c86	1.2279212
1	0xbec8c46f	-0.39212367
2	0x3f4a4d66	0.7902435
3	0x3ef0078d	0.4688076
4	0xbd39f639	-0.04540083
5	0x3f6d01ae	0.9258069
6	0x3fd4cf07	1.662568
7	0x3f3e93b9	0.74444157
8	0x3ef81062	0.4845
9	0xbfe13eb1	-1.7597257
10	0x3f9a2052	1.2041113
11	0xbf32cd3e	-0.69844425
12	0xbe1e65df	-0.15468548
13	0xbf06e4ff	-0.5269317
14	0x3ed3056d	0.41215077
15	0x3f5df3b0	0.8669996
16	0x3f51afd6	0.8190893
17	0xbffc80fa	-1.972686
18	0x3f3f1813	0.7464611
19	0xbf296205	-0.6616519
20	0x3d02cf5a	0.031936027
21	0x3ea71948	0.32636476
22	0x3e5b8a73	0.21439533
23	0x3ec29e45	0.38011375
24	0xbfb2f6ef	-1.3981608
25	0xbf376449	-0.716374
26	0x3e78cddd	0.2429728
27	0xbefa2a52	-0.48860413
28	0x3f45bb84	0.7723925
29	0x3ea7d260	0.3277769
30	0xbfb7e625	-1.436711
31	0x3fcb55cf	1.5885562
32	0x3ee42251	0.4455743
33	0x3edc19c2	0.42988402
34	0x3f9e471a	1.2365448
35	0xbf3e52b4	-0.74344945
36	0xbfc949c6	-1.5725639
37	0x3fd009e4	1.6253018
38	0x3fb0a8fb	1.3801569
39	0xbee3bb5c	-0.4447888
40	0x3e354fdc	0.17706245
41	0x3f889e53	1.0673317
42	0xbfa61436	-1.2974918
43	0x3da26100	0.079286575
44	0xbfb18d75	-1.3871294
45	0x3e619906	0.2203103
46	0x3deafd00	0.11474037
47	0x3ecf46a1	0.40483573
48	0x3f45243e	0.77008426
49	0x3fdc733b	1.7222666
50	0xbef6d12c	-0.4820646
51	0x3f8b0316	1.0860317
52	0xbd393415	-0.045215685
53	0xbfd85f92	-1.6904166
54	0xbe998c41	-0.29989818
55	0x3f734077	0.9502024
56	0x3f72e115	0.948747
57	0xbf248d15	-0.64277774
58	0xbfb283d7	-1.3946484
59	0x3e930164	0.28711998
60	0xbd1d4a4c	-0.038400933
61	0x3f769cc3	0.9633295
62	0xbda2d1ba	-0.079501584
63	0xbe7038cd	-0.23459168
64	0x3dca953e	0.09891747
65	0xbed7b65f	-0.42131326
66	0xbf1d0fd4	-0.61352277
67	0x3f15dcc4	0.58539987
68	0xbf37fd78	-0.7187114
69	0xba8c9a1f	-0.0010727084
70	0xbee33803	-0.4437867
71	0x3fd8e80b	1.6945814
72	0xbee5626a	-0.44801646
73	0xbf2904c0	-0.6602287
74	0x3e7ec844	0.24881083
75	0x3f8b406d	1.0879036
76	0xbf5d6fbd	-0.86498624
77	0xbf702891	-0.938119
78	0xbfb6a6ba	-1.4269631
79	0x3f016af4	0.5055382
80	0xbe3fa659	-0.187158
81	0xbf211faa	-0.6293894
82	0x3edb1817	0.42791817
83	0xbdcaecf5	-0.09908477
84	0xbf879bc7	-1.0594414
85	0xbee192c8	-0.44057298
86	0xbef52005	-0.4787599
87	0x3e7c818c	0.24658793
88	0x3fa60f84	1.2973485
89	0x3f78eb63	0.9723417
90	0x400ca0a6	2.1973052
91	0xbeedb26e	-0.46425194
92	0xbe8e64ed	-0.27811375
93	0xbf31fa22	-0.695223
94	0xbf826bf3	-1.0189193
95	0xbf96cad2	-1.1780646
96	0xbf078f1a	-0.5295273
97	0x3f043d2b	0.51655835
98	0xbdf71678	-0.120648324
99	0xbfcd60a3	-1.6045116
100	0xbeaa219d	-0.3322877
101	0x3e610463	0.2197433
102	0xbf217b92	-0.6307918
103	0x3e9eb718	0.30999064
104	0xc00f754a	-2.2415338
105	0xbeaf0332	-0.34182125
106	0xbf846e1c	-1.0346103
107	0xbf995afb	-1.198089
108	0x3e13f6e3	0.14449649
109	0xbe323107	-0.17401515
110	0x40040636	2.062879
111	0xbfff4e85	-1.9945837
112	0xbf1df5ba	-0.61703074
113	0xbf395fc8	-0.72411776
114	0x3f8b6f39	1.0893317
115	0x3fa76d57	1.3080243
116	0xbefcaf46	-0.49352473
117	0xbeb2c049	-0.34912327
118	0x3e84d7dd	0.2594594
119	0xbf1f9633	-0.6233856
120	0x3fdb855b	1.7150072
121	0xbf13483b	-0.5753209
122	0x3f0becdc	0.54658294
123	0xbe72e7cc	-0.23721236
124	0xbedc736e	-0.43056816
125	0xbd5bf8ce	-0.053704076
126	0x3d4d57c6	0.050132535
127	0x3d64a4d5	0.05582126
128	0xbec3211b	-0.38111195
129	0x3f4bf19f	0.7966556
130	0x3fc926ab	1.5714926
131	0xbf0154e4	-0.5052016
132	0xbd8f15b1	-0.06986559
133	0xbf29f67f	-0.6639175
134	0xbf1c2de4	-0.61007524
135	0x3f0ed2ee	0.55790603
136	0x3c9012c6	0.017587077
137	0xbdbfdb6b	-0.093680225
138	0x40019e1b	2.025275
139	0xbf0cab98	-0.5494933
140	0x3f535278	0.8254771
141	0xbf88d018	-1.0688505
142	0xbfa0d47f	-1.2564849
143	0x3e8df155	0.27723184
144	0x3e2d8b3e	0.16947648
145	0xbfdb044d	-1.7110687
146	0x3f025202	0.50906384
147	0xbf970ad0	-1.1800175
148	0x3fb482fd	1.4102474
149	0xbfb0c73c	-1.3810802
150	0x3f006525	0.50154334
151	0xbf2e8505	-0.6817172
152	0xbe610246	-0.21973523
153	0xbfdc6bb8	-1.7220373
154	0xbde8dac7	-0.113698535
155	0x3f98dece	1.1942995
156	0xbdecfeb0	-0.11572015
157	0x3e82d7b3	0.2555519
158	0xbf5e0a36	-0.8673433
159	0x3f4399e1	0.76406676
160	0xbfc61c94	-1.5477471
161	0x3f39c333	0.72563475
162	0x40371107	2.8604143
163	0x3d72a69d	0.059240926
164	0xbfdd74fb	-1.7301325
165	0xc0133340	-2.300003
166	0xbfbe2df6	-1.4857776
167	0x4036b875	2.8550084
168	0xbed053e6	-0.4068901
169	0xbfb1bd9e	-1.3885992
170	0x3f94000d	1.1562515
171	0xbf84fee2	-1.0390284
172	0xbcdf1855	-0.027233282
173	0xbf79af48	-0.9753308
174	0xbf816241	-1.010811
175	0xbf414e43	-0.7551004
176	0xbe56aff6	-0.20965561
177	0x3fa9d02f	1.3266658
178	0x3f3305d9	0.699308
179	0xbf9fbae0	-1.2478905
180	0xbebd5a5a	-0.36982995
181	0xbfb34082	-1.4004061
182	0x3f1cdcae	0.6127423
183	0xbfe5da2d	-1.7957207
184	0x3fb77664	1.4333005
185	0x3f3e3176	0.7429422
186	0xbf849900	-1.0359192
187	0xbeecec5d	-0.4627408
188	0xbf7417da	-0.95348895
189	0xbfdcd8b8	-1.7253637
190	0xbe8d982d	-0.27655163
191	0x3fab56cb	1.3385862
192	0xbf4eeb06	-0.8082737
193	0xc017ca00	-2.371704
194	0x3ebf8d1a	0.3741234
195	0xbf67eb9a	-0.90593874
196	0xbf995043	-1.1977619
197	0x3d66ec2b	0.05637757
198	0x3e7c29d8	0.24625337
199	0x3f3934bf	0.7234611
200	0x3ecd830a	0.40139037
201	0x3fb008c4	1.3752675
202	0x3dff0aa9	0.12453205
203	0x3b719f9f	0.0036868823
204	0x3f337ded	0.7011402
205	0xbe91a9ac	-0.28449762
206	0x3f9cf25f	1.2261466
207	0xbcc39cc0	-0.023878455
208	0xbf3dfd07	-0.74214214
209	0xbf78df26	-0.972155
210	0x3f560fa1	0.836176
211	0x3f15da71	0.5853644
212	0x3f373cba	0.71577036
213	0xbdca1d41	-0.09868861
214	0x3f78a6bd	0.9712942
215	0x3d3cc8f0	0.046090066
216	0xbeb6cf5e	-0.35705084
217	0xbd679c1d	-0.056545366
218	0xbf44b231	-0.768344
219	0x3f8ebfb0	1.1152248
220	0xbe37d0ab	-0.17950694
221	0x3f82cc3c	1.0218577
222	0x3fe71034	1.805182
223	0xbd2e6256	-0.04257425
224	0x3dd0413a	0.10168691
225	0x3d81af9e	0.063323244
226	0xbf910671	-1.1330091
227	0x3f829276	1.0200946
228	0x3f7e05a5	0.9922736
229	0x3e83605b	0.2565945
230	0xbf926897	-1.1438168
231	0xbf13e513	-0.57771415
232	0xbf101192	-0.5627681
233	0xbf8b3457	-1.0875348
234	0xbe921f8f	-0.28539702
235	0x3d20c3cd	0.03924923
236	0x3f06518f	0.524682
237	0xbe36ad46	-0.17839536
238	0x3e0fa42f	0.14027475
239	0xbf174913	-0.5909588
240	0x3e23bf0d	0.15990849
241	0xbf458b55	-0.7716573
242	0xbe75132f	-0.23933099
243	0x3e6a346c	0.2287156
244	0xbca64bef	-0.02029988
245	0x40089be5	2.134515
246	0xbe775242	-0.24152473
247	0xbda6877b	-0.081313096
248	0xbeb5832b	-0.35451636
249	0x3e9b3d46	0.30320185
250	0x3f2ea66e	0.682227
251	0xbf9337a1	-1.1501352
252	0x3f01f1d9	0.50759655
253	0x3f8e655e	1.1124685
254	0xbf3764d2	-0.71638215
255	0xbfa6cd65	-1.3031431

f_layer.weight f4 [50, 100]
0	0xbdad4ed4	-0.08462301
1	0xbd7c00aa	-0.06152407
2	0x3c039d63	0.008033129
3	0xbddf2280	-0.10895252
4	0xbc932235	-0.017960647
5	0x3dac9be7	0.084281735
6	0x3c6dd822	0.014516862
7	0x3d40b596	0.047048174
8	0xbbf4f9b4	-0.007476056
9	0x3d2da2db	0.04239164
10	0x3c847cc5	0.016172776
11	0xbc03ef2a	-0.008052627
12	0x3e0dd3f4	0.13850385
13	0x3e389a05	0.18027504
14	0x3d814385	0.063117065
15	0xbd206811	-0.039161745
16	0x3cd57e4e	0.026061203
17	0xbd3b84fe	-0.045781128
18	0xbe0df8d6	-0.13864455
19	0x3d17dc2b	0.037075203
20	0xbcf22513	-0.029558694
21	0x3d848315	0.064703144
22	0xbd930a42	-0.07179691
23	0x3b264dc6	0.0025375946
24	0x3da0ae7a	0.07845779
25	0xbdb9efdd	-0.090789534
26	0xbda51b7d	-0.080618836
27	0x3bbc6db2	0.0057503814
28	0xbd94c880	-0.07264805
29	0x3c3901b4	0.01129191
30	0xbda3d951	-0.08000434
31	0xbdc15c0b	-0.09441384
32	0x3d024985	0.031808395
33	0x3d4ef300	0.05052471
34	0x3e0040e5	0.12524755
35	0xbdc3368e	-0.0953189
36	0x3d7d4b27	0.06183925
37	0x3c9867d5	0.018604198
38	0x3c5d9285	0.0135237025
39	0x3d48eabb	0.04905198
40	0xbcff9c5a	-0.031202484
41	0x3dc456d1	0.095868714
42	0xbdb53087	-0.088471465
43	0x3e27ec6d	0.16398783
44	0x3d00f3d8	0.031482548
45	0x3db544df	0.08851027
46	0xbcc55958	-0.024090454
47	0x3d6bb0c5	0.057541627
48	0x3c9efdc3	0.019408112
49	0xbdbc84eb	-0.092050396
50	0x3d63c176	0.05560442
51	0x3da9f3d0	0.08298457
52	0xbda551bf	-0.080722325
53	0x3d5af98c	0.053460643
54	0x3c9b2014	0.018936194
55	0x3e012377	0.12611185
56	0xbdbea702	-0.09309198
57	0xbd30810f	-0.04309183
58	0xbe263d92	-0.16234425
59	0x3d8dca91	0.06923402
60	0xbd12010e	-0.035645537
61	0x3cc58f7b	0.024116268
62	0x3d2116af	0.039328273
63	0x3d9c4569	0.076304264
64	0xbdcbb1cc	-0.099460214
65	0x3d3f362c	0.04668252
66	0x3d5ee59d	0.054418195
67	0x3df65cb8	0.120294034
68	0xbdd4b561	-0.10386158
69	0xbda203db	-0.079108916
70	0xbcbb7ef3	-0.022887683
71	0xbd8e396d	-0.06944547
72	0x3df2edb1	0.11861742
73	0x3b6f2c5c	0.0036494946
74	0x3d102b8a	0.035197772
75	0xbd9dfd6d	-0.07714353
76	0xbdc930b6	-0.09823744
77	0x3d8a95f4	0.067668825
78	0xbc9667f4	-0.018360116
79	0xbdb82bea	-0.08992751
80	0x3da8ca6e	0.082417354
81	0x3d6615e6	0.056173228
82	0x3d658c7b	0.056042176
83	0x3dc525b0	0.09626329
84	0xbcc42be6	-0.023946714
85	0xbd78a56b	-0.06070463
86	0xbdb51aff	-0.0884304
87	0x3dd586e8	0.10426122
88	0xbd8296ed	-0.06376443
89	0x3c77b351	0.015118436
90	0x3cf31d0b	0.029676935
91	0xbc451796	-0.012029549
92	0x3d377ab8	0.044794768
93	0x3d887d59	0.06664533
94	0xbddb8283	-0.107182525
95	0x3d8dbe69	0.069210835
96	0x3ba1fd5e	0.004943534
97	0x3dc1cc9d	0.09462855
98	0x3d6142e3	0.05499543
99	0xbd9e8dca	-0.07741888
100	0xbe11611f	-0.14197205
101	0x3d5e8b59	0.05433211
102	0x3e0a3ad2	0.13499
103	0xbdd603f5	-0.104499735
104	0xbdc812a1	-0.09769178
105	0xbe13fff6	-0.1445311
106	0xbdd9515f	-0.106112234
107	0x3c2459c5	0.010031168
108	0xbe3aa07b	-0.18225281
109	0xbdabf146	-0.08395629
110	0x3cb9fe4e	0.02270427
111	0xbcddcc3b	-0.027074924
112	0xbd0c4178	-0.034242123
113	0xbe121614	-0.14266235
114	0xbe39e39c	-0.18153232
115	0xbdeb87f8	-0.11500543
116	0x3d9899f8	0.07451242
117	0xbe60187d	-0.21884342
118	0x3e488e1d	0.19585462
119	0xbdcd917e	-0.10037516
120	0xbd56581f	-0.052330133
121	0x3d6129b6	0.05497142
122	0xbe0b5109	-0.13605131
123	0xbd0220ea	-0.03176967
124	0xbe37bc97	-0.17943035
125	0xbdf93df5	-0.121700205
126	0x3e142f0c	0.14471072
127	0x3d6677a7	0.056266453
128	0x3cd29eea	0.025710542
129	0x3c8c03e0	0.017091691
130	0xbdad55c5	-0.08463625
131	0x3d81a504	0.06330302
132	0x3d636143	0.055512678
133	0x3dcd46f4	0.10023299
134	0xbdd04d5a	-0.10171004
135	0xbd9624f5	-0.07331268
136	0xbda430e0	-0.08017135
137	0x3c21c4fb	0.009873624
138	0x3d81457b	0.063120805
139	0x3d9fc0ad	0.07800422
140	0x3dbbcf70	0.09170425
141	0xbd719d28	-0.058987767
142	0xbddc0507	-0.107431464
143	0xbe0e1816	-0.13876376
144	0x3c2b45e5	0.010453676
145	0x3ca9d7b3	0.020732736
146	0x3dd2b03f	0.102875225
147	0x3ca28cd9	0.019842552
148	0xbd56fb10	-0.052485526
149	0x3d284636	0.041082583
150	0xbe1a62b9	-0.15076722
151	0x3d6a3c6e	0.057186536
152	0x3bc435f4	0.005987877
153	0x3dc0319d	0.09384463
154	0x3db4a01d	0.08819602
155	0x3d93d47c	0.072182626
156	0xbde13cd5	-0.10997931
157	0xbd723a0a	-0.05913738
158	0x3cdd0496	0.026979726
159	0x3ce42091	0.02784756
160	0xbd71ae32	-0.059004016
161	0xbcbba7d7	-0.02290718
162	0xbe06d67d	-0.13167758
163	0xbe06509d	-0.13116689
164	0x3c86bdb5	0.016447881
165	0x3e0881f7	0.13330828
166	0xbe013038	-0.1261605
167	0xbbb5ae86	-0.0055444865
168	0xbd908ca9	-0.07058079
169	0x3d7ece22	0.062208302
170	0x3b0fe766	0.0021957993
171	0x3d04a7d6	0.032386623
172	0xbc3833c1	-0.011242808
173	0x3d979bcc	0.07402763
174	0x3b32dd13	0.0027292415
175	0xbcad4842	-0.02115262
176	0x3cb06fa5	0.021537611
177	0x3e0bc81f	0.13650559
178	0xbc3072f7	-0.010769597
179	0xbda2b10a	-0.07943924
180	0x3c8887c0	0.016666293
181	0x3c383d0c	0.011245023
182	0xbdec8791	-0.11549295
183	0x3e0e053b	0.13869183
184	0x3d93f595	0.072245754
185	0x3d140a3e	0.03614258
186	0xbe370bb4	-0.17875558
187	0x3d67dc12	0.05660636
188	0x3d1cef74	0.038314298
189	0x3ca808b4	0.020511962
190	0x3de024e5	0.10944537
191	0xbd497d5a	-0.04919181
192	0x3d7f86fc	0.06238459
193	0x3d6ec78e	0.05829578
194	0x3ce64b77	0.028112156
195	0xbc61af31	-0.013774679
196	0x3e04bbdc	0.12962288
197	0xbdd7601f	-0.105163805
198	0x3c8acdfe	0.016943928
199	0x3dda314f	0.10653936
200	0x3b938ebe	0.0045031
201	0xbd632c0e	-0.055461936
202	0xbe5f0fcc	-0.2178337
203	0xbd4059c8	-0.046960622
204	0x3dc9c337	0.098516874
205	0x3e14a424	0.1451574
206	0xbc86d088	-0.016456857
207	0x38758f3e	5.8545957e-05
208	0xbdbcb5c3	-0.09214356
209	0xbdb748d6	-0.08949439
210	0x3cdb81ee	0.026795354
211	0x3dfa46a7	0.12220507
212	0x3dfd31f2	0.12363042
213	0x3e69a18a	0.22815529
214	0x3db6fb1b	0.08934613
215	0xbc6ec7bd	-0.0145739885
216	0x3dcb62e3	0.099309705
217	0xbd0a63b7	-0.0337865
218	0xbc8024e1	-0.015642585
219	0x3e013340	0.12617207
220	0xbe20e93b	-0.1571397
221	0xbdd711da	-0.10501452
222	0xbde8af79	-0.11361594
223	0x3dc21ac5	0.09477762
224	0x3da48698	0.08033484
225	0x3d1a5f30	0.037688434
226	0x3db5cce7	0.08876973
227	0xbd77452c	-0.0603687
228	0xbdc3f37f	-0.095679276
229	0xbddfb4be	-0.10923146
230	0x3dab993e	0.08378838
231	0x3da7156f	0.08158385
232	0x3e27aafd	0.1637382
233	0xbd8bcacc	-0.0682579
234	0xbdad57a2	-0.0846398
235	0x3cf85760	0.030315101
236	0xbd8ffc82	-0.07030584
237	0x3e2bc802	0.16775516
238	0x3da3a437	0.07990306
239	0xbe478631	-0.19484784
240	0x3c8947cf	0.016757874
241	0x3e482493	0.19545202
242	0x3d540898	0.05176601
243	0x3e3abd8d	0.1823637
244	0x3d091d64	0.033475295
245	0x3daf99d2	0.08574261
246	0xbce94f6a	-0.02848025
247	0x3d9704f4	0.073739916
248	0x3d244f3b	0.040114623
249	0x3cb546c8	0.022128478
250	0x399db82f	0.000300826
251	0xbb90359c	-0.004400922
252	0xbc4c9f97	-0.012489221
253	0x3c017dd2	0.007903533
254	0x3d22f49a	0.03978405
255	0x3d445e60	0.047941566

f_layer.bias f4 [50]
0	0xbc9e734b	-0.019342085
1	0xbd1da38d	-0.038486052
2	0x3d853cd7	0.06505745
3	0xbd731f68	-0.059356123
4	0x3d834dfa	0.06411357
5	0xbc9197b6	-0.017772537
6	0x3d8b5163	0.06802633
7	0x3ce156db	0.027507236
8	0xbceb69d1	-0.02873698
9	0x3d163b82	0.036677845
10	0xbced7511	-0.028986486
11	0xbd593c21	-0.05303586
12	0xbdbe579e	-0.092940554
13	0xbdc38e7a	-0.095486596
14	0xbceb1f33	-0.0287014
15	0xbd95b399	-0.07309646
16	0x3bc43b09	0.005988483
17	0xbcab877a	-0.020938624
18	0x3dd8d09b	0.10586663
19	0x3cfdc8f1	0.030979605
20	0x3d5ee66f	0.054418977
21	0x3d859f7a	0.06524558
22	0xbdd483ad	-0.10376678
23	0xbc1c839a	-0.009552861
24	0xbd88526b	-0.06656345
25	0xbd863711	-0.06553472
26	0x3d88d250	0.06680739
27	0xbd17a798	-0.037025064
28	0xbd84172f	-0.064497344
29	0x3d14ea16	0.036356054
30	0xbd8286b0	-0.06373346
31	0x3bd5e7c6	0.0065278737
32	0x3da53429	0.080665894
33	0xbd911503	-0.07084086
34	0xbd452868	-0.048134238
35	0xbb5084aa	-0.0031817355
36	0xbc695548	-0.014241524
37	0x3d8dce11	0.0692407
38	0xbd96e628	-0.073681176
39	0xbdac8a30	-0.08424795
40	0xbd373d1e	-0.04473602
41	0xbc9e6c7d	-0.01933884
42	0xbc9272a9	-0.01787694
43	0x3cce444c	0.02517905
44	0xbd7c7473	-0.061634492
45	0x3da32772	0.07966508
46	0xbd9726a9	-0.07380421
47	0x3ce3ef01	0.027823927
48	0xbda181a1	-0.07886053
49	0xbca9ace1	-0.020712318

p_layer.weight f4 [1, 50]
0	0x3e2a316d	0.16620417
1	0xbe73ec4f	-0.23820613
2	0x3df7b040	0.12094164
3	0x3e0d6202	0.13806918
4	0xbe15f4ee	-0.14644215
5	0xbe03d0c5	-0.12872608
6	0xbe11926b	-0.1421601
7	0xbe491510	-0.19636941
8	0xbdfdd777	-0.12394612
9	0x3e4fbfb9	0.2028798
10	0x3e07471c	0.1321072
11	0x3e00e767	0.12588273
12	0xbddd70d0	-0.10812533
13	0xbde63312	-0.1124021
14	0x3d3f94a0	0.0467726
15	0x3de474af	0.11155068
16	0x3e0e26fe	0.13882062
17	0xbe7fe4dd	-0.24989648
18	0x3dea80ca	0.11450346
19	0xbe5e9dbb	-0.21739857
20	0x3db4508a	0.08804424
21	0x3e2d8969	0.16946949
22	0x3e82026f	0.25392482
23	0xbe00fb12	-0.12595776
24	0xbe172a40	-0.14762211
25	0x3e072fef	0.13201879
26	0x3d5a8542	0.05334974
27	0x3e54808b	0.2075216
28	0x3d99de92	0.07513155
29	0xbe01ff7f	-0.1269512
30	0x3e48c696	0.19607005
31	0xbd7299b3	-0.05922861
32	0xbe1c8d54	-0.15288287
33	0x3e04cd30	0.12968898
34	0x3e660951	0.22464491
35	0x3db5d30c	0.088781446
36	0x3e0394ad	0.12849684
37	0xbe2ad82c	-0.16684026
38	0xbe629e06	-0.22130594
39	0x3e56b6f4	0.20968229
40	0x3e141c0f	0.14463829
41	0x3e3c6bc1	0.1840048
42	0x3e0a7447	0.13520919
43	0x3e0d2c26	0.13786373
44	0xbd7d970c	-0.061911628
45	0x3e3389c7	0.17533027
46	0x3e32d5ab	0.1746432
47	0x3e0ceeed	0.13763018
48	0x3e249014	0.16070586
49	0x3e355c1f	0.17710923
