ckpts/sakt/alg05/model.ckpt (torch, 915564 bytes, 18 tensors)

P f4 [100, 100]
000000 41 cf 5d be 7c 7e 8d be 2c 22 46 3e 50 3f af 3d
       -0.21661092 -0.27635562 0.19348973 0.08556998
000010 5f aa 24 be 2b 6b 1b 3e 4e 52 12 3e 38 fe 41 3e
       -0.16080616 0.151776 0.14289209 0.18944633
000020 2e 23 18 be 7f c0 b5 be c1 d4 b2 3d 5b 44 4c 3e
       -0.1485717 -0.35498425 0.08731986 0.1994795
000030 c6 c8 e3 bd 86 2b b6 3d 0c e6 2d 3e ed 11 ce be
       -0.11122279 0.0889502 0.16982287 -0.4024805
000040 e8 ec b7 3c 94 56 8a 3e 6a e4 7b be 62 34 89 be
       0.022451833 0.2701918 -0.24598852 -0.26797777
000050 cf 7b d7 bd 48 04 31 3e b9 60 fe 3d db 8b 9c 3e
       -0.105216615 0.1728679 0.12420792 0.3057545
000060 bd 65 c7 bd 9c 07 c1 3d a9 8d e1 be 66 00 3b 3e
       -0.09736202 0.094252795 -0.4405339 0.1826187
000070 cb 96 7c bd 44 ae 2e 3e a7 01 72 be b0 ce ab bd
       -0.061667245 0.17058665 -0.23633443 -0.08389032
000080 3a fb 0a 3e 85 c6 bf 3e f4 6e 5e 3d 67 2d 3c 3e
       0.13572398 0.37456146 0.054305032 0.18376695
000090 63 29 a6 3e fd be c3 bd dd e5 14 3e 3b 41 85 bc
       0.3245345 -0.095579125 0.14540811 -0.016266456
0000a0 2b ef a8 3d 35 60 74 bc 9a 8a 14 bf 17 3b 49 3e
       0.08248743 -0.014915516 -0.5802399 0.19651447
0000b0 c2 94 5c 3e be e4 0a be df 05 9f 3d be 7f 88 3e
       0.21541122 -0.1356382 0.07764792 0.2665996
0000c0 aa 36 ae 3c d4 90 ee 3d 60 e7 23 3e 24 a3 82 3e
       0.0212663 0.116487175 0.16006231 0.2551509
0000d0 59 a6 90 3e 8d ee 34 3d 0d be 6f 3d 15 4e 19 be
       0.28251913 0.044172812 0.058530856 -0.14971192
0000e0 97 cb 1b 3e 41 3e 0a 3c cd 17 73 bd 1e ac 26 be
       0.15214382 0.008437694 -0.05934887 -0.16276595
0000f0 75 81 a9 3c ac f3 c2 bd d7 5c c1 3e 70 e7 91 bc
       0.020691613 -0.09519133 0.37766144 -0.017810553
000100 91 ae 03 bf c7 db c5 be 7b d9 69 be c0 3b 1e be
       -0.5143824 -0.3864424 -0.22836868 -0.1545248
000110 f5 4a 7b be f2 ad 07 be dc 97 84 3e cd 86 8f 3e
       -0.24540313 -0.13249949 0.2589711 0.28032532
000120 ad 5b 72 3e 2c 01 0a be bd e7 a7 3d 00 39 7a be
       0.23667784 -0.1347701 0.081984974 -0.24435806
000130 1b 3d 01 be 5d c5 6c 3e 9e 2e 6e 3e 94 60 c8 3e
       -0.12620966 0.23122163 0.2325997 0.39136183
000140 ca 36 57 bd 6e f9 8e 3e e0 d2 1a 3e 71 e9 4d be
       -0.052542485 0.27924675 0.15119505 -0.20108582
000150 7f 6d 7b be 65 9d 9b bc d4 92 04 3f eb f9 3f be
       -0.24553488 -0.01899595 0.5178654 -0.1874768
000160 0c 54 a5 3c f5 75 40 bd 92 ce d8 bd 3c dd 70 bd
       0.020181678 -0.046987493 -0.10586275 -0.058804736
000170 12 ce 98 be 6a 81 39 be 8f 35 1b bd 4e 6f 74 bd
       -0.2984472 -0.18115774 -0.037892874 -0.05967646
000180 c6 d9 33 be ec c0 8d 3d d5 42 90 bd 1c ac 9a 3e
       -0.17563543 0.069215626 -0.07043997 0.30209434
000190 71 54 9c bd bf 6e 91 bd 2b 5f 7b 3e f9 d1 81 bd
       -0.076332934 -0.07101201 0.24548022 -0.06338877
0001a0 ec eb 05 be 1d e1 3a 3b c6 f7 79 be 15 b7 1f 3d
       -0.13078278 0.0028515526 -0.24410924 0.03899296
0001b0 ce ee 89 be 31 44 f1 bc 20 6e 20 3e 5d b7 c9 bd
       -0.26940006 -0.029451462 0.1566701 -0.09849427
0001c0 da 20 35 3e fb 43 2f be a7 a5 8f 3e 61 72 5d be
       0.17688313 -0.17115776 0.2805607 -0.21625663
0001d0 0e 4f 43 3e cd f6 a2 3d db 08 0a 3b 67 07 43 bd
       0.19073126 0.0795723 0.0021062407 -0.04761448
0001e0 97 3c 1d be 7d 3d 21 3e eb 09 d0 bc bf ab f9 bc
       -0.15355144 0.15746112 -0.025395354 -0.030477403
0001f0 60 87 7a 3d 4a ec 31 bd 69 45 5a be 4f 64 4c bd
       0.06116426 -0.043438233 -0.2131554 -0.04990035
000200 48 ae dd bc 29 11 10 3d 51 51 bd 3c 63 c6 eb 3d
       -0.027060643 0.035172615 0.023110064 0.11512449
000210 c2 00 87 bd d3 ba b0 3d 22 aa 62 3d 77 c3 81 3b
       -0.065919414 0.08629384 0.055338033 0.003960069
000220 3d fb dd bb d0 b6 35 be 51 5a 78 3c b0 88 35 be
       -0.0067743347 -0.17745519 0.015158252 -0.17727923
000230 b2 f7 38 3d 46 8a 88 bd 52 f3 32 3d a8 1e 28 3e
       0.045158096 -0.066669986 0.04368908 0.16417944
000240 41 82 c9 3e b7 1a 2a be b7 43 83 3d 5e fd 62 3e
       0.39357188 -0.16611753 0.064094 0.22166964
000250 00 e4 af bd 57 59 63 bd cb b3 7d bd 99 b5 3b 3d
       -0.085884094 -0.055505123 -0.061939042 0.045827482
000260 09 bf d2 3c 7e 50 a6 3e d5 35 d0 3d 3c 8f e0 bd
       0.025725858 0.32483286 0.10166518 -0.1096482
000270 22 df 86 3e 3b 29 c9 bd 30 5b c7 3e 56 ef 1f 3d
       0.26342112 -0.09822317 0.38936758 0.039046608
000280 a0 51 16 be 6e 10 7b 3d 1a 30 04 3b ce 9a d1 bc
       -0.14679575 0.061294965 0.0020170272 -0.025586512
000290 bb 8e 87 3e 4e c8 5a be 6a fd 76 be d9 3b 4b bd
       0.26476082 -0.21365473 -0.24120107 -0.049617622
0002a0 43 eb da bd 61 fa 82 bd 26 a5 c0 3b 00 ae 32 3d
       -0.10689404 -0.06395412 0.005879062 0.04362297
0002b0 c5 33 ad bb b0 48 12 be bd 8e 6b 3d 1c 0b 12 be
       -0.0052857124 -0.1428554 0.057509173 -0.1426205
0002c0 0b 1f 54 be ec e8 f6 bc cf 34 21 3e 4e e8 c0 3d
       -0.20714967 -0.030140363 0.15742801 0.094193086
0002d0 b8 e5 43 3e d6 85 66 be 1a 7d 3a 3d a4 27 a8 3e
       0.191306 -0.22511992 0.045529462 0.32842743
0002e0 f6 f2 e9 3c e0 bc 2c 3d 24 fe d4 3e 96 61 66 be
       0.028558236 0.042172313 0.41600144 -0.22498164
0002f0 f6 1d e9 3e d2 43 45 bd 4a 1e b4 bc 6c d4 9f bc
       0.4553067 -0.04816038 -0.0219871 -0.01951047
000300 22 bb 70 be 78 8b 06 be b5 23 55 be 1a f3 7a 3c
       -0.23508886 -0.1313914 -0.20814402 0.015316749
000310 d5 dd db bd 41 50 f3 bd 4c c3 79 3c f0 0c c1 3c
       -0.107356705 -0.118805416 0.015244316 0.02356574
000320 dc c8 fc bd 98 74 78 be e9 b2 b5 3d 1f 7c b0 b9
       -0.123429984 -0.24263227 0.08872015 -0.00033661813
000330 b7 0d 8a be f1 10 8f be 36 82 0a 3e f8 dd 35 be
       -0.2696359 -0.27942613 0.13526234 -0.17760456
000340 93 1e 6b be ac bc 15 be 16 58 3e bd 06 08 4b bc
       -0.22960882 -0.14622754 -0.046470724 -0.01239205
000350 4f c7 13 3e e4 49 a8 3d 3f 8b 01 3e 25 2d ad bc
       0.14431499 0.082172185 0.12650774 -0.02113969
000360 0b 90 9a 3c f4 68 1f bd 16 94 35 be fe 1a 9b bc
       0.018867513 -0.03891845 -0.17732272 -0.01893377
000370 d3 0c 80 bd a0 bc aa 3e 73 44 ae 3d 19 9c a8 be
       -0.06252446 0.33347034 0.085091494 -0.32931593
000380 60 48 a1 bd d5 44 3e bd 44 40 c7 bd 9c 88 c7 3d
       -0.078751326 -0.046452362 -0.097290546 0.09742853
000390 01 9a db bc 1d 20 1c be 84 69 18 bd fd f8 29 3e
       -0.026806833 -0.15246625 -0.037210003 0.16598888
0003a0 ae b0 88 bd 43 b9 4f 3e 42 d8 62 be ea 0f 53 bd
       -0.06674324 0.20285515 -0.22152808 -0.05152885
0003b0 49 6e 50 3e ca 2c 26 be f0 b2 af bd 4e 18 53 bd
       0.2035457 -0.16228023 -0.085790515 -0.05153685
0003c0 c8 34 ee bc 4e 7c 44 3e 31 6c 3a bd 62 d8 97 bb
       -0.029077902 0.19188043 -0.045513336 -0.004633949
0003d0 01 2a 22 be 2c 28 9a 3c 38 ca 69 3e 13 6f ae 3e
       -0.15836336 0.018817984 0.22831047 0.34069118
0003e0 7b 4c 29 be 72 32 4d 3d 81 de 37 3e ae 9b 94 3d
       -0.16533081 0.050096937 0.17955972 0.07256256
0003f0 cc d1 0f be 7a d5 13 be 1a 0c 3e 3d 56 5c d3 3d
       -0.14044875 -0.14436904 0.04639826 0.10320346

M.weight f4 [796, 100]
000000 2c 6a 10 3f 89 66 7f be eb 10 78 bf 8d 86 93 3f
       0.56412005 -0.24941458 -0.96900815 1.1525437
000010 c8 1a 91 3f 70 ef 00 40 d4 87 2a 3f 34 9c 0d 3f
       1.1336298 2.014614 0.6661351 0.5531647
000020 49 bc ef be a8 2f 6e be ec c9 4f 3f 05 1b 86 bf
       -0.46823338 -0.23260367 0.81167483 -1.0476996
000030 d6 89 a3 3e 65 40 4f bd fa 8b 18 bf f5 6f 7f bf
       0.31941098 -0.05059852 -0.5958859 -0.9978021
000040 4c 2d c3 3e 1c 91 bc 3f bf 8e d4 3e 7b f6 e1 3f
       0.38120496 1.4731784 0.41515157 1.7653345
000050 78 11 4e 3f ac 67 78 bf 87 27 da bf 7d 88 33 c0
       0.80495405 -0.9703319 -1.7043313 -2.8052056
000060 94 e9 3f 3b 4c 5c 7a bf 76 61 90 bf b4 59 6a 3e
       0.002928351 -0.97797084 -1.1279743 0.22885782
000070 95 6a df 3d c6 ca af 3f 7b 21 21 3f fa 4c 25 bf
       0.10909001 1.3733757 0.6294171 -0.6457058
000080 a9 61 fe 3e 9f 02 bc bf 01 4c a6 3e b2 a5 81 3f
       0.49683884 -1.46883 0.3247986 1.0128691
000090 c0 9c 11 c0 43 e8 87 3f 60 7b 13 3f f8 11 99 3f
       -2.2751923 1.0617756 0.5761013 1.1958609
0000a0 59 87 0e be d2 45 13 bf 54 9d 1b bf 1e 50 9c be
       -0.13918819 -0.5752841 -0.6078694 -0.30529875
0000b0 b4 b5 b6 3f 99 1e 8d bf cf 4c a4 3f eb 82 6a 3f
       1.4274201 -1.1024963 1.283594 0.91606015
0000c0 3e 0e 8f bf 7e 04 70 bf f2 73 d9 3e 76 8e b9 be
       -1.1176221 -0.93756855 0.42471272 -0.36241502
0000d0 5b de 51 be 42 c2 8d 3e 12 e6 82 3e f7 f8 ee bd
       -0.20494978 0.2768727 0.25566155 -0.1166858
0000e0 94 d9 f2 bc e3 79 32 be 61 1d 01 bf a9 ca 88 3e
       -0.029644765 -0.17429309 -0.50435454 0.26717117
0000f0 9b 82 1d be af 8b c3 3f 2f 82 34 bf c2 8e af bf
       -0.15381853 1.5277003 -0.70511144 -1.3715441
000100 7b 6a aa bf e5 6c 4a bc e0 93 00 be 5a 0f ac be
       -1.3313745 -0.012355064 -0.1255641 -0.33605462
000110 cf 8d ec 3e b8 6f 30 bf ab 80 b5 be 72 4b ae 3f
       0.4620194 -0.6892047 -0.35449728 1.3616774
000120 3c 9c 9c 3e 53 29 ac bf 1b 09 c8 bf 0e 6e 06 bf
       0.30587947 -1.3450111 -1.5627779 -0.5251168
000130 6d d4 c8 3d d1 5c 7f 3f fb fe bb 3d 88 e8 7c 3f
       0.09806142 0.99751 0.09179493 0.98792315
000140 bf ab 04 3f c4 7f 83 bf 65 bb 25 bf 63 7b 01 bf
       0.51824564 -1.0273366 -0.64739066 -0.505789
000150 ff 29 12 3d 07 53 38 3f 12 30 f2 3f ea 82 ae 3d
       0.03568458 0.7200169 1.892092 0.085210636
000160 c1 96 59 3f 71 55 d4 bc ea 1f 63 3f dd 26 53 3f
       0.8499566 -0.025919648 0.8872057 0.82481176
000170 3a 3b 82 3f 13 cb 91 bf 7b d4 5e bf fa 8f 01 bf
       1.0174325 -1.1390098 -0.8704297 -0.50610316
000180 9c e8 38 bf d8 d8 d4 3d c0 1a a3 3f 98 cb 42 3d
       -0.72229934 0.10392922 1.2742538 0.047557443
000190 ff f1 f2 be c9 d1 55 3e d7 86 40 be 41 3c ff 3f
       -0.47450253 0.20880808 -0.18801437 1.9940263
0001a0 ad 5d 82 3d 4f 10 47 3f d0 36 6c 3f b4 96 41 be
       0.063655235 0.7775926 0.9227114 -0.18905145
0001b0 e0 c9 6a bf 09 52 a2 3d b1 74 fb 3e f9 15 0e 3f
       -0.91714287 0.07925803 0.49112466 0.5550228
0001c0 a4 b0 34 bf c5 82 2d 3c 48 98 08 bf a1 6d 0f 3f
       -0.7058203 0.01059026 -0.5335736 0.56026655
0001d0 c5 c5 84 bd 43 eb d7 be ad 20 d2 bf cf eb 72 3e
       -0.06483034 -0.42171678 -1.6416222 0.23722766
0001e0 ce 6b 51 be 52 96 04 3f 82 21 35 3f c0 20 1c 40
       -0.2045128 0.5179187 0.70754254 2.439499
0001f0 7c 7e a3 3f 0d 43 c6 3f fe ce 8e 3d 04 c2 45 be
       1.2772975 1.5489212 0.069730744 -0.19312292
000200 cc 83 9c 3e 36 13 c6 bf 8c ba 81 3f e1 d8 d1 be
       0.30569303 -1.5474613 1.0135055 -0.40985778
000210 4e 7e 24 bf 1a a4 1d bf 56 68 a1 3d 5e d4 24 3f
       -0.64255226 -0.61578524 0.078812286 0.64386547
000220 bd 4d 87 3f 41 d9 59 bf 4c 96 21 bf dd 1d d0 3f
       1.0570599 -0.8509713 -0.6311996 1.6259114
000230 6c 2a 49 bf b0 c5 29 3f e3 c5 64 3f 83 a5 65 bf
       -0.78580356 0.6631727 0.8936445 -0.89705676
000240 0b ad 86 3f 36 02 6f bf f2 97 88 bf 9e 0b ea 3c
       1.0521559 -0.9336275 -1.067137 0.028569993
000250 cc 26 8e bf c6 a4 f9 3e 7a ba 1a 3f 66 a1 22 3e
       -1.110559 0.48758525 0.6044079 0.15881881
000260 7b f9 f7 3e 99 bd 06 bf 3b 18 1e 3f 17 f3 a1 bf
       0.48432526 -0.52633053 0.6175572 -1.265231
000270 88 07 22 3f e6 ed 94 be 4e 30 a4 3f 7b 5b 67 c0
       0.6329274 -0.29087752 1.2827241 -3.6149585
000280 25 ca 83 be df ff 69 bf 44 98 af bf 76 3a 25 3f
       -0.25740162 -0.91406053 -1.3718343 0.6454233
000290 f9 ee 8a 3f be cb c6 3e a7 67 08 3f 28 22 8e bf
       1.0854179 0.38827318 0.5328316 -1.1104174
0002a0 d8 93 9e bf f9 c8 b8 3e 56 e4 80 bf a9 26 e3 3f
       -1.2388868 0.3609083 -1.0069683 1.7746173
0002b0 80 f1 83 3e d1 6d 8a 3e bb 66 f4 bc 1a c1 42 bf
       0.25770187 0.27036908 -0.029834142 -0.760759
0002c0 a1 48 b2 3f b1 b2 a1 3e 1a 18 53 be fc 5d 0e be
       1.3928415 0.31581643 -0.20614663 -0.1390304
0002d0 04 2d 68 bf 14 d8 a1 bf 81 d6 ca 3f 2e 39 ac bf
       -0.9069369 -1.2644067 1.5846711 -1.345495
0002e0 cd 0a d9 bf f2 9c 87 3f 12 d0 0d be 30 3e c2 3e
       -1.6956421 1.0594771 -0.13848904 0.3793807
0002f0 70 e3 92 be 47 e2 88 be 07 3b 72 3e 33 f2 49 3e
       -0.28689146 -0.26735136 0.2365533 0.19721298
000300 10 75 5d 3f 90 30 a8 3f cd 84 47 bf 56 48 d6 bf
       0.8650675 1.313982 -0.7793701 -1.6740825
000310 f4 44 07 3f 5c 50 47 bf d2 55 ac be 2b 52 4d 3e
       0.5283959 -0.77856994 -0.33659226 0.20050876
000320 b3 6f 65 3c 77 91 58 bd 92 36 92 3f 35 df 08 bf
       0.014003682 -0.0528731 1.1422904 -0.53465587
000330 20 8e b8 3d c5 aa 19 bf 37 7b 80 3d 70 66 8f 3d
       0.09011483 -0.600262 0.06273501 0.0700196
000340 7b 4d 79 3f 79 78 e9 bf e2 53 d6 3d bc f3 da be
       0.9738385 -1.823989 0.10465218 -0.4276408
000350 92 33 05 3f ae da aa 3e be ab 2a bf f7 cb ca 3e
       0.52031815 0.33369964 -0.6666831 0.39608738
000360 a4 a8 99 bf d8 bd 17 3f 15 a5 97 3f 33 0e a5 bf
       -1.200459 0.59274054 1.1847254 -1.2894958
000370 46 1d 97 bf 44 a8 45 3f 8f 13 1a 3f bc 6a b0 be
       -1.1805809 0.7720988 0.60186094 -0.34456432
000380 4e 89 9f bd 10 cb 45 bf f7 da 91 bf 7f 0a 55 3f
       -0.07789861 -0.77262974 -1.1394948 0.8321914
000390 f8 24 6d bf 82 9f 02 bf f4 23 3e 40 33 5d 04 40
       -0.92634535 -0.5102464 2.9709444 2.0681884
0003a0 b3 82 a0 bf 8f 16 aa 3f 25 92 be be a9 fd 28 bf
       -1.2539886 1.3288134 -0.37220874 -0.66012055
0003b0 94 e2 7b bf d0 0d 62 bf d3 2f 1e be da c9 79 bf
       -0.98392606 -0.88302326 -0.15447931 -0.97573626
0003c0 50 09 af bf 24 8e 58 be 79 25 97 3d dc eb a1 bf
       -1.3674717 -0.21147972 0.07380194 -1.2650104
0003d0 9e 19 d3 bf df e6 e2 3d b4 82 3b 3f 9f 0c 23 be
       -1.6492193 0.110791914 0.7324631 -0.15922783
0003e0 ec 45 3a bc 8f 25 b8 3f 33 0e 56 bf a6 71 d8 be
       -0.01136921 1.4386462 -0.83615416 -0.42274207
0003f0 74 00 6c be e4 88 12 40 83 78 26 bf a1 3d 67 3f
       -0.23047048 2.2896051 -0.65027636 0.90328413

Ma.weight f4 [276, 100]
000000 bc df 72 bf 3e cf ec be 15 c6 03 40 9a 74 7c 3f
       -0.9487264 -0.46251863 2.058965 0.9861542
000010 9c 3c 2f 3f db 74 a7 3e 13 34 cf 3e b1 42 86 3e
       0.6845186 0.3270634 0.40469417 0.26222757
000020 d5 17 03 bf 84 83 3d bf 68 5e 25 bf 76 00 96 bf
       -0.5120824 -0.740288 -0.6459718 -1.1718891
000030 34 dd b9 3d 32 c3 c4 3f 98 79 4b 40 02 58 05 40
       0.09075394 1.5372069 3.1792965 2.0834966
000040 43 59 94 bf 31 18 a9 3f 1c 5d 4c 3f 30 15 36 3f
       -1.158974 1.3210508 0.79829574 0.7112608
000050 be d3 b5 bf 8f 82 42 bf 4e ff 16 c0 c8 c1 74 bf
       -1.4205244 -0.75980467 -2.3593326 -0.95608187
000060 02 93 c0 3f 0d 24 12 c0 2d e8 85 bf be 59 7b be
       1.5044863 -2.2834504 -1.046148 -0.24545953
000070 cc aa e9 bc 95 40 cc bf b5 05 05 c0 55 15 17 bf
       -0.028523825 -1.5957209 -2.0784733 -0.59016925
000080 e2 7b fb be 11 18 1e bf db 39 8e 3e b6 af 4a bf
       -0.49117953 -0.6175547 0.27778515 -0.79174364
000090 db 88 40 3f 82 f3 19 3f 1b 5b b9 3d 83 ff 1c 40
       0.75208825 0.6013719 0.0905058 2.4530952
0000a0 02 c1 15 c0 9c b2 35 be ce 74 e2 3e f4 e6 8f 3f
       -2.3399053 -0.17743915 0.4422974 1.1242356
0000b0 fa 96 08 3e 02 96 ff 3e 38 85 0e 40 5a 8f 16 c0
       0.13338843 0.49919134 2.226881 -2.3524995
0000c0 d3 89 cc 3e 31 d5 85 3f fd 21 d8 be af 59 d1 be
       0.39948902 1.0455686 -0.4221343 -0.40888736
0000d0 4a 1d 44 3f d5 0e 48 3f 70 12 c4 3c 6d 62 b7 bd
       0.7660719 0.7814763 0.023934573 -0.0895432
0000e0 10 f8 5b bf 6f c3 95 be 23 f9 c7 3f 48 1d 07 bf
       -0.8592539 -0.29250666 1.5622905 -0.52779055
0000f0 0e 9a 36 bf 4e b9 85 bf d6 38 43 3f d3 58 5a bf
       -0.7132882 -1.0447176 0.762586 -0.85291785
000100 6e 8b d3 3f 14 41 6d be 6f 12 c1 be 22 2a 3f 3e
       1.6526926 -0.23169357 -0.37709376 0.18668416
000110 05 75 70 3f c1 44 dd 3e 58 98 c2 be e7 ab ff be
       0.9392856 0.43216518 -0.38006854 -0.4993584
000120 8e e4 a5 3e e0 74 e5 3e 36 ca fa bf 57 53 e8 3f
       0.32400936 0.4481573 -1.959296 1.8150433
000130 35 1f 8f 3e ef 28 cd 3e 25 03 de bf 50 62 b0 3f
       0.27953497 0.40070292 -1.734471 1.3780003
000140 8a 53 f8 bd be fe 05 c0 89 51 e4 3f 04 0e b2 3d
       -0.12125309 -2.0936732 1.7837383 0.086940795
000150 35 53 05 bf c6 ed b1 be 6b e6 01 40 cb ef 81 40
       -0.5208009 -0.3475172 2.0296886 4.0605216
000160 04 e0 d6 be d1 db 1c 3f 02 99 81 bf a1 24 8e 3f
       -0.41967785 0.61272913 -1.0124819 1.1104928
000170 98 e8 37 3e 8f 5b f7 be c4 8a 51 bf 49 a3 9a 3f
       0.17959821 -0.4831204 -0.81852365 1.2081081
000180 69 1c 4b bf 76 d4 ac be 42 eb 8b 3f 98 5f 4d bf
       -0.79340225 -0.33755845 1.093117 -0.8022399
000190 ea 39 73 bf 5b 2b 31 be 88 04 02 3d 03 15 76 3f
       -0.95010245 -0.17301695 0.031742603 0.9612581
0001a0 16 4a 3b bf bd a7 f2 be 06 8b db be d7 dc 12 bf
       -0.7315992 -0.473936 -0.42879504 -0.57368225
0001b0 3b 32 42 bf 91 2e b6 3f 50 4d 50 3f 9e 7e 80 3f
       -0.75857896 1.4232961 0.8136797 1.003864
0001c0 24 85 87 bf 13 85 64 bf cc c3 0a c0 1a 66 86 3d
       -1.0587506 -0.89265555 -2.1682005 0.06562443
0001d0 91 28 10 be 1b 6f da 3f aa 7e 71 3f bc 7f 7a 3f
       -0.14077975 1.7065157 0.943339 0.9785116
0001e0 11 34 5e 3f 6c 2e 68 3f 27 09 2c bf 89 9c 1c c0
       0.867982 0.90695834 -0.67201465 -2.4470541
0001f0 52 d2 ab be 68 b1 57 3d 87 a6 83 3e f3 3c 00 c0
       -0.335589 0.052659422 0.25712988 -2.00372
000200 3f df 95 3f 2b 3b ad 3d 5e 9a 2c 3f ca fc a2 3d
       1.1708754 0.08458551 0.67423046 0.07958372
000210 8c b0 0b bf c7 2a 07 be 61 64 29 3e 6d b0 7f 3f
       -0.54566264 -0.13199912 0.16542198 0.9987858
000220 93 af 81 3e c4 90 4d 3e c2 1f 28 3f c5 1e d1 3f
       0.25329265 0.20074755 0.6567346 1.6337515
000230 7c 3b cb 3d ab ae 99 3d 9d 1d 45 bf cb cf ee 3e
       0.09923455 0.075040184 -0.7699831 0.46642908
000240 6f 36 87 3d 86 ae d3 bd 20 a6 6c 3f 48 d2 b4 bf
       0.06602179 -0.10336022 0.92440987 -1.4126673
000250 3e f3 b1 bf 6a e9 3b be 03 8c 8a bf 7e ca 92 3d
       -1.3902357 -0.18350759 -1.0823978 0.071675286
000260 1f f4 ee 3f 49 45 f0 be 0b 17 82 be 4b 9f c3 be
       1.866825 -0.4692786 -0.25408205 -0.38207468
000270 23 63 67 3f 9b 7d 3e 3f 76 c8 1e bf 85 7a 12 bf
       0.90385646 0.7441041 -0.6202463 -0.572182
000280 3d 9b 55 bf c7 94 4e bd cd 3b 0c bf bc 43 a8 bf
       -0.8344 -0.050434854 -0.5477875 -1.3145671
000290 38 5a 49 3e 31 67 49 3e a4 49 59 3e 77 14 84 bc
       0.19663322 0.1966827 0.21219498 -0.01612304
0002a0 79 78 ae bf ae a3 0e be 12 29 13 c0 62 1f 9a 3b
       -1.3630515 -0.13929626 -2.2993817 0.004703448
0002b0 5e 64 d8 be 14 66 a2 bf 16 bb c5 be 32 f0 91 3f
       -0.42264074 -1.2687402 -0.38619298 1.1401427
0002c0 59 40 97 3e 58 21 5d 3f 15 60 91 3f d7 35 ee bf
       0.2954128 0.86379004 1.1357447 -1.8610181
0002d0 19 9d 20 3f 08 b9 65 3f c9 08 9f bf 74 18 ec 3f
       0.6273971 0.8973546 -1.2424556 1.8444963
0002e0 11 7b 49 3f e8 a0 36 bf 65 6f ea be ad 9c 34 3f
       0.7870341 -0.71339273 -0.45788112 0.7055157
0002f0 58 a8 40 3f 15 d5 f7 bd 19 93 e2 be 61 65 d0 3e
       0.7525687 -0.12101189 -0.44252852 0.40702346
000300 b8 ba 81 be 80 8d 12 3e 77 a9 bf bf ec 2b 1a 3f
       -0.25337768 0.1431179 -1.4973592 0.6022327
000310 37 f4 12 3e 29 73 ab 3f 93 f3 97 bf e8 8f 90 be
       0.14350973 1.3394519 -1.1871208 -0.28234792
000320 fd f7 9f bf 85 cd 2c 3e 44 24 de bf 69 a8 3b bc
       -1.2497555 0.16875274 -1.7354817 -0.011453726
000330 41 a2 65 bf 99 98 e3 be ce c7 71 3f 2f 24 df 3f
       -0.89700705 -0.4445236 0.944455 1.7432917
000340 28 c7 c7 3e af fc 1e bf 02 48 ce be 18 a2 21 bf
       0.39019132 -0.62104315 -0.40289313 -0.6313796
000350 e3 b2 4c bd 69 91 8c bd d9 af db 3f 21 65 5b 3e
       -0.049975287 -0.06863672 1.716304 0.21425296
000360 6b e2 a3 bf f1 4a e3 be 89 96 14 bf 6f ba 91 bf
       -1.2803472 -0.44393113 -0.580422 -1.138502
000370 31 98 63 3f 2f 8d 5b bf ac 7f 5e be 77 5f 56 3f
       0.889041 -0.85762304 -0.2172839 0.8373942
000380 0e 69 a0 3f 90 40 9a 3f 66 ea ca be 49 8b 3c bf
       1.253206 1.2050953 -0.39631957 -0.7365003
000390 6c 42 c0 3f 32 c8 49 bf 2f 70 28 bf ea c4 31 be
       1.502027 -0.788211 -0.6579618 -0.17360273
0003a0 ab 6a 16 c0 81 43 11 bf 73 40 62 3e a3 a5 8c 3f
       -2.3502605 -0.5674363 0.22094898 1.0988048
0003b0 87 9b 6b bf ba f8 1b bf ea 9e 09 be cb be 56 3f
       -0.9203419 -0.609264 -0.13439527 0.83884877
0003c0 66 af 14 3f 4a ba 4d bf 22 57 9e 3e 96 c4 9d bf
       0.58080137 -0.8036238 0.30925852 -1.2325618
0003d0 d8 ba 7c bf f5 7c 93 bf 32 b4 7c bf ed 19 04 3f
       -0.987226 -1.1522509 -0.98712456 0.5160206
0003e0 d3 f9 7c 3f d9 b9 8e 3f 31 00 ef 3f 67 38 f8 be
       0.988187 1.1150466 1.8671933 -0.48480532
0003f0 f1 5a 04 40 1b ef 81 3f 9b e6 d1 bf dc 80 66 bf
       2.0680506 1.0151094 -1.63985 -0.90040374

Mb.weight f4 [94, 100]
000000 06 a5 5c bf 45 71 01 c0 50 07 ee 3f 82 d8 fa bf
       -0.86189306 -2.0225384 1.8595982 -1.9597323
000010 43 e6 14 3f 35 a8 98 3f c5 53 85 bf 0f 58 54 3f
       0.5816385 1.1926333 -1.041619 0.82946867
000020 af 42 dc 3f 66 64 81 3f 57 44 33 3f a7 0f 97 3f
       1.720785 1.0108764 0.70026153 1.1801652
000030 5c ba 3c bd c1 91 c7 be 66 3e 43 3f f1 dd d1 be
       -0.046076164 -0.3897839 0.7626709 -0.4098964
000040 c1 98 9d bf d7 1a b0 bd ea 5c 72 be 73 a9 15 c0
       -1.2312242 -0.08598869 -0.23668256 -2.3384674
000050 fb 47 86 bf 93 b0 14 40 6f 36 3b 40 c8 d1 8a be
       -1.0490717 2.3232772 2.9251974 -0.27113175
000060 8f 13 ad 3e 29 a2 c9 bd 17 92 57 bf b2 1d 33 3f
       0.33803985 -0.09845383 -0.8420729 0.69967186
000070 5a e5 24 bf 9a 8f 3e bf 58 05 0d bf 09 f3 e8 3d
       -0.6441246 -0.7443787 -0.5508628 0.1137448
000080 2c 91 21 3f 5b b0 e4 be a9 a5 19 be e4 1a 59 bf
       0.6311214 -0.446658 -0.150046 -0.84806657
000090 48 d1 0e bf b5 6d bb 3f bb a6 1e 3f 6c da d5 bc
       -0.5578809 1.4642855 0.6197316 -0.026105128
0000a0 0c e1 3b bd 7e de 9c bc 9e 71 72 be 24 1b eb 3e
       -0.04586892 -0.019149061 -0.23676154 0.45919144
0000b0 f6 e2 80 3f f5 10 41 bf 3e 49 22 be f0 35 58 3b
       1.0069263 -0.754165 -0.15848252 0.0032991134
0000c0 d5 31 b2 3f 37 53 19 3f be f8 46 3e a9 c2 ee bd
       1.3921458 0.598926 0.19430825 -0.11658222
0000d0 d2 80 0e bf b2 ab 66 be bd e1 b7 3f bd 1a 32 be
       -0.55665314 -0.22526434 1.4365765 -0.17393012
0000e0 ca ed a5 3e 1e 3f 9d 3e 3e 98 c6 3d 85 02 0a 3f
       0.3240798 0.30712217 0.09697007 0.53910094
0000f0 9e a7 d0 bf 31 75 77 3f 2f 90 12 bf fe 9a 23 bf
       -1.6301153 0.96663195 -0.57251257 -0.63908374
000100 ce 21 80 bf bc 2e 48 3e 20 52 ac 3e 68 14 6d 3f
       -1.0010316 0.19549078 0.33656406 0.9260926
000110 66 7e f6 be 3f 1f 0d bf 8a 91 86 be 4f 51 52 3f
       -0.4814331 -0.551258 -0.26282912 0.8215532
000120 fb 02 8a bf 1f fd 6e 3f c2 b9 55 3f 1b d3 1d 3e
       -1.078216 0.9335498 0.8348657 0.15412562
000130 d9 d8 2e bf 30 f3 b1 3e 47 14 19 3f 13 d9 7f 3d
       -0.68299633 0.3475585 0.59796566 0.062462877
000140 88 76 3a 3f f8 35 ba 3f 25 f3 d5 bc cd 9d b1 bd
       0.72837114 1.454772 -0.026116917 -0.08672676
000150 11 50 d6 bf de d0 a4 bf cc ee d2 be 83 64 37 bf
       -1.6743184 -1.2876241 -0.41197813 -0.71637744
000160 74 9a c4 be 53 67 e1 3f 2c 2c 7d bf f6 15 e4 be
       -0.38399088 1.7609657 -0.98895526 -0.44548005
000170 65 4c 62 bf 54 2d 15 bf c7 5b 8d be 2f 6b bc bf
       -0.8839782 -0.5827229 -0.27609083 -1.472021
000180 b9 dc f4 be f2 08 2e 3f 5c 4a 89 bd c4 5c ca 3f
       -0.47824648 0.679824 -0.06703636 1.580956
000190 cd 27 05 40 c5 e4 4c 3f aa bb f0 3e b2 c9 80 bf
       2.0805542 0.80036575 0.47018176 -1.0061553
0001a0 fa 84 26 bf 0b a1 ac 3f 8c 70 47 3e 83 84 a4 3f
       -0.65046656 1.3486646 0.19476527 1.2852939
0001b0 92 bd 08 bf e7 53 17 3f 3d 42 ce 3f b1 e6 87 3f
       -0.5341426 0.591124 1.6113964 1.0617276
0001c0 7b ca 82 3f c1 11 20 3e 96 5d 99 3f 5e 70 0a bf
       1.0218042 0.15631773 1.1981685 -0.5407771
0001d0 6f 53 60 3f be 4f 0f 40 ac b4 d5 3f fd f4 96 3f
       0.8762731 2.239242 1.6695762 1.1793514
0001e0 ee 92 f9 3f f0 d0 6b 3f 16 f1 cf 3e 21 58 df 3b
       1.9497964 0.9211569 0.4061362 0.0068159257
0001f0 38 98 87 bf bd dc 6c 3f bb b2 00 40 a8 28 81 be
       -1.0593328 0.9252432 2.0109088 -0.2522633
000200 00 48 de be 22 15 a1 3e 6d fe e9 bf 16 59 a4 3f
       -0.43414307 0.31461436 -1.828077 1.2839687
000210 89 73 90 bf ce 6a 11 3f 56 27 8d 3f 7f db 77 3e
       -1.1285259 0.56803596 1.1027629 0.24204825
000220 92 10 8a bf 28 cd 76 bf 34 7f bc bf 17 ea e2 bf
       -1.0786307 -0.96406794 -1.4726319 -1.7727689
000230 7c 9f 41 be fd 80 ef bf 1c 07 9d 3f 74 54 c8 be
       -0.18908495 -1.8711239 1.2267795 -0.39126933
000240 10 a3 67 3f 6e 3e c3 3e cd 27 59 3d 2e d9 44 bf
       0.9048319 0.38133568 0.053016473 -0.7689389
000250 72 b2 0f 40 f1 73 82 bf d8 ff 0e c0 bb 6c ae bf
       2.2452664 -1.0191633 -2.2343655 -1.3626932
000260 7f 17 a7 3f 1b 9b 4b 3f 85 5d a2 3f 2a 3b a8 bf
       1.3054045 0.7953355 1.268479 -1.3143055
000270 bc 2f 66 3f 21 c0 d8 3f f4 2d da 3e e5 b4 bb bf
       0.89916587 1.6933633 0.42613184 -1.466458
000280 a6 f4 ae bf 74 12 ad bf cf 3b e9 3e 31 9e fa 3e
       -1.3668411 -1.3521256 0.45553443 0.48948815
000290 69 f2 0b bf 21 92 ed be 7b 58 8b bf 3b 51 37 3e
       -0.54666764 -0.4640055 -1.0886377 0.1790208
0002a0 0b 91 06 40 76 57 58 bf c4 79 9f 3f d9 f4 32 3f
       2.1026027 -0.84508455 1.2459035 0.6990486
0002b0 c0 b4 b5 be 71 58 07 bf 6c db 87 bf a5 b8 3c bf
       -0.35489464 -0.52869326 -1.0613837 -0.73719245
0002c0 67 4a 9e 3e 5c 74 9d bc f7 80 24 bf d1 74 d1 bf
       0.3091614 -0.019220524 -0.64259285 -1.6363775
0002d0 62 a6 36 3f 30 78 55 3f 60 ad 07 3f e3 ee 06 40
       0.7134763 0.83386517 0.52998924 2.1083305
0002e0 aa 0f ac bf 91 f1 d2 3f 5b f0 f7 3f 14 ad ae bd
       -1.344228 1.647997 1.9370226 -0.08529106
0002f0 f7 4f be bd 04 9a 04 40 56 00 14 bf 93 ac 62 3f
       -0.09292596 2.0719004 -0.5781301 0.8854458
000300 2a a5 fb 3d 0c df e8 3f ce 55 15 be 2e 69 39 3f
       0.12287362 1.8193069 -0.14583513 0.72426116
000310 3b b8 be bf 44 85 bd 3e 5e 70 fb 3f 0a 5b 4a 3d
       -1.4899973 0.37015736 1.9643667 0.049403228
000320 56 3f 56 bf d6 5e d2 3f 1a e6 80 bf 5f 64 93 bd
       -0.8369039 1.6435192 -1.0070221 -0.07196879
000330 40 58 73 3e d2 c4 f7 be 0c a6 69 bc 81 2e a0 3e
       0.23764133 -0.4839235 -0.01426078 0.3128548
000340 de 96 94 3c da ac 14 be ee b7 bc be 87 3d 82 3f
       0.018138345 -0.14519063 -0.36859077 1.0175027
000350 cb df 0f c0 54 8d d4 bf 31 dc ab 3d 37 62 14 3a
       -2.2480342 -1.660563 0.083916076 0.0005660387
000360 f4 41 80 be da 73 e4 bc bd d2 f4 be d5 09 34 3f
       -0.25050318 -0.027887274 -0.4781703 0.703275
000370 2b 48 b3 bf dc ad ab bf 74 19 a6 be a1 e8 95 3e
       -1.4006399 -1.3412433 -0.32441294 0.29279044
000380 93 20 94 3e ce 73 4c 3f 04 e6 e3 be a7 06 62 3f
       0.28931102 0.79864204 -0.44511425 0.882914
000390 8a 7a 11 bf 51 c9 dc 3d da 60 32 be f5 9b 7a be
       -0.56827605 0.107805856 -0.17419758 -0.24473555
0003a0 b1 23 be be 07 57 90 bf 8e 5d a1 bf 07 4a a9 3d
       -0.37136605 -1.1276559 -1.2606676 0.08266073
0003b0 80 f0 9e be dc b7 c0 3f c6 e1 ed bc 99 22 b3 3f
       -0.31042862 1.505611 -0.029038321 1.3994933
0003c0 49 1e 06 bf ce 5b b3 bf 9a 5f 81 3f df 8e a4 bf
       -0.5238996 -1.4012392 1.01073 -1.2856101
0003d0 7c 0e 49 bf 52 33 99 3e b8 47 8e bf a9 6c 98 3f
       -0.78537726 0.29921967 -1.1115637 1.190816
0003e0 5c 76 9c bf ef 0d f1 bc 75 fe 59 3f 20 8f 84 bd
       -1.222362 -0.02942559 0.85153896 -0.064726114
0003f0 95 d9 0f bf 29 40 5d bf 5a 72 1f bf 35 6e 0a 3f
       -0.5619138 -0.86426026 -0.6228386 0.5407441

E.weight f4 [398, 100]
000000 ad 0d 29 bf cf 52 95 bf 49 81 f5 be 42 e1 da 3f
       -0.6603649 -1.1665896 -0.479502 1.7099993
000010 ea 16 2a 3f 62 59 dc bf 28 d5 c7 bf e7 32 66 bd
       0.66441214 -1.7214777 -1.5611925 -0.056200888
000020 25 4c 02 bd 7c ef 04 c0 b9 c0 9c 3f 4f 38 ec 3e
       -0.0318109 -2.077117 1.2246314 0.4613671
000030 e7 b3 85 bf a0 0b f1 3f 6c 33 90 bf 2c 69 b3 3f
       -1.0445527 1.8831673 -1.1265693 1.4016471
000040 18 5c e6 be 67 34 24 3e 00 39 13 c0 8f ad 7d bf
       -0.44992137 0.16035615 -2.300354 -0.99092954
000050 7a 2a 44 bf d5 b3 c4 3e a1 10 9a 3e e4 84 e2 bd
       -0.76627314 0.3841845 0.30090812 -0.11060503
000060 eb 8a c3 3d c5 0f d9 bf a9 82 f2 3e b6 26 97 3f
       0.09547981 -1.6957937 0.4736531 1.1808689
000070 12 a3 f0 3f dd 47 ae be e3 3b 31 3f f2 aa 06 40
       1.8799765 -0.34039202 0.69232005 2.1041837
000080 3a c1 c7 be 89 7e 06 40 43 f1 82 bf 2d 20 bb 3f
       -0.39014608 2.101473 -1.0229877 1.4619194
000090 aa 1c 5d bf bb 5c 8c be 1c 31 b2 3f 8a 3d 51 3f
       -0.8637186 -0.27414498 1.3921237 0.81734526
0000a0 cb 67 92 3e 99 da 59 bf 70 c5 56 bf 8f d1 47 3f
       0.28594813 -0.8509918 -0.83895016 0.78054136
0000b0 7b 9c 69 bf e5 9a f6 3e 99 2a d1 be 21 55 24 c0
       -0.91254395 0.4816505 -0.40852812 -2.5676959
0000c0 a2 11 37 3e 23 23 28 bf 16 f3 b5 3e 91 75 9f 3f
       0.1787782 -0.65678614 0.35537022 1.2457753
0000d0 4d 7b 9b 3f 24 1c 38 3e 17 a8 ac be 6f 90 9c 3f
       1.2147003 0.17979485 -0.33721992 1.2231578
0000e0 63 5b 88 bf 90 ee 85 be 3b 7b 79 bf 8d b4 6a bf
       -1.0652889 -0.2615857 -0.9745366 -0.9168175
0000f0 fa 36 94 be 7b 07 2b 40 6a fa bf 3e a8 f6 a2 3f
       -0.28948194 2.6723316 0.37495738 1.2731524
000100 f8 47 b9 3f bb 97 a5 be 5b 98 83 bd de 08 bf 3b
       1.4475088 -0.32342324 -0.06425544 0.0058299145
000110 e5 b9 84 3e c4 a5 b6 bf 3c 37 ec 3e f0 29 e3 be
       0.25923076 -1.4269338 0.4613589 -0.44367933
000120 a3 8a c9 be 5b f0 ef bf 4b 93 4a 3f 52 1e 6f bf
       -0.39363584 -1.8745226 0.79131 -0.9340564
000130 42 36 a4 3f 63 c1 fe 3d db 7b fe 3d f9 06 ea 3e
       1.2829058 0.12439229 0.12425967 0.45708445
000140 38 db 46 bf db da 95 3f fc a7 8c 3f 5b c5 0a bf
       -0.7767825 1.1707414 1.0988765 -0.5420739
000150 54 45 61 bf ff 58 2c 3f 6f 55 16 3f 78 f0 66 bf
       -0.8799641 0.673233 0.5872411 -0.90210676
000160 2c 88 8d 3f 37 82 87 3f ae e2 bf bf f3 ac 6f 3d
       1.1057181 1.0586613 -1.4991052 0.058514547
000170 09 a6 59 3f 6a 65 b1 b9 04 a3 10 3f d3 4e c2 be
       0.85018975 -0.0003383563 0.5649874 -0.37950763
000180 16 7b bb bf a9 db aa be 0b e4 c8 bf f3 62 97 3f
       -1.4646938 -0.33370712 -1.5694593 1.1827072
000190 1d 93 e4 3f ab 91 bd 3f 54 06 24 40 c2 80 6a bf
       1.7857395 1.4810079 2.5628862 -0.9160272
0001a0 ff 42 f2 bf 09 30 0c 40 03 61 8a 3e b8 7d f2 3e
       -1.8926696 2.1904318 0.2702714 0.4736154
0001b0 81 9e 6c 3e b7 5e 7a be e4 57 f8 3f 44 3e c0 bd
       0.2310734 -0.24450193 1.9401822 -0.09386876
0001c0 d9 70 04 3f e9 79 af 3f cc f5 03 be a8 fd b7 bf
       0.5173469 1.3709079 -0.12886733 -1.4374285
0001d0 0a 56 39 be 18 54 9f bc ed 42 fd 3d 72 18 05 bf
       -0.18099228 -0.019449279 0.12366281 -0.51990426
0001e0 36 99 26 be 2c f5 f7 be ef 43 4d be 83 1d aa 3e
       -0.16269383 -0.4842924 -0.20045446 0.3322564
0001f0 fe 32 8c bf 04 8a e2 3e 6c f1 13 be d8 69 0c 40
       -1.0953062 0.44245923 -0.14447564 2.1939602
000200 9a a9 86 be 08 91 f4 3e 69 17 cc be 39 1b b8 bf
       -0.2630127 0.477669 -0.3986161 -1.4383308
000210 36 e8 48 c0 1b 17 01 c0 d0 54 ec be 75 28 2b 3f
       -3.139173 -2.0170352 -0.46158457 0.6685861
000220 21 79 b1 3f bf 3b f6 3d 8c 97 a5 bf b0 1b 5b bf
       1.3865091 0.120231144 -1.2936873 -0.8558912
000230 af 30 d8 3d b5 9b cc bf 76 e5 03 40 6c 0a 0a c0
       0.10556161 -1.5985018 2.0608802 -2.156886
000240 c4 91 af 3c 1b be 93 3e d6 d8 1d bd f1 ca 4d be
       0.021431811 0.28855976 -0.03853687 -0.20096947
000250 fc 8f 5f bf 37 72 ed 3f 2e 39 9d 3c a6 c4 3b 3e
       -0.8732908 1.8550481 0.019192304 0.18336734
000260 18 06 be 3e b6 20 84 3e b9 15 c0 3f e3 68 8c bf
       0.37114024 0.25806206 1.5006629 -1.0969509
000270 f6 86 6c 3e ac e4 f4 3d 02 27 06 c0 4c 5f d3 bf
       0.23098359 0.11957678 -2.0961308 -1.6513457
000280 69 f2 a1 bd d5 83 43 3f b0 b8 a2 3f 3e 42 4e bf
       -0.07907564 0.76373035 1.2712612 -0.8056983
000290 33 ec 2e 3f d5 8f c8 bf 26 9b 03 bf 71 12 0c c0
       0.6832916 -1.5668894 -0.5140861 -2.1886256
0002a0 94 94 39 3f d8 f6 8e bf db fb 86 3f 01 f1 98 bf
       0.7249234 -1.1169081 1.054561 -1.1948549
0002b0 54 5e 7f 3f 5a 68 e8 be d8 c1 34 3f fa 3d 4d bf
       0.9975331 -0.45392114 0.7060828 -0.80172694
0002c0 47 8a c2 be 28 1c 7e bf 1e 41 07 be 1e 9b d1 be
       -0.37996122 -0.99261713 -0.13208434 -0.40938658
0002d0 03 53 38 3e 08 fa af 3f ca fa 42 c0 37 be 0e 3f
       0.18000416 1.3748178 -3.046557 0.55758995
0002e0 92 43 76 3e 15 10 c2 bd 39 e5 96 be 2f d5 3c bf
       0.24049214 -0.09475724 -0.29471758 -0.7376279
0002f0 d0 5a 80 3d bc 3d 00 3c bf 37 0f 3f ad a9 32 bf
       0.06267321 0.007827219 0.55944437 -0.69790155
000300 e8 fe 96 bf 96 49 b7 bf 69 16 9f be 79 1a 46 bf
       -1.1796541 -1.4319332 -0.31071785 -0.77384144
000310 36 f2 0f 3f 34 ba ab 3f 02 56 f1 3f 17 42 9f bf
       0.5622896 1.34162 1.8854373 -1.2442044
000320 f9 6d 01 bf a2 d6 ab 3c fc 5a e1 3e e4 bb 31 be
       -0.5055843 0.020976368 0.44014728 -0.17356831
000330 05 00 0a 40 73 b5 18 3d eb a9 94 bf d4 81 30 bf
       2.1562512 0.03728242 -1.1614355 -0.689481
000340 81 b4 88 3f 5b 6a 35 be d9 f4 3a be 65 c9 8d 3f
       1.0680085 -0.17716353 -0.18257464 1.1077086
000350 6d 58 0b bf 29 ad 76 be 1a a3 52 c0 3a 25 c5 be
       -0.544318 -0.24089493 -3.291205 -0.38504964
000360 ff 58 3b 3e 8f 9f 8e 3e 27 43 8b bf 34 e1 f4 3e
       0.18295668 0.2785611 -1.0879868 0.47828066
000370 20 25 98 3f e8 2a 9c 3f ee 37 c7 be bf bd 0f bf
       1.188633 1.2200594 -0.38909858 -0.56148905
000380 db 31 f6 bf d0 0a 07 3f 2d a7 40 bf f6 13 d6 bd
       -1.9233965 0.52750874 -0.7525509 -0.10453026
000390 89 92 92 3e 59 98 fb 3f d5 08 e4 be 3c 37 9f bf
       0.28627422 1.9655868 -0.44537988 -1.2438731
0003a0 5d be d7 3d da 64 03 3f 89 00 92 3f 93 8c 92 be
       0.10534356 0.5132576 1.1406413 -0.28622875
0003b0 16 6c 94 3f 1e 95 ba 3f ff 05 b9 bf f7 e5 f3 3f
       1.1595485 1.4576757 -1.4454955 1.9054555
0003c0 38 26 a7 be 68 eb 40 3e 22 bc 5d bf a5 a4 1d 3f
       -0.32646346 0.188398 -0.8661519 0.6157935
0003d0 23 d7 e9 be 11 e3 aa 3f 19 d4 f7 bf e1 88 37 3f
       -0.4567195 1.3350545 -1.9361602 0.71693236
0003e0 85 f9 12 3d 02 87 4f 3f 13 53 99 be f8 3f f3 3f
       0.03588249 0.8106538 -0.29946193 1.9003897
0003f0 2a 9d 2c 3e 45 c9 98 3d d3 69 db 3e ca ca 83 bf
       0.16856828 0.07460264 0.42854175 -1.0296261

attn.in_proj_weight f4 [300, 100]
000000 65 92 36 3e 53 5a 16 3e fc 6a ae 3d 8f 6f 47 3e
       0.17829283 0.14682893 0.085164994 0.1947615
000010 a4 e7 01 3c 12 e4 0a be 60 a2 45 3e e3 86 da 3c
       0.007928763 -0.13563564 0.19300222 0.026675647
000020 60 1f 4f bd d6 53 df bd 10 52 9d bb 02 42 1d 3e
       -0.05056703 -0.10904662 -0.0048010424 0.15357211
000030 5e 07 b5 3d 29 5a 8b bd c9 a0 93 bd 45 0d 11 bd
       0.08839296 -0.06804306 -0.07208402 -0.035413045
000040 ed 93 19 3d 0a 3e bf bd f8 bb 6c 3a d5 43 5e 3d
       0.03749459 -0.09338005 0.0009030695 0.05426391
000050 f6 18 00 3d 5e e2 a2 3d 40 5c 3b bd 6e 17 0c bc
       0.031273805 0.07953332 -0.045742273 -0.008550508
000060 b4 19 be 3c 37 9c d4 3d 8a 53 03 bd 7f 97 dc 3d
       0.023205616 0.10381358 -0.03206209 0.10771083
000070 9a c9 0a 3c 9b 06 fe 3d 2e 10 e5 bd 8a c0 2d be
       0.008470917 0.12403604 -0.11184727 -0.16967979
000080 49 7d fb 3d 0d 29 b8 bd 95 10 a2 b9 3b b7 fd bd
       0.122797556 -0.08992205 -0.00030911402 -0.12388464
000090 17 f8 93 bb 99 74 98 bd a5 4d 8a bc 64 00 d9 3c
       -0.0045156586 -0.07444114 -0.016882727 0.026489444
0000a0 a6 de 50 be 82 a7 9f bd 1e 79 34 bd b0 c0 f6 3d
       -0.20397434 -0.077956215 -0.04406082 0.12048471
0000b0 5f 39 72 bd 77 e6 f6 3d 2d 50 d8 3d c6 b2 b5 3b
       -0.059136745 0.120556764 0.10562167 0.005544993
0000c0 64 33 ea bd 0c 92 c6 bd f8 43 c4 3d 45 29 87 3d
       -0.11435583 -0.09695825 0.095832765 0.065996684
0000d0 c0 0d 0c be 7c 11 11 3e ce 74 a7 bc 1b b2 76 3c
       -0.1367712 0.14166826 -0.020441439 0.015057112
0000e0 89 55 22 bc e1 fa 81 bd 81 04 0a 3e 30 35 d7 3c
       -0.0099080885 -0.063466795 0.1347828 0.026270479
0000f0 ae e5 05 3e e5 82 2f be 32 26 95 bb 83 22 1e be
       0.13075897 -0.17139776 -0.0045516724 -0.15442853
000100 4d 19 19 3d e1 c3 09 3b a9 3a 1e 3c 23 fc 10 3e
       0.037377644 0.0021021294 0.00965754 0.14158683
000110 9d 9a 8b bd f1 d4 84 bd bd c1 dd bd a4 81 89 bd
       -0.068165995 -0.06485928 -0.10827968 -0.0671418
000120 af 6f af bd 5d 7b 50 bc b7 e2 29 3e 1f bf 91 3c
       -0.08566224 -0.012724725 0.16590391 0.017791329
000130 29 ad b9 3d 3b a8 28 bd da 3b 3c 3d 85 69 dc bd
       0.09066231 -0.041176062 0.045955516 -0.10762314
000140 4f 51 53 3d 62 13 b1 3d c4 06 0a 3e 56 99 97 3c
       0.051591214 0.08646275 0.13479143 0.018505733
000150 b6 58 32 3e bf 8a 45 3c 45 a8 8c 3c e6 76 9a 3c
       0.17416653 0.012057005 0.01717008 0.018855523
000160 26 12 fb bc 98 84 c9 3b 0a bc 0a bd ae de c0 3d
       -0.030648302 0.0061498396 -0.033870734 0.09417473
000170 5f b4 14 3e 70 a5 0a 3e 5e 56 d4 bd 2c 2a af 3c
       0.14521931 0.13539672 -0.10368036 0.021382414
000180 65 ac 8d 3d ae 0d e2 bd cd 13 9e bd 46 68 ce 3c
       0.06917647 -0.110377654 -0.077186204 0.025196206
000190 a5 fa 34 3c 19 b8 9f 3d b1 f4 9c bd dc 77 03 bd
       0.011046086 0.07798786 -0.07663859 -0.03209673
0001a0 8e 99 0c bc 79 77 e6 3b b9 2d 50 3d 0d ee 84 3c
       -0.008581532 0.007033285 0.050824855 0.016226793
0001b0 8e cb fa 3c 16 8b 19 3d c6 ac 09 be 32 48 1b bd
       0.03061464 0.03748616 -0.13444814 -0.037910648
0001c0 a9 61 5d bd 7c cc 01 3e 22 9f 75 3d 47 7c 25 bd
       -0.054048214 0.12675661 0.059966214 -0.040401723
0001d0 46 a8 e6 3d 12 9a 3a bd 74 7b 5d 3b a7 ab 8b 3d
       0.11262564 -0.04555709 0.0033795508 0.068198495
0001e0 77 2b d2 bd 6d ce 4b 3d 41 dd a3 3d 5d c7 03 3a
       -0.102621965 0.04975741 0.08001185 0.0005026961
0001f0 5a 42 20 bd 52 7f 60 bd 0e 03 57 bd 8d 69 26 3c
       -0.039125778 -0.054808922 -0.052493148 0.010157001
000200 3d 5a f9 3d 4d 1d 4e 3d 7d c5 18 3d ee 1b 95 3d
       0.12175415 0.050320912 0.037297715 0.07280718
000210 4c 39 9a 3d 39 d1 03 bd 44 7d ef 3d 13 d3 78 bd
       0.0753046 -0.032181952 0.116938144 -0.06074817
000220 d6 b8 d3 bd 2c 18 ea bd d7 8f 82 bd 9b 39 4c 3d
       -0.10337989 -0.11430392 -0.063750915 0.049859624
000230 0b 2e 6c bd 8a f4 25 3e a9 2b d5 3c 1f 6f f5 3d
       -0.057661097 0.16206565 0.026021795 0.11984085
000240 4e 61 fe bd 01 b0 1a 3e f5 f0 1b bd d8 a4 a7 bc
       -0.12420903 0.15106203 -0.03807159 -0.020464346
000250 e3 4a 0b be 8f ab 95 bd 12 4f 96 3d a0 5f ed bc
       -0.13602786 -0.07308113 0.073393 -0.028976262
000260 da 28 85 bd 5c de db 3d 40 bf e9 bd b7 b5 fc bc
       -0.065019324 0.10735771 -0.11413431 -0.030848367
000270 83 d3 3a 3e 16 18 1c bd 45 fe 77 3c 11 74 d8 3d
       0.18244748 -0.038108908 0.015136306 0.10569013
000280 1f de 81 bd 27 54 36 be 24 ed 0d be 93 fb 44 3d
       -0.06341194 -0.17805539 -0.13859993 0.048091482
000290 b4 40 90 3d 0f 47 54 3d 3b fe 9d bd 52 df d6 bc
       0.07043591 0.05182558 -0.07714506 -0.026229534
0002a0 58 dd 8e 3d d1 21 96 bd 3e af 09 3c 48 07 0f bc
       0.06975812 -0.07330669 0.008403597 -0.008729763
0002b0 97 f5 d4 bd bf 32 08 3e 1e 3c 97 bd 63 fa b5 bd
       -0.10398405 0.13300608 -0.07384513 -0.08885648
0002c0 16 31 c1 3d 45 a7 13 bd 26 3e ac bd 15 37 7d 3d
       0.094331905 -0.036048193 -0.084102914 0.06182011
0002d0 52 da 02 bd 94 33 1e be b8 39 80 bd 35 15 0d be
       -0.031946488 -0.15449363 -0.06261009 -0.13777621
0002e0 2d 43 1e 3e ae cb ab 3c 24 c6 92 3d 6c c8 1d 3d
       0.15455313 0.020971145 0.071666986 0.038521215
0002f0 a6 51 18 3d 81 5d e4 3d d5 b2 ed bd 83 0b 4c bd
       0.03718724 0.11150647 -0.11606375 -0.049815666
000300 85 73 84 bd c9 b3 c5 bd c9 3e 24 bd a6 0d 95 bb
       -0.06467346 -0.09653432 -0.04009894 -0.004548746
000310 97 1f 9d 3d 4e 47 8d bd 14 51 e1 3d 71 01 89 3d
       0.07672041 -0.06898366 0.110017926 0.06689728
000320 f0 de 96 3d 99 03 e9 bd ac fa ee bd 60 78 bc bd
       0.07366741 -0.11377639 -0.116689056 -0.09202647
000330 6e f0 44 3e 23 8c 2a be 10 76 8f bd 0f 1d e8 bd
       0.19232342 -0.1665502 -0.070049405 -0.113336675
000340 f7 1f d3 bd 49 ae ac bd cf 69 8f 3d f3 93 7e 3c
       -0.10308831 -0.0843168 0.07002603 0.0155382035
000350 0c d9 d3 bc 27 bd a2 bc 66 13 f2 bd c1 80 25 be
       -0.025860332 -0.019865585 -0.11820106 -0.16162397
000360 fa a3 0c 3e 0d 18 04 3e 2a 16 2a 3e 45 33 29 be
       0.13734427 0.128998 0.16610017 -0.16523464
000370 63 f4 ec bd 69 ba af bd 8c f2 bf bd 80 32 36 3e
       -0.115700506 -0.08580477 -0.09372434 0.17792702
000380 75 1a 25 bd 2e 56 17 be f8 e5 33 be 94 45 8f 3d
       -0.040308435 -0.14778969 -0.17568195 0.06995693
000390 f8 34 2b 3e 51 a5 97 bd 0b 5f 6b bb 88 a7 f6 bd
       0.16719425 -0.074045785 -0.0035914804 -0.12043673
0003a0 4b 98 b8 bb 0e 57 24 be 37 37 1f be 2b 29 80 bb
       -0.005633389 -0.16048834 -0.15548407 -0.0039111576
0003b0 6f 76 8a bc ac 62 51 3c ed 37 cc bc 9c 53 a4 bc
       -0.016902177 0.012779873 -0.024929011 -0.0200594
0003c0 cf 08 1d 3d bd e2 2f be 37 62 5e bb 32 9d a2 3b
       0.03833848 -0.17176338 -0.0033933052 0.004962587
0003d0 85 62 14 bc 75 e6 a4 bd 22 3d 3a be cb f9 f2 bd
       -0.009056692 -0.08051769 -0.18187383 -0.118640505
0003e0 c4 67 54 be 51 18 0b bd 9a b7 5c be ea fe a2 3d
       -0.20742708 -0.033958737 -0.21554413 0.07958777
0003f0 71 28 91 3d c1 15 8e 3d d5 e4 87 bd 44 f8 4b be
       0.07087792 0.06937743 -0.06635443 -0.19918925

attn.in_proj_bias f4 [300]
000000 a5 b1 a3 3c 70 8d 6f 3d 92 5a 60 bc a0 0b e3 bc
       0.019982168 0.058484495 -0.013693469 -0.027715504
000010 b3 d9 61 bd a5 e3 a3 3d 8d d2 7e 3d 58 87 d1 bd
       -0.055139255 0.08002404 0.062212516 -0.10230893
000020 c4 41 6e bd f3 d1 6e 3d 2d d9 85 3d 90 f5 14 bd
       -0.058168188 0.058305692 0.065355636 -0.036367
000030 60 3c 1c 3d f3 61 b6 3c 7a 64 4e bc 58 48 72 bd
       0.038143516 0.022263503 -0.012597198 -0.059151024
000040 5a 90 13 3d 21 b1 6a bd 89 a4 59 bd dc 53 75 3b
       0.036026336 -0.05729783 -0.05313543 0.0037434017
000050 f5 6a 90 bc 41 41 0c 3d a4 db 7e bc c1 03 5f 3d
       -0.017629126 0.03424192 -0.015555296 0.05444694
000060 5b 93 c0 3c 6c d1 6f 3c ba c0 9d 3d e7 68 8a bd
       0.023507765 0.014637332 0.07702775 -0.0675829
000070 79 82 65 3d e6 24 8e bd 19 e8 0b 3d c8 2d 7a bc
       0.05603263 -0.069406316 0.034156892 -0.015269704
000080 40 f2 5d 3d ae c6 9c 3c 98 f0 d1 bb fd 18 81 3d
       0.054186106 0.019137707 -0.006406855 0.06303594
000090 77 2d 16 bd ba 33 e9 3d 10 8a 7d 3d 49 9f 79 bd
       -0.036664452 0.11386819 0.061899245 -0.06094292
0000a0 a9 ce 25 3d b7 4d 5b 3d ea be 04 3d 75 3d c4 bc
       0.04048029 0.05354091 0.032408632 -0.023955086
0000b0 1c 1c b0 3b 89 a3 51 3d 17 6a 76 3d 86 71 89 3d
       0.0053744446 0.05118135 0.06015977 0.06711106
0000c0 b4 46 06 bd 82 b2 03 3c d4 12 bb 3c 7f aa 5f 3c
       -0.03278227 0.008038165 0.022836126 0.013651489
0000d0 40 30 9a bd 66 e6 27 bd bc 1b 5a 3d 3e 95 9d 3d
       -0.07528734 -0.04099121 0.053249106 0.07694481
0000e0 17 a1 28 bc f8 02 cf bc c2 fc fc bb 0c f0 53 3d
       -0.010292313 -0.02526997 -0.0077205608 0.0517426
0000f0 08 b3 48 3c b9 34 99 bd d0 24 37 bc 52 fb db bb
       0.012249716 -0.07480759 -0.01117821 -0.0067133093
000100 4e 9c bd bc 08 a6 47 3d 7e 31 52 3d fb c6 16 bd
       -0.023145821 0.048742324 0.05131673 -0.036810856
000110 5c ec a1 3c b3 47 95 bd 0e 1d 80 bb c4 a6 36 bd
       0.019766025 -0.07289066 -0.0039097136 -0.044592634
000120 53 02 12 bc 85 ba 93 bc 01 1f 3f bc e4 23 01 bd
       -0.008911687 -0.018033275 -0.011665107 -0.03152837
000130 32 3e ba bc 3a 64 c1 3c b0 09 24 bd d8 01 39 3d
       -0.022734735 0.023607362 -0.0400483 0.045167774
000140 27 24 19 3d 60 3c ad bb 44 53 3b bd 8b a0 69 bd
       0.037387993 -0.0052867383 -0.045733705 -0.05703787
000150 87 35 b4 3d de eb b4 3c c1 6e 3b bd be 33 2f 3c
       0.08799272 0.022085126 -0.04575992 0.010693489
000160 d5 a8 42 bd 79 27 83 bc a6 94 0b bc 8c 68 a4 3d
       -0.047524292 -0.016010033 -0.008519327 0.08027753
000170 d0 41 11 bc db be 38 3b fb 62 64 bd 1a e6 de bd
       -0.008865789 0.002818993 -0.055758458 -0.10883732
000180 08 4e 7b 3d 4e 24 cb 3b 94 f2 bc bd 22 ff 0f 3c
       0.061353713 0.006199396 -0.092259556 0.008788856
000190 20 21 fc b8 0e cd 5b b8 18 81 37 39 f0 c8 e0 38
       -0.000120224664 -5.240464e-05 0.00017500331 0.0001071858
0001a0 99 72 16 39 d2 01 3d 39 71 64 ae b8 21 f1 85 37
       0.00014347806 0.00018025123 -8.315675e-05 1.596712e-05
0001b0 a4 40 2a b9 fc f4 9a b8 c9 fe a5 39 8a 5e 26 b9
       -0.00016236544 -7.388924e-05 0.00031661082 -0.00015866212
0001c0 fd 8f ad 36 f3 8c c4 b8 b3 67 1e 39 25 95 16 39
       5.172564e-06 -9.372262e-05 0.00015106685 0.00014360675
0001d0 10 f5 a8 b8 f2 50 35 39 0b 1e 2c 39 6d 2a ce b8
       -8.056511e-05 0.0001729166 0.0001641439 -9.830748e-05
0001e0 65 93 9f 38 5c b5 51 b9 7d 1f bf b8 6f 99 75 b9
       7.609165e-05 -0.00019999355 -9.113455e-05 -0.00023422179
0001f0 95 09 cc b8 85 23 7c b9 9f 1f 33 b9 d9 6e 8d 38
       -9.729263e-05 -0.00024045825 -0.0001708255 6.744051e-05
000200 31 f2 5f b9 f6 95 b7 39 85 84 e9 39 e8 32 ae b9
       -0.0002135716 0.0003501621 0.00044539958 -0.00033225794
000210 8c a0 52 b9 ef 14 44 b9 71 37 f5 38 9c 7d 83 39
       -0.00020086969 -0.00018699815 0.00011692837 0.00025079853
000220 dc e5 08 39 e5 5c ae b8 95 29 0a b9 d6 be 1d b9
       0.000130556 -8.3142695e-05 -0.00013176196 -0.00015043779
000230 92 e4 1c b9 30 17 bb 38 7d 2a 04 b9 e7 84 2f b9
       -0.00014962468 8.921174e-05 -0.00012604329 -0.0001673881
000240 d7 bc 0d b9 76 6f e3 38 b1 50 42 b9 5c 24 09 b9
       -0.00013517156 0.00010844965 -0.00018531342 -0.00013078883
000250 ce 02 2c b9 b2 17 81 b8 fb 73 7c 38 0a 1f c5 38
       -0.00016404243 -6.155613e-05 6.0189497e-05 9.3994735e-05
000260 37 ee be 38 d5 e0 05 38 bc 76 dd 38 30 a1 9f 37
       9.104277e-05 3.1919062e-05 0.00010560217 1.9029336e-05
000270 8a 34 c2 b8 7c 83 01 39 d2 d3 8c b9 43 82 42 b8
       -9.260427e-05 0.0001235138 -0.000268607 -4.637452e-05
000280 6e e1 36 38 fc 41 01 38 01 be e4 b8 ba 2c b7 37
       4.360213e-05 3.081745e-05 -0.00010907278 2.1836127e-05
000290 04 31 59 37 7d a8 4f b8 b0 43 75 38 f7 ea 92 37
       1.294562e-05 -4.9509563e-05 5.847559e-05 1.751397e-05
0002a0 85 80 17 b8 80 25 10 38 e7 5c eb 36 87 4a e4 b7
       -3.61209e-05 3.43672e-05 7.014361e-06 -2.7214423e-05
0002b0 bb 6e 13 38 fd 7b 59 38 f5 1d 31 b7 b0 07 17 b8
       3.5150657e-05 5.1852305e-05 -1.0556997e-05 -3.6008365e-05
0002c0 a8 7f 74 38 05 cb 86 38 21 8f ef 37 7a 18 8e b8
       5.8293022e-05 6.427433e-05 2.855767e-05 -6.775647e-05
0002d0 a6 8e 0d b9 69 c9 1e b9 98 f4 5d b9 c6 8f ec 37
       -0.00013499949 -0.00015143085 -0.0002116732 2.8200342e-05
0002e0 b7 08 af b8 06 38 c3 38 22 d5 fc 37 b6 fd 31 b9
       -8.3462735e-05 9.30876e-05 3.0139989e-05 -0.0001697455
0002f0 19 af 36 38 d1 96 b1 38 7d 56 05 38 ec 0b a7 38
       4.3555254e-05 8.4681094e-05 3.179022e-05 7.965401e-05
000300 6b 70 a9 38 07 46 1b b8 e5 69 cb b5 60 99 11 39
       8.0794875e-05 -3.7020098e-05 -1.5155498e-06 0.00013885414
000310 2c ba 77 b8 12 9b 9f b8 4a ed de 38 4a 04 92 b8
       -5.9062775e-05 -7.610595e-05 0.000106299834 -6.9626214e-05
000320 00 11 8f bb 58 ff 60 3c 98 a8 4c 3c 31 9c a7 bc
       -0.00436604 0.013732754 0.012491368 -0.02046022
000330 84 89 67 bc b5 68 71 3c f4 a6 82 bc d6 4f 49 3b
       -0.014131907 0.014734437 -0.01594875 0.0030717752
000340 99 fb 98 bc 94 87 0a 3b 3c 15 88 3b 1e 55 ef b9
       -0.018674659 0.002113794 0.004152922 -0.0004564905
000350 4c 76 0c 3d e1 5e b0 bb a6 70 89 3a a7 4b 67 bc
       0.034292504 -0.005382404 0.0010485842 -0.014117158
000360 d3 ca 73 3c 72 65 56 bc 29 84 9f bc dd e8 e6 3a
       0.0148799 -0.01308571 -0.019472199 0.0017617006
000370 70 15 8c 3c f0 45 34 bc bc 2f f8 bb 0f e9 61 bc
       0.017100066 -0.0110030025 -0.0075740498 -0.013788476
000380 41 a7 c1 3b 01 76 82 3b d2 29 9c bc 2d 97 54 bc
       0.005909831 0.0039813523 -0.01906291 -0.012975496
000390 53 14 87 bc 88 03 a0 ba 2b 43 ee 39 a9 09 c1 bc
       -0.016489184 -0.0012208084 0.00045444941 -0.023564177
0003a0 6e 5a 3b 3b bb c3 05 bc 0c ec 55 3c c2 2f 92 bc
       0.0028587836 -0.008164342 0.013056766 -0.017845038
0003b0 d7 33 85 bb 3c b2 1b bb cc 57 31 bc d7 2e c4 bc
       -0.0040650177 -0.002375736 -0.010824155 -0.023948116
0003c0 08 b7 21 3d a5 6a ab bb c1 4c a1 bc 76 ae 9c 3c
       0.039481193 -0.005231219 -0.01968992 0.019126158
0003d0 5d 07 1d bb 64 06 eb bc 34 45 b0 bb b7 79 8b bb
       -0.0023960688 -0.02868957 -0.0053793434 -0.004256453
0003e0 e7 06 6e bd 66 d8 3d bc f2 74 27 bc 30 f8 0d 3b
       -0.05811205 -0.011587238 -0.010220753 0.0021662824
0003f0 02 c2 b9 bb 0a c4 9b bb 63 ed 03 bd 90 20 d7 3b
       -0.0056688795 -0.0047535943 -0.03220881 0.006565161
